saved_model/mnist_model/mnist_cae_1/mnist_cae00050.pth (torch, 539651 bytes, 51 tensors)

encoder.encoder.0.conv.weight f4 [32, 1, 3, 3]
000000 1c a4 f2 bc c9 c3 20 be 42 62 f7 bd 3b 5f bf be
       -0.02961927 -0.15699686 -0.12079288 -0.37377343
000010 78 87 94 3e c0 f5 c9 3e 82 4a 9d 3d 1f 07 61 3d
       0.29009604 0.39445305 0.07680227 0.05493843
000020 9f 3e f0 be 5b 21 21 be af e2 c9 be 66 35 8a be
       -0.46922776 -0.1573538 -0.39430758 -0.26993865
000030 88 9a 00 3f d1 b4 d3 3c ea 44 02 be 18 3e d9 3d
       0.50235796 0.025843056 -0.12721601 0.106075466
000040 04 94 b4 3d 5b eb b5 bd 71 ef 09 3d bb 88 15 be
       0.08817294 -0.08882781 0.033675615 -0.1460294
000050 22 cc 19 be 0b 6f 68 be 5c 61 81 3e e6 9e 3a bd
       -0.15019277 -0.2269861 0.25269592 -0.045561694
000060 d5 8e 2c be b7 cf d0 3e ce 7f db be a7 73 0d bf
       -0.16851361 0.40783474 -0.42870945 -0.55254596
000070 1a 3e e2 3d d5 2d a7 bd ef 18 73 3e 9f 1b 29 3e
       0.11047001 -0.08163039 0.2373998 0.16514443
000080 f3 3e ad 3e 7e 4e 30 3c 66 95 b8 3d 6d 4c f0 be
       0.3383709 0.0107609015 0.090128705 -0.46933308
000090 b0 e0 82 3e 63 52 86 3e 17 95 4d 3e a0 98 7c 3e
       0.25562048 0.2623473 0.20076405 0.24667597
0000a0 0e d0 aa 3d 29 61 14 be 40 9f 73 3d 1e 4b 8e be
       0.083404645 -0.14490189 0.059478045 -0.27791685
0000b0 17 4a f1 be a3 5b c0 3c 07 3f 9a 3d 9d f7 03 be
       -0.4712684 0.023481196 0.07531553 -0.12887426
0000c0 2c 19 76 3d aa b5 aa be 0b 7b 61 be f7 23 70 3d
       0.0600826 -0.33341724 -0.22019593 0.05862805
0000d0 6b f2 90 be bc 87 89 3d 78 92 35 3c 43 df 3d 3e
       -0.2830995 0.067153424 0.011082284 0.18542199
0000e0 cf e5 2b bd b7 17 21 bd bd c2 88 3e 37 60 ff 3e
       -0.04196721 -0.039329257 0.26711074 0.49878094
0000f0 14 eb 9b be 75 53 ff be 7c 93 df bd 8d 16 38 be
       -0.30452788 -0.4986836 -0.10916802 -0.17977352
000100 87 30 e0 bd c1 7e 08 3e e4 9d 08 3e 34 6d d4 3d
       -0.10946756 0.13329603 0.1334148 0.10372391
000110 28 6f 2e 3c fb 33 0b 3e 2d 8a 86 bd cb 54 a9 3d
       0.010646619 0.13594048 -0.06569324 0.08268126
000120 15 1d be 3e 17 06 b7 be 93 c0 fe bd 5e 18 1f 3e
       0.37131563 -0.35746834 -0.12439074 0.15536639
000130 08 77 c3 be 73 ac 19 3e 20 01 9e 3e 59 1a 85 be
       -0.3817675 0.1500719 0.30860233 -0.25996664
000140 01 c1 d1 3d 29 56 0b be 33 df 36 be 84 18 4c be
       0.10241891 -0.13607086 -0.17858581 -0.19931227
000150 25 d9 16 be 27 3a f1 bd 25 cc b5 3c 06 df 97 3e
       -0.14731272 -0.1177867 0.02219207 0.2966234
000160 c3 e7 5c 3e 3a f2 8b 3e 7d 7f ee bd 15 a6 03 bf
       0.21572785 0.27333242 -0.1164541 -0.51425296
000170 82 30 68 3e f5 ef 98 bd c4 f2 36 be 8c 3a 44 bf
       0.22674754 -0.07467643 -0.17866045 -0.76651835
000180 b2 8f 0c 3f 6c cb 46 3e 0b 0d af bd 68 51 0d 3e
       0.5490676 0.19413537 -0.085474096 0.13800585
000190 da a5 0f 3e b2 2a 8e be 6e 35 31 3e 44 ed a2 bd
       0.14028111 -0.2776695 0.17305538 -0.07955411
0001a0 03 0c e0 be c8 9f b3 3e 05 36 6d 3e 94 51 98 be
       -0.43759164 0.3508284 0.23165138 -0.2974974
0001b0 cf 76 e0 be b8 96 21 bb 3d 41 86 3e 46 30 82 be
       -0.43840644 -0.0024656486 0.26221648 -0.25427455
0001c0 76 4f 61 be 5b 8c 2a 3e 5f 28 90 be 67 63 be be
       -0.22002968 0.16655104 -0.281558 -0.37185213
0001d0 36 fb e5 be ae 82 01 be e0 6b 7b bc 3b 55 03 be
       -0.4491822 -0.12647507 -0.015345544 -0.12825482
0001e0 25 55 33 be 70 91 2d 3e 7f fd 72 3b 7a dd 82 3d
       -0.17512949 0.16950011 0.0037077365 0.063898996
0001f0 47 48 bf bd cc 74 0b 3e bd eb 35 3e f8 af 97 be
       -0.09339958 0.13618773 0.17765708 -0.2962644
000200 ad 38 da be f2 c4 50 3e 4a d2 cb 3c 1e 12 9e bc
       -0.42621365 0.20387629 0.024880547 -0.019295748
000210 b0 f4 66 3d 4f c8 f0 3d ba ea 80 3e a4 fa 7c 3e
       0.056385696 0.11756956 0.25179082 0.24704987
000220 a1 f0 34 3e 2f f0 03 3f da a8 d0 be 85 e3 a1 be
       0.17669918 0.51538366 -0.40753824 -0.31618896
000230 16 53 93 be 31 c5 83 3d ea 74 46 bd 59 e9 a3 bd
       -0.28774327 0.06434096 -0.04845134 -0.08003492
000240 53 49 f4 3d fb d7 1b be c6 9a 5a 3e a2 a6 30 3e
       0.11928048 -0.15219109 0.21348104 0.17251065
000250 b8 82 98 3e c4 a3 f1 3d ee 89 95 be 98 8d ec bd
       0.2978723 0.11798814 -0.29206795 -0.11550444
000260 0f 37 20 be 54 43 65 be 3d a8 ce be f2 82 0b be
       -0.15646003 -0.22388965 -0.4036273 -0.1362417
000270 f5 11 d7 be de ed c9 bd ad af 41 3e b2 9d 0d 3e
       -0.42005888 -0.09859823 0.18914671 0.13829687
000280 9b 26 48 bd d2 dc 86 3e 55 50 b9 be 53 48 8c 3d
       -0.048864942 0.26340348 -0.361941 0.06849732
000290 05 49 95 3e 03 b4 9a be be 2e d3 3c 26 ef 84 3e
       0.29157272 -0.30215463 0.025779124 0.25963706
0002a0 bc 3a 05 be c0 12 0b 3e 75 19 9b 3e 9d f5 15 3e
       -0.13010687 0.13581371 0.3029286 0.14644475
0002b0 28 1f 09 be b5 58 b5 3e d1 31 a0 be 19 20 ab be
       -0.13390791 0.3541924 -0.31288007 -0.33422926
0002c0 fe 44 6b be 7a 32 b5 3e b1 11 db 3d 4e b1 4c 3d
       -0.22975537 0.35390073 0.10696734 0.04997378
0002d0 e7 2f 84 3d ee ac d2 be 9f ab a2 bf ee a1 91 bd
       0.06454449 -0.4114756 -1.2708625 -0.07110964
0002e0 f3 17 1d 3e 12 32 b3 bf 6c 7c 0f 3d 22 0f 9a be
       0.15341167 -1.3999655 0.035030767 -0.3008967
0002f0 2b a8 47 c0 8c 1e 46 be da fa a9 3d f9 1b a8 3d
       -3.1196392 -0.1934759 0.08299799 0.0820846
000300 18 df 23 3e a7 19 cd 3e ed 5e e7 be 3e 6e 1e be
       0.16003072 0.40058634 -0.4518961 -0.15471742
000310 98 96 a1 be d3 31 4a 3e b3 26 6b bd 64 c5 a2 be
       -0.31560206 0.19745569 -0.057409953 -0.31791222
000320 2d b2 c5 bc 64 73 9d 3e e3 ab 91 3d 61 46 5b 3e
       -0.024132812 0.307521 0.07112863 0.21413566
000330 61 3a b6 be 91 0d 1e 3e 31 6e 19 be a9 ba c4 3d
       -0.35591415 0.15434863 -0.14983441 0.09605915
000340 0a bf 0d 3e 84 f9 32 3b 89 e6 5a bd 2e 94 1d 3e
       0.13842407 0.0027309367 -0.05344251 0.15388557
000350 14 bd 96 3e a4 2f 3c 3d 08 1c e2 bb c1 d8 5e 3e
       0.2944113 0.04594387 -0.0069003142 0.21762373
000360 96 85 7b 3e 8b 9a bb 3d 9b 90 ed be c2 9e 35 3e
       0.24562678 0.09160336 -0.46399388 0.17736343
000370 a4 bc be bd 5f 9f 23 3c 82 47 ea be 12 7d e9 3d
       -0.09313324 0.0099867275 -0.4575768 0.114008084
000380 d5 09 89 3e ab 1e 5d 3e 79 c7 d2 bd 85 22 34 be
       0.26765314 0.2159373 -0.10291953 -0.17591293
000390 28 d2 de be 04 c2 5e 3e ba f6 0c 3e 4d f0 79 be
       -0.43519711 0.21753699 0.13765994 -0.24408074
0003a0 e8 59 94 3e 18 d3 c3 bc cf 06 dd 3e b0 ae d2 bc
       0.28974843 -0.023904368 0.43169257 -0.025718063
0003b0 0a 92 44 bf 89 34 e0 3e a9 68 ab 3d 0d 40 eb be
       -0.7678534 0.4379008 0.08369572 -0.45947304
0003c0 f4 ec 1f bf 17 19 31 bf 0b e8 89 bc 03 91 40 bd
       -0.62470937 -0.6917891 -0.01683428 -0.047013294
0003d0 07 be 8e be 03 85 6a 3e 6c 5b b3 be 37 3d b1 3e
       -0.27879354 0.22902302 -0.35030687 0.34617016
0003e0 14 c0 82 be 87 a9 08 3e 27 3b 36 bd 52 5d 43 bd
       -0.2553717 0.1334592 -0.044490006 -0.04769642
0003f0 d0 c1 93 3e ff 10 af bb ec d0 84 be d6 61 b9 be
       0.28858805 -0.0053426023 -0.25940645 -0.36207455

encoder.encoder.0.conv.bias f4 [32]
000000 da c5 ae 3c 6d fe 1d bc 01 43 1e bc d0 ac 4d bc
       0.021334577 -0.009643179 -0.00965953 -0.012553409
000010 00 49 54 be fc ca 82 be 79 bc 4f bd 9d 18 04 be
       -0.20730972 -0.2554549 -0.05071685 -0.12900014
000020 e0 f6 38 bd 98 fd ad bc d9 cb df 3c 51 34 00 bc
       -0.045157313 -0.021239087 0.027318882 -0.007824973
000030 2e 06 2e 3e 59 86 8a be 80 32 0b be 5a 5d cc 3b
       0.16994545 -0.27055624 -0.13593483 0.0062367143
000040 97 48 75 bc 40 3f 1b bd b1 ea 29 be 54 21 7b bd
       -0.01497092 -0.037902117 -0.16593434 -0.06131108
000050 b1 90 16 3e a0 ce cb 3c 52 60 30 bd a3 cd 0b bf
       0.14703633 0.0248788 -0.04306061 -0.5461065
000060 d0 b1 00 bd 30 9e 1f bd 18 5a 33 3d 93 2e 55 bc
       -0.031419575 -0.03896922 0.043787092 -0.013011592
000070 ac 5f ac be 9a 1c 6b be e9 ed 9e be ed ed 9c bc
       -0.33666742 -0.2296013 -0.31040886 -0.01915642

encoder.encoder.1.conv.weight f4 [32, 32, 3, 3]
000000 a4 29 ba 3c 7f 38 05 bd 84 53 a3 bc 24 a5 99 3b
       0.022724934 -0.032524582 -0.019937284 0.0046888757
000010 ae 8a 18 bd 7c b6 84 bd d7 d6 1e 3c 69 a4 be 3c
       -0.03724163 -0.06480119 0.0096947765 0.023271756
000020 2f b9 ee ba 77 66 ba bd 12 ff a4 bb db ef e5 bd
       -0.0018213148 -0.09101575 -0.0050352896 -0.112273894
000030 a4 4b 37 3c 2f fd 07 bc 06 fc 36 bc 4f 3f b8 bd
       0.011187468 -0.00830011 -0.0111684855 -0.0899645
000040 90 b7 64 bd 0b 04 1a bd d4 0e 8e ba e2 c6 56 bd
       -0.05583912 -0.037601512 -0.0010838159 -0.052435763
000050 3f fa ba bc f4 9a 80 bd a1 0f 99 bd 4e 9f a1 bc
       -0.022824405 -0.06279555 -0.07473684 -0.019729283
000060 39 4c 46 bc c8 eb 54 bd 7b 53 42 bb 99 b1 6b bd
       -0.012103134 -0.05198267 -0.002965181 -0.057542417
000070 43 c0 87 bd 19 f7 22 3b 89 da ad bb f4 3b ef bb
       -0.06628468 0.002486652 -0.0053055924 -0.007300848
000080 60 48 1a bd 61 4a 0c 3d 8d 7f 8f bd f7 39 a9 3b
       -0.03766668 0.03425062 -0.0700675 0.0051643807
000090 97 69 2e bc 66 57 57 bd 62 69 91 bc 49 20 b0 bd
       -0.010645292 -0.052573584 -0.017750446 -0.08599908
0000a0 9d d6 6f 3c e7 3a 94 bc 22 b9 fd bc 21 44 8f 3c
       0.01463857 -0.018094493 -0.030972067 0.017488541
0000b0 60 42 da bc b4 3d 1c 3c 83 96 af bc c5 a3 43 3d
       -0.026642978 0.009536196 -0.021434074 0.047763605
0000c0 a0 37 ec bc 39 6d 20 bd 02 01 e5 3c 6e fb 95 3c
       -0.028835118 -0.039166663 0.027954582 0.018308368
0000d0 5e 10 38 3d 86 db de bc db db af bc f8 16 ee bd
       0.044937484 -0.027204286 -0.02146714 -0.11625475
0000e0 d2 b6 06 3c 86 92 ff bc 2b 56 a5 3d ec 38 0f 3e
       0.008222299 -0.031197798 0.08073076 0.13986558
0000f0 11 a4 93 bc a5 be 15 bd e5 00 c5 3d 03 fc d7 3b
       -0.018022569 -0.036558766 0.09619311 0.0065913214
000100 85 81 94 bd cc 33 1b bd ad d5 2e 3d b0 68 2b bd
       -0.072512664 -0.037891194 0.042684246 -0.041847885
000110 fa d6 d6 3c c8 d0 08 3c 47 9b 1b bd bc c1 7a 3c
       0.026225556 0.008350559 -0.03798988 0.015304979
000120 ac 60 ad bd 9f 76 82 bd f6 b8 82 bd a2 48 da bb
       -0.08465704 -0.063702814 -0.06382935 -0.0066614905
000130 16 88 2e bd 19 df 04 bd b2 55 6b 3c 58 a7 be bd
       -0.04261025 -0.032439325 0.014363693 -0.09309262
000140 60 93 8d 3c e4 9e 06 3d 9a ef 70 bd c7 0e 2f be
       0.017282188 0.032866374 -0.05882225 -0.17095481
000150 4b 4c 29 3d a5 80 47 3c 37 67 df 3d 95 2d 43 bd
       0.041332524 0.012176667 0.109083585 -0.047650892
000160 8b 95 1f bc cc 8e a5 3d c1 de ac bc cc 73 d6 bd
       -0.009740244 0.08083877 -0.021102311 -0.10471305
000170 50 59 d2 bd 46 1f 25 be f4 da f6 bd 4e 55 99 3c
       -0.10270941 -0.16125211 -0.12053481 0.018717434
000180 af ce 27 bd 1e f1 f5 bc 02 84 38 bb 3d 3b ef bd
       -0.040968593 -0.0300222 -0.0028154855 -0.11681221
000190 e6 c7 e7 bd f5 3e 42 bd ce 04 6a bc 30 bb a6 bd
       -0.113174245 -0.04742332 -0.014283372 -0.08141172
0001a0 61 99 a1 bb a1 1b 79 bc 1d 24 12 bc 45 16 0d 3d
       -0.0049316143 -0.015204341 -0.008919743 0.034445066
0001b0 7e ec 23 3c a6 1c 49 bd a5 21 7c bb f9 f7 9c bd
       0.010005115 -0.049099587 -0.0038472202 -0.076644845
0001c0 f0 05 1a bc 09 c5 94 bc a1 b8 80 bd 9d d2 87 bc
       -0.00940083 -0.01816036 -0.06285215 -0.01657992
0001d0 d0 ed bc 3c 98 2f ae 3b 8b b7 62 3d 98 18 b9 bc
       0.023062617 0.005315732 0.05535082 -0.022594735
0001e0 16 5f ea 3c 35 05 18 3d 03 44 3c 3d 6a a0 ef 3c
       0.028609794 0.03711434 0.0459633 0.029251296
0001f0 3a 23 67 bd 24 f7 1c 3c 06 48 4e bd b2 df bd bd
       -0.05643008 0.009580407 -0.050361656 -0.09271182
000200 26 a4 b1 bd 3c 63 3a 3b 3f f2 de bd f6 4e 41 3c
       -0.08673887 0.0028440496 -0.108860485 0.011798611
000210 1a 69 4b bd 39 e8 9a bd fa 9f d7 bc 89 5f 5f 3d
       -0.04966078 -0.07563824 -0.0263214 0.05453447
000220 e8 fc d0 bd db b5 f6 bc 98 6d 0c be 70 79 25 be
       -0.10204488 -0.030116012 -0.13713682 -0.16159606
000230 2f 39 ea 3c 24 7d 97 bb 33 9d 9e 3d f6 26 5e 3c
       0.02859172 -0.004623072 0.07744827 0.013559094
000240 23 4f 26 3d 2b 26 97 bd ad 55 bb 3c 58 e5 4d bd
       0.040602814 -0.07380327 0.022868002 -0.050267547
000250 21 01 18 bd 87 68 02 bd d5 fe de bc 02 10 f3 bd
       -0.03711045 -0.031837966 -0.027221123 -0.118682876
000260 5a cc b5 bd d6 45 c9 bc 69 bc b7 b9 56 00 e3 bd
       -0.088768676 -0.024569433 -0.00035044856 -0.110840484
000270 3b 4b 94 bd 27 67 9e bd 10 f3 56 bb 9a 60 01 be
       -0.072409116 -0.077345185 -0.0032798685 -0.12634507
000280 78 08 c4 bd b2 a5 bc bd 62 5f a4 bd 0e 78 5c 3c
       -0.09571928 -0.092112914 -0.08026005 0.013456358
000290 bc 60 22 bd fd 73 cd 3c 9d e7 45 bd 9d 17 6d bc
       -0.039643034 0.025079722 -0.048316587 -0.014470962
0002a0 ce fb ff bd a9 35 fd bd 0b 4e 80 3d 31 e5 65 bd
       -0.124992 -0.123637505 0.062648855 -0.056126777
0002b0 ab 57 6b bb 9c b3 08 3d 42 74 57 3c 6e f8 50 bd
       -0.0035910408 0.033374414 0.013150277 -0.05101817
0002c0 f0 67 9a bd be 82 15 bd 28 fa fb 3c 3f 41 c8 3a
       -0.07539356 -0.03650164 0.030758932 0.0015278234
0002d0 fd 32 87 ba 4a 68 08 bd e1 ae fb bc e4 3c c6 bd
       -0.0010314878 -0.033302583 -0.030723037 -0.09679583
0002e0 10 85 88 bd 49 62 96 bd f1 30 c0 bd 0b 49 2a bd
       -0.06666005 -0.07342965 -0.09384335 -0.041573565
0002f0 12 52 02 be ed 3f a4 3c 30 93 16 3d 63 91 9c bd
       -0.1272662 0.020050013 0.036761463 -0.07644918
000300 f1 41 93 bd 56 d9 5e bd c6 52 4b bd 89 fc fe 3c
       -0.07190312 -0.054406486 -0.049639486 0.031126278
000310 13 cb 54 bd 31 8b c6 b9 8e 74 8c 3c eb 4d 58 bd
       -0.05195148 -0.0003786921 0.017145421 -0.052808683
000320 87 7c b4 3c 3b e2 62 bd 31 0d b4 bc d6 f7 16 bc
       0.022032036 -0.05539153 -0.021978946 -0.009214362
000330 7f 38 28 bd 5a 0f dd bc a0 58 6a bd 81 b1 4d bc
       -0.041069504 -0.02698486 -0.057213426 -0.012554527
000340 e0 e3 66 bd 1e 5b f4 3c 18 ff 27 bc 7c 42 99 bc
       -0.056369662 0.029828604 -0.01025369 -0.01870846
000350 0a 95 f3 bc 9f ce ae 3c 5c 49 d4 bc ef a6 23 3d
       -0.029734153 0.021338759 -0.025913887 0.039954122
000360 29 43 2a 3b 76 a4 d5 bb 51 bb 4b bd 96 3e 16 bd
       0.0025979972 -0.0065198494 -0.049739186 -0.03668078
000370 8f 59 96 bd 29 cb 66 bc a6 14 62 3c 93 a5 86 3c
       -0.07341301 -0.014086523 0.013798868 0.016436374
000380 2c 37 22 bd bc 43 34 bd b5 28 b8 bc d5 43 72 bd
       -0.039603397 -0.04400991 -0.022480348 -0.05914672
000390 60 cc 14 3b 6a ed 30 bd 3c b5 1c 3d 9a 4c 8e 3b
       0.0022704825 -0.043195166 0.038258776 0.0043426277
0003a0 52 04 4e bd 4b e4 40 b8 04 ba 89 bd 92 ea 8c bd
       -0.05029709 -4.598898e-05 -0.06724933 -0.06880678
0003b0 4d 40 fc 3c 38 20 a6 bd 4f 13 98 3a c4 f9 af bd
       0.03079238 -0.08111614 0.0011602434 -0.08592561
0003c0 ec 54 22 bd 18 04 a1 3c 00 a5 ac 3b ae ef 7a bd
       -0.03963177 0.019655272 0.005268693 -0.061263733
0003d0 22 f4 47 bc 2a 38 9f bd ad 0e f5 bc dc 3c 0b 3d
       -0.012204202 -0.07774384 -0.029914225 0.033993587
0003e0 24 7c 1d bc a2 af dc 3c 4b e3 96 bc 4a 86 98 3c
       -0.009612117 0.026939217 -0.018418929 0.018618722
0003f0 fb 3e 6f bd ca 0d c9 bc 15 2f 29 3d 5b 0e 0a 3d
       -0.058409672 -0.024542708 0.041304667 0.033705097

encoder.encoder.1.conv.bias f4 [32]
000000 05 6d ac bd 68 d3 4a 3d fd 2d d3 3c a7 54 66 3c
       -0.08419231 0.04951802 0.025778765 0.014058269
000010 54 7d 9a 3d 63 1b 9c bc d7 e0 c4 3d 86 82 9c 3d
       0.07543436 -0.019056028 0.09613197 0.07642083
000020 0d 3e cf 3c 8c e1 b8 bc 0c b5 3a bd 77 78 05 3d
       0.025298143 -0.022568487 -0.045582816 0.032585587
000030 98 82 bf bd 36 ad 76 bd 17 ec 73 bd 35 b2 e5 3d
       -0.09351081 -0.06022378 -0.059551325 0.11215631
000040 e2 10 1f 3e 9e c4 e8 bc 55 5d 19 3e e4 8f 49 3e
       0.15533784 -0.028414067 0.1497701 0.19683796
000050 7e c5 27 3d 0d 73 5b bc a1 ce ab 3d 9b 38 48 3d
       0.040959828 -0.013394129 0.08389021 0.04888211
000060 36 1c 18 3e 83 4b 63 bc 2f af 1a 3e c0 a2 89 3d
       0.14854512 -0.013872984 0.1510589 0.06720495
000070 01 ca f8 bd c4 78 e2 3d 6a ba 2b bd 83 91 f4 bb
       -0.12147904 0.110581905 -0.041925825 -0.0074636354

encoder.encoder.2.conv.weight f4 [32, 32, 3, 3]
000000 18 2a 3b 3d 0a 09 67 bd 15 59 f8 3c b8 7c a5 bd
       0.04569444 -0.056405105 0.030315915 -0.08080429
000010 4c 41 49 bd e4 f1 44 3d e1 63 03 bd 0e 75 5c 3d
       -0.049134538 0.048082247 -0.032077674 0.05382257
000020 7e ad a8 bd 90 0d 1f 3e 94 68 9d 3d 4d e1 a4 3d
       -0.08236216 0.15532517 0.07685962 0.08050785
000030 ce b0 9f 3b 49 34 bb bc 91 ba 14 be a6 56 a8 3b
       0.0048733717 -0.02285208 -0.14524294 0.0051372824
000040 57 ad 89 bc ef c2 d0 bd 3c 72 0d 3e 69 11 81 3d
       -0.016806288 -0.10193431 0.13813108 0.06302149
000050 6e b4 a3 bc bd 3b 8b 3e f7 ad af 3d ad 0a 2e bd
       -0.019983497 0.27194014 0.08578103 -0.04249065
000060 38 9d 06 bd 02 08 9d bd 18 58 f9 3b 1c 55 0d 3e
       -0.03286478 -0.07667543 0.0076093785 0.13801998
000070 23 9a 82 bc 3a 67 61 bd 87 82 5b be e2 ca 5a be
       -0.015942639 -0.055030085 -0.21436511 -0.21366456
000080 49 c1 d7 bd bb e9 0a 3e 05 a5 5b be c0 62 ac be
       -0.10534913 0.13565724 -0.21449669 -0.3366909
000090 82 6d 6f bd 46 ac ca be 3c 4a 47 bd 5e e6 52 be
       -0.058454044 -0.3958456 -0.04865478 -0.2059569
0000a0 0d 74 94 be d3 fa 37 bd 9d 92 91 bc 92 88 82 be
       -0.2899479 -0.04491694 -0.017770106 -0.2549482
0000b0 bd 94 f6 bc b3 b5 f7 3c 31 4e 1e bd 4e db 8c 3c
       -0.03010022 0.030238008 -0.038648788 0.017194416
0000c0 89 06 f0 bb 93 a5 47 bd 1c 19 2d bd 42 73 b9 bc
       -0.007324998 -0.04874189 -0.042260274 -0.022637967
0000d0 0f c1 38 bc 3f a4 83 bc d3 6c 80 3d c6 c8 b7 bd
       -0.0112764975 -0.01606953 0.062707566 -0.08973841
0000e0 3f bf 24 3d b9 5f 4d 3d 04 09 ad 3d ed af 37 3e
       0.04022145 0.050140116 0.08448985 0.17938204
0000f0 de b1 0b be 25 88 9a bc b0 7c 67 3e ce b3 2e be
       -0.1364207 -0.018863747 0.22606158 -0.17060778
000100 fb 32 2c bd 50 dd de bd c5 41 51 be 11 fa 86 bd
       -0.042040806 -0.10882056 -0.20435245 -0.06590665
000110 b2 82 3f 3e dd 11 e9 bd 65 67 cc 3b bb f7 75 3d
       0.187022 -0.1138036 0.0062379115 0.060050707
000120 12 c1 91 3c 41 36 80 ba 5c 5b 43 bd 8e 5e a4 bc
       0.017792258 -0.0009781794 -0.04769455 -0.020064618
000130 85 51 3f 3d 5f 9b 0c 3d 88 17 0a 3d 8b c0 b5 bc
       0.046708602 0.03432786 0.033713847 -0.022186538
000140 79 d4 3e 3c d2 3d 8d be 05 8b 1b be 72 f2 f3 bd
       0.011647337 -0.27586228 -0.1518975 -0.11911477
000150 c4 e7 0b 3d b2 f1 43 3d 64 ac f6 3d 98 88 13 be
       0.034156576 0.04783792 0.120446 -0.14407575
000160 31 dc e5 3d 6b b9 e1 3b 90 78 4a bd 10 0e 97 3c
       0.11223639 0.0068885586 -0.049431384 0.018439323
000170 37 2b 5d 3d 53 92 b0 bd 97 1e 4e bd 0a bb 8e 3c
       0.05399629 -0.08621659 -0.05032214 0.017423172
000180 45 5d 28 3d d0 8e 73 3c 78 6c 07 bd c7 9e 8f be
       0.041104574 0.014865592 -0.03306243 -0.28050825
000190 cf 0e f7 bd 05 ba 37 bd f2 7b a5 3d b4 2b 58 3c
       -0.120633714 -0.044855136 0.08080281 0.013194013
0001a0 50 cb cc 3d be 9a 85 bd ed f9 45 3e 57 ee 95 3d
       0.09999716 -0.06523655 0.1933362 0.0732085
0001b0 dd fb 8e be 61 65 b4 be 94 de 47 be 03 f8 5f bd
       -0.2792653 -0.35233596 -0.195185 -0.05467988
0001c0 73 94 57 bd 26 d3 f8 be 86 8d 30 be c2 3d 69 bd
       -0.052631807 -0.48598593 -0.17241487 -0.056943662
0001d0 27 e1 df be 13 ba e2 bc 15 6f ff 3c fb 79 8d 3d
       -0.43726465 -0.027676618 0.031180898 0.069080316
0001e0 54 e9 66 bd 27 ce 8a bd da 06 10 bd 05 b6 4c 3c
       -0.056374863 -0.06777602 -0.035162784 0.012494569
0001f0 cf cc 23 bd 00 ef 31 3d c1 9e 03 bd 62 08 8b bd
       -0.039990243 0.04344082 -0.03213382 -0.06788708
000200 95 3c ff bc 39 fe 62 bd 9b b6 f2 bc 18 f2 05 3c
       -0.031156817 -0.055418227 -0.029628089 0.008175395
000210 eb d7 a3 3c 3f 1f 84 bc d6 27 92 3c c1 af c6 bc
       0.020000419 -0.01612818 0.01784126 -0.024253728
000220 c2 31 e7 3d f8 0f e2 3c 83 ee e9 bc 55 24 11 3e
       0.112887874 0.027595505 -0.028556114 0.14174016
000230 0e d1 a5 3e 46 12 7d bd c0 84 fb 3d 20 62 aa 3d
       0.3238606 -0.061785005 0.122811794 0.08319497
000240 4e 61 9f bd df e5 51 be ad 08 69 be 0a 41 21 3e
       -0.07782231 -0.20497845 -0.22757216 0.15747467
000250 d9 e6 0d 3e 3f 4a 35 3e 4c 70 84 3e 53 33 1d 3e
       0.13857593 0.17704104 0.25866926 0.1535161
000260 12 b7 66 3e 72 4f aa 3c 62 a6 8e bd a7 69 c9 bc
       0.22530773 0.020789836 -0.06965329 -0.024586512
000270 99 f2 35 3d d9 a9 23 bd 1d a7 41 3d 6b 96 88 3c
       0.044420812 -0.0399569 0.047278512 0.016673287
000280 fa dc 16 bd 44 b4 f2 3c c5 6d 85 3e 7f eb c5 3d
       -0.036831833 0.029626973 0.2606031 0.09664058
000290 18 a6 89 3d d4 f3 0b 3e f4 f1 9b 3d 8f ab 0a 3d
       0.06721133 0.13667232 0.07614508 0.033855017
0002a0 c1 0b b4 3d c1 77 6b 3e 4c 8d 33 3e 07 c2 49 be
       0.087913044 0.22994901 0.17534369 -0.19702922
0002b0 27 1f 4e be 34 14 22 bd 0e 5e 5b 3e b9 03 50 3e
       -0.20129071 -0.03957005 0.21422598 0.2031392
0002c0 6e 83 47 3e b1 d7 7f bd 71 2a 35 3c b9 ff 9a bd
       0.1948373 -0.06246156 0.011057482 -0.075683065
0002d0 dd ef dc be e3 d4 fa be f2 50 b5 be 32 c3 2c be
       -0.4315175 -0.48990545 -0.3541332 -0.16871336
0002e0 fe 8b 2c be 85 b9 4b be 2c 38 09 3e 64 f1 d7 bd
       -0.16850278 -0.19894989 0.13400334 -0.105440885
0002f0 7d 14 27 3d d8 72 b4 bd e3 66 6e be a2 20 25 be
       0.040791024 -0.08810967 -0.23281436 -0.1612573
000300 a8 d6 f8 bd f6 6b 8d be e2 be f2 3d f0 be 3f 3d
       -0.121503174 -0.2762143 0.11852814 0.04681295
000310 c9 5c 38 bf ec 89 d7 3c da 69 03 be a6 c5 2e be
       -0.7201658 0.026310883 -0.12833348 -0.17067584
000320 da 6e 0b 3c 2f b4 23 3d e5 b6 8a be f6 fd 81 3c
       0.008510316 0.03996676 -0.27092662 0.015868168
000330 ca 1a d1 bd 92 c9 64 be 60 3f be bd bc d8 a5 bd
       -0.10210188 -0.22342518 -0.092894316 -0.080979794
000340 0c 13 8c be ca 64 e8 bd 7d a4 7b 3c e8 6b d0 bd
       -0.27358282 -0.11347349 0.015359041 -0.101768315
000350 3b 88 3c bd da 9b 09 3e 63 40 5f 3b e4 7f 1e bd
       -0.046028357 0.13438359 0.0034065477 -0.038696185
000360 4e eb 24 3c 55 48 ec 3d 20 9c 1e bd cb 33 4c 3e
       0.010065867 0.11537234 -0.03872311 0.19941632
000370 20 ae 7a 3e 6f e0 c5 bb 79 54 fd 3d fe 8c c8 bd
       0.24480486 -0.0060387175 0.123696275 -0.09792517
000380 36 12 23 3d d6 e1 25 be e7 d7 a9 be 48 ed 06 be
       0.03981229 -0.16199431 -0.33172533 -0.13176453
000390 34 5c 1b bd 0b c6 ad 3d 23 e4 0d bd e9 00 2d 3e
       -0.03792973 0.08485039 -0.034641396 0.16894878
0003a0 72 1b fe be 62 1b 08 be 7e f6 19 3d b0 07 7a 3c
       -0.49630314 -0.13291696 0.03758859 0.015260622
0003b0 a5 5e 2b 3e f3 5d 2d be 7c 8b 9c be 94 04 41 bd
       0.16735323 -0.1693037 -0.30575168 -0.047123507
0003c0 16 7f df 3c e9 36 89 be d7 5a 37 bd e2 f5 88 bc
       0.027282279 -0.26799706 -0.044764366 -0.016718809
0003d0 98 ed 8f be 4b 88 fa bd f3 38 1f be 2f a3 e5 bd
       -0.28110957 -0.12233027 -0.15549068 -0.112127654
0003e0 d3 31 01 be f1 a3 56 3c 72 e4 91 be e9 9a cd bd
       -0.12616663 0.01310061 -0.28494602 -0.100393124
0003f0 76 6b 65 bd 61 3d 6f 3d 77 76 40 3d b7 de b1 bc
       -0.056010686 0.058408145 0.046987977 -0.021712644

encoder.encoder.2.conv.bias f4 [32]
000000 24 7b 6a 3e cd e0 08 3e a3 29 28 be 4f a3 ed 3d
       0.22898537 0.13367005 -0.16422133 0.11603414
000010 4d f7 33 3d c5 4e e2 bd e2 b2 37 be aa fc 0c 3e
       0.043937016 -0.1105018 -0.17939332 0.13768259
000020 4b 79 53 be e8 15 e0 bd fe 4e cb 3d 87 48 10 be
       -0.20651738 -0.10941678 0.09927176 -0.14090167
000030 c2 38 e9 3d 27 c8 5e bd 72 04 6e bd d2 19 0e 3e
       0.11387779 -0.0543901 -0.058109708 0.13877037
000040 00 86 40 3d 70 98 56 bd 67 d3 e9 bd 24 29 c8 be
       0.047002792 -0.05239147 -0.11417275 -0.39093888
000050 88 18 2d 3c e4 cf c6 bd 24 b1 03 3d cb ee b5 bd
       0.010564931 -0.09707621 0.032151356 -0.08883437
000060 10 83 c7 3d ab 5a c1 be 90 52 65 bd 90 c9 d6 bd
       0.09741795 -0.37764487 -0.05598694 -0.10487664
000070 ca 40 36 bd 15 5a de 3d c6 31 68 3d 2b 30 b0 bc
       -0.04449538 0.108570255 0.056688093 -0.021507343

encoder.encoder.3.conv.weight f4 [10, 32, 3, 3]
000000 9d c5 2f bc 62 cb f3 3d 85 21 2d bd 5d fd 0a bd
       -0.010728267 0.119040266 -0.042268295 -0.033933032
000010 d3 da 9a 3d 75 3e cf bc 75 19 b7 3c 78 ff e9 bd
       0.07561269 -0.025298337 0.022351006 -0.1142568
000020 d1 fb 93 3d 14 7b 21 bd f1 f2 fe bd 26 d4 e4 3d
       0.072257645 -0.039424017 -0.12448681 0.111732766
000030 b8 78 c2 bd fc e7 63 3e 03 bf a6 be 03 50 72 be
       -0.094956815 0.22256464 -0.32567605 -0.23663335
000040 95 2c 4b 3d 84 72 e1 bd c1 73 49 bd 58 c5 2c bd
       0.049603064 -0.1100817 -0.049182657 -0.04218039
000050 f4 59 1c 3d f4 80 0d bd e4 e1 aa 3d b1 0d 48 3d
       0.038171723 -0.034546807 0.083438665 0.048841182
000060 ca ab 17 3e 4b 14 03 3d 47 12 b2 3e 2a e4 0d 3d
       0.14811626 0.032001775 0.3477957 0.034641422
000070 ad 41 d2 3d cd 87 79 3e 7a a2 06 3e 8b f1 77 3e
       0.10266433 0.2436821 0.13147917 0.24213235
000080 61 5c 84 bc 25 2b 15 bd ee d3 53 bd 52 ad 7c 3d
       -0.016157331 -0.0364181 -0.051715784 0.06168873
000090 96 a2 bb 3d 45 fd cf 3d 51 ff 37 bd e4 cc 01 bd
       0.0916187 0.10155729 -0.044921223 -0.03168954
0000a0 2f b2 35 bd d5 ab 1d 3d 08 ba a3 3c bf 21 c2 3d
       -0.044359382 0.03849395 0.019986168 0.09479093
0000b0 91 44 54 3e 72 39 34 bd 03 eb 83 bc d6 8d a6 bd
       0.20729281 -0.044000097 -0.016103273 -0.08132522
0000c0 8c 03 7b 3c b4 20 6b 3c 19 5b b8 ba 29 94 28 3d
       0.01532067 0.014351059 -0.0014065235 0.04115692
0000d0 c9 7c 83 3d a7 ff e3 3d c3 9e 98 bd c2 64 c3 bb
       0.06420285 0.11132746 -0.074521564 -0.005962939
0000e0 59 08 12 3e 61 d3 a7 3a 4d a6 a6 3e ee a6 45 3d
       0.14260997 0.0012804085 0.32548752 0.0482549
0000f0 d0 c8 9d bc f8 e5 1d bd 2e d0 0e be af 6c 22 be
       -0.019260794 -0.038549393 -0.13946602 -0.15861772
000100 71 d5 15 be c9 cc 79 3c 3b d1 00 bf 12 d3 4a bd
       -0.14632203 0.0152465785 -0.5031926 -0.0495177
000110 e9 fa fe be ed 0a 87 3e bb 2d ed bb 5b 83 78 3c
       -0.49800804 0.26375523 -0.0072381175 0.015168036
000120 f6 1a 03 3e 96 be 98 3c 6c b7 8f bc 17 49 00 3d
       0.12803254 0.018645566 -0.017543517 0.031319704
000130 43 4d a6 3d 8c 80 41 bb 8c 70 8a bc 19 ea 33 be
       0.08120205 -0.0029526083 -0.01689937 -0.1756977
000140 d0 46 ee bd e8 97 6b 3d 29 b6 3c bc 27 76 50 ba
       -0.116346 0.057517916 -0.01151804 -0.00079521764
000150 98 99 e7 3d 9f 0e 3d 3e 00 9a 04 bc ff 2f 07 bd
       0.113085926 0.18462609 -0.008093357 -0.033004757
000160 e5 62 4a 3d 7a d0 6f be 99 69 47 be 37 05 90 be
       0.04941072 -0.23419371 -0.19473876 -0.2812898
000170 5a 97 e0 3d e1 6e 90 bd 2d 33 48 3e 30 0d 4d bd
       0.10966368 -0.070523985 0.19550772 -0.050061405
000180 e6 61 a7 bd ce 78 c8 bd b5 53 bf 3d 6c 82 05 3e
       -0.081729695 -0.09788667 0.09342138 0.13038033
000190 5f 14 01 3b 91 37 59 be f8 16 d8 bc 82 57 8b 3d
       0.001969598 -0.21212603 -0.02637814 0.068038
0001a0 81 fb b4 3d 98 f9 b3 3d 01 17 9f bd 0f b5 1e 3e
       0.08837033 0.087878406 -0.077680595 0.15498756
0001b0 2e 87 5a bd 06 eb 7c bd d3 c3 1d 3e bf ae 95 be
       -0.053351574 -0.061747573 0.15406732 -0.29234883
0001c0 90 77 27 3d 15 06 c6 3e f2 ed 5d bd bf 37 fc bb
       0.040885508 0.38676515 -0.054182 -0.007697075
0001d0 f9 ea 52 be ad c4 01 bd 56 63 aa 3c 17 71 d6 3c
       -0.20597447 -0.031681705 0.02079932 0.026176972
0001e0 90 e8 cb bc d2 8a 00 bd e4 c1 d5 3d 08 aa 80 3c
       -0.024891168 -0.03138239 0.10437372 0.015706077
0001f0 20 cd a8 3d 35 c5 01 bd f4 ed 77 bc 16 27 e9 3d
       0.082422495 -0.031682212 -0.015132416 0.11384408
000200 97 fd b3 3d 38 38 9f bd a3 ac d9 3d 2a 5d 6b 3c
       0.08788603 -0.07774395 0.10628631 0.014365474
000210 be 7f 64 3c 1c e3 85 3e 7f 02 53 be 10 a1 8a 3a
       0.013946472 0.26149833 -0.20606421 0.0010576565
000220 cc 34 06 be f4 a0 53 bd 77 17 25 be ae 9b 58 be
       -0.13106078 -0.05166717 -0.16122232 -0.21153137
000230 a6 fc 6e 3d 0c 66 8b bd b4 17 93 bd 29 73 0a 3e
       0.058346413 -0.06806573 -0.071822554 0.13520493
000240 1c 5d 13 3c 04 99 2c bc 2d 01 10 3e 0b ea a6 3c
       0.008994367 -0.010534529 0.14062949 0.020375272
000250 f8 96 34 3e bb cc 62 be 62 e4 c8 bc 0a dd db 3c
       0.17635715 -0.22148411 -0.024522964 0.026838798
000260 a1 2b 9b bd 6e c7 f2 bc 93 0f 20 3d 61 ad 20 bd
       -0.07576681 -0.029636111 0.039077353 -0.039227847
000270 27 3f 00 bd 0f ac 5e bc 05 df 05 bd bb 15 90 3d
       -0.031310227 -0.013590827 -0.03268339 0.07035395
000280 c4 53 a1 3c a0 25 0b 3c 6f 90 a1 bd 81 db 0a bd
       0.019693263 0.008492857 -0.07888877 -0.03390074
000290 b0 8b 8e bd c5 87 6b 3d 0e ea 05 3c 78 f4 c3 bd
       -0.06960237 0.057502527 0.008173479 -0.09568113
0002a0 1c 5d 5d 3d 0d f5 1f 3e 85 88 9a 3c 3a d7 5e be
       0.054043874 0.15620823 0.018863926 -0.2176179
0002b0 34 a2 99 3e db a7 95 bf c8 c5 60 3d c6 34 52 bd
       0.30006564 -1.169185 0.05487612 -0.05131986
0002c0 83 7a ce bd e1 2d 3e 3d f7 79 2a 3d db 9c 66 3e
       -0.10081961 0.046430472 0.04162022 0.22520773
0002d0 8e 92 58 3d 4e e0 52 be ea 0e 3d be fb 29 10 bd
       0.05287414 -0.20593378 -0.1846272 -0.035196286
0002e0 33 d6 ad 3d 9f 65 a7 3d 81 8f 37 be c4 55 99 3d
       0.08488121 0.081736796 -0.17925836 0.074870616
0002f0 95 37 0b 3e b9 3c 4d bd a3 77 7e bc f0 10 3d bd
       0.13595422 -0.050106738 -0.015531453 -0.04615873
000300 b8 25 cc 3b 05 a2 1e 3b b4 83 3d bd ad b7 0a bd
       0.0062300824 0.0024205458 -0.04626818 -0.033866573
000310 5c c4 49 3d 79 b5 91 bc 7d 0d 97 3c c6 8d 8a bc
       0.04925953 -0.017786728 0.018439049 -0.016913306
000320 0a 6b 61 bd 22 dd 24 bd 41 85 f9 ba 60 20 9d 3d
       -0.05503372 -0.04024995 -0.0019036905 0.07672191
000330 e6 9c 16 3e d9 50 01 3b c8 23 4f 3e 50 e3 28 be
       0.1470829 0.0019732027 0.20228493 -0.16492963
000340 30 b1 4e bc b1 89 05 3e 24 bd 81 3d 90 6f 82 3d
       -0.012615487 0.13040806 0.06334904 0.06368935
000350 d2 77 c0 bc f0 15 23 3d 4f 98 4d 3e d8 18 a3 3e
       -0.023494635 0.039815843 0.20077632 0.31854892
000360 34 b0 a7 3c 1b be 96 3d 9e 7b 52 bc bb f7 ed bd
       0.020469762 0.073604785 -0.012846855 -0.116195165
000370 77 68 67 3d 64 10 97 3d d7 79 99 3e a8 ce 29 3e
       0.05649611 0.07376173 0.2997577 0.1658274
000380 e1 cb c7 bd c6 fe 91 3d cf 18 dc 3c c2 f4 ae be
       -0.09755684 0.07128672 0.026867298 -0.3417111
000390 b4 b7 34 be 0b 92 a3 3d 1e bf ed 3d 12 91 bc be
       -0.17648202 0.0798684 0.11608718 -0.3682943
0003a0 a0 a3 16 be 8b 41 08 3e b1 00 80 3b 89 7a e3 bd
       -0.14710855 0.13306253 0.0039063324 -0.11107356
0003b0 17 0d 81 bd 0b 7b 80 bd d5 77 1e be 73 2a 6f 3d
       -0.06301325 -0.062734686 -0.154754 0.058390092
0003c0 88 b4 23 bc 3b 35 63 3d a2 db c9 3d 11 bd 60 3d
       -0.0099917725 0.055470686 0.09856345 0.054867808
0003d0 16 00 0d 3d fb 54 0b 3e db 25 8f 3e 5a a7 e3 bd
       0.03442391 0.13606636 0.2795857 -0.11115904
0003e0 06 f8 80 be 0a 15 5d 3d 60 0b 46 3d 9a 5d e8 3d
       -0.25189227 0.053975143 0.04835069 0.11345978
0003f0 76 84 86 3d 4f 4e f0 3c 82 63 56 3d 58 81 8c 3d
       0.06568234 0.029334215 0.05234099 0.06860608

encoder.encoder.3.conv.bias f4 [10]
000000 4e b7 a3 3e 76 73 2d 3e 11 95 90 3e 4b 20 7c 3e
       0.31975788 0.16938576 0.2823873 0.24621694
000010 2a 87 2c 3e 9e e8 3e 3e 94 43 a4 3e 2a e1 bc bd
       0.16848436 0.18643424 0.32082808 -0.09222634
000020 9f eb 98 3e 50 de b7 3e
       0.29867265 0.35911798

decoder.decoder.0.dconv.weight f4 [10, 32, 3, 3]
000000 71 d7 2c 3e 48 ba 70 3d 42 f9 03 3d eb 3f d6 3e
       0.1687906 0.0587714 0.032220133 0.4184564
000010 ed 9e fd 3d 63 d9 1f bf d4 1c 5e be a6 b0 f3 bc
       0.12383828 -0.6244108 -0.21690685 -0.029747318
000020 95 00 94 3e de 9d ea bd a0 f9 41 be 82 47 81 bd
       0.28906694 -0.11455892 -0.1894288 -0.06312467
000030 b7 af 3b be 9b 92 91 3d 95 d4 37 be 60 c1 c8 3c
       -0.18328749 0.07108041 -0.17952187 0.02450627
000040 e1 34 cf 3e 55 8e 12 bf df f9 06 be d7 c5 eb bd
       0.4047003 -0.5724843 -0.13181256 -0.11512344
000050 af 78 bc 3e 11 05 b7 bd 1b 77 76 3e 42 75 fb bd
       0.36810824 -0.08936513 0.24068873 -0.122782245
000060 a4 f7 0f 3e 7f 04 4d 3d 91 55 43 3e 26 86 07 3e
       0.14059311 0.050053116 0.1907561 0.13234767
000070 f7 55 64 3d da ca e2 bd 3a 84 e1 3c 2b 65 3c 3f
       0.055746045 -0.11073847 0.02752887 0.7359187
000080 47 5d d9 be 13 19 02 bd 96 d8 9d 3e c0 02 3d 3d
       -0.42453977 -0.031762194 0.30829304 0.0461452
000090 22 88 e7 3c 88 f5 a9 bd ac 24 72 be 1a b6 04 3e
       0.028263155 -0.082987845 -0.23646802 0.12960091
0000a0 d3 88 07 be 03 c4 12 bf 6d 58 1d be a0 cf 83 be
       -0.13235788 -0.5733034 -0.15365763 -0.25744343
0000b0 37 18 03 bf d7 e3 18 bc d5 4e 8a be cb a0 ad bd
       -0.51208824 -0.009331665 -0.2701327 -0.084779344
0000c0 a8 ba 12 bf 0e 3a 27 be 83 6c 0c 3f 15 9d 2c be
       -0.57316065 -0.1633074 0.54853076 -0.16856797
0000d0 0f 42 28 3e 45 a5 ec bd a7 69 96 3d b6 23 25 be
       0.1643145 -0.1155496 0.0734437 -0.16126904
0000e0 87 c5 6a bd bc f8 6c 3d 8b 40 9a bd d8 38 64 3e
       -0.057317283 0.0578544 -0.07531842 0.22287309
0000f0 9d 39 a6 3d 6c 0a 3e 3e 95 25 a1 be cc 28 43 bd
       0.081164576 0.18558663 -0.31473985 -0.04764633
000100 9c 8c 2a bd d1 9e d0 bd 35 48 ad 3c 9e 7e df 3b
       -0.041638 -0.10186542 0.021152595 0.006820514
000110 e5 53 07 bd 9e 53 f8 3c 42 8f a9 3e 33 f0 cb bb
       -0.033038992 0.03031331 0.3311711 -0.0062237023
000120 c7 7c bb 3c 11 98 80 be d6 b5 9c 3c 66 d3 0f bf
       0.022886647 -0.25116017 0.019129675 -0.56181943
000130 e9 74 f1 bc 0a ae 29 3f fe 3d 0e 3d c3 a6 00 3e
       -0.029474692 0.6628119 0.03472709 0.12563615
000140 9d cd 92 3e c1 e1 3a 3b 14 f1 ab 3e 2a 24 92 be
       0.28672495 0.0028515907 0.33582366 -0.28543216
000150 94 3e 86 3e 2f 55 82 be b1 50 9c 3e f0 a4 07 be
       0.26219618 -0.25455615 0.30530313 -0.13246512
000160 db be 90 3d e6 0d 0f be 35 d2 bd bd 1e dd af bd
       0.07067653 -0.13970146 -0.092686094 -0.08587097
000170 94 d3 56 bf c6 70 36 be c4 b0 86 be 1b d3 46 3e
       -0.8391659 -0.17816457 -0.26306736 0.19416468
000180 a3 59 fe 3d c8 ca 86 bd 69 e0 36 be e5 cf 63 3d
       0.124194406 -0.06581646 -0.17859043 0.055618186
000190 d0 8a 2f 3e 51 12 1a 3e a9 f1 82 bc f2 a2 7d bc
       0.17142797 0.1504605 -0.015984373 -0.015480744
0001a0 aa bc 49 bd 20 21 6c 3e 3f fa ac 3d 32 69 4e bf
       -0.04925219 0.23059511 0.08446168 -0.80629265
0001b0 77 d8 aa 3d 78 d9 a8 bc 94 25 67 3d f2 e6 06 3e
       0.08342069 -0.02061151 0.05643232 0.13174036
0001c0 7d c2 96 be 81 0d 38 3e 82 25 f9 bc 93 1e 76 bd
       -0.29445258 0.17973901 -0.030413393 -0.06008775
0001d0 6d ba 7b be 17 82 66 bd 19 d9 57 3d fa 8e fc bd
       -0.24582835 -0.056276407 0.052697275 -0.12331958
0001e0 68 e8 0a 3e 5a 78 bb bd f1 93 12 bd 2a 68 e3 be
       0.13565218 -0.091538146 -0.03578562 -0.44415408
0001f0 68 b7 39 bd 8e 6f 2e be 15 b0 e0 bd 0b 54 66 3c
       -0.045340925 -0.17034742 -0.10971085 0.014058123
000200 25 20 a8 3d 93 47 52 3e cc 9e c3 3c ff 69 08 3a
       0.08209256 0.20535116 0.023879431 0.0005203783
000210 00 78 94 3d 48 03 ad 3c 98 07 09 bd 74 b6 e2 3b
       0.07249451 0.021119729 -0.033454508 0.0069187228
000220 06 7d 0f 3e 08 ad 9e bd 6f 07 93 3d 43 79 48 bf
       0.14012536 -0.07747847 0.07179152 -0.7831003
000230 96 77 07 bc e5 e6 b9 bd 7c fe e6 bc 7b 57 de 3e
       -0.008268258 -0.09077243 -0.02819752 0.43426117
000240 19 bd 74 bd f1 70 c6 3d 69 bb cb be 10 9d eb bc
       -0.05975065 0.096895106 -0.3979142 -0.028761417
000250 80 9a 80 3b 2e 0a 41 bd 88 d5 11 be a6 0c 31 3e
       0.003924668 -0.04712885 -0.14241612 0.17289981
000260 66 a1 d5 bd 7a fc 65 3c 2f 16 aa bd 94 ec eb 3d
       -0.10431175 0.014037246 -0.083050124 0.11519733
000270 33 16 35 3e f9 2e de bd 3f 94 96 bd 8b d1 18 3e
       0.1768425 -0.10848803 -0.073524944 0.14923684
000280 a9 29 91 be 14 37 bd 3e 5d 07 20 be 2d 87 27 be
       -0.28352097 0.36956084 -0.15627809 -0.16360159
000290 e3 d1 46 be 86 e6 d5 bd 36 27 f6 bd c1 c1 6c 3e
       -0.19416003 -0.104443595 -0.12019198 0.23120786
0002a0 ba 52 3c bc 68 52 87 bd 87 63 1a be e7 86 38 3d
       -0.011494333 -0.066075146 -0.15077029 0.045050528
0002b0 48 bf 49 3e aa ad a0 bd 0c f3 b0 3d 37 f2 47 3d
       0.19701874 -0.07845624 0.086401075 0.04881498
0002c0 ea 39 02 3e 89 e9 c6 3d f5 e2 bb 3e c3 85 a4 3e
       0.12717405 0.09712512 0.36696592 0.32133302
0002d0 eb 6b 9d 3a a2 7a 0c be 63 53 6d 3d 95 f5 87 be
       0.0012010311 -0.13718656 0.057940852 -0.26554552
0002e0 9d a0 40 be 86 cf 97 3e cc 7b 68 be 8c 16 2a 3d
       -0.18811269 0.29650515 -0.22703475 0.04152541
0002f0 ce c5 18 3b 93 df 4f bd 75 63 19 bd e1 46 58 3e
       0.002331126 -0.050750326 -0.037448365 0.21120788
000300 be 64 c9 3e e7 d4 58 3e 51 ca cf be 3f 3c 31 3e
       0.39334673 0.21174966 -0.40584043 0.17308138
000310 d4 b2 a9 3e d0 ba a9 3e 57 f6 af 3d d1 fb ab be
       0.33144248 0.3315034 0.085919075 -0.33590558
000320 ad 27 15 3d 3e 88 41 be 25 be 20 bd 14 a6 81 3e
       0.03641479 -0.18899629 -0.039243836 0.2532202
000330 1c b9 8c bd be 97 e3 3d 16 15 b8 bd 33 40 10 3e
       -0.06871244 0.11112927 -0.08988397 0.1408699
000340 55 23 81 3e 78 1b 8a be 5c fb be 3c c0 8f ed bd
       0.2522227 -0.26974082 0.023313217 -0.11599684
000350 61 46 69 3e 4b e3 99 bd ed 1a 06 3e 77 56 6a 3e
       0.22780754 -0.07514056 0.13096209 0.22884546
000360 28 e6 48 3d 67 5d 1a 3d 0d f1 b3 3e 86 c2 00 be
       0.04904762 0.03768673 0.35144845 -0.12574205
000370 9b 64 05 3f b5 09 57 be 22 6f 0a 3e 9b 62 d5 3e
       0.52106637 -0.20999797 0.13518956 0.41676793
000380 f9 cb 82 3d 8d aa d2 3d 85 a8 a4 3a 0a 18 ca bd
       0.06386561 0.10286436 0.001256243 -0.09867866
000390 ae 00 e5 3d 78 02 51 be d4 ba aa be e8 39 49 bd
       0.1118177 -0.20411098 -0.33345664 -0.04912749
0003a0 88 ca fe bd e8 a0 17 bf af c2 b9 bc 0a 98 ef 3e
       -0.124409735 -0.592299 -0.02267584 0.46795684
0003b0 ac 88 9b be 79 b5 ab 39 39 19 3c bd 5d b0 3f bd
       -0.3037771 0.0003275087 -0.04592249 -0.046799053
0003c0 38 9d c1 be 04 f9 15 bf 31 44 85 3e 35 46 fa bd
       -0.3781526 -0.5858309 0.26028588 -0.12220422
0003d0 7e 45 2e bb ca 11 24 be 11 e5 5d be 16 43 9d bc
       -0.0026591714 -0.16022411 -0.21669413 -0.019197028
0003e0 39 9a ac 3e f5 93 e9 bd 74 ff bd 3d 79 8c 1d 3e
       0.33711413 -0.11405174 0.092772394 0.15385617
0003f0 e4 be c7 be 46 68 c2 bc 2c 9a fa be ba a9 92 bc
       -0.39012825 -0.023731362 -0.4894575 -0.017903198

decoder.decoder.0.dconv.bias f4 [32]
000000 f2 2a 58 3d 07 e8 88 3e 8f 73 4a 3e 91 ef c4 3d
       0.05277533 0.26739523 0.19770645 0.09616006
000010 ba 69 80 3e d4 5d ca bd 63 61 a4 3e b0 be 9c be
       0.25080663 -0.098811775 0.3210555 -0.30614233
000020 73 09 62 3e 67 33 f2 3d 29 e6 0e be d4 4d 60 be
       0.22073917 0.118262105 -0.13954987 -0.21904689
000030 83 dc cb 3e b0 01 78 3e 15 d9 f8 be f7 6f c9 3e
       0.39816675 0.24219394 -0.4860312 0.39343235
000040 50 11 cd 3e 37 07 36 3e 56 8e 9b 3e 60 3e 18 be
       0.4005227 0.1777619 0.3038203 -0.14867544
000050 83 2d 88 3e dd 66 9c bd 7e 6d 7a be 44 f6 8e bd
       0.26597223 -0.07636807 -0.2445583 -0.06980565
000060 72 42 8d be 73 9f 1b 3e b4 09 f7 3d 93 43 6c be
       -0.27589756 0.15197544 0.120623976 -0.23072653
000070 56 6c 2b 3e 48 bf 29 bc bd a9 91 3d 8a 9c 65 be
       0.16740546 -0.010360546 0.07112453 -0.22422996

decoder.decoder.1.dconv.weight f4 [32, 32, 3, 3]
000000 72 ca 13 bd a4 4c 5c bc 56 f5 0d bd 6c 8b b7 3d
       -0.03608174 -0.013446007 -0.0346578 0.089621395
000010 9e 9a eb 3b 07 12 c4 3e cb c0 ee bc aa 90 86 3c
       0.0071900627 0.38295004 -0.029144665 0.016426403
000020 39 bd 7d bd f0 93 88 3c e5 e9 34 3e a6 13 c1 3d
       -0.061948035 0.016672105 0.17667349 0.09427576
000030 79 0b ae 3e 27 3a 06 3e 37 3d 15 3e 8c 4a 26 3a
       0.33993128 0.13108121 0.14574133 0.0006343506
000040 b6 28 5b be 7e 8e e0 bd 46 0d 88 3e c4 27 0c be
       -0.21402249 -0.10964678 0.26572627 -0.13687044
000050 c2 df da 3c 9a 64 83 be 38 98 43 3e fc 7c b2 3e
       0.026718024 -0.2566269 0.19101036 0.3486098
000060 d6 98 21 3f 80 54 00 bf d7 ea 62 be 10 73 ac bc
       0.63123834 -0.50128937 -0.22159897 -0.02105096
000070 29 10 e0 bc ca f0 09 be 4d 8f 92 bd a3 68 33 bd
       -0.027351456 -0.1347076 -0.07156239 -0.04380096
000080 78 ec 9e bc 1f 30 08 be f7 6b f3 3c 00 39 fb bd
       -0.019399866 -0.13299607 0.029714568 -0.12266731
000090 54 5b 40 be 3b 1c a8 bc 07 c7 5d bf 4a 83 7e 3d
       -0.18784839 -0.020521274 -0.86631817 0.062136926
0000a0 6d b5 8f 3d 45 26 a9 3d 23 66 fb 3e f0 d6 92 3e
       0.07017026 0.082592525 0.49101362 0.2867961
0000b0 50 73 91 3e b1 94 1e 3e fd 91 01 be 80 e3 8f 3d
       0.2840829 0.15486409 -0.12653346 0.07025814
0000c0 19 ab 00 be a5 0f 1a 3f 3a 46 f1 3c e1 60 8c 3e
       -0.12565269 0.6018012 0.029452432 0.27417663
0000d0 dc 80 97 be ae fc 03 bf 81 81 44 be 46 ce d9 bd
       -0.295905 -0.51557434 -0.19190027 -0.10635047
0000e0 ae c8 8b 3e d6 ed bb bd b9 5f 20 3e 83 ec d3 bd
       0.27301544 -0.09176223 0.15661515 -0.103478454
0000f0 b0 24 d9 bd 0d b3 b8 3e a5 8b 9c 3e 13 64 13 be
       -0.10602701 0.36074105 0.3057529 -0.14393644
000100 9c e8 e2 3d 15 13 07 3c b4 af a7 3e 03 9a a0 bd
       0.11079523 0.008244296 0.32751238 -0.078418754
000110 88 82 64 3e 03 ff b0 be 1c 04 1b bd 48 fd a5 3d
       0.22315419 -0.34569559 -0.037845716 0.0810495
000120 41 9c ea be f7 bd 6d be ee 38 3c 3e f8 48 3c 3e
       -0.45822337 -0.23216997 0.18381092 0.1838721
000130 e8 c9 29 3e 02 46 ae bd f5 82 92 3d 97 76 09 be
       0.16580927 -0.08509447 0.07153884 -0.13424145
000140 f6 b0 ae bd 16 b9 36 3d ae 0d 53 be 50 29 1e bf
       -0.08529846 0.044610105 -0.20610687 -0.6178179
000150 0a 0c 21 3f f8 3c e3 3e 6e 53 06 3f 5d 0e 8d bc
       0.62908995 0.44382453 0.52471054 -0.017218763
000160 03 d3 00 3d 12 51 6b bd b4 2f 0d bd 81 03 1c 3e
       0.031451236 -0.05745036 -0.03446932 0.15235712
000170 23 71 2a bd 90 8a 98 3e e4 be 2a bd 43 3e fd bd
       -0.0416118 0.29793215 -0.041685954 -0.12365391
000180 5f 1a 5d 3e 55 7f 07 be 9b f3 b8 bb 41 33 8b 3e
       0.21592091 -0.13232167 -0.0056442744 0.2718754
000190 fb 5a cb 3e 99 7e dd 3e dc 59 07 bd 16 15 90 3e
       0.3971785 0.4326065 -0.03304468 0.28141087
0001a0 c9 8f 81 3e 3f ac 52 3e b6 f7 b1 be bd 00 4a 3d
       0.25305012 0.20573519 -0.347593 0.04931711
0001b0 36 f1 a9 be d7 1a be be e6 36 a9 3e fa bf 91 bf
       -0.33191842 -0.37129852 0.33049697 -1.1386712
0001c0 8f 92 e3 bd 5b 67 37 3c 18 a8 3c be f0 be 11 bf
       -0.11111938 0.011194075 -0.18423498 -0.5693197
0001d0 e6 90 40 be 1a 53 59 3e 34 41 f3 3d 83 18 16 be
       -0.18805274 0.21223107 0.11877671 -0.14657788
0001e0 47 ad c0 3d 0b aa 8e 3d 35 1b 30 be 5f 30 78 bc
       0.0940805 0.06966027 -0.17197879 -0.015148251
0001f0 b6 08 26 3c 0f ae cd 3d 63 7c 9c 3d ff 4d 7e bd
       0.010133913 0.10042965 0.076409124 -0.0620861
000200 80 48 b9 3e 22 2b a8 bd 7a 3a 8e be e6 d0 29 3f
       0.36188126 -0.08211352 -0.2777899 0.6633438
000210 04 fe b8 3d 1a bd b7 3e e6 bd 84 bd 37 ef 38 3e
       0.09032825 0.3588646 -0.06481533 0.18060003
000220 a6 d2 0e 3f 2f 3d 82 bd f8 ca 23 3e 1e 6b a3 bd
       0.55790174 -0.06359326 0.15995395 -0.07979415
000230 27 82 dc bd ac 72 3a be 00 90 3d bf 6b 4b 68 3e
       -0.10767012 -0.18207806 -0.7404785 0.2268502
000240 65 26 52 bd 32 37 57 3d 04 ef c1 bd 45 ab cc bc
       -0.051306147 0.052542873 -0.09469417 -0.024984011
000250 99 83 5e 3e 67 57 a0 3e 81 cb 9d bd 5a b3 06 3e
       0.21729888 0.31316683 -0.07704831 0.13154355
000260 c4 f6 4e 3e 96 af 53 be c8 bc 81 3e ce d4 e1 be
       0.20211321 -0.2067245 0.2533934 -0.4410767
000270 2f 9a 75 3e d6 74 b0 3c 2b 8b ea 3e d6 c4 a6 bd
       0.23984598 0.021540087 0.45809302 -0.08143012
000280 78 b8 61 be 41 0f 39 bb ff 7e 71 bd a3 3a 10 be
       -0.22043025 -0.0028237852 -0.058959004 -0.14084868
000290 33 ef 96 3c 67 47 13 3b e0 b7 8b bc f4 c6 32 3c
       0.018424606 0.002247298 -0.017055452 0.010911692
0002a0 d0 59 d1 bb fd 86 36 bd 8a a9 79 bd 30 b7 35 be
       -0.0063888803 -0.04456233 -0.0609527 -0.17745662
0002b0 fc 75 12 be 04 9a 98 be 33 f5 18 3e 43 f7 db bc
       -0.1430282 -0.29805005 0.14937286 -0.026851302
0002c0 fb 4e d3 3e 17 88 1b be 4d b2 d3 3d 28 e0 b3 be
       0.41271195 -0.15188633 0.103367426 -0.35131955
0002d0 2b 0b ca 3e ed d4 12 3e ad f3 14 be 5e f8 d1 bd
       0.39461645 0.14339037 -0.1454608 -0.102524504
0002e0 3c 57 33 3f 73 ad 54 be b9 1b 0c bd bc c7 ba be
       0.70054984 -0.2076929 -0.034206126 -0.3648051
0002f0 68 cc f6 3d 57 1e d6 3d ab 18 03 be ba 8a fd bc
       0.12050706 0.104550056 -0.12802379 -0.030949939
000300 b0 c4 37 be e7 6b 78 3e 48 e0 89 3e 9b 96 fe 3e
       -0.17946124 0.24259911 0.26928926 0.49724278
000310 92 b9 29 bc 5a a2 a0 be 10 b8 00 3d e2 87 2b be
       -0.010359185 -0.31373864 0.031425536 -0.16751054
000320 9f e4 bf bd b5 f4 1d bf ee 7f 96 3d fe 4f d0 be
       -0.09369778 -0.6170152 0.073486194 -0.4068603
000330 98 1d d1 bd a6 d4 5e bd 04 ce cd 3d ed 80 ba be
       -0.10210723 -0.054402016 0.1004906 -0.36426488
000340 a0 44 01 3f 26 15 20 3f d2 d3 34 be db 47 06 3e
       0.5049534 0.6253227 -0.17658928 0.13113348
000350 b0 0c 8b be 60 46 21 3d b2 0a e7 be 47 67 5e 3e
       -0.27158117 0.039373755 -0.45125347 0.21719085
000360 39 dd a2 3e 90 2e e3 3d 92 e4 51 3e 63 45 a1 bd
       0.31809404 0.110928655 0.20497349 -0.078745626
000370 66 e4 16 bd 7e 13 df bd 56 03 2f bd 96 2f a0 3d
       -0.03683891 -0.1089239 -0.04272779 0.07821576
000380 0d 6f 8c bd 1d e5 13 3b 19 e8 06 bf f6 ff 8b bd
       -0.06857119 0.0022566982 -0.526979 -0.0683593
000390 65 a2 c3 3e 88 58 8a be 7e a4 5e 3c 1a fe 84 bd
       0.38209835 -0.2702067 0.013589023 -0.064937785
0003a0 08 a4 d9 be 58 c0 3d bd 58 7e 4e bd 27 51 77 be
       -0.42507958 -0.04632601 -0.05041346 -0.24152051
0003b0 47 9c b3 be e6 32 20 bf 5f 2b c0 be 08 52 a8 be
       -0.35080168 -0.62577665 -0.3753309 -0.32875085
0003c0 a2 da 78 3d c6 d7 24 be f4 22 a2 3e 9e 9d 42 bf
       0.06075538 -0.16097936 0.31667292 -0.76021755
0003d0 da 0e a3 be c0 7f 89 3e d3 13 75 bd 19 06 c2 3a
       -0.31847268 0.26855278 -0.05983336 0.0014802843
0003e0 7e 07 60 3e c2 50 57 be cd 80 92 bd 19 cc 00 3e
       0.21877858 -0.210269 -0.07153473 0.12577857
0003f0 1a 3a de 3d 0d d9 0e be 35 d3 5c bd c5 5f 09 3f
       0.10850926 -0.13949986 -0.05391236 0.5366176

decoder.decoder.1.dconv.bias f4 [32]
000000 3e a5 ce bd cb b4 35 3e 53 b2 f0 3c 22 d4 49 be
       -0.10090111 0.17744748 0.029381907 -0.19709828
000010 f2 4a ff 3d fe 82 34 3e 4e 34 0e 3b 01 e4 43 3d
       0.124654666 0.17628095 0.0021698656 0.047824863
000020 91 c4 ec 3d 50 62 46 3e 35 54 f8 3d d8 be 06 3e
       0.115609296 0.1937344 0.12125436 0.13158739
000030 c6 16 07 3e 63 a2 78 3e 69 c8 f6 3d 37 cf e9 bc
       0.13192281 0.24280696 0.12049944 -0.02854119
000040 15 7f 0c 3e c1 01 18 3e a7 37 05 be 1a 47 f0 bc
       0.13720353 0.14844419 -0.13009511 -0.029330779
000050 0a c8 81 3d b5 1c 2f 3e d9 d7 dc 3d 77 2d 54 3b
       0.063369825 0.17100795 0.10783357 0.0032375732
000060 28 2b 26 3e 2a 4f 29 bc ca 8b c8 3d b7 b4 2d 3e
       0.162274 -0.010333816 0.09792288 0.16963468
000070 70 1a 8a 3d 05 21 99 3d 0f a2 07 bc 0c ad d7 3d
       0.06743324 0.07477001 -0.008278384 0.10531053
