saved_model/mnist_model/mnist_cae_1/mnist_cae00100.pth (torch, 539651 bytes, 51 tensors)

encoder.encoder.0.conv.weight f4 [32, 1, 3, 3]
00000000: 87f2 ab3d d629 a3be c4be c4bd 5605 bfbe
00000010: 7b17 563e f941 d83e 5050 203e 4e83 793d
00000020: 89b9 e9be 3789 88be 37e3 c0be 5609 8abe
00000030: 9aed ee3e b2be fc3d 0c67 12be 9e48 a7bc
00000040: 2bee e53d 2081 8bbd 43e2 323d db21 b6bd
00000050: 66cf 3abe f8b3 6bbe 11c0 973e 28b9 8fbe
00000060: f525 b2be 99c3 053f 48f0 82be b4e7 f9be
00000070: 354c 74bb 1158 c8bc 6478 8a3e 8049 5c3e
00000080: dd1d bf3e 6372 043c b60e 80bd f139 f9be
00000090: 9965 473e ea7c 593e 9fcd 063e c439 4b3e
000000a0: 1e2e e03d bac6 0ebe 405e 27bd e1e0 6bbe
000000b0: fc6a a4be a35b c03c 073f 9a3d 9df7 03be
000000c0: 2c19 763d aab5 aabe 0b7b 61be f723 703d
000000d0: 6bf2 90be bc87 893d 1648 3eba 9fd7 383e
000000e0: ab6b c6bd 8eef c4bd 0d38 9c3e 47c4 023f
000000f0: 3252 81be 1237 f0be 8ada 11be 8539 82be
00000100: e97d 11be 1ea4 0d3e 1eae b93d 1918 9b3d
00000110: b88b 13bd 6b03 a93d 1153 29be 388f e63b
00000120: 7732 a13e 11d7 97be 4e8b 19bd 9c6f 243e
00000130: b2da c8be 9fba 553d 1136 913e 42e7 4bbe
00000140: 229c 193e 0ba3 88bd 9e37 e3bd c8e0 0cbe
00000150: 31ff 43be 80f9 12be 9d60 35bd a17c 7c3e
00000160: a9f1 3b3e bbc5 633e 3d2e 3cbe c32f 62be
00000170: 3433 e13d e4ec 4cbe da13 63be 44b0 37bf
00000180: 2a0e db3e 36a5 673e 4736 d3bd 5501 d03d
00000190: a917 0c3e afb8 7bbe 313e 0d3e 8bc9 1ebd
000001a0: f7ae babe 43b0 8b3e f37e 443e 7888 79be
000001b0: ee7c cbbe 1035 a53d 2437 513e bdad 4fbe
000001c0: 28e8 95bc 1a1f 7a3d 6779 b6be 2ec1 b8be
000001d0: 4cce babe ae82 01be e06b 7bbc 3b55 03be
000001e0: 2555 33be 5ee1 d93d 1164 73bd 20ae 483a
000001f0: 5949 20be 4b9f 953d b600 063e e108 8fbe
00000200: d908 a8be 42bd 883e 1926 d03d 74c6 693c
00000210: e599 98bc 7dc9 9f3d 7eb5 743e 14c3 563e
00000220: bf76 243e 921d e53e 8fb6 b5be 8a00 b9be
00000230: e5fa 98be 15ba a43c 29cf da3c 771b 0abd
00000240: 8661 b63d d329 4dbe 34be 243e 37f8 433d
00000250: 495b e43d eae2 873c d481 62be 8337 e53b
00000260: 9030 fabd cac3 11bf 4cdf 16be 7e3a 48be
00000270: 97c7 cbbe ac0f 72bd bc96 be3d 0bcb 473d
00000280: c968 2f3c 55d4 803e 5673 8dbe b485 613d
00000290: 0a19 793e 7665 5dbe 66b4 373d 7f61 3b3e
000002a0: df70 09be a75f d53d 3f20 5b3e fc96 3a3e
000002b0: a7e0 cdbd 268d ce3e 7bae 63be 258d 10bf
000002c0: ca6f 47be 5c31 b73e a47e df3d 2c97 113e
000002d0: 76a6 98bd 8679 2bbe 6b6f aebf bcf3 9bbd
000002e0: b077 f53d f14d d0bf 89b4 163d 0677 8dbe
000002f0: 3cff 83c0 6246 8fbe 85a5 0e3e 2ba2 433e
00000300: 49b2 663e 1524 b23e a7ef 13bf 2759 fbbc
00000310: 6fe4 b0be 38b2 973e cbe7 d2bd 1b13 cbbe
00000320: 9733 a2bd 0985 d33e 843f 433e 29bf 4f3e
00000330: d5b4 d9be 00a7 9a3d f6f7 4fbe 2c4e ec3d
00000340: ba19 043e 6f23 f73c 51d1 06bd 48bd 313e
00000350: f1e6 9e3e 97e1 0b3d ca8e e53b 6c84 333e
00000360: 3fb6 563e a6ed 183e a0ce d7be b4b6 333e
00000370: abe9 2ebe f2d1 003c 53d9 d2be 68fe cf3d
00000380: 3cc3 a03e 5464 863e 9f0a ffbd 3cee 0dbe
00000390: 54c2 e3be 4977 283e 3afc 1f3e 268c 58be
000003a0: 3745 8c3e 968d aebd f789 c43e 453f efba
000003b0: 39bd 2fbf 5eb0 8e3e 072e f83b 26f8 efbe
000003c0: dd43 12bf 8746 23bf 5e3d 053c 9eca 7bbe
000003d0: bf66 8dbe 388e 8a3e 2297 c2be a5a8 fa3e
000003e0: d4e2 dabe 5b96 053e 94db 83bd a6c7 3ebe
000003f0: df16 923e ae9f 4fbb d710 86be b38d ddbe
0.08395868 -0.31867856 -0.09606698 -0.37308758 0.20907395 0.42237833 0.15655637 0.060916238
-0.45649365 -0.26667187 -0.3767335 -0.26960248 0.4666565 0.1234106 -0.14297122 -0.020420369
0.112270676 -0.06811738 0.04367281 -0.08893176 -0.18243179 -0.23017871 0.29638723 -0.2807095
-0.34794584 0.52251583 -0.25573945 -0.48809588 -0.0037276868 -0.024456056 0.27044976 0.21512413
0.3732747 0.008083913 -0.06252806 -0.48677018 0.1947235 0.21239057 0.13164376 0.19846255
0.10946296 -0.13942996 -0.04086137 -0.23035003 -0.32112873 0.023481196 0.07531553 -0.12887426
0.0600826 -0.33341724 -0.22019593 0.05862805 -0.2830995 0.067153424 -0.00072586664 0.18051003
-0.09688505 -0.09616004 0.30511513 0.51080745 -0.25258023 -0.46917015 -0.14243522 -0.2543451
-0.14208187 0.13832137 0.09066413 0.07572956 -0.036021918 0.08252605 -0.16535594 0.007036116
0.31483814 -0.2965627 -0.037486367 0.160582 -0.3922935 0.05217993 0.28361562 -0.19912437
0.15000966 -0.06671723 -0.110945925 -0.13757622 -0.19140317 -0.14352989 -0.04428159 0.24656917
0.18353905 0.22243397 -0.18377014 -0.22088532 0.10996094 -0.20012242 -0.22175542 -0.71753335
0.42784244 0.22621617 -0.10313087 0.10156504 0.136809 -0.2458217 0.13793255 -0.038766425
-0.36461613 0.27282915 0.19189052 -0.24368465 -0.3974375 0.080667615 0.2043119 -0.2028112
-0.018299177 0.061064817 -0.35639498 -0.36084884 -0.36485517 -0.12647507 -0.015345544 -0.12825482
-0.17512949 0.106386885 -0.059421603 0.0007655341 -0.1565298 0.07305773 0.13086209 -0.27936462
-0.3281925 0.26706892 0.101635166 0.014268506 -0.01862807 0.07802103 0.23897359 0.20972854
0.16060923 0.44749123 -0.35490844 -0.36133224 -0.29878917 0.020108262 0.02671011 -0.0337176
0.0890532 -0.20035486 0.16088182 0.047844138 0.11150224 0.016587693 -0.22119838 0.006995143
-0.12216294 -0.56939375 -0.14733618 -0.19553563 -0.39800712 -0.059096977 0.09306094 0.04877762
0.010706135 0.25161996 -0.27627057 0.05505915 0.24325958 -0.21620736 0.044849776 0.1829891
-0.13421963 0.10418635 0.2139902 0.18221658 -0.10052615 0.40342063 -0.22234528 -0.5646537
-0.19476238 0.35779846 0.10912827 0.14217824 -0.07453625 -0.16745576 -1.3627752 -0.07614848
0.11985719 -1.6273786 0.036793265 -0.2762987 -4.1249065 -0.27983385 0.13930328 0.19104831
0.22528948 0.34793153 -0.57787555 -0.03068216 -0.3454928 0.29628158 -0.10298117 -0.39663014
-0.07919996 0.41312435 0.19067198 0.20287766 -0.42520776 0.07551384 -0.20309433 0.115383476
0.12900439 0.030168263 -0.032914463 0.17357361 0.3103557 0.034150686 0.007005547 0.17530984
0.20967959 0.14934406 -0.4214983 0.17550164 -0.17081325 0.007862555 -0.4118143 0.10155946
0.31398952 0.2624842 -0.12453198 -0.1386041 -0.44484198 0.16451754 0.1562356 -0.21147212
0.27396557 -0.08523099 0.3838651 -0.0018253109 -0.68648106 0.27868932 0.0075738463 -0.4686901
-0.571348 -0.6377949 0.008132307 -0.24589011 -0.27617452 0.2706163 -0.3800593 0.4895679
-0.4275118 0.13045637 -0.064383656 -0.18630847 0.28533074 -0.003168087 -0.26184723 -0.4327217

encoder.encoder.0.conv.bias f4 [32]
00000000: f634 02bd 9c1d 1ebc ece1 41bd 4eae 6fbd
00000010: 5f99 30be fcca 82be d442 26bd 56f5 59be
00000020: d2e4 9bbd c16b 61bc 2c7e 313d e8bc 33bc
00000030: f878 0c3e e4d8 aabe 8dc6 3bbe 5915 8bbc
00000040: d93c c3bb 4957 d4bd 2307 1bbe 79ed 2cbe
00000050: 10f2 2c3e 912d c7bb c610 bebd 345c 28bf
00000060: b58b d1bd 4f1d c0bd 8e8e f93c 1a11 70bd
00000070: 673a afbe 5f20 73be 0404 8bbe c406 debb
-0.03178879 -0.009650614 -0.047334597 -0.05851584 -0.17246006 -0.2554549 -0.040591076 -0.21284994
-0.076120034 -0.013758601 0.043333218 -0.010970332 0.13718021 -0.333686 -0.1833746 -0.016977953
-0.0059581813 -0.10368211 -0.15139441 -0.16887464 0.16889215 -0.00607843 -0.09280543 -0.6576569
-0.10231725 -0.0938059 0.030463483 -0.05861006 -0.34224245 -0.23742817 -0.271515 -0.006775709

encoder.encoder.1.conv.weight f4 [32, 32, 3, 3]
00000000: a429 ba3c b9f4 04bd 8453 a3bc 5b50 56bb
00000010: b504 17bd 4651 84bd 7565 223c 702a bc3c
00000020: f582 baba 7766 babd 12ff a4bb dbef e5bd
00000030: 925f 223c 2ffd 07bc d7c8 28bc 4f3f b8bd
00000040: 90b7 64bd 0b04 1abd d40e 8eba e2c6 56bd
00000050: 3ffa babc f49a 80bd a10f 99bd e5ff 9fbc
00000060: 394c 46bc c8eb 54bd 7b53 42bb 99b1 6bbd
00000070: 6bc2 87bd cdfa 1e3b f932 ebbb 9ba4 57bc
00000080: 6048 1abd 5c7e 073d bc8b 8fbd 2f5d ad3b
00000090: dd78 91bc 6657 57bd 645c 92bc 4920 b0bd
000000a0: 4fec dbbb 19a3 b5bc 68d6 58bd e137 653c
000000b0: 6042 dabc b43d 1c3c 8396 afbc c5a3 433d
000000c0: a037 ecbc 396d 20bd 0201 e53c 6efb 953c
000000d0: 5e10 383d 86db debc 76bf 09bd 0de8 f8bd
000000e0: d28d 013b f2cd 00bd 6d0f 183d 6b40 b53d
000000f0: bb3f 9bbc 2f23 17bd 074a 8c3d 03fc d73b
00000100: 59a6 94bd 2a39 1bbd c654 2d3d c574 2bbd
00000110: fad6 d63c c8d0 083c 479b 1bbd 70bd 7b3c
00000120: ac60 adbd 9f76 82bd f6b8 82bd a248 dabb
00000130: 1688 2ebd d970 22bd 9eb3 603c a0e6 cfbd
00000140: 7011 123c 9d9a a93c 8f1e 9bbd 32a1 30be
00000150: 0a19 f53c 6cdd 403c c9dc d03d 16bb 44bd
00000160: bb73 25bc 5c9b a43d 5cc9 c2bc 4973 e4bd
00000170: 334d d1bd 09b8 27be 3b36 05be f65a b73c
00000180: c36e 28bd 6649 00bd 0284 38bb 3d3b efbd
00000190: e6c7 e7bd ada7 44bd ce04 6abc 721a b5bd
000001a0: 6199 a1bb a79d 4bbd 9fb1 8abc 4516 0d3d
000001b0: a5b6 163c fc17 56bd 10e5 9ebb eeda a0bd
000001c0: 9d2c 4ebc 09c5 94bc 7398 83bd f7cc aebc
000001d0: 1f7d 253c 982f ae3b 8bb7 623d 9818 b9bc
000001e0: 165f ea3c 3505 183d 0344 3c3d 6aa0 ef3c
000001f0: 3a23 67bd 24f7 1c3c 51b8 4fbd b2df bdbd
00000200: d514 b5bd da72 503b 3ff2 debd ce7b 4a3c
00000210: 1a69 4bbd 39e8 9abd fa9f d7bc b741 503d
00000220: 41ea cabd dbb5 f6bc 986d 0cbe 0f69 25be
00000230: ecc8 933c a3fb 84bc 4575 6c3d 8fd3 e6bb
00000240: 029e 0e3d 4acd 9abd e8b1 b93c 0b51 57bd
00000250: 3ba3 25bd 1e1c 1cbd 7b4d dfbc 8fdd f3bd
00000260: 6c92 c3bd 90e9 07bd 3838 6dba e451 e6bd
00000270: e304 99bd 36dc 9fbd d5f9 06bd 9a60 01be
00000280: 323f c4bd ef41 ddbd 8618 acbd a04a 12bc
00000290: 12eb 24bd fbac 023c 3ed2 45bd 2010 47bd
000002a0: cefb ffbd a935 fdbd 6fc4 4d3c f610 66bd
000002b0: b2c9 b7bb 9cb3 083d 4274 573c 6ef8 50bd
000002c0: cf41 9abd d703 16bd 9deb fb3c 6e1d e1b8
000002d0: 6cc0 c7bb 16f4 60bd 33b5 a6bc ae06 e6bd
000002e0: 0e44 babd 4962 96bd f130 c0bd 4504 87bd
000002f0: 1252 02be 891d a23c aeca 163d ae7a 9ebd
00000300: 8351 93bd a043 6ebd ac37 4dbd 9766 c13c
00000310: c381 54bd f9ef 1bba 8e74 8c3c eb4d 58bd
00000320: 877c b43c 831d 64bd 310d b4bc ad89 08bc
00000330: 7f38 28bd 5a0f ddbc 7996 6abd 03a0 4ebc
00000340: 5ba0 6abd 9893 a23c 37dd 36bc 7c42 99bc
00000350: 99a1 0cbd 9fce ae3c 5c49 d4bc 227a 213d
00000360: f350 a5ba 76a4 d5bb bcbf 4bbd 5119 16bd
00000370: f8a3 96bd 447a babc 5c82 603c a6c4 3c3c
00000380: 2c37 22bd f786 34bd 1e84 b6bc d543 72bd
00000390: 0f8f 243b 6aed 30bd e596 213d 9a4c 8e3b
000003a0: 9cbd 4ebd 6b11 52b9 1013 8abd 6eba 8ebd
000003b0: de59 fb3c b594 a7bd 0ee2 0fba c4f9 afbd
000003c0: 23ff 28bd 17d0 54bb 00a5 ac3b aeef 7abd
000003d0: 22f4 47bc 2a38 9fbd ad0e f5bc dc3c 0b3d
000003e0: 247c 1dbc 38ce de3c bd6c 96bc 4a86 983c
000003f0: fb3e 6fbd ca0d c9bc 152f 293d 5b0e 0a3d
0.022724934 -0.03245995 -0.019937284 -0.0032701704 -0.036869723 -0.06460814 0.009911885 0.022969455
-0.0014229702 -0.09101575 -0.0050352896 -0.112273894 0.009910481 -0.00830011 -0.01030179 -0.0899645
-0.05583912 -0.037601512 -0.0010838159 -0.052435763 -0.022824405 -0.06279555 -0.07473684 -0.0195312
-0.012103134 -0.05198267 -0.002965181 -0.057542417 -0.06628879 0.0024258376 -0.0071777073 -0.013161804
-0.03766668 0.03307949 -0.07009074 0.0052906494 -0.017757827 -0.052573584 -0.01786632 -0.08599908
-0.00671152 -0.022172498 -0.05293885 0.013990373 -0.026642978 0.009536196 -0.021434074 0.047763605
-0.028835118 -0.039166663 0.027954582 0.018308368 0.044937484 -0.027204286 -0.033629857 -0.12153635
0.001976837 -0.031446405 0.037124086 0.088501774 -0.018951287 -0.036898788 0.06850057 0.0065913214
-0.07258291 -0.037896313 0.042317174 -0.041859407 0.026225556 0.008350559 -0.03798988 0.01536499
-0.08465704 -0.063702814 -0.06382935 -0.0066614905 -0.04261025 -0.0396584 0.013714699 -0.1015141
0.00891529 0.020703608 -0.07574188 -0.17248991 0.029919166 0.011771541 0.101983614 -0.04802998
-0.010098393 0.08037445 -0.023777656 -0.111548014 -0.10219803 -0.16378798 -0.13008969 0.02238224
-0.041121256 -0.03132 -0.0028154855 -0.11681221 -0.113174245 -0.04801147 -0.014283372 -0.08842935
-0.0049316143 -0.049710896 -0.0169304 0.034445066 0.009198819 -0.052268967 -0.0048490837 -0.078542575
-0.012583879 -0.01816036 -0.06425562 -0.02133797 0.010100632 0.005315732 0.05535082 -0.022594735
0.028609794 0.03711434 0.0459633 0.029251296 -0.05643008 0.009580407 -0.050712887 -0.09271182
-0.08841864 0.0031806738 -0.108860485 0.012358619 -0.04966078 -0.07563824 -0.0263214 0.05084392
-0.09907962 -0.030116012 -0.13713682 -0.16153358 0.018040143 -0.016233271 0.057729024 -0.0070442627
0.034818657 -0.07558687 0.02266784 -0.052567523 -0.04043887 -0.038112752 -0.027258625 -0.11907493
-0.09549412 -0.033181727 -0.000904921 -0.11246088 -0.07471635 -0.07805674 -0.032953102 -0.12634507
-0.09582366 -0.108035915 -0.08403115 -0.008928925 -0.040263243 0.007975812 -0.048296206 -0.048599362
-0.124992 -0.123637505 0.01255904 -0.05616852 -0.0056087608 0.033374414 0.013150277 -0.05101817
-0.07532083 -0.036624756 0.030751998 -0.00010734318 -0.0060959365 -0.05492028 -0.020350074 -0.11231743
-0.09095012 -0.07342965 -0.09384335 -0.06592611 -0.1272662 0.019789474 0.036814384 -0.07738243
-0.071932815 -0.05816996 -0.05010192 0.023608489 -0.051881563 -0.00059485395 0.017145421 -0.052808683
0.022032036 -0.055692207 -0.021978946 -0.008333606 -0.041069504 -0.02698486 -0.05727241 -0.012611392
-0.057281833 0.019845769 -0.01116114 -0.01870846 -0.0343338 0.021338759 -0.025913887 0.039423116
-0.0012612626 -0.0065198494 -0.0497434 -0.036645237 -0.07355493 -0.022763379 0.013702955 0.011521494
-0.039603397 -0.044074025 -0.022279795 -0.05914672 0.0025109684 -0.043195166 0.039450545 0.0043426277
-0.050473794 -0.0002003365 -0.06741917 -0.069691524 0.0306825 -0.081826605 -0.0005488702 -0.08592561
-0.041258942 -0.0032472664 0.005268693 -0.061263733 -0.012204202 -0.07774384 -0.029914225 0.033993587
-0.009612117 0.027197942 -0.018362397 0.018618722 -0.058409672 -0.024542708 0.041304667 0.033705097

encoder.encoder.1.conv.bias f4 [32]
00000000: da5c c4bd 72ef 5f3b 6cd0 65bc 991c 62bc
00000010: 0877 cb3d 3d90 cbbc 6999 3b3d b7fa 313e
00000020: af4d 5fbd af6e e93c 0cb5 3abd 67f8 773d
00000030: 4922 4bbd 36ad 76bd aeed 7ebd 8067 3b3e
00000040: f0ca 403e 2534 eebc d5ea 0f3e 6e58 803e
00000050: 703a 4e3d b2db 0abd c4ba bd3d 2945 be3d
00000060: 9eb2 3a3e ff66 133c bbf4 383e 0951 7f3d
00000070: 01ca f8bd 7178 353e 2db2 96bd 8391 f4bb
-0.095880225 0.003416982 -0.014026742 -0.0138007635 0.09934813 -0.024849052 0.0458006 0.17380796
-0.054517444 0.02849516 -0.045582816 0.06053963 -0.049593244 -0.06022378 -0.062238388 0.18301201
0.18827415 -0.029077599 0.14054425 0.25067466 0.0503487 -0.033900924 0.09264138 0.09290535
0.182322 0.008996724 0.18062107 0.06233314 -0.12147904 0.17721726 -0.07358203 -0.0074636354

encoder.encoder.2.conv.weight f4 [32, 32, 3, 3]
00000000: 182a 3b3d 0a09 67bd 1559 f83c b87c a5bd
00000010: 4c41 49bd b522 3a3d e163 03bd 440d 4a3d
00000020: 7ead a8bd 9a9a 333e e14e e03d 69c0 7f3a
00000030: a3ef 103d 5d95 6b3c 0399 c6bd dbc0 bcbd
00000040: 83be e53c c886 e4bd 1b62 663e 1337 943d
00000050: b610 4fbd 2c7c b33e 9df0 513e 904e 093d
00000060: c29e b43c 8a27 1dbe 7cb8 123d 0e58 4c3e
00000070: 0c63 c23d fed4 b3bd effb 74be ce77 ebbd
00000080: eb1c 72be b239 483e b353 b1be 5747 b8be
00000090: 8a7b 8a3e 47d0 e7be 4c75 bfbe e475 c7be
000000a0: da71 05bf 01d2 a1be b927 a6bd ed4f 85be
000000b0: 64dd 253e b3b5 f73c 314e 1ebd 4edb 8c3c
000000c0: 8906 f0bb 93a5 47bd 1c19 2dbd 4273 b9bc
000000d0: 0fc1 38bc 3fa4 83bc 05da da3d 9143 81bd
000000e0: df5e 8b3d 622a 123e 8bf7 8e3d f85e 623e
000000f0: b8b1 42be d1c8 12be 73da 6b3e 3d1d babd
00000100: 3efc b0bd 9fc7 7bbd 32b3 dabd 7fff cdbd
00000110: 4dd3 8d3e 43a7 013d 09fa c2bc 5c55 823d
00000120: 7fb9 42bd 898e 64bd a847 9bbd c543 b8bc
00000130: f7e9 dfbd 7ceb 523d 6b0e 9f3c b065 dbbd
00000140: 376e 283d 7155 8bbe d6f2 14be 5c8d e0bb
00000150: 4b91 5ebb 9563 93bd a0d5 993c ae03 75be
00000160: 8e6d 163e 3b40 cebc 9078 4abd 100e 973c
00000170: 372b 5d3d 5392 b0bd 971e 4ebd 0abb 8e3c
00000180: 455d 283d d08e 733c 786c 07bd c7b3 90bd
00000190: f805 c7bd e2e1 b1bb f8c8 853e e291 4a3e
000001a0: ee9e 113e 4116 c8bd 88be 483e 9dbd 3d3c
000001b0: e682 fdbe 2594 bcbe 266b bebe 9f84 63bd
000001c0: 7f9c edbc 46a1 fbbe 8cce 3fbc d617 04bd
000001d0: 22e0 0dbf 13ba e2bc 156f ff3c fb79 8d3d
000001e0: 54e9 66bd 27ce 8abd da06 10bd 05b6 4c3c
000001f0: cfcc 23bd 00ef 313d c19e 03bd 6208 8bbd
00000200: 953c ffbc 39fe 62bd 9bb6 f2bc 18f2 053c
00000210: ebd7 a33c 3f1f 84bc d627 923c 683b 76bb
00000220: 4cf0 f43d b6e2 a23d c0a8 cebd 8691 283e
00000230: 98ec da3e 039f 4abe 5688 893e 08ff 543e
00000240: 801a 88bd 22eb 2a3d 646c 46be 8ec6 af3e
00000250: 9680 753e c62a 7f3e ebc6 903e 1b94 713e
00000260: b8b6 803e 724f aa3c 62a6 8ebd a769 c9bc
00000270: 99f2 353d b4f3 22bd 1da7 413d 6b96 883c
00000280: fadc 16bd 44b4 f23c e58f 3b3e 0e81 323e
00000290: 3ae5 30bc a00e c53d bd54 1f3e e45a 753c
000002a0: 50db f43c b2b1 143e dcd8 c53d c4f1 45be
000002b0: c6ad cabd ed1a 76bd 52f8 0e3e c34a f93d
000002c0: 0342 4f3e b41a 57bc 7dc0 a7bb 9dc7 2bbd
000002d0: c092 1ebf 3fb4 29bf f086 a5be 372e 87be
000002e0: 7fd9 93be 2560 62be 453c 743e b080 93be
000002f0: 13d1 cc3c 18a1 a73d b9d3 b7be d0af 35bf
00000300: df90 b1be 3654 03bf 6862 84be 49cd 1fbd
00000310: a819 56bf 6dc3 acbd d620 f3bd 55b4 cabe
00000320: ef7a bcbd cd50 e33d 5eaf 6cbe addb 0dbe
00000330: c6e4 ecbd 0f7b 2bbe 2b64 f4bd dfaa 70be
00000340: 7966 b9be 3d67 42be d067 5fbd 5181 01be
00000350: 2c46 4dbe 85ba e63d f57b 18bd 4565 acbd
00000360: 07cb 03be 1dd2 203e ffa5 64be 30d2 f33c
00000370: 7fc9 2c3e 42fa 043c c144 ca3d c9c3 eabd
00000380: 2ee5 bebc 6efa 59be 27b2 a4be 123a b5be
00000390: 5e7d 03be 55e2 4b3d ea5c 01be 5b34 b03e
000003a0: 4261 2dbf 7c83 c0be dc69 15bd 9346 a33e
000003b0: 7974 8e3e 31c1 8dbe 75f8 8fbe d096 bfbe
000003c0: 3986 93bd 55c7 5cbe 29c2 f0bc 144c 353e
000003d0: ded0 91be f899 9ab7 0c9d 4cbe dda6 b3bd
000003e0: b63f e6bd 9460 c0bd 9546 e2be 47c2 17be
000003f0: 766b 65bd 613d 6f3d 7776 403d b7de b1bc
0.04569444 -0.056405105 0.030315915 -0.08080429 -0.049134538 0.045443255 -0.032077674 0.049329057
-0.08236216 0.17539445 0.10952545 0.00097561494 0.035384785 0.014378873 -0.096971534 -0.09216472
0.028044945 -0.1115852 0.22498362 0.07237067 -0.050553046 0.35055673 0.20501943 0.03352219
0.022048358 -0.15347114 0.03582047 0.19955465 0.09491548 -0.087808594 -0.2392423 -0.1149746
-0.23643844 0.19553259 -0.3463417 -0.35991928 0.27047378 -0.4527609 -0.37394178 -0.3895713
-0.5212685 -0.31605533 -0.08113045 -0.2603754 0.16197735 0.030238008 -0.038648788 0.017194416
-0.007324998 -0.04874189 -0.042260274 -0.022637967 -0.0112764975 -0.01606953 0.10686115 -0.063117154
0.068052046 0.1427398 0.06980809 0.2210654 -0.19013107 -0.14334418 0.2303255 -0.09087608
-0.086418614 -0.06146967 -0.1067871 -0.10058498 0.27700272 0.031653654 -0.023800867 0.06363937
-0.047540184 -0.055799995 -0.07582027 -0.022493253 -0.10933297 0.051494107 0.019416055 -0.10712755
0.041120734 -0.27213624 -0.1454576 -0.006852789 -0.0033961113 -0.07196728 0.018778622 -0.23927185
0.1469023 -0.025177112 -0.049431384 0.018439323 0.05399629 -0.08621659 -0.05032214 0.017423172
0.041104574 0.014865592 -0.03306243 -0.0706554 -0.09717935 -0.0054285387 0.2612989 0.19782212
0.14220783 -0.097698696 0.19603932 0.011580852 -0.4951393 -0.36831775 -0.37191123 -0.0555464
-0.029005287 -0.4914648 -0.011706959 -0.032249294 -0.55420125 -0.027676618 0.031180898 0.069080316
-0.056374863 -0.06777602 -0.035162784 0.012494569 -0.039990243 0.04344082 -0.03213382 -0.06788708
-0.031156817 -0.055418227 -0.029628089 0.008175395 0.020000419 -0.01612818 0.01784126 -0.003757203
0.119598955 0.07953398 -0.1009078 0.16461763 0.42758632 -0.1978722 0.2686183 0.20800412
-0.066456795 0.041728146 -0.19377285 0.34331173 0.23974833 0.2491866 0.28276762 0.23591654
0.25139403 0.020789836 -0.06965329 -0.024586512 0.044420812 -0.039783195 0.047278512 0.016673287
-0.036831833 0.029626973 0.1831661 0.17432043 -0.010796839 0.0962193 0.15559669 0.014975283
0.029889733 0.1452091 0.09660503 -0.19330508 -0.09896426 -0.060084272 0.13961914 0.12172463
0.20240025 -0.013128925 -0.005119382 -0.041938413 -0.6194267 -0.6629066 -0.32329512 -0.26402447
-0.28876874 -0.22106989 0.23851116 -0.28809118 0.025002038 0.08185023 -0.3590372 -0.70971394
-0.3468084 -0.5130037 -0.25856328 -0.039014135 -0.836329 -0.08435712 -0.11871497 -0.39590707
-0.09203135 0.11099396 -0.23113772 -0.13853331 -0.115670726 -0.16746162 -0.11933168 -0.23502682
-0.36210993 -0.18984695 -0.054542363 -0.12646987 -0.200463 0.112660445 -0.03722759 -0.08417753
-0.12870418 0.15705152 -0.22328947 0.029763311 0.1687374 0.008116307 0.09876395 -0.11463124
-0.02330264 -0.21286938 -0.3216717 -0.35395867 -0.12840793 0.049776394 -0.126331 0.34414944
-0.6772653 -0.37600315 -0.03647791 0.3188978 0.27823237 -0.27686456 -0.28119245 -0.37419748
-0.07203335 -0.21560414 -0.029389458 0.17704803 -0.28479666 -1.8429928e-05 -0.19981784 -0.08772061
-0.11242621 -0.09393421 -0.44194475 -0.14820205 -0.056010686 0.058408145 0.046987977 -0.021712644

encoder.encoder.2.conv.bias f4 [32]
00000000: d42a 983e 0cf5 533d 3aa8 54be 165b cb3d
00000010: 129b 4d3d c54e e2bd e5e8 57be 849d 9b3e
00000020: aaf5 80be 40fa 0bbe 0d62 a33d ef2e 5abe
00000030: cfdd 813d 27c8 5ebd 14f5 e1bd e372 ee3d
00000040: 1a15 1c3d 2f54 f5bd 3cc3 8cbe eb58 0cbf
00000050: 7203 afbd e4cf c6bd 95f1 0ebd ff9c ccbd
00000060: 14df 9b3d 5e67 f1be ed81 0dbe 50bd 6dbe
00000070: ca40 36bd aadc 6e3d bad9 593d 6b86 a4bd
0.29720175 0.051747367 -0.20767298 0.09929483 0.050196715 -0.1105018 -0.21084936 0.30393612
-0.25187427 -0.13669682 0.07977686 -0.21306966 0.06341135 -0.0543901 -0.11033073 0.11643007
0.03810606 -0.11978947 -0.27492702 -0.5482318 -0.08545579 -0.09707621 -0.03489836 -0.09990882
0.07610908 -0.47149175 -0.13819094 -0.23216748 -0.04449538 0.05831591 0.053186156 -0.08033451

encoder.encoder.3.conv.weight f4 [10, 32, 3, 3]
00000000: 32bb 0a39 20cc bd3d fa0f 92bc 9a46 9abd
00000010: 1a1a e3bd 231b 6cbc 7f0b 9bbd 09e1 e4bd
00000020: 7dd7 b43d 163a a7bd 7933 6abd a5a2 b13d
00000030: af56 d1bd c0fe 463e 8bd5 82be 8e80 a5be
00000040: bfac 9e3d 941b b7be 43d4 9bbc 0fd4 533b
00000050: aab9 c23c d483 fcbc f673 493e 21b6 4dbd
00000060: cdf6 f23d bb2d e03c b8d6 cd3e 37cb 9e3d
00000070: 2d88 513e 2582 813e 041e 183e 895a 9f3e
00000080: 414a 75bc 75a5 31bd 040a 7ebc 4b9f 8d3e
00000090: 740f bb3d 62e4 2f3e ad60 cfbd d4d1 43bd
000000a0: 2539 16be 2063 763d a206 863d 0f17 53bc
000000b0: 4ee9 853e 7239 34bd 03eb 83bc d68d a6bd
000000c0: 8c03 7b3c b420 6b3c 195b b8ba 2994 283d
000000d0: c97c 833d a7ff e33d bc47 4fbd 2fce 613d
000000e0: 3209 f13d 92fb c6bd a381 a33e 572b 833d
000000f0: 2264 c5bd 1c45 22bc 2447 c8bd 94d4 4dbe
00000100: 56ed 29be 0de7 9e3d f6ae e5be aabd acbd
00000110: d512 91be e09c ad3e 60ad e13b 194b 6f3c
00000120: 64fb 083e 41ee 60bd 598e 61bb afaa 11bd
00000130: ab2b 933d c48a 7b3d cd9f 9abc fb72 1bbe
00000140: 4e1f 30be ef1a bcbb b161 70bc a1e5 6d3c
00000150: a88c ff3d b08f f43d 2335 803a 521c 523b
00000160: 9e84 ce3c 5215 78be 902b 87be 9ab5 9bbe
00000170: cbbf d23d f8d4 a4bd 2d21 4a3e c39b b8bd
00000180: 78d3 a9bd ec1a 46be d1e3 f53d 3e3d 8e3e
00000190: d82a bdbc da1e 2cbe 9955 dbbd 130c 123d
000001a0: 079d 4c3e 3357 c93d 7112 c6bc 0ff5 323e
000001b0: 84b0 8abe b1f6 ddbc 4934 803e 4509 47be
000001c0: b3e4 e03b 54cd bc3e d6d6 5dbe 98d8 43bd
000001d0: 7a88 d6be adc4 01bd 5663 aa3c 1771 d63c
000001e0: 90e8 cbbc d28a 00bd e4c1 d53d 08aa 803c
000001f0: 20cd a83d 35c5 01bd 197d 253c 7ba8 813d
00000200: 08a1 a83d e396 f9bd f1ee 823e cb86 183e
00000210: ff1f 12bc 586a a33e b649 1cbe 53cc 4b3d
00000220: f23f 5bbd 3a93 e6bd 795f 45be 5858 80be
00000230: 73d1 713d 1714 93bd b447 34bd 52c6 023e
00000240: ffec 11bd 0abb f3bc b49c 323e ffc3 c03d
00000250: 0e23 603e d1c8 7cbe 7b7e 14bc 5fd8 24bd
00000260: bb0c a1bd 55f5 16be 9731 25bc a4ef 9dbd
00000270: 7bd6 fcbb 9894 b53d 7962 963d f937 97bc
00000280: 74e4 b03d 3761 51bd 8361 7bbd a3d5 39be
00000290: caa9 0cbe 1949 d4bc d9c2 adbd 1f39 a7bd
000002a0: 8236 5c3d 552b 8d3e 130e e1bd 8d84 8fbe
000002b0: 3325 883e 4df6 b8bf 5e41 8f3b 87a8 c7bc
000002c0: 48ee 2fbe 89f9 df3d f02e 913c 8ff2 e33e
000002d0: 79bf 4d3d 3f14 7bbe 5d2d 79be 918c 6c3c
000002e0: 2387 0c3e 8b83 403e 4ebd 31bd bed9 343d
000002f0: dff3 bc3d b93c 4dbd a377 7ebc f010 3dbd
00000300: b825 cc3b 05a2 1e3b b483 3dbd adb7 0abd
00000310: 5cc4 493d 79b5 91bc c644 7dbd e9d3 28bd
00000320: 134e 933d e433 563d cb4e 9dbc 4129 223d
00000330: 9521 483e 7bb6 843d 6eba bf3d 023c 26be
00000340: 5abc 493e e24e 153e db47 b33d ef39 463d
00000350: bff2 54bd e615 d13d 7bcf 273e c818 cc3e
00000360: de1b 9d3d 7a9a 7a3d b135 efbc 2287 c9bc
00000370: 1688 bc3d fb4a ccbb b360 1b3f 547f f33d
00000380: a626 dbbd e420 ee3c 3d1d 4fbc dea7 ddbe
00000390: 2b46 71bd 3aea 243d e954 7b3e 984f 0bbf
000003a0: f270 b0bc 517c 5e3d 73d5 5fbb 0efe 1fbe
000003b0: 65a1 62bd 2a68 adbd d991 45be 384d f33c
000003c0: dc96 8cbc 3c11 a03d f822 c63d 3c62 9e3d
000003d0: 64e2 e7bb 6cf1 4b3e 77bc 483e 8888 f4bd
000003e0: 4f0c 65be 65ec cbbb 48f3 323e 94ae a23d
000003f0: 7684 863d 4f4e f03c 8263 563d 5881 8c3d
0.00013230441 0.092674494 -0.017829884 -0.075329974 -0.11088963 -0.014410767 -0.07570552 -0.111757345
0.08830164 -0.08165376 -0.057177994 0.086736 -0.10221612 0.19433117 -0.25553545 -0.32324642
0.077477925 -0.35763228 -0.019022113 0.0032322442 0.023770172 -0.03082458 0.19673142 -0.05022252
0.1186348 0.027365556 0.4020288 0.07753604 0.20462103 0.25294605 0.148552 0.3112376
-0.014971317 -0.043370683 -0.015505318 0.27660593 0.09133807 0.17176965 -0.10125861 -0.04780753
-0.14670236 0.060153127 0.06544234 -0.012883916 0.2615456 -0.044000097 -0.016103273 -0.08132522
0.01532067 0.014351059 -0.0014065235 0.04115692 0.06420285 0.11132746 -0.05060552 0.055128273
0.11769332 -0.09715952 0.31934842 0.06404751 -0.096382394 -0.009904172 -0.09779194 -0.20100623
-0.16594443 0.07758913 -0.44860047 -0.08434613 -0.2833468 0.3390875 0.006887123 0.014605307
0.13377148 -0.054914717 -0.0034417121 -0.035563167 0.071860634 0.061411634 -0.018875027 -0.1518058
-0.17199442 -0.0057405154 -0.014671729 0.01452008 0.12478 0.11941469 0.0009781461 0.0032060337
0.025209721 -0.24226883 -0.26400423 -0.30411988 0.10290488 -0.08048433 0.19739218 -0.09014084
-0.082922876 -0.19346207 0.12006343 0.277811 -0.023091719 -0.16808644 -0.10709686 0.035656046
0.19981776 0.09831085 -0.024178715 0.17476295 -0.27087796 -0.02709517 0.2503989 -0.1943713
0.0068632006 0.36875403 -0.21663985 -0.04781398 -0.41900998 -0.031681705 0.02079932 0.026176972
-0.024891168 -0.03138239 0.10437372 0.015706077 0.082422495 -0.031682212 0.010100626 0.06330963
0.08233839 -0.121869825 0.25572923 0.1489517 -0.008918761 0.3191707 -0.15262493 0.049755406
-0.05352778 -0.1125855 -0.19274701 -0.250674 0.059037637 -0.07181566 -0.044013694 0.12770966
-0.035626408 -0.029752273 0.1744259 0.09412383 0.21888372 -0.2468598 -0.009063358 -0.04024541
-0.07863756 -0.14742024 -0.010082624 -0.077117234 -0.0077159978 0.08866233 0.07343001 -0.018459307
0.08637324 -0.051118102 -0.06137229 -0.18147902 -0.13736644 -0.025913762 -0.0848443 -0.08165192
0.05376292 0.27572122 -0.109890126 -0.28030816 0.2659088 -1.4450165 0.004371806 -0.024372352
-0.17180741 0.10936267 0.017722577 0.44520995 0.05023143 -0.24519442 -0.24333711 0.0144378105
0.13723426 0.1880018 -0.043393426 0.044152968 0.09226202 -0.050106738 -0.015531453 -0.04615873
0.0062300824 0.0024205458 -0.04626818 -0.033866573 0.04925953 -0.017786728 -0.061833166 -0.04121772
0.07192626 0.05229558 -0.01920261 0.039590124 0.1954406 0.06480118 0.093617305 -0.16233829
0.19700757 0.14580873 0.0875394 0.048395094 -0.051989313 0.10209255 0.16387741 0.39862657
0.07671331 0.061182477 -0.029200407 -0.02460057 0.09205644 -0.0062345243 0.60694426 0.1188952
-0.10700731 0.029068418 -0.012641248 -0.43292135 -0.058904808 0.04026244 0.2454411 -0.54418325
-0.021538232 0.054317776 -0.0034154325 -0.15624258 -0.0553297 -0.08467133 -0.19293918 0.029699907
-0.01716178 0.07815787 0.096746385 0.077335805 -0.0070765484 0.19916314 0.19603144 -0.11940104
-0.22367977 -0.006223249 0.17475617 0.079434544 0.06568234 0.029334215 0.05234099 0.06860608

encoder.encoder.3.conv.bias f4 [10]
00000000: 3f23 fa3e 4923 aa3e 2aa6 d73e a7d0 b63e
00000010: a977 893e eaee a33e b84f ef3e 2ae1 bcbd
00000020: ad3f e83e 5811 043f
0.48855016 0.33230045 0.4211896 0.35706064 0.26849106 0.32018214 0.46740508 -0.09222634
0.4536108 0.51588964

decoder.decoder.0.dconv.weight f4 [10, 32, 3, 3]
00000000: 4fb4 993c da55 e9bc 39a9 973d 1e3f c43e
00000010: 784d c53d 01a4 26bf deda b9be af89 84be
00000020: 4232 173f 5d61 bebd fed6 72be 3f97 82be
00000030: b2eb 34be 5003 393e 8986 89be 677e 6f3d
00000040: b9d4 4d3f d8fc 24bf dff9 06be 94b6 8abe
00000050: 1ff8 c13e 63ff acbe 5cbc 9b3e bd82 b7be
00000060: fcab eb3d 2f8c 9b3d 41ac 2f3e b57e 053e
00000070: 962e 2a3e 1652 4fbe 5b82 ddbc 001c 333f
00000080: 2322 38bf c347 48bd 55d9 f23e d14f e53d
00000090: 2288 e73c 816e 98bd 160c bdbe d57f d13d
000000a0: 0e71 d43c 9ac9 59bf ecc9 70be 7701 c6be
000000b0: 935e 19bf 23f1 dabc cf31 e8be 45da b1bd
000000c0: dbf0 33bf f752 a73d eb10 563f 93e2 97bd
000000d0: 95ac be3d c11b 61be 253f 813d a9b0 4ebe
000000e0: 4205 c8bd 670c 873e b83b 703e 14ba 8b3e
000000f0: bf7c f23d fb2d 513e c80a ebbe a274 883b
00000100: 05a5 85be f3f8 c7bd 3548 ad3c 9e7e df3b
00000110: e553 07bd 47cf 6b3e 7829 983e 479a b83d
00000120: dd1c 98bc a516 29be 888d 303d d474 35bf
00000130: cffd 02bd c3d0 6f3f ece9 2a3c 4256 893e
00000140: 8baa 4f3e febf 033e 7ace 543e 747c c8be
00000150: 427a 0a3e 2623 8bbe 6c9d 073f 81d7 d4bd
00000160: aab8 8e3e d6e8 53be 35d2 bdbd 4d9e 4bbd
00000170: efb0 63bf 096c f0bd db37 cbbe 211a a73e
00000180: cc06 813e c5a3 6dbe 35b7 14be 1abf 803c
00000190: db87 9c3e 4648 523d a9f1 82bc f2a2 7dbc
000001a0: aabc 49bd 0f3c 8f3e 5db3 1dbd 04a2 66bf
000001b0: e11c dd3d b8f3 fdbd 7d2d 0dbd 4a77 033d
000001c0: c4ba c8be e4ee 1b3e fda9 e3bd 4c69 bb3c
000001d0: d793 84be 6cfe 52bd a32f b53d a02b a43d
000001e0: 5ecc 843e 6f60 86be 50ee 9ebe 635f c1be
000001f0: 9560 b2be 5c7a 57be 3657 23be 0b54 663c
00000200: 8c8a 243d f9ac 923e cc9e c33c 0242 99bc
00000210: aa2a ae3c 4803 ad3c 340e 8bbd ecca e83d
00000220: 7e33 7dbd 9d57 adbd 5b55 b83d bb85 52bf
00000230: a7e6 bfbd fc8d 03be 3509 81be 9172 0c3f
00000240: 00f7 f6bd 3cc3 cf3e 043c 9cbe 7ca5 b93b
00000250: 872a 643e 9348 6abd 396b 80bd 2646 983e
00000260: ee33 13be 8a00 033e 8333 56be 4652 5c3e
00000270: 1c50 cd3c 9037 b9bd 99ba 33be 07b0 ac3e
00000280: 1910 c4be b663 ec3e 06cf ef3e de83 303d
00000290: 761f 30be c9d9 56be c2c5 4abe 517d 573e
000002a0: a578 8abd 3345 633d d06e 47be 6482 743c
000002b0: 5213 a4bc 533d 0abe fc59 e43d 684e d6bd
000002c0: 8064 963d 70d3 833d eb08 ea3e ae36 c23e
000002d0: f907 4ebd 43a7 2abe 20bb 2b3e c978 88be
000002e0: 0b0f cebc eaf6 523e 558e 2bbe 89fe 8ebd
000002f0: 4dd3 a83d fa11 27bd eeb7 6cbd dbd1 e53e
00000300: 9571 993e f594 913e fd9f 15bf 592b 583e
00000310: 71ad b73e c024 0b3f c27c fc3d 6748 b7be
00000320: 5a43 ae3d e035 58be 25be 20bd 2755 cd3e
00000330: 4ee5 f8bd 360e 29bc 6ade f63c ca80 963e
00000340: f52f ab3e 35b9 2fbe a10b 483d 86a7 7cbe
00000350: 699b c03e 5fae a5bd c791 563e 4314 b23e
00000360: 5363 04be ce5c da3d bc86 df3e 6a3a 2fbe
00000370: 81b5 163f 0a10 9bbe 1115 c43d 2d79 0d3f
00000380: d916 c73a ddda e53d 9659 253e c52e 24be
00000390: ce94 8b3d efd9 12be 4693 d3be b57a c43d
000003a0: f5ef 013e 6ae5 4dbf 3372 febd 27be c23e
000003b0: dc72 c4be 3991 b3bd e8ea 2fbe efa8 a63d
000003c0: 4fec dcbe de70 3fbf 48e0 b53e ece9 61be
000003d0: 847f e7bb cd90 8abe e381 0d3d 1643 9dbc
000003e0: bec0 703e 0eb1 abbd 814f 113b 102e 803e
000003f0: 323f 21bf 2d56 15be b569 92bf bb53 d13d
0.018762736 -0.02848332 0.074053235 0.38329405 0.096339166 -0.65094 -0.36299795 -0.25886294
0.5906106 -0.09295914 -0.23714826 -0.25506017 -0.17668036 0.1806767 -0.26860455 0.058470156
0.80402714 -0.6444831 -0.13181256 -0.2709242 0.37884614 -0.33788595 0.30417144 -0.35841933
0.11507413 0.07595097 0.17155553 0.13036616 0.16619334 -0.20246157 -0.027039697 0.699646
-0.7192709 -0.048896562 0.47431436 0.111968644 0.028263155 -0.07442952 -0.36923283 0.1022946
0.025932815 -0.85073245 -0.23514527 -0.38672993 -0.59909934 -0.026726311 -0.453505 -0.0868421
-0.7028939 0.08170121 0.83619565 -0.074162625 0.09310261 -0.21983244 0.06310872 -0.20184578
-0.09766628 0.2637665 0.23460281 0.27290404 0.118402 0.20427696 -0.45906663 0.0041642943
-0.26102462 -0.0976428 0.021152595 0.006820514 -0.033038992 0.23028289 0.29719138 0.09013801
-0.01856845 -0.16512544 0.043103725 -0.7088139 -0.031980332 0.9367792 0.010431748 0.26823622
0.202799 0.12866208 0.2078189 -0.3915745 0.135232 -0.27175254 0.5297458 -0.103926666
0.27875262 -0.20694289 -0.092686094 -0.049711514 -0.88941854 -0.11739356 -0.39691052 0.32637122
0.25200498 -0.23207004 -0.14523013 0.015716124 0.305724 0.051338457 -0.015984373 -0.015480744
-0.04925219 0.2797551 -0.038501132 -0.90090966 0.10796524 -0.12400001 -0.03446721 0.032096185
-0.3920499 0.15227848 -0.11116407 0.022877358 -0.25894043 -0.051512167 0.088469766 0.08016133
0.2593717 -0.26245448 -0.31041193 -0.37768087 -0.3483931 -0.2104277 -0.15951237 0.014058123
0.04017119 0.28647593 0.023879431 -0.018708233 0.021260578 0.021119729 -0.067898184 0.11366829
-0.061816685 -0.084639765 0.09000655 -0.82235307 -0.09370165 -0.12847131 -0.25202337 0.54862314
-0.1205883 0.4057864 -0.30514538 0.005665479 0.22281848 -0.05719812 -0.06270451 0.2974102
-0.14375278 0.12793174 -0.20918088 0.2151576 0.025062613 -0.09043801 -0.1755165 0.33728048
-0.38293532 0.46169823 0.46837634 0.04309451 -0.17199501 -0.20981516 -0.19802001 0.21043898
-0.06761292 0.055485915 -0.19475865 0.014923666 -0.020028744 -0.13499956 0.11149976 -0.104641736
0.073433876 0.06436813 0.4570993 0.37932342 -0.050300572 -0.16665368 0.16770601 -0.26654652
-0.025153657 0.20602003 -0.16753514 -0.069821425 0.082434274 -0.04078863 -0.057792597 0.4488667
0.2996947 0.28433958 -0.5844725 0.21110286 0.35874513 0.5435295 0.12328483 -0.35797426
0.0850894 -0.21114302 -0.039243836 0.4010403 -0.121531114 -0.01031833 0.030135352 0.29395133
0.33435026 -0.17160495 0.048839215 -0.2467328 0.3761857 -0.08089899 0.20954047 0.34781083
-0.12928514 0.10662232 0.43657482 -0.17112127 0.58870703 -0.30285674 0.095743306 0.55263025
0.0015189304 0.112233855 0.16147456 -0.16033466 0.068154916 -0.14340948 -0.41323298 0.09593717
0.12689193 -0.80428183 -0.124241255 0.380357 -0.3836888 -0.087679334 -0.17179453 0.0813769
-0.4314904 -0.74781597 0.35522676 -0.2206189 -0.0070647616 -0.270636 0.034547698 -0.019197028
0.23511025 -0.0838338 0.0022172632 0.25035143 -0.62987053 -0.14583655 -1.1438509 0.102210484

decoder.decoder.0.dconv.bias f4 [32]
00000000: 679b 133e 7834 dd3e 209c 3e3e af54 413d
00000010: d951 aa3e 4397 e8bd 6eed ba3e 04cb 1ebf
00000020: 099e 743e 2d57 583e 481c 99be d41e bebe
00000030: faf7 0e3f cf1a 7a3e 4e71 1abf 2f9b 223f
00000040: 1c2f 133f 4cde 373e 8687 cc3e d4ec 23be
00000050: 1eed 923e bdf4 86bd 299a dcbe 6e29 36be
00000060: 2b75 bfbe 8823 8c3e fc45 e93d 8ebe b7be
00000070: cf68 5f3e 9123 b9bd cec4 a5bd 5ef6 fdbe
0.1441475 0.43204093 0.18614244 0.0471999 0.3326557 -0.11356976 0.3650927 -0.6202853
0.2388841 0.21127005 -0.2990439 -0.37132895 0.5584713 0.24424289 -0.6032914 0.6351804
0.5749376 0.17955893 0.39947146 -0.16008312 0.2869653 -0.06589649 -0.43086365 -0.17789242
-0.3739408 0.27370858 0.113903016 -0.3588757 0.21817325 -0.09039987 -0.08094178 -0.49602026

decoder.decoder.1.dconv.weight f4 [32, 32, 3, 3]
00000000: 72ca 13bd a44c 5cbc 56f5 0dbd 3d58 363e
00000010: 89f1 54bd 4aa3 063f cbc0 eebc ee7a d3bc
00000020: 39bd 7dbd f16a c53d b71e ce3e 588a c53d
00000030: 8692 fa3e f14a 8d3e 55e0 03bf 9543 3cbe
00000040: 1c47 4dbe 2ca1 9dbd 5b08 00bd 7235 92be
00000050: d99d 10be cf84 18bd 30e1 d43e 22a5 533e
00000060: 7b42 ee3e 9632 cabe 2048 2abf 1073 acbc
00000070: 2910 e0bc caf0 09be 4d8f 92bd a368 33bd
00000080: 78ec 9ebc 1f30 08be f76b f33c 0039 fbbd
00000090: f336 853d f505 d4be a12a 88bf 2390 983d
000000a0: 2f29 d13e 29c1 0e3e 393f 803e 0ebb b7bb
000000b0: 54c0 d43e b6da 8a3d 5dc3 18bd 5956 0dbe
000000c0: 6168 8bbc 5e5d cc3e d3e8 47be 08a3 853e
000000d0: 150e 81be 5afa 52bf ee18 0e3e 49a2 edbe
000000e0: 223b 0c3f d6ed bbbd 89a2 373e 83ec d3bd
000000f0: 4c3a ffbc 140d 823e 4b33 f73e 71f4 24be
00000100: 5bf7 97be 85bb 28be 6c37 f83e 83cc 053d
00000110: 3d7a c53e 9a70 07bf 3ceb 17bd 79ad 84be
00000120: eaf4 8ebe f744 b2be dc0c 453e e68f 8f3e
00000130: 112e 2cbe ae15 c13d 4a0e d43e bd1e 953c
00000140: 87df dc3d 4dc9 eebd d24e 87be 7c12 3ebf
00000150: b7df f03e 3958 823e c721 d53e 72ce 95ba
00000160: a355 1b3c edb2 bfbe 8916 50be 82b0 dfbc
00000170: 098a 23be a3e8 093f b7ff 9dbd 372a f5be
00000180: 6a7a f43e 1b46 b9bc 3ebd a9be 3352 163f
00000190: e8f6 933e 1e14 fa3e 5f0c 44be d977 a83e
000001a0: 7c7a 873e 0fee 173f b928 44bf b3ac 6cbd
000001b0: 75d6 26bf e22d e2be ba19 4f3e 0b96 8bbf
000001c0: e46c c3bc 037b 8dbd a28b 20be 9706 39bf
000001d0: 6582 62bd 6ed0 203e 8035 8f3e 087f 1cbe
000001e0: 8477 903e 57f9 cfbe ceee 33be e780 f8bd
000001f0: b66c 303e 87cc b63d 6408 b2bd b630 d8bd
00000200: cdf5 42be 0f21 553e c05c 80be b58b 813f
00000210: 63cb 973e 202c f43e d0ca a4be f95c 4f3e
00000220: 0214 3e3f 9906 5abe 96fb f83c af8b ecbd
00000230: 7f3e 8a3e 7139 40be 15c6 47bf 22dc b83e
00000240: 626e e53d be7b ca3a f37c 443e 6a7f f53d
00000250: f2f6 b83e f915 c33e 7c11 7ebe c28d 23bd
00000260: f377 443e 0a4b 3abc 4969 0f3e c3ae 753d
00000270: 9fca ec3d 3599 503d e54d 0a3f 8bf2 9fbb
00000280: 8b55 12bd 8dc0 47bd ff7e 71bd a33a 10be
00000290: 33ef 963c 6747 133b e0b7 8bbc f4c6 323c
000002a0: d059 d1bb fd86 36bd 8aa9 79bd 269c 25be
000002b0: 56de 773d bac3 97be 04a6 cd3d 526e babd
000002c0: 7df8 2a3f 6065 1dbf 018c 4d3e 4786 e5be
000002d0: 7891 d93e 3080 7fbd 9c0f db3d f5d3 17bf
000002e0: 5053 553f 8afb bebe 6b62 713e 36df 01bf
000002f0: 7576 013d 75b5 a33e 84c4 38be 22a0 49be
00000300: 5ed8 a63d 42f7 c33e c608 4a3e 3b91 353e
00000310: f421 cf3d 1d13 b1be 0648 303f 662d bfbe
00000320: 6d10 973d 4353 29bf 3115 ab3c 003f 24bf
00000330: 0df0 65bf 14dc c9bd 21d6 a23e 49ef ecbc
00000340: 9f31 0a3e baad 753f 9bf9 47be 7492 a93e
00000350: 2b2e 33bf 0512 bf3d c590 dfbe 91e1 9a3e
00000360: a15b e93e 8b84 9c3e 7bca 563e a2bb 7dbd
00000370: 8d80 abbe ad0e 02be e38c a2bd 338c 2c3e
00000380: c910 1f3d 1de5 133b b7e7 38be f6ff 8bbd
00000390: add8 8a3e e1cc 0cbf a4ff f63e 1afe 84bd
000003a0: dba9 adbe 58c0 3dbd 6f72 6c3e c2f4 b2be
000003b0: 147a 7dbe 1665 3fbf 3d76 ddbe 049b edbe
000003c0: b5af 54be f389 5cbe fad0 9c3e e1bc 8dbe
000003d0: 1901 62bf bd64 123f 0447 d3bc 549f 183d
000003e0: 39f2 ae3e cb71 cabd 4386 8a3e 9408 f4bd
000003f0: 3bf0 1c3e b90e 9ebe 5307 dfbe 5bc9 5f3e
-0.03608174 -0.013446007 -0.0346578 0.17807098 -0.05198816 0.5259291 -0.029144665 -0.025815453
-0.061948035 0.09639538 0.4025781 0.096455276 0.48939914 0.27596238 -0.5151418 -0.18385155
-0.20046657 -0.07696757 -0.03125797 -0.285564 -0.14122714 -0.03723603 0.41578054 0.20668462
0.46535096 -0.3949172 -0.66516304 -0.02105096 -0.027351456 -0.1347076 -0.07156239 -0.04380096
-0.019399866 -0.13299607 0.029714568 -0.12266731 0.06504621 -0.41410795 -1.0638009 0.07449367
0.40851733 0.13940872 0.25048235 -0.0056070155 0.41552985 0.06779997 -0.037295688 -0.1380247
-0.017017545 0.39914984 -0.19522409 0.26100945 -0.25206056 -0.82413256 0.13876697 -0.46412876
0.5477773 -0.09176223 0.17933096 -0.103478454 -0.031155728 0.25400603 0.4828132 -0.16108872
-0.29680905 -0.16477783 0.48479784 0.03266574 0.38569823 -0.5290619 -0.03708957 -0.259136
-0.2792123 -0.3481824 0.19243187 0.28039473 -0.16814448 0.09427963 0.41417152 0.018203134
0.10784822 -0.11659489 -0.26427323 -0.74246955 0.4704568 0.25457934 0.41627333 -0.0011429323
0.009480867 -0.37441197 -0.20321096 -0.027305845 -0.15970625 0.538706 -0.07714789 -0.4788377
0.47749645 -0.022616437 -0.33152193 0.58719176 0.28899312 0.48843473 -0.19145344 0.32903937
0.26460636 0.59347624 -0.7662464 -0.057781886 -0.65170985 -0.4417563 0.20224658 -1.0905164
-0.023855634 -0.06908228 -0.15678266 -0.7227568 -0.055300135 0.1570451 0.27970505 -0.15282834
0.28216183 -0.4061992 -0.17571566 -0.12133961 0.1722897 0.08925729 -0.08693007 -0.10556166
-0.19039078 0.20813392 -0.25070763 1.012076 0.2964736 0.47689915 -0.32185984 0.2025031
0.7424928 -0.2129158 0.030393403 -0.1155008 0.27000806 -0.18771912 -0.78036624 0.36105448
0.112026945 0.0015448255 0.1918829 0.11987193 0.36125904 0.381027 -0.24811357 -0.039930113
0.19186382 -0.01137043 0.14005007 0.05998112 0.115620844 0.05092736 0.5402511 -0.0048812083
-0.03572611 -0.048767615 -0.058959004 -0.14084868 0.018424606 0.002247298 -0.017055452 0.010911692
-0.0063888803 -0.04456233 -0.0609527 -0.16172847 0.06051477 -0.29641515 0.100414306 -0.09103073
0.66785413 -0.6148281 0.20072939 -0.44829008 0.42493796 -0.06237811 0.106963366 -0.59307796
0.8333025 -0.37301284 0.235727 -0.5073122 0.03160711 0.31974378 -0.18043715 -0.19689992
0.081467375 0.3827458 0.1972991 0.17731182 0.10113898 -0.34584895 0.688599 -0.37339324
0.0737618 -0.6614267 0.020884128 -0.6415863 -0.89819413 -0.0985643 0.31803992 -0.028922694
0.13495491 0.9596821 -0.1952881 0.33119547 -0.6999232 0.09329609 -0.43665138 0.3025022
0.4557772 0.30569872 0.20975678 -0.06194652 -0.33496514 -0.12700911 -0.07937028 0.16850357
0.038834367 0.0022566982 -0.18057142 -0.0683593 0.27118436 -0.5500012 0.48241913 -0.064937785
-0.33918652 -0.04632601 0.23090528 -0.3495236 -0.247536 -0.7476362 -0.4325427 -0.4640733
-0.20770152 -0.21536998 0.30628186 -0.27683166 -0.88282925 0.57184964 -0.025790699 0.037261322
0.34169176 -0.098849855 0.2705556 -0.11915699 0.15326016 -0.30870607 -0.43560275 0.21854155

decoder.decoder.1.dconv.bias f4 [32]
00000000: d018 c03b f598 473e 5807 3fbd 22d4 49be
00000010: ae4d a13a b81f 493e 7b58 2ebc 73f0 193d
00000020: 19d7 1f3d db24 8a3e a8b6 633e 5caa 233e
00000030: 263d 283e 73b1 9a3e 16f6 963d d204 9bbc
00000040: 733d 7b3e cc35 973e a737 05be 9796 b2bc
00000050: 4778 7a3d 8bfd 473e 1252 043e c3fe d53d
00000060: 1414 2e3e 9261 05bd e911 093e e19d 2b3e
00000070: c01f 323d 9f05 0c3c f80e febc 0f01 6e3e
0.005862333 0.19491942 -0.046637863 -0.19709828 0.0012306476 0.19641006 -0.010641213 0.037582826
0.039023492 0.26981243 0.22237647 0.15982956 0.16429576 0.30213508 0.07371156 -0.018923197
0.2453516 0.2953323 -0.13009511 -0.021800322 0.06114986 0.19530313 0.12921932 0.104489826
0.16999847 -0.032563753 0.13385738 0.16759445 0.04348731 0.008546262 -0.031012997 0.23242591

decoder.decoder.2.dconv.weight f4 [32, 32, 3, 3]
00000000: a67b 0cbf 0e43 c83e 10e3 23bf 58cc b1bc
00000010: 67e4 c43e b9b1 00be 63fd c9bd 6d01 fd3e
00000020: 06eb 1c3f 65ae a13e 41bf 273e 357f a2be
00000030: 4fa7 2b3f fdf9 dd3e 5fed b4bc ca06 0dbd
00000040: 66fb 8a3e bd72 e6be 6019 683e b8e3 8f3f
00000050: 313e e3bd 2809 75be b01c 7e3e f63e d13e
00000060: 5dd7 a73e d1be e73d 02bd 693b ed7a 2dbc
00000070: 1ea4 c6bd 4436 95bd b707 b4bd 861b cf3e
00000080: 6d3a 54bd 184f c3bd 6839 033f a284 16bc
00000090: 52e9 95be 75aa b8be cf11 ec3e 36f7 28be
000000a0: d89a bb3d 9a4b 19bf bf68 fbbe 0b7c ffbe
000000b0: b4a5 31bf e57f 98be fd03 483d 782f 04be
000000c0: 38be b9bd b376 1e3e 3a17 7dbe 047d f5bd
000000d0: ff55 edbe fef3 e93e c32c c3be 500e d53c
000000e0: 78fa 5dbf 3f78 55bf ffc3 043f dd5c c6be
000000f0: 3c80 e0be db59 a2bf 7098 8cbf 9b9f 363f
00000100: a57c 15bd de0a e9bd ea9a 4bbe 6595 9f3d
00000110: bc61 083d 37bb 133e 5518 083f 9508 fdbd
00000120: d746 123e 1362 843e 318a 623b 034d 8d3e
00000130: b040 8d3e 9ae8 c73e 1468 213f a567 e13e
00000140: ae9f a43e 3afd c53c 6b25 973e 5cd3 5bbc
00000150: 5406 0fbe 1065 8fbf e62e 7b3e 6bdc 883b
00000160: 0754 e5be ed19 093d 7e6d 16c0 187e 883b
00000170: ec6b fbbf 0cce 31bc 3ace 16bd d992 fcbc
00000180: b26b 143e 8cd6 31bd 6938 333e af72 b63d
00000190: fe94 d0bf cc6e a7be f29e 033e d61d 87bc
000001a0: 300c 56bf 3f2e 96be 1316 26bf de56 a2be
000001b0: 37f8 d43e d0d4 e6be 416e 453d 2d63 d9be
000001c0: 3901 e8bd d654 11bf af52 8ebe 4c66 313f
000001d0: ad79 ffbd 7a28 23be 888d 553e ca29 1b3d
000001e0: 9b94 38bf fd82 053f 1170 f63e a1df 34bd
000001f0: 5a6d 47be fcc4 44bc 4cca c0ba 27f9 2fbf
00000200: 8fda 30bd 98cc 5cbd 2f24 013c 9447 a9bb
00000210: cc3e b43c a431 a0bd acf4 debc 7d80 033f
00000220: d3f4 b2be 2ec9 8cbe f1c8 2bbd f1d4 a9bc
00000230: 00e0 7eb8 4cc0 2abe aa74 bbbe a2b8 db3d
00000240: 4c08 03bd f49d 26bf b2a8 203d 3997 87bb
00000250: 5d0d 1c3e 4f48 b7be 35a5 793c 7c38 4bbf
00000260: 9444 d5bd 4edd 3cbd 0e17 ddbe 7758 003f
00000270: 6165 6b3d f03d 543c 65a6 a83e bfb1 4e3f
00000280: e5ab 4d3e 9878 d6bf 8c75 93bc 1955 7d3c
00000290: bfb2 15bd 8baf ae3e d0df 4e3e a915 bcbe
000002a0: a438 42bd ac6b 6abc ee96 b03c eb62 2abd
000002b0: de13 88bd aab9 9d3e b520 2fbe 9e04 b53d
000002c0: 94a8 843d 5d6d 9f3e f7aa bdbd 37f5 5bbd
000002d0: ee1e f0bd 44f8 833e ff26 8a3e 0192 e23d
000002e0: 5b31 083f 1eea 353e e392 99be 472a a83e
000002f0: 819f ba3e e331 9cbe ff3d 08bd 9bae 86bf
00000300: 027d bcbd 0927 883e 6932 383e 81a8 d7be
00000310: 8609 6d3e dc11 3e3f bbcc 80bf f808 dc39
00000320: f721 053f 9fa7 98be 7dd3 ab3e 70fc 87bd
00000330: 5149 61bf f26b 8dbf 047d 1ebf 4863 56be
00000340: 6411 f73d 5cf2 a03d 22fb 14be 2970 ddbf
00000350: d0c7 69be 744c 8abe efcf c13e e67a 3dbf
00000360: 74e9 6bbc 56b4 7fbd de5f 843c 998d cc3e
00000370: 663c 513e 327a 7a3f 48c1 61bd 1c48 7c3e
00000380: 1a42 12bd 44bc c63d bd74 d13d aefc 07bd
00000390: b47a 3e3f de69 123f 2a7b 13be 74ba cd3d
000003a0: ba7e 33be 58db ffbe 2c80 b3bd afd1 513e
000003b0: b668 953e fbf0 c6bf ce6a cebe c854 dabe
000003c0: a9c6 293f 7969 7f3d 4ae5 0e3f 12e8 03bd
000003d0: 3294 503c e01a 20bd d257 283d c38e 5f3d
000003e0: 1fb1 143e f717 acbc c485 a0bd 6996 02bd
000003f0: 2230 0f3e 5e11 8d3e 113c 5ebe 358f 213e
-0.5487617 0.3911366 -0.64018345 -0.021703884 0.38455507 -0.12567796 -0.09862783 0.4941515
0.6129612 0.31578365 0.16381551 -0.31737676 0.6705217 0.43354788 -0.022085844 -0.034430303
0.27144927 -0.45009413 0.2266593 1.1241369 -0.110958464 -0.23929274 0.24815631 0.40868348
0.32781497 0.11315692 0.0035665636 -0.01058839 -0.096992716 -0.07285741 -0.08790534 0.40450686
-0.05181353 -0.0953657 0.5125947 -0.009186896 -0.29279572 -0.36067548 0.46107337 -0.16500553
0.091603935 -0.59880984 -0.49103352 -0.49899325 -0.6939347 -0.29785076 0.04883193 -0.12908733
-0.090694845 0.15474968 -0.24715891 -0.119867355 -0.46354672 0.45693964 -0.38120088 0.026007801
-0.8671031 -0.83386606 0.51861566 -0.38742724 -0.43847835 -1.2683672 -1.098402 0.7133729
-0.036495823 -0.11379026 -0.19883314 0.077921666 0.03329633 0.14426886 0.5316213 -0.123551525
0.14284836 0.25856075 0.0034567232 0.27597818 0.27588415 0.39044648 0.63049436 0.44024387
0.32153076 0.0241686 0.29520735 -0.013417091 -0.13967258 -1.1202717 0.24529609 0.0041766665
-0.4479067 0.03347199 -2.3504329 0.004165422 -1.964231 -0.010852348 -0.036817767 -0.030831741
0.14494208 -0.0434175 0.17501988 0.08908593 -1.6295469 -0.3270172 0.12853602 -0.01649372
-0.83612347 -0.29332158 -0.6487743 -0.317069 0.41595623 -0.45084238 0.04820085 -0.42458478
-0.11328358 -0.56770074 -0.27797458 0.6929672 -0.1247438 -0.1593341 0.20854771 0.03788165
-0.72101754 0.52153 0.48132375 -0.04415858 -0.19475308 -0.012009855 -0.0014708727 -0.6873955
-0.043177184 -0.053906053 0.007882162 -0.0051660035 0.0220026 -0.07821968 -0.027216278 0.5136793
-0.3495241 -0.27497238 -0.04193968 -0.020731421 -6.0766935e-05 -0.16674918 -0.36612445 0.10728575
-0.031990334 -0.6508477 0.03922338 -0.0041379 0.15239473 -0.35797355 0.015237142 -0.79383063
-0.10413471 -0.04610949 -0.43181652 0.50134987 0.05746973 0.01295422 0.3293945 0.8073997
0.20085104 -1.6755552 -0.018000387 0.015462183 -0.03654742 0.34118304 0.20202565 -0.36735275
-0.047417298 -0.014307898 0.021556344 -0.04159824 -0.06644414 0.30805713 -0.1710232 0.08838771
0.06477466 0.31138125 -0.092611246 -0.053700652 -0.11724649 0.2577535 0.26982877 0.11063004
0.5320031 0.1776509 -0.29994878 0.32844755 0.36449817 -0.3050681 -0.03326225 -1.0522035
-0.09203531 0.2659228 0.1798798 -0.42120746 0.23148164 0.74246 -1.0062479 0.00041968352
0.5200495 -0.29815385 0.3355979 -0.066399455 -0.88002497 -1.1048567 -0.6190951 -0.2093631
0.12063864 0.078587264 -0.14548925 -1.7299854 -0.22830129 -0.27011454 0.37853953 -0.74015653
-0.014398921 -0.06242784 0.016158994 0.3995178 0.20433196 0.97842705 -0.055115968 0.24636883
-0.03570757 0.097038776 0.10227344 -0.03319996 0.7440598 0.5719279 -0.14402452 0.10045329
-0.17528811 -0.49972034 -0.08764681 0.20490144 0.2918145 -1.5542291 -0.4031586 -0.42642808
0.66318756 0.062356446 0.5581862 -0.03220374 0.012730645 -0.03908813 0.041099377 0.054579508
0.14520691 -0.021007521 -0.07838014 -0.031881724 0.13983205 0.27552313 -0.21702601 0.15777285

decoder.decoder.2.dconv.bias f4 [32]
00000000: 730c c03d 3185 ba3d cb80 4b3e 799d 6d3d
00000010: 660e 323e f061 ba3e bf8a a93e ac10 17bd
00000020: 6b5b e2bd f3aa 88bd db80 c4be 73bd 20be
00000030: 6e70 fd3d 2951 7c3e 4092 5b3d 3b3f 65bc
00000040: 568a 933d 32d1 8b3e f42d 0d3e 49a8 bf3e
00000050: 1d54 543e 59f2 663e e9a2 7a3e 600f f93c
00000060: 96bf e43d 190d 333e c3e9 493e df73 043e
00000070: 5398 af3d 868d 203e 07fc 453e 52f7 32be
0.093773745 0.091074355 0.1987335 0.058011506 0.17388305 0.36402845 0.33113667 -0.036881134
-0.11052593 -0.06673231 -0.3837956 -0.15697269 0.1237496 0.24640335 0.05360627 -0.013992126
0.0720412 0.2730804 0.13787061 0.3743308 0.20735212 0.22553386 0.24476208 0.03040284
0.111693546 0.17485465 0.1971808 0.12934826 0.085739754 0.15678987 0.19334422 -0.17477158
