saved_model/mnist_model/mnist_cae_1/mnist_cae00001.pth (torch, 539651 bytes, 51 tensors)

encoder.encoder.0.conv.weight f4 [32, 1, 3, 3]
0.0015576278 -0.07368799 0.04338181 -0.09600872 0.25238076 0.28282574 -0.155239 -0.3220919
0.2852404 0.030554967 0.3223571 -0.07380611 -0.05617658 -0.08359825 0.36045194 0.00043279942
-0.039383467 0.019962385 -0.075501695 0.19714928 -0.24091384 0.0661369 -0.14595056 -0.032463785
0.35153982 -0.038058434 -0.22613172 0.30019316 -0.17847836 0.16878113 -0.14359571 0.34004703
0.20592855 -0.16177085 0.13370551 0.095126905 0.21465524 0.41606984 0.15230598 -0.25344193
-0.24204251 0.30403426 -0.30758786 -0.19939135 0.07499951 0.28414112 -0.082443915 0.25395468
0.02926701 0.037494637 -0.17743748 -0.029259121 -0.100037366 0.29312342 -0.27106673 0.29207247
0.12811552 -0.31731448 0.018731654 -0.17722243 0.23685302 -0.09521977 -0.16100639 0.08417704
0.2569851 -0.25861308 -0.24478073 0.15885666 0.40150285 0.33091348 0.3390605 -0.19576631
0.16785602 0.22471449 -0.34310448 0.074559584 -0.30668932 -0.07931879 0.054265868 0.18510199
0.012036859 0.11820726 0.21601321 0.07409784 0.41718692 -0.14081256 0.10883436 0.34729317
0.06776773 0.024299303 -0.378075 -0.29277912 0.048982847 -0.2505426 0.3131582 0.27694166
0.058042023 -0.083324924 0.32613194 -0.35523525 -0.34320298 -0.2633682 0.26288357 0.08984044
-0.09721167 -0.053920202 -0.3555725 0.30616444 -0.117118314 -0.14527285 0.1547929 -0.19687814
0.12456753 -0.31841433 0.2666109 -0.005619506 -0.27349213 -0.32075202 -0.26622456 -0.23935726
-0.028378302 -0.20248659 -0.12953258 0.021709796 0.30092096 -0.06365409 -0.14383051 0.03513401
0.388741 0.09333604 0.035728823 0.15616223 -0.051402416 0.159907 0.36970946 -0.13482979
0.25858572 -0.16510285 -0.24394856 -0.04534565 -0.21952672 -0.27726683 0.084379755 0.009454077
0.08820271 -0.22550356 0.3007449 -0.3145939 -0.14674167 -0.08914198 0.1817572 0.021896379
-0.04116885 -0.08118429 0.048375096 -0.17037167 0.026095316 0.06749252 -0.18772757 -0.26649186
-0.10786465 0.12600647 -0.34711406 -0.346251 -0.11741066 0.15816063 -0.21161039 0.24585506
0.033394042 0.19617835 0.34769797 0.1790797 0.37346068 0.20227093 0.36531463 -0.059938494
-0.17365791 0.024887789 0.30862227 0.3462765 -0.15258206 0.073133305 -0.31966114 0.11392248
0.105570994 -0.08714656 0.26061246 0.34781837 -0.11428373 -0.06618652 -0.2281557 0.059898887
0.028918266 -0.0968244 -0.1139342 -0.096423194 -0.17584392 0.2610463 0.24014342 -0.1902115
-0.3186314 -0.005056828 0.092929 -0.17665555 0.15787111 0.09997026 0.2639446 -0.095606565
0.052152973 -0.2885897 -0.10279794 -0.029612359 -0.20949551 -0.27532047 -0.106469385 0.04643392
0.2661643 -0.30134964 -0.2327463 -0.20401853 -0.2894688 0.3205056 0.2720811 -0.0019971868
0.15377788 0.08883745 0.04091477 0.0017039084 -0.21972343 -0.18926619 0.37626886 -0.34988663
-0.15538172 -0.014497361 0.042694803 -0.17195578 -0.036225732 -0.33895874 0.17874515 0.3172277
-0.16775234 -0.15839282 -0.008127278 0.16403472 -0.06593439 -0.14686355 -0.112180755 0.12218225
-0.26995215 0.096506596 -0.30579638 0.19966331 0.014050651 0.17952159 0.21602134 -0.044774827
00000000: 5129 cc3a bbe9 96bd 20b1 313d 38a0 c4bd
00000010: 0d38 813e 89ce 903e f9f6 1ebe 3be9 a4be
00000020: 080b 923e 694e fa3c fd0b a53e a827 97bd
00000030: 6a19 66bd 8f35 abbd 288d b83e 5be9 e239
00000040: 8f50 21bd 2888 a33c a2a0 9abd 80e1 493e
00000050: 1eb2 76be c872 873d 1074 15be bff8 04bd
00000060: 07fd b33e 29e3 1bbd 138f 67be ebb2 993e
00000070: 08c3 36be f6d4 2c3e c10a 13be a51a ae3e
00000080: efde 523e 42a7 25be 19ea 083e e5d1 c23d
00000090: 95ce 5b3e 1b07 d53e 19f6 1b3e 24c3 81be
000000a0: fed9 77be 61aa 9b3e 287c 9dbe 3f2d 4cbe
000000b0: 5899 993d f27a 913e 5bd8 a8bd 5906 823e
000000c0: 5ec1 ef3c fa93 193d 2cb2 35be d3b0 efbc
000000d0: 64e0 ccbd 4614 963e 42c9 8abe 868a 953e
000000e0: b730 033e 0b77 a2be 2073 993c cc79 35be
000000f0: 9989 723e 9502 c3bd dcde 24be 0365 ac3d
00000100: 8d93 833e ef68 84be cda7 7abe 52ab 223e
00000110: c891 cd3e 7e6d a93e 5699 ad3e f776 48be
00000120: 73e2 2b3e 8e1b 663e 64ab afbe b2b2 983d
00000130: 6206 9dbe e471 a2bd e345 5e3d 608b 3d3e
00000140: 3f36 453c a616 f23d 9132 5d3e 9cc0 973d
00000150: 8699 d53e 2b31 10be 8de4 de3d 69d0 b13e
00000160: cfc9 8a3d 550f c73c 0c93 c1be 25e7 95be
00000170: 3da2 483d 1f47 80be 4656 a03e 4ccb 8d3e
00000180: 79bd 6d3d 42a6 aabd c4fa a63e 65e1 b5be
00000190: 4db8 afbe 32d8 86be ad98 863e 44fe b73d
000001a0: e916 c7bd 6edb 5cbd 990d b6be 96c1 9c3e
000001b0: badb efbd 68c2 14be 0882 1e3e 6c9a 49be
000001c0: 431d ff3d 3407 a3be 3981 883e d523 b8bb
000001d0: 2907 8cbe 9c39 a4be 964e 88be 121a 75be
000001e0: 9d79 e8bc a558 4fbe 30a4 04be bed8 b13c
000001f0: 5012 9a3e 135d 82bd 4e48 13be aee8 0f3d
00000200: 0f09 c73e f726 bf3d 6358 123d fee8 1f3e
00000210: 578b 52bd a9be 233e 8f4a bd3e d210 0abe
00000220: 5965 843e b910 29be a7cd 79be 5cbc 39bd
00000230: 9dcb 60be ebf5 8dbe 4bcf ac3d 46e5 1a3c
00000240: 9fa3 b43d 68ea 66be 3cfb 993e 7412 a1be
00000250: 7343 16be 1290 b6bd 8f1e 3a3e 0960 b33c
00000260: aba0 28bd f343 a6bd f724 463d e975 2ebe
00000270: d8c5 d53c 8539 8a3d a83b 40be 9f71 88be
00000280: 24e8 dcbd d707 013e efb8 b1be d047 b1be
00000290: 0075 f0bd dcf4 213e 65b0 58be 6ec1 7b3e
000002a0: 31c8 083d fae2 483e 7805 b23e ab60 373e
000002b0: 3d36 bf3e 1c20 4f3e 850a bb3e 1182 75bd
000002c0: 61d3 31be 7ae1 cb3c bd03 9e3e 274b b13e
000002d0: 793e 1cbe eac6 953d a0aa a3be 3050 e93d
000002e0: 9b35 d83d e579 b2bd ff6e 853e 4015 b23e
000002f0: 970d eabd cc8c 87bd a6a1 69be 8958 753d
00000300: 00e6 ec3c df4b c6bd 5556 e9bd 8679 c5bd
00000310: 6e10 34be dca7 853e 28e8 753e cec6 42be
00000320: a823 a3be bfb3 a5bb 8f51 be3d 31e5 34be
00000330: f7a8 213e 35bd cc3d bf23 873e 60cd c3bd
00000340: 5b9e 553d 07c2 93be ba87 d2bd 9e95 f2bc
00000350: fe85 56be cef6 8cbe 9f0c dabd 7e31 3e3d
00000360: b046 883e 804a 9abe 0c55 6ebe 3cea 50be
00000370: 4135 94be 4f19 a43e 374e 8b3e 3ce3 02bb
00000380: f377 1d3e 69f0 b53d 3f96 273d ae55 df3a
00000390: 2eff 60be ffce 41be 50a6 c03e 5724 b3be
000003a0: 631c 1fbe 5786 6dbc bfe0 2e3d 2d15 30be
000003b0: 6f61 14bd 008c adbe f808 373e ab6b a23e
000003c0: 45c7 2bbe ba31 22be 4628 05bc b8f8 273e
000003d0: 9c08 87bd 6663 16be 06bf e5bd b03a fa3d
000003e0: 2b37 8abe 40a5 c53d 5891 9cbe 8a74 4c3e
000003f0: b434 663c 82d4 373e b334 5d3e cf65 37bd

encoder.encoder.0.conv.bias f4 [32]
0.26092458 0.27878746 0.0557115 0.105432734 -0.0013711855 0.2567423 0.27414072 -0.0020477094
0.19409432 -0.114789665 -0.0015018671 0.23106375 0.15051825 0.27817073 -0.074820146 -0.23436652
0.18664978 0.07436665 0.094211504 0.1397941 0.022803571 -0.27978727 0.016575709 0.09493539
0.015045307 0.063540876 0.0127295535 -0.26141548 0.1735934 0.22516736 -0.003312705 0.016114905
00000000: e897 853e 3bbd 8e3e be31 643d 1eed d73d
00000010: 5ab9 b3ba ba73 833e 2c5c 8c3e dd32 06bb
00000020: a9c0 463e d816 ebbd 4cda c4ba fa9b 6c3e
00000030: 7521 1a3e 656c 8e3e 4e3b 99bd c7fd 6fbe
00000040: 1f21 3f3e 8b4d 983d f6f1 c03d 2f26 0f3e
00000050: 8ece ba3c 4740 8fbe c8c9 873c 7c6d c23d
00000060: 9780 763c b821 823d 9e8f 503c 40d8 85be
00000070: 78c2 313e 4692 663e f819 59bb 6803 843c

encoder.encoder.1.conv.weight f4 [32, 32, 3, 3]
-0.013966488 -0.050517447 -0.03405454 0.029237462 0.021886252 0.017082091 -0.036528327 -0.056670528
0.031303246 -0.040575467 -0.055712216 0.00888925 -0.07475685 -0.020491894 0.037942886 -0.07353008
0.02180237 -0.05094396 -0.06784044 -0.0033353586 0.016398033 -0.022545839 -0.028575134 0.04503735
-0.04346578 -0.04586156 -0.015708229 -0.04674797 0.018454965 3.9673167e-05 -0.023695294 -0.053695682
-0.056734882 0.025083156 -0.024270903 0.01507783 -0.051630616 -0.03936838 -0.04022947 -0.02484038
-0.025719773 0.012253759 0.004863443 -0.029665198 -0.026821377 0.023074875 -0.010325664 0.004993006
-0.03876003 0.0023335712 0.019688493 -0.0006890825 -0.023397053 0.030556316 -0.008642812 -0.023462584
-0.07025161 -0.029794449 -0.020830976 -0.028812455 -0.0036528502 -0.023235504 0.018733786 -0.05641601
-0.03228071 0.04598562 -0.07475714 0.031822287 -0.037398353 -0.034795552 0.044465985 -0.046828
-0.04372528 -0.018862896 0.014904386 -0.008362211 0.017901456 -0.06546252 0.028401464 -0.066158205
-0.031049168 -0.029778063 -0.020285495 0.0011951824 -0.013144907 -0.053145584 -0.0327811 -0.031580124
-0.06490175 -0.0057381047 -0.000100448975 0.0027423208 -0.026662607 -0.030641202 0.047367126 -0.05510005
0.0029658622 -0.016091881 -0.032617763 0.0032891212 -0.06875794 -0.071171656 -0.015667483 0.04057521
0.043636944 -0.074192435 -0.013965014 0.042102132 -0.03252049 -0.034992848 -0.07009397 0.00010599423
0.010334536 -0.023410942 0.033387203 -0.0698087 0.040343553 -0.004506464 0.019303229 -0.02508784
-0.075482264 -0.04670101 -0.039236847 9.30031e-05 0.00087105745 0.019270914 -0.04566614 -0.04844517
0.00035402528 -0.014764755 0.05474319 -0.05605046 0.0071132365 -0.022993354 0.017799718 -0.036438465
0.043546904 0.026494663 0.045472737 -0.0110502355 0.007971891 -0.010059942 -0.041041885 -0.037772313
-0.03210939 -0.044821586 -0.06542082 0.038865857 0.026124788 -0.062182795 0.039203428 0.04054707
-0.048697792 0.012110867 -0.045006696 -0.03969534 0.031915262 -0.07074919 -0.00021119363 0.019786356
-0.06076905 0.039346494 -0.020830732 -0.012358842 -0.022985756 0.003932793 -0.05764811 -0.054316394
0.0072711743 -0.014224975 0.03244479 0.01764075 -0.03290671 0.023190498 0.030293457 0.006987545
-0.07013299 -0.025605274 -0.0036340177 -0.0021505193 0.034034934 0.034386907 0.043549947 -0.0026087894
-0.02200822 -0.053001344 -0.0031562948 0.017200006 0.018497165 -0.015838139 0.005618345 -0.03567277
-0.04160679 0.012194316 0.02342024 -0.023135044 0.024726052 0.05151548 0.016457979 -0.019940615
-0.02142921 -0.028881913 -0.07684831 0.013425461 -0.005553614 -0.016631866 -0.0123136975 -0.022960149
-0.0020050853 -0.026316376 -0.05368254 -0.041349996 -0.007441057 -0.0036928486 0.018153528 -0.055756815
0.024771614 -0.007153561 0.021949645 -0.05543874 -0.0059093395 0.02549738 -0.041769043 -0.06059241
-0.07509118 -0.02800844 -0.055003747 -0.07152423 0.04102154 -0.0040711043 0.039033487 -0.06667805
0.02050471 -0.06041441 0.012322715 0.009942383 0.0380078 -0.0599659 0.045312207 0.03125791
-0.049407236 -0.023684124 0.012104009 -0.01359392 -0.0091047175 0.009864982 -0.013495576 0.05673867
0.03526644 0.03480078 -0.04109726 -0.031496413 -0.039331906 -0.020704722 0.0015337818 -0.022243027
00000000: b2d3 64bc 62eb 4ebd c67c 0bbd 6783 ef3c
00000010: cc4a b33c beef 8b3c ba9e 15bd 5b1f 68bd
00000020: d537 003d 7632 26bd 7e32 64bd 38a4 113c
00000030: 1f1a 99bd 9ede a7bc 006a 1b3d f096 96bd
00000040: e29a b23c 9daa 50bd eeef 8abd 0896 5abb
00000050: 2b55 863c 0db2 b8bc 6616 eabc 1679 383d
00000060: 2c09 32bd 55d9 3bbd 8bae 80bc cd7a 3fbd
00000070: de2e 973c bd66 2638 a21c c2bc 01f0 5bbd
00000080: d662 68bd 317b cd3c c6d3 c6bc 0109 773c
00000090: a07a 53bd bd40 21bd a8c7 24bd 0d7e cbbc
000000a0: 46b2 d2bc fec3 483c 845d 9f3b 6e04 f3bc
000000b0: 81b8 dbbc 8507 bd3c f92c 29bc 5f9c a33b
000000c0: d6c2 1ebd d4ee 183b c349 a13c 8ba3 34ba
000000d0: 2dab bfbc 3d51 fa3c 959a 0dbc 9b34 c0bc
000000e0: 13e0 8fbd 7d13 f4bc b9a5 aabc 1908 ecbc
000000f0: a864 6fbb 6258 bebc 9977 993c 7914 67bd
00000100: c738 04bd 6b5b 3c3d 451a 99bd 1658 023d
00000110: 042f 19bd c885 0ebd f721 363d b8ce 3fbd
00000120: 4719 33bd 5c86 9abc 8731 743c a801 09bc
00000130: 13a6 923c 3711 86bd 30aa e83c f47d 87bd
00000140: d35a febc 20f1 f3bc c42d a6bc aba7 9c3a
00000150: bc5d 57bc 2faf 59bd 7a45 06bd 295a 01bd
00000160: 35eb 84bd b606 bcbb 22a8 d2b8 82b8 333b
00000170: 8a6b dabc 4203 fbbc 0804 423d 97b0 61bd
00000180: e95e 423b 1fd3 83bc 349a 05bd 4c8e 573b
00000190: f6d0 8cbd 72c2 91bd 1859 80bc 3132 263d
000001a0: a7bc 323d 34f2 97bd 84cd 64bc 4973 2c3d
000001b0: 3534 05bd a954 0fbd 6d8d 8fbd 3849 de38
000001c0: 3052 293c 4ec8 bfbc 05c1 083d ddf7 8ebd
000001d0: 483f 253d f6aa 93bb ce21 9e3c 0485 cdbc
000001e0: 7296 9abd 8f49 3fbd d1b6 20bd a90a c338
000001f0: ad57 643a 09de 9d3c 6b0c 3bbd 716e 46bd
00000200: 789c b939 dfe7 71bc 653a 603d 2b95 65bd
00000210: 2716 e93b 8f5c bcbc b7d0 913c 8040 15bd
00000220: 3d5e 323d 560b d93c 9f41 3a3d 0c0c 35bc
00000230: 899c 023c 74d2 24bc 891b 28bd 24b7 1abd
00000240: 2385 03bd d796 37bd 5afb 85bd ce31 1f3d
00000250: a703 d63c 63b3 7ebd c693 203d af14 263d
00000260: 5677 47bd a86c 463c f158 38bd 9597 22bd
00000270: 94b9 023d f4e4 90bd dc73 5db9 ff16 a23c
00000280: f8e8 78bd ca29 213d 36a5 aabc be7c 4abc
00000290: a04c bcbc a9de 803b 6d20 6cbd de7a 5ebd
000002a0: 0843 ee3b df0f 69bc d4e4 043d 5683 903c
000002b0: 30c9 06bd 00fa bd3c fc29 f83c c7f7 e43b
000002c0: e3a1 8fbd 27c2 d1bc b328 6ebb baef 0cbb
000002d0: 3768 0b3d 49d9 0c3d 6e61 323d 39f8 2abb
000002e0: 954a b4bc f017 59bd d7d9 4ebb 07e7 8c3c
000002f0: 5e87 973c fcbe 81bc 181a b83b 9c1d 12bd
00000300: e26b 2abd abca 473c cedb bf3c b485 bdbc
00000310: 4a8e ca3c e501 533d e2d2 863c 805a a3bc
00000320: 508c afbc c399 ecbc a662 9dbd 77f6 5b3c
00000330: 17fb b5bb 8d3f 88bc 64bf 49bc ec16 bcbc
00000340: c067 03bb 7195 d7bc 39e2 5bbd 9d5e 29bd
00000350: 1cd4 f3bb b803 72bb b5b6 943c 4261 64bd
00000360: d7ed ca3c 6b68 eabb becf b33c bb13 63bd
00000370: 22a3 c1bb e2df d03c 0416 2bbd bf2f 78bd
00000380: 68c9 99bd f571 e5bc 9c4b 61bd 4c7b 92bd
00000390: 3406 283d e666 85bb 94e1 1f3d 808e 88bd
000003a0: 7ef9 a73c 1a75 77bd 36e5 493c 60e5 223c
000003b0: 11ae 1b3d ce9e 75bd 4b99 393d 4b08 003d
000003c0: 3e5f 4abd 3505 c2bc e54f 463c 08b9 5ebc
000003d0: f42b 15bc bca0 213c 8c1c 5dbc cf66 683d
000003e0: 8b73 103d 438b 0e3d 9a55 28bd 6202 01bd
000003f0: 7e1a 21bd f39c a9bc 2d09 c93a 0237 b6bc

encoder.encoder.1.conv.bias f4 [32]
0.007458502 -0.05069527 -0.023879167 0.060959868 -0.06459401 -0.010746783 -0.013144012 0.046282873
-0.068237945 0.05800189 -0.038858566 -0.0572909 0.030359058 -0.052683763 -0.02373093 0.025884857
0.035032816 -0.0051630395 0.00994939 0.051119503 -0.048632674 0.059274748 0.05201559 -0.058626957
-0.013564889 -0.05814313 -0.01809054 -0.040383916 0.007491823 -0.011498888 0.055517763 0.018414052
00000000: 7366 f43b d8a5 4fbd 3e9e c3bc 0eb1 793d
00000010: dd49 84bd 4613 30bc fb59 57bc 1c93 3d3d
00000020: 56c0 8bbd 6493 6d3d 292a 1fbd dda9 6abd
00000030: 8fb3 f83c eeca 57bd 5e67 c2bc 7b0c d43c
00000040: 927e 0f3d b72e a9bb c402 233c af62 513d
00000050: 0e33 47bd 14ca 723d 4d0e 553d d222 70bd
00000060: 453f 5ebc 7e27 6ebd 9d32 94bc 9b69 25bd
00000070: f77d f53b d565 3cbc 9866 633d 11d9 963c

encoder.encoder.2.conv.weight f4 [32, 32, 3, 3]
0.06396536 0.07643849 -0.023732694 -0.036940496 0.058718756 -0.0008557256 -0.007613689 -0.011969447
0.0033061297 0.02962176 -0.045172144 0.026805835 -0.00013027411 -0.023042917 -0.048727006 0.069991104
0.05561432 0.042894896 0.06328696 -0.0029733488 0.017320087 0.03992996 0.0067744143 0.023908695
0.004971055 0.065915525 0.022585867 -0.03661204 0.0482809 -0.047842674 0.00884618 0.04795334
-0.049011726 -0.009054237 0.011750222 0.06529522 0.023727851 0.05339932 0.022946231 -0.036436163
-0.006642933 -0.0014162525 0.041496463 0.05714801 0.006656941 -0.0034143315 0.062449742 0.030934544
-0.016107908 0.02837418 -0.03669628 0.037953466 -0.03022872 0.079485804 0.042283252 0.06645041
-0.03160073 -0.017342836 0.038929183 -0.021048196 0.028815182 0.035287783 0.04002981 0.022305714
0.04899788 0.011936764 -0.006953596 -0.04682509 0.05118673 -0.026286473 -0.056736458 -0.0010918713
0.043703582 -0.039368823 -0.0030039095 0.025909381 0.03253362 0.0054119 0.039359137 0.041898653
-0.039980296 0.060874064 -0.010347802 0.05139929 0.036599237 0.017572831 0.015702482 0.040370613
0.030980023 0.038168695 -0.06354283 0.016708104 -0.018676264 0.06518738 0.04946827 0.0011300198
-0.003788617 -0.006590708 0.03017565 0.019413268 -0.027992478 0.047028646 0.039279535 0.036560822
0.02689831 -0.02398014 0.020537157 -0.017510885 0.033032138 0.02961874 -0.031656343 -0.015780905
-0.030165736 0.0320702 0.016240265 0.027186077 0.07068394 0.022758894 -0.07248181 -0.04210789
0.009450802 0.0781576 -0.053773824 -0.090578206 -0.018091034 -0.06273045 0.012305245 -0.046567295
-0.025254771 0.045014407 0.09131693 0.026025942 0.001279357 0.019283114 0.05285172 0.047510743
0.009069341 -0.034925077 0.012419379 0.016406255 0.01795145 0.048558746 -0.014491207 0.022813505
0.016376123 0.055229332 0.07115997 0.11368687 0.0011096516 -0.023075318 0.03793985 0.014194337
-0.10437481 0.037690125 -0.02646238 -0.044620853 0.044642277 -0.016564861 -0.052743267 -0.021143613
0.026366182 0.06416197 0.024668777 -0.014468371 0.05032689 0.03822248 0.06638005 0.035108235
-0.037326876 0.05246571 0.048572153 0.01096576 0.005967414 0.03674839 0.12688933 0.040044993
-0.110969216 -0.14191331 -0.05720107 -0.17953898 -0.057260577 0.07293434 0.054420188 -0.03985899
-0.02372032 0.024259424 0.03753973 0.061070055 -0.035209265 -0.034568366 -0.003499229 0.028020335
0.066410266 0.017627357 0.013959821 -0.021928722 0.034597393 -0.035210934 -0.018914504 -0.0058149956
-0.054779027 0.051077876 -0.0030415223 -0.020050826 -0.0012116448 -0.0034364194 0.041476537 -0.008159973
-0.012758765 -0.059194826 -0.059741568 -0.005818315 -0.032878257 -0.020846894 -0.0091281645 0.042985342
-0.0012040051 -0.02732041 0.056832112 -0.0388959 0.0421861 -0.0062600705 -0.036686797 0.009866809
0.009570273 0.021607962 -0.030048916 -0.06810624 -0.02162145 0.019154375 -0.010783637 -0.015836246
-0.005402654 -0.011805151 -0.01617076 -0.03227243 0.04152707 -0.011285241 0.06695973 0.008302974
0.053779155 0.024963036 0.027661987 -0.045313984 0.069063194 -0.05614003 0.0036367686 0.024253465
-0.029502789 -0.061755046 -0.079815604 -0.034295514 -0.033824354 -0.030884657 -0.0029524863 -0.03945578
00000000: 4500 833d c88b 9c3d 116b c2bc eb4e 17bd
00000010: 1483 703d c652 60ba 417c f9bb 801b 44bc
00000020: a7ab 583b 55a9 f23c 6d06 39bd e997 db3c
00000030: 319a 08b9 80c4 bcbc f895 47bd 7f57 8f3d
00000040: d7cb 633d 8fb2 2f3d 989c 813d 84dc 42bb
00000050: dbe2 8d3c 998d 233d e8fb dd3b 2bdc c33c
00000060: 3be4 a23b b8fe 863d ff05 b93c 82f6 15bd
00000070: 31c2 453d aef6 43bd 91ef 103c b96a 443d
00000080: 85c0 48bd 3958 14bc 0184 403c 80b9 853d
00000090: e960 c23c 3fb9 5a3d bcf9 bb3c 163e 15bd
000000a0: f6ac d9bb 8ca1 b9ba 32f8 293d 0814 6a3d
000000b0: 7822 da3b fac2 5fbb 4dcb 7f3d 716a fd3c
000000c0: bbf4 83bc f870 e83c d74e 16bd 1875 1b3d
000000d0: 38a2 f7bc 74c9 a23d 3431 2d3d 2717 883d
000000e0: c46f 01bd 9012 8ebc 3574 1f3d 446d acbc
000000f0: d10d ec3c ec89 103d 4cf6 233d 79ba b63c
00000100: 00b2 483d 6b92 433c feda e3bb aacb 3fbd
00000110: 2da9 513d bb56 d7bc 7d64 68bd 1f1d 8fba
00000120: 8702 333d 3441 21bd 3ddd 44bb e93f d43c
00000130: f941 053d 4f56 b13b 0c37 213d ec9d 2b3d
00000140: 61c2 23bd 1557 793d d489 29bc 1088 523d
00000150: 15e9 153d e6f4 8f3c 7ea2 803c a85b 253d
00000160: d1c9 fd3c c756 1c3d be22 82bd 6fdf 883c
00000170: f7fe 98bc f680 853d 3e9f 4a3d 2c1d 943a
00000180: 724a 78bb def6 d7bb ed32 f73c 9308 9f3c
00000190: 7b50 e5bc 1ca1 403d 94e3 203d cdc0 153d
000001a0: d859 dc3c 0072 c4bc 8a3d a83c fd72 8fbc
000001b0: b54c 073d 00a3 f23c 15aa 01bd f546 81bc
000001c0: 221e f7bc 0b5c 033d 4e0a 853c 56b5 de3c
000001d0: bec2 903d dc70 ba3c 5871 94bd 5379 2cbd
000001e0: 89d7 1a3c 1711 a03d f141 5cbd 1181 b9bd
000001f0: a633 94bc d278 80bd f09b 493c 59bd 3ebd
00000200: 18e3 cebc 0761 383d 5f04 bb3d 5b34 d53c
00000210: 19b0 a73a 9ff7 9d3c 0c7b 583d a09a 423d
00000220: 9397 143c 990d 0fbd a77a 4b3c 6966 863c
00000230: eb0e 933c 89e5 463d 876c 6dbc 63e3 ba3c
00000240: 3827 863c 2738 623d 51bc 913d a9d4 e83d
00000250: bb71 913a 7308 bdbc d166 1b3d 5d8f 683c
00000260: 76c2 d5bd f660 1a3d a2c7 d8bc 5bc4 36bd
00000270: d2da 363d 08b3 87bc 5309 58bd 5f35 adbc
00000280: e4fd d73c 5a67 833d 2d16 ca3c bf0c 6dbc
00000290: 9223 4e3d 2d8f 1c3d 43f2 873d a7cd 0f3d
000002a0: 11e4 18bd 49e6 563d 98f3 463d bba9 333c
000002b0: 4c8a c33b 7b85 163d 47ef 013e 3806 243d
000002c0: d443 e3bd b951 11be ab4b 6abd 11d9 37be
000002d0: 118a 6abd 995e 953d b4e7 5e3d 2e43 23bd
000002e0: 1e51 c2bc b3bb c63c 43c3 193d 9824 7a3d
000002f0: 9737 10bd 8f97 0dbd 5253 65bb e78a e53c
00000300: 1b02 883d 3f67 903c bcb7 643c dda3 b3bc
00000310: ffb5 0d3d 5739 10bd 97f2 9abc b88b bebb
00000320: f95f 60bd 0937 513d 4754 47bb a141 a4bc
00000330: 0ed0 9eba 8d35 61bb 4de3 293d 68b1 05bc
00000340: 240a 51bc 4676 72bd 93b3 74bd 90a7 bebb
00000350: 5aab 06bd 1bc7 aabc 4c8e 15bc 6611 303d
00000360: b5cf 9dba 0dcf dfbc cac8 683d 4f51 1fbd
00000370: 55cb 2c3d 4721 cdbb e544 16bd 65a8 213c
00000380: a2cc 1c3c 2e03 b13c 2529 f6bc 497b 8bbd
00000390: 781f b1bc a3e9 9c3c daad 30bc 04bb 81bc
000003a0: bf08 b1bb 646a 41bc 8b78 84bc 1830 04bd
000003b0: 4a18 2a3d bbe5 38bc 2f22 893d 3209 083c
000003c0: 8847 5c3d 487f cc3c 649b e23c 289b 39bd
000003d0: 0171 8d3d 17f3 65bd da56 6e3b 34af c63c
000003e0: d5af f1bc dcf2 7cbd 5d76 a3bd 7479 0cbd
000003f0: 688b 0abd d201 fdbc 807e 41bb 629c 21bd

encoder.encoder.2.conv.bias f4 [32]
0.055996634 -0.025345234 -0.019433424 0.04453725 0.004185487 0.027787214 -0.020545889 -0.012184484
0.01749072 -0.046906754 -0.05695057 -0.041742306 0.012323202 -0.060297858 0.07668845 0.025067344
0.023066403 -0.049064085 -0.0017581434 -0.036209732 -0.042509463 0.026130674 0.037065983 -0.025726138
0.014954421 0.040571045 -0.068333805 0.074227385 0.050578296 0.025157783 0.055542376 -0.012065626
00000000: ba5c 653d cfa0 cfbc d832 9fbc b16c 363d
00000010: 6926 893b 03a2 e33c da4f a8bc 6ea1 47bc
00000020: b348 8f3c 4c21 40bd 0045 69bd fbf9 2abd
00000030: 41e7 493c e3fa 76bd d60e 9d3d 085a cd3c
00000040: c1f5 bc3c 6cf7 48bd 8171 e6ba a850 14bd
00000050: 671e 2ebd ff0f d63c 80d2 173d 9fbf d2bc
00000060: 6303 753c d32d 263d 98f2 8bbd 8704 983d
00000070: 302b 4f3d b217 ce3c 6780 633d e7ae 45bc

encoder.encoder.3.conv.weight f4 [10, 32, 3, 3]
0.095753826 -0.023928082 0.059474695 0.012724502 -0.019440241 0.026531752 0.0078960955 0.08869957
0.028338863 -0.055620186 0.06951279 0.036469497 0.046302147 0.0370231 0.06325302 0.02252692
0.032553382 -0.007822521 -0.016376683 0.07568304 -0.057724506 -0.07665204 0.030584058 0.061832335
-0.0607061 -0.0025745346 0.12870753 -0.12683648 0.17906147 0.04306324 -0.037416466 0.04530997
-0.09512131 0.0432027 0.02332733 -0.029452216 0.063290335 0.016778544 0.057335913 -0.036201946
0.04479017 -0.032684885 0.045499004 0.06431681 0.05421364 0.07297719 -0.0067700325 0.008594507
0.022402676 0.04994151 -0.03709544 0.036334023 0.0475022 0.054636218 -0.04295565 -0.005792404
0.02185024 0.04308222 -0.058767725 0.061063312 0.023135306 -0.044339284 0.042223096 -0.049158752
0.055205144 0.044460233 0.056668002 0.01898554 -0.0014718544 0.05195868 0.06240202 0.090266384
0.016252007 -0.040030297 0.02606687 0.0362357 0.0020582168 -0.008410176 -0.0897791 -0.010989625
0.071545646 0.03468576 -0.01981215 -0.015146955 0.013035326 -0.03653177 0.06749396 -0.025139047
0.017779728 -0.029034713 0.05928229 -0.044676386 0.060437255 0.010271086 -0.046026908 -0.029559644
-0.0321977 -0.0001775391 -0.027211515 -0.06241522 -0.024094809 0.06774099 -0.009229279 0.051044818
0.036808334 0.004882864 0.021871349 -0.0014004739 0.16772899 0.027564622 -0.13643266 -0.048238885
0.048566658 0.050154902 0.0011406757 -0.018538492 0.01783213 0.011437861 0.004047988 0.028898839
-0.02415556 0.050840102 -0.03788869 0.07271794 0.06844443 0.015174281 0.039470717 0.030690957
0.032973275 0.05268581 -0.019767735 0.023957442 0.014325196 0.01726544 0.088321105 -0.039679255
-0.079610445 0.017555665 -0.0048938417 0.0048676846 0.105905734 0.06008948 0.11150806 0.041922484
-0.033017736 0.07115316 -0.14819373 0.09030844 -0.056186337 0.09051851 0.041355543 -0.05607597
0.016069341 0.034808386 0.0009992617 -0.043366965 0.04738826 -0.027209574 -0.02391349 -0.009691017
-0.0040789368 0.067592025 0.038835082 -0.022111792 0.01929287 0.049287263 0.01651807 0.022165751
-0.0065182457 -0.017246753 -0.0061913645 0.0042375512 0.008781824 0.019544523 -0.0050854795 0.05721708
0.035320725 0.064417616 0.020764524 0.0306131 0.007006567 0.028448483 0.061712038 -0.031902608
0.047297813 -0.0131739015 -0.0043203994 -0.02367442 0.03322879 -0.01886656 -0.021138398 -0.01915408
0.047850825 0.038749088 -0.0031498475 -0.035444576 -0.03814579 0.09564413 0.015659109 -0.0015958983
0.08119819 -0.062804714 0.020212391 -0.05571411 -0.16228394 -0.101275615 0.13675475 0.0055879713
-0.051896956 -0.009958166 -0.059947003 0.009601886 0.03086375 0.012688941 0.09672223 -0.0031059925
0.043364327 -0.12331507 0.0073301354 -0.039820947 0.079016276 -0.06899735 -0.05926513 0.10355074
0.05747187 0.003574101 0.016630886 0.0060208095 -0.0058177477 0.04435831 -0.00543243 -0.00032544136
0.024312364 0.06886674 0.03243598 -0.033672094 0.040685743 -0.03568004 0.03029286 0.00015894188
-0.053091787 0.02938548 0.024500748 0.028490147 0.029485606 0.00092240574 0.02459197 0.042725172
0.06957406 -0.014183432 -0.03350242 -0.022515746 0.01706745 -0.013969817 -0.068883665 -0.04150533
00000000: 951a c43d d304 c4bc bd9b 733d 6e7a 503c
00000010: 2441 9fbc 1e59 d93c a05e 013c 1fa8 b53d
00000020: e726 e83c fed1 63bd b95c 8e3d 0a61 153d
00000030: 52a7 3d3d 89a5 173d cd8a 813d 608a b83c
00000040: b256 053d 082a 00bc 6528 86bc b6ff 9a3d
00000050: 8870 6cbd bffb 9cbd 6b8b fa3c e743 7d3d
00000060: f6a6 78bd 86b9 28bb e8cb 033e 6ce1 01be
00000070: e45b 373e 1463 303d 0242 19bd f296 393d
00000080: f6ce c2bd 50f5 303d f518 bf3c c645 f1bc
00000090: 5d9e 813d 2873 893c 10d9 6a3d 7e48 14bd
000000a0: e675 373d 96e0 05bd 2a5d 3a3d 88b8 833d
000000b0: 1f0f 5e3d 1175 953d 26d7 ddbb facf 0c3c
000000c0: d185 b73c 788f 4c3d 63f1 17bd fcd2 143d
000000d0: ab91 423d 3aca 5f3d 43f2 2fbd 35ce bdbb
000000e0: 46ff b23c fb76 303d 6db6 70bd 861d 7a3d
000000f0: 4186 bd3c 1c9d 35bd 20f2 2c3d b05a 49bd
00000100: ca1e 623d ef1b 363d b51c 683d 9087 9b3c
00000110: 3deb c0ba a0d2 543d 4399 7f3d 95dd b83d
00000120: ee22 853c cff6 23bd 308a d53c e36b 143d
00000130: 26e3 063b d6ca 09bc 1bde b7bd d40d 34bc
00000140: 8686 923d a812 0e3d 174d a2bc ef2a 78bc
00000150: 1f92 553c 56a2 15bd 463a 8a3d 67f0 cdbc
00000160: cba6 913c 35da edbc fdd1 723d 96fe 36bd
00000170: 0e8d 773d 0f48 283c b686 3cbd 1127 f2bc
00000180: bce1 03bd ca29 3ab9 afea debc 1aa7 7fbd
00000190: 7a62 c5bc cabb 8a3d 6736 17bc 5f14 513d
000001a0: 56c4 163d 6f00 a03b 8b2b b33c 1b90 b7ba
000001b0: 26c1 2b3e 34cf e13c 01b5 0bbe 2396 45bd
000001c0: d5ed 463d 3a6f 4d3d ba82 953a 09de 97bc
000001d0: b014 923c de65 3b3c fca4 843b 42bd ec3c
000001e0: e2e1 c5bc b63d 503d 2c31 1bbd 25ed 943d
000001f0: 982c 8c3d 8c9d 783c 0cac 213d 9a6b fb3c
00000200: fc0e 073d 13cd 573d f2ef a1bc 6642 c43c
00000210: 3ab4 6a3c 4170 8d3c b2e1 b43d b786 22bd
00000220: cd0a a3bd e6d0 8f3c 855c a0bb 1981 9f3b
00000230: 1be5 d83d 6320 763d 565e e43d e9b6 2b3d
00000240: 9b3d 07bd bfb8 913d 19c0 17be a2f3 b83d
00000250: a523 66bd c561 b93d 6e64 293d ebaf 65bd
00000260: daa3 833c 3d93 0e3d a9f9 823a 8fa1 31bd
00000270: 311a 423d 9de6 debc 39e6 c3bc 12c7 1ebc
00000280: 9aa8 85bb b06d 8a3d 8911 1f3d ca23 b5bc
00000290: 150c 9e3c 71e1 493d e750 873c f394 b53c
000002a0: 0297 d5bb 1049 8dbc eee0 cabb 28db 8a3b
000002b0: a4e1 0f3c d61b a03c 18a4 a6bb 755c 6a3d
000002c0: 77ac 103d 62ed 833d 5d1a aa3c 53c8 fa3c
000002d0: 5897 e53b cb0c e93c c3c5 7c3d 4fac 02bd
000002e0: 5abb 413d 59d7 57bc 2392 8dbb dbf0 c1bc
000002f0: e91a 083d 0b8e 9abc 6f2a adbc 04e9 9cbc
00000300: 3aff 433d 5db7 1e3d ac6d 4ebb 552e 11bd
00000310: c33e 1cbd 12e1 c33d 8847 803c 762d d1ba
00000320: 3d4b a63d c29f 80bd 7594 a53c 7b34 64bd
00000330: c32d 26be 9769 cfbd 7009 0c3e 4d1b b73b
00000340: e791 54bd 9327 23bc fd8a 75bd 3b51 1d3c
00000350: fad5 fc3c 47e5 4f3c 4e16 c63d e88d 4bbb
00000360: cb9e 313d 9d8c fcbd a231 f03b 4a1b 23bd
00000370: 49d3 a13d 7c4e 8dbd febf 72bd 6912 d43d
00000380: a067 6b3d 773b 6a3b 7f3d 883c 364a c53b
00000390: cea2 bebb 0fb1 353d 8702 b2bb 00a0 aab9
000003a0: b92a c73c 010a 8d3d 97db 043d c0eb 09bd
000003b0: 18a6 263d 3c25 12bd bb28 f83c a3a9 2639
000003c0: c676 59bd d1b9 f03c cbb5 c83c 2b64 e93c
000003d0: cc8b f13c 9acd 713a 1975 c93c 9700 2f3d
000003e0: d87c 8e3d a061 68bc d539 09bd f172 b8bc
000003f0: 09d1 8b3c a9e1 64bc e112 8dbd 7e01 2abd

encoder.encoder.3.conv.bias f4 [10]
0.047585037 0.03147166 0.043781098 0.06144225 -0.0039503793 0.0017873012 0.08077592 0.01805322
0.06464977 0.037846103
00000000: 87e8 423d 6de8 003d cf53 333d deaa 7b3d
00000010: 2f72 81bb e043 ea3a d86d a53d 59e4 933c
00000020: 1967 843d 8404 1b3d

decoder.decoder.0.dconv.weight f4 [10, 32, 3, 3]
0.03485478 0.0962984 0.05583953 0.12762801 0.0017272547 0.020666214 0.102672845 -0.018301697
0.06785959 0.18292885 -0.0018408407 -0.1119542 0.066001765 0.0020020774 0.098643415 -0.0028740854
-0.03581845 0.0036076 0.07503472 0.10226415 -0.018400423 0.06356648 -0.057168454 -0.014939904
0.13178918 -0.043405805 0.013399222 0.0016917648 -0.019833172 0.104800425 -0.20596105 0.16545168
0.04220688 -0.24744357 0.052460574 0.048057273 0.07092954 0.05879687 -0.016812159 0.015686505
0.06732094 -0.07048918 0.025274258 -0.015476415 0.066139214 -0.010824012 0.031414088 -0.0028754305
-0.05796431 -0.051418155 -0.023343638 0.040451474 -0.057305213 0.10793282 0.042741857 0.18044665
0.0022306924 0.009984225 -0.03134094 -0.05292796 0.072666556 0.14248022 0.21205404 0.026732849
0.014915971 0.10322937 -0.08271889 0.014996376 0.13529104 -0.098928906 -0.032238938 0.0029419137
0.11088549 0.023126582 -0.016575186 0.048723094 -0.008782898 0.051031094 0.12717132 -0.041063093
-0.010423569 0.024176277 0.06078688 -0.022940725 -0.09877725 -0.13598649 0.10883071 -0.035479173
0.06561486 0.05052178 0.12481413 0.06037303 -0.041928153 0.044351216 -0.083928205 0.19374283
0.008061604 -0.022756042 0.047533393 0.122227356 0.003188126 -0.10376839 0.02754134 -0.0008845772
0.14939371 0.05947212 0.11561189 0.053697854 0.033262257 0.011252357 0.09262806 0.06699771
-0.02573757 0.039950468 0.014234576 -0.026430817 0.045198478 0.118386716 0.10059236 0.051943123
-0.17199665 -0.06470665 0.06508965 0.0063127424 -0.047134966 0.033358093 -0.09569364 -0.062402453
0.04754892 0.017836262 0.19608511 -0.06577874 -0.1308792 0.025010431 0.03436475 0.04367542
0.15019406 0.097293064 0.036380075 -0.061694946 0.037730243 0.07679258 0.018504903 0.033339906
0.028464463 0.014665504 -0.030883107 0.05814919 -0.02079135 0.004873439 0.10474954 0.032116946
-0.022634929 0.13138993 0.009144655 -0.09114094 0.016473591 0.012905774 -0.026803488 0.035445873
0.110809214 -0.2054194 0.046151847 -0.009849083 -0.03236262 0.035981894 -0.023376597 0.085011646
0.10118939 0.013941098 0.054305214 0.017947903 0.04249612 0.09596895 -0.08365704 -0.0033173473
0.090352066 -0.013310504 0.04181657 0.10702472 0.102592215 0.072465725 0.06443656 0.023101294
-0.048288032 -0.022135155 -0.037475444 -0.0181451 0.054304514 0.07171115 -0.01622285 -0.012906622
0.021148108 -0.09924605 -0.0008905174 0.015475878 -0.062241714 0.07724143 0.07984887 0.021170551
0.03653437 0.1402717 0.011648891 0.106793396 0.04631238 0.0031135336 0.0071162446 0.013771258
0.05608394 -0.018910868 -0.036730774 -0.011787208 0.07197122 0.00015162674 0.0724631 0.017766992
0.05876654 0.13388778 -0.11081561 0.1799711 -0.079658136 0.09154269 0.09974765 0.01471222
0.10031987 0.051922847 -0.0049685575 0.14336681 0.09019395 -0.054238282 0.06901197 0.14794597
-0.08502838 0.24388659 -0.039886523 -0.028987395 -0.124395 -0.046086892 -0.02606894 0.031629086
-0.09815204 -0.051872343 0.07657409 0.08344921 0.0942833 -0.011535649 -0.031762235 -0.011492093
0.04771184 0.121606395 -0.06928398 0.044389438 0.12601183 -0.0070001455 0.058426287 0.06724823
00000000: e3c3 0e3d 1838 c53d feb7 643d ebb0 023e
00000010: 0d65 e23a 314c a93c 2446 d23d 71ed 95bc
00000020: f8f9 8a3d b351 3b3e 5d48 f1ba 3e48 e5bd
00000030: ef2b 873d 4935 033b 8f05 ca3d 275b 3cbb
00000040: 5eb6 12bd 7c6d 6c3b ceab 993d de6f d13d
00000050: 7cbc 96bc 252f 823d 7829 6abd 80c6 74bc
00000060: bef3 063e 49ca 31bd 6988 5b3c 35be dd3a
00000070: 2d79 a2bc 9ba1 d63d 74e7 52be 2a6c 293e
00000080: 1fe1 2c3d d961 7dbe e6e0 563d b4d7 443d
00000090: 8243 913d fdd4 703d a7b9 89bc fc80 803c
000000a0: 90df 893d a25c 90bd f60b cf3c ca90 7dbc
000000b0: ff73 873d 3257 31bc 0fac 003d b871 3cbb
000000c0: fc6b 6dbd d89b 52bd 283b bfbc 72b0 253d
000000d0: dfb8 6abd e20b dd3d 1612 2f3d 02c7 383e
000000e0: cf30 123b e094 233c 5c5f 00bd fdca 58bd
000000f0: 34d2 943d 56e6 113e b224 593e d9fe da3c
00000100: 1e62 743c ec69 d33d 8568 a9bd 5cb3 753c
00000110: bc89 0a3e 3d9b cabd fa0c 04bd 1fcd 403b
00000120: ef17 e33d f573 bd3c afc8 87bc de91 473d
00000130: 25e6 0fbc fb05 513d 3339 023e c631 28bd
00000140: 9ec7 2abc 540d c63c aafb 783d 30ee bbbc
00000150: ba4b cabd 0b40 0bbe a3e2 de3d 9c52 11bd
00000160: 1561 863d edef 4e3d 8d9e ff3d b649 773d
00000170: dbbc 2bbd 9fa9 353d 8de2 abbd 8564 463e
00000180: d114 043c e16a babc 60b2 423d 5652 fa3d
00000190: e1ef 503b 8684 d4bd 609e e13c f9e2 67ba
000001a0: aafa 183e 0a99 733d edc5 ec3d 48f2 5b3d
000001b0: 013e 083d ce5b 383c c8b3 bd3d 1836 893d
000001c0: 99d7 d2bc 1aa3 233d 2438 693c 7185 d8bc
000001d0: 0a22 393d bc74 f23d 5e03 ce3d 50c2 543d
000001e0: e41f 30be ec84 84bd b94d 853d 1fdb ce3b
000001f0: 9810 41bd 7fa2 083d 07fb c3bd b799 7fbd
00000200: a8c2 423d 5a1d 923c 89ca 483e 01b7 86bd
00000210: 3205 06be ade2 cc3c 0dc2 0c3d ffe4 323d
00000220: 79cc 193e 9641 c73d 4603 153d d7b3 7cbd
00000230: 078b 1a3d 6e45 9d3d 9897 973c 6d8f 083d
00000240: 4e2e e93c 9547 703c 92fe fcbc d82d 6e3d
00000250: 9f52 aabc 5fb1 9f3b ed86 d63d 0f8d 033d
00000260: e36c b9bc 158b 063e 77d3 153c 1aa8 babd
00000270: a0f3 863c bd72 533c fd92 dbbc b12f 113d
00000280: f1ef e23d 7759 52be b809 3d3d 0c5e 21bc
00000290: ab8e 04bd c061 133d 4780 bfbc 961a ae3d
000002a0: 623c cf3d 3469 643c 256f 5e3d 7b07 933c
000002b0: 6910 2e3d 5e8b c43d 6254 abbd da67 59bb
000002c0: 810a b93d 4d14 5abc da47 2b3d c72f db3d
000002d0: de1b d23d e968 943d 51f7 833d ed3e bd3c
000002e0: acc9 45bd c954 b5bc da7f 19bd 08a5 94bc
000002f0: 696e 5e3d 4cdd 923d c8e5 84bc 4c76 53bc
00000300: cc3e ad3c 8341 cbbd 9c71 69ba 898e 7d3c
00000310: 2bf1 7ebd c130 9e3d ce87 a33d dd6d ad3c
00000320: 10a5 153d 62a3 0f3e fdda 3e3c 7fb6 da3d
00000330: 0db2 3d3d 6d0c 4c3b 632f e93b d8a0 613c
00000340: 46b8 653d f7ea 9abc 0273 16bd 221f 41bc
00000350: a665 933d fefd 1e39 8967 943d 158c 913c
00000360: 2fb5 703d e119 093e 4bf3 e2bd 584a 383e
00000370: ce23 a3bd bc7a bb3d 7f48 cc3d 860b 713c
00000380: 8174 cd3d 0dad 543d 48cf a2bb c0ce 123e
00000390: 9bb7 b83d f628 5ebd 2656 8d3d 267f 173e
000003a0: 5c23 aebd 68bd 793e 0d60 23bd f976 edbc
000003b0: cec2 febd 9cc5 3cbd 888e d5bc 808d 013d
000003c0: f003 c9bd 1878 54bd e0d2 9c3d 6be7 aa3d
000003d0: 9a17 c13d 0500 3dbc 1e19 02bd 5549 3cbc
000003e0: 7e6d 433d c60c f93d c2e4 8dbd b3d1 353d
000003f0: 3f09 013e 7a61 e5bb 6750 6f3d 71b9 893d

decoder.decoder.0.dconv.bias f4 [32]
0.086365074 0.053766318 0.040863235 0.16411634 0.038053762 0.06461214 0.07171619 0.005113296
0.07595519 0.066652 0.10809833 0.055426706 0.07742315 0.071219295 0.011862663 0.081960425
0.04906407 0.079748206 0.0606719 0.053919133 0.03365739 0.022950646 0.07356024 0.09010197
0.020026045 0.037371438 0.05788604 0.055813793 0.08808605 0.18741833 0.049999997 -0.0015557371
00000000: 2ce0 b03d 123a 5c3d 3560 273d 1d0e 283e
00000010: 43de 1b3d 5f53 843d f0df 923d 708d a73b
00000020: 658e 9b3d d880 883d a862 dd3d 1d07 633d
00000030: 0790 9e3d 6cdb 913d 9d5b 423c deda a73d
00000040: 68f7 483d 0753 a33d 1983 783d 4fda 5c3d
00000050: 55dc 093d fe02 bc3c c0a6 963d 6287 b83d
00000060: a90d a43c cb12 193d ea19 6d3d 019d 643d
00000070: 7566 b43d 97ea 3f3e cccc 4c3d e0e9 cbba

decoder.decoder.1.dconv.weight f4 [32, 32, 3, 3]
0.05493464 0.03796054 0.032110844 0.027053075 0.0504382 0.038133852 0.052373257 0.034801506
0.028832622 0.057875372 0.07522541 0.08963889 0.07986171 0.06070631 0.07790095 0.10244069
0.021788184 0.0929087 0.069165014 0.09754316 0.08261289 0.047561202 0.05468586 -0.022132218
0.039367102 0.061526667 0.10174032 0.00041354896 0.005616232 -0.0705131 0.027298056 0.034578115
0.15078576 0.023998586 -0.022521054 -0.04593507 0.07997571 0.04155554 0.024291549 0.102237515
0.032988716 -0.020534059 0.008947348 0.09614388 0.10445852 -0.021671938 0.013407995 0.05876476
-0.018512035 0.18910435 0.06496121 0.06991197 -0.028421134 -0.00897864 0.018020177 0.05407166
0.03934154 0.024778225 -0.01710124 0.05966555 0.0572345 0.06909006 0.054670133 0.03344565
0.10291707 0.0060012112 -0.022506464 0.05503084 0.04693671 0.08796903 0.043814998 0.03401422
0.008410595 0.07047353 0.08480838 0.05665441 0.094013885 -0.02673087 0.06539425 0.033154503
0.05245922 0.06500197 0.1875181 0.01665622 0.038257483 0.10862029 0.14145996 0.0078108325
0.033122715 0.0040692883 -0.057790555 -0.005933793 -0.055246003 0.014951208 -0.17781138 -0.005080718
0.003462672 0.051168133 0.11117015 0.06607356 0.14432903 -0.054272328 -0.0772301 0.038650207
0.03614117 0.00800285 -0.094235815 0.061899606 -0.048668444 0.029967267 0.021930432 0.09387805
0.06575633 -0.007715694 -0.0016707112 0.031307437 0.029393328 -0.024752071 0.044686474 0.11459855
-0.065876365 0.23957945 0.14652662 -0.08028216 0.24702005 0.049564734 0.0068049096 0.021283811
0.022551725 -0.0096498 -0.052652437 -0.09511337 -0.20527624 -0.007734714 0.08938939 0.04810933
0.028180977 0.023613507 0.041525446 -0.07105818 -0.042406745 0.09104005 0.03894692 0.05560167
-0.023852274 0.0759389 0.025901327 0.029880865 0.09659258 0.07076011 0.019362228 0.041002553
0.011589623 -0.035461728 0.09726449 0.05202469 0.100804426 -0.05566406 0.00953087 0.033784088
-0.023330547 0.09172387 0.040299788 0.09966881 0.077170886 0.014335242 0.094850615 0.000811824
0.07174284 0.10124666 0.01168705 -0.018434968 0.08526457 -0.043718036 0.07682549 -0.019543406
0.0026368035 -0.015116863 0.02221308 0.049667668 0.05280106 0.057939228 -0.0041901977 0.026074601
0.026058728 0.022383275 0.09655395 0.0025797302 0.08750645 -0.2169705 0.023490211 -0.098291874
0.029104503 0.046286788 0.030911084 -0.17358083 0.056256015 0.11196631 -0.120811045 0.10023563
-0.15646209 -0.07536537 0.04018098 0.009751308 -0.038618974 0.055429727 0.02128376 -0.14924751
-0.016132373 -0.08590433 -0.021384878 -0.11108853 -0.06471069 -0.01279903 0.011294933 0.042673558
0.08856138 0.042971265 0.036875434 0.005540109 0.027810277 -0.039812807 -0.0040556686 0.062554784
-0.0032603203 -0.0451485 -0.0052223345 0.015586243 -0.12760477 0.026627827 -0.08309653 -0.03141634
0.05434928 -0.02437953 0.07379141 0.058998197 -0.028868021 -0.02197818 -0.037734263 -0.042510577
0.10184483 0.041259333 0.06548608 -0.028651174 0.076549046 0.069801494 0.039326485 -0.015068099
-0.010693213 0.05273748 0.09055059 -0.008917246 0.042108286 0.062260285 0.0728704 0.026309317
00000000: 2503 613d 837c 1b3d a986 033d 699e dd3c
00000010: 4998 4e3d 3e32 1c3d 5785 563d 068c 0e3d
00000020: 6432 ec3c ba0e 6d3d c80f 9a3d 9894 b73d
00000030: 898e a33d 2ea7 783d 898a 9f3d 6dcc d13d
00000040: 227d b23c eb46 be3d 63a6 8d3d b5c4 c73d
00000050: f230 a93d 89cf 423d 48fe 5f3d a04e b5bc
00000060: 663f 213d 6303 7c3d 3b5d d03d 9ad1 d839
00000070: 5e08 b83b 2c69 90bd 2ca0 df3c c8a1 0d3d
00000080: 9567 1a3e af98 c43c 137e b8bc 6926 3cbd
00000090: 4eca a33d 2436 2a3d 12ff c63c e761 d13d
000000a0: 2d1f 073d 0b37 a8bc e697 123c 15e7 c43d
000000b0: 59ee d53d 5989 b1bc 35ad 5b3c 51b3 703d
000000c0: 8da6 97bc 92a4 413e 620a 853d 022e 8f3d
000000d0: 70d3 e8bc 251b 13bc 0d9f 933c 3f7a 5d3d
000000e0: 9824 213d b4fb ca3c e617 8cbc dd63 743d
000000f0: b96e 6a3d 177f 8d3d caed 5f3d 4efe 083d
00000100: 2fc6 d23d cfa5 c43b 7a5f b8bc 0568 613d
00000110: b540 403d 1b29 b43d 5b77 333d 7f52 0b3d
00000120: 98cc 093c 6d54 903d 04b0 ad3d 740e 683d
00000130: 5a8a c03d b3fa dabc 6ced 853d 04cd 073d
00000140: 7bdf 563d c11f 853d bf04 403e a072 883c
00000150: e1b3 1c3d 5174 de3d e1da 103e 03f2 ff3b
00000160: afab 073d aa57 853b cab5 6cbd 4370 c2bb
00000170: a249 62bd e9f5 743c 3014 36be 277c a6bb
00000180: ffed 623b ad95 513d 2dad e33d 9351 873d
00000190: fdca 133e a94c 5ebd d12a 9ebd ae4f 1e3d
000001a0: c308 143d 631e 033c b5fe c0bd 718a 7d3d
000001b0: 9058 47bd ea7d f53c 73a7 b33c 2343 c03d
000001c0: 41ab 863d efd3 fcbb c4fb daba 3a3c 003d
000001d0: 47ca f03c dbc4 cabc 2a09 373d a5b2 ea3d
000001e0: 30ea 86bd 5154 753e 130b 163e f96a a4bd
000001f0: d3f2 7c3e 6404 4b3d b8fb de3b 635b ae3c
00000200: 65be b83c 321a 1ebc 15aa 57bd ccca c2bd
00000210: ef33 52be 7c73 fdbb c911 b73d 4a0e 453d
00000220: cbdb e63c 1d71 c13c 9616 2a3d f386 91bd
00000230: b2b2 2dbd 3573 ba3d ce86 1f3d 94be 633d
00000240: d865 c3bc db85 9b3d 052f d43c b7c8 f43c
00000250: 55d2 c53d adea 903d 899d 9e3c 4bf2 273d
00000260: 67e2 3d3c 5140 11bd 9b32 c73d d717 553d
00000270: 8d72 ce3d ffff 63bd 5e27 1c3c 2f61 0a3d
00000280: b41f bfbc b9d9 bb3d 6411 253d 291f cc3d
00000290: c50b 9e3d 5dde 6a3c 0a41 c23d 96d0 543a
000002a0: e9ed 923d 695a cf3d 0a7b 3f3c ee04 97bc
000002b0: 319f ae3d af11 33bd af56 9d3d 7e19 a0bc
000002c0: 39ce 2c3b b8ac 77bc 35f8 b53c 5370 4b3d
000002d0: ed45 583d af51 6d3d ed4d 89bb 679a d53c
000002e0: 1d79 d53c 215d b73c 14be c53d b110 293b
000002f0: 9536 b33d 842d 5ebe 8b6e c03c 404d c9bd
00000300: 916c ee3c 3797 3d3d 3e39 fd3c 2cbf 31be
00000310: b56c 663d 984e e53d c86b f7bd 5748 cd3d
00000320: 9937 20be 2959 9abd d094 243d f3c3 1f3c
00000330: ee2e 1ebd 480a 633d 485b ae3c 57d4 18be
00000340: 0a28 84bc 9cee afbd 572f afbc 6282 e3bd
00000350: 0a87 84bd 06b3 51bc 620e 393c 78ca 2e3d
00000360: ab5f b53d a302 303d b20a 173d cd89 b53b
00000370: 61d2 e33c c112 23bd 6ae5 84bb b91c 803d
00000380: 19ab 55bb a2ed 38bd 1e20 abbb 715d 7f3c
00000390: d3aa 02be 9a22 da3c 832e aabd 6cae 00bd
000003a0: 5a9d 5e3d 95b7 c7bc f31f 973d 18a8 713d
000003b0: a17c ecbc 960b b4bc 3e8f 1abd 921f 2ebd
000003c0: 0694 d03d 8cff 283d 911d 863d deb5 eabc
000003d0: bfc5 9c3d 16f4 8e3d cf14 213d 30e0 76bc
000003e0: 9632 2fbc 4103 583d 9672 b93d a419 12bc
000003f0: bd79 2c3d a404 7f3d 143d 953d a386 d73c

decoder.decoder.1.dconv.bias f4 [32]
0.12106383 0.09559625 0.08489527 -0.07720883 0.11520223 0.095477924 0.07144188 0.06744215
0.09751228 0.055267077 0.07995139 0.020334017 0.041933496 0.11006117 0.048984114 0.09600357
0.11943122 0.05444232 0.06529927 0.065531574 0.093337 0.045229286 0.07790692 0.069117166
0.09553578 0.057030987 0.01078323 0.06738659 0.0774643 0.10365697 0.06084765 0.057371613
00000000: 50f0 f73d f7c7 c33d 92dd ad3d aa1f 9ebd
00000010: 26ef eb3d ee89 c33d 1f50 923d 1c1f 8a3d
00000020: 85b4 c73d bb5f 623d 8ebd a33d 8693 a63c
00000030: 75c2 2b3d c067 e13d 91a3 483d 859d c43d
00000040: 5b98 f43d e9fe 5e3d a0bb 853d 6b35 863d
00000050: 7827 bf3d 5842 393d aa8d 9f3d 4d8d 8d3d
00000060: 43a8 c33d 5399 693d 25ac 303c fb01 8a3d
00000070: 9aa5 9e3d 1b4a d43d 633b 793d 7ffe 6a3d

decoder.decoder.2.dconv.weight f4 [32, 32, 3, 3]
-0.07566649 0.0038512608 0.022674367 -0.008204174 -0.07873892 -0.0076370668 -0.039164823 -0.042505473
0.017071234 0.062374555 0.05341443 0.06053019 0.079590775 0.11678492 0.12719044 0.1293578
0.062317938 0.06760256 0.032427497 0.062700614 -0.04368732 0.027232863 0.025414534 0.041122735
-0.052493025 0.14124073 -0.018550662 0.014398267 0.1035506 0.049615107 -0.03039035 0.016229687
-0.024672093 0.05055879 0.045072127 0.06456528 -0.03272708 0.09071369 -0.05602521 0.001404993
0.08065306 0.030176604 0.091268174 0.1617125 0.09300765 0.07686216 0.05648382 0.07422989
0.025072254 0.042632345 0.12308494 0.032367356 0.10685178 0.07291121 0.07921199 0.048403043
0.06735624 0.0063346713 0.020963214 0.10189644 0.09516161 0.084954426 0.036173526 -0.043247703
-0.06257304 -0.030695431 -0.015902752 -0.05534867 0.05118426 -0.017530113 0.023043891 0.054317858
0.01959467 -0.008501685 0.033050463 -0.03878181 -0.034284554 0.015759591 -0.03465021 0.0017433796
-0.00508547 -0.043008063 0.03164357 0.08175222 0.054564957 0.049264416 0.10641115 -0.0528561
-0.010996096 0.09504763 -0.041980788 -0.060602713 0.030239267 -0.01900255 -0.02041641 0.008947503
-0.002579016 -0.016565574 -0.0336869 -0.07763535 -0.075708255 0.00510472 -0.029117417 -0.031995878
0.009396618 -0.009631586 0.0053257197 -0.050853904 0.032783616 0.017971542 0.04770832 -0.026436394
-0.05730549 0.0027786458 0.065146565 -0.058172587 0.030285945 -0.037631337 0.084068924 -0.013197029
-0.027640821 0.07837128 -0.0054778648 0.03988915 0.034399755 0.052585613 0.026022132 -0.049544197
0.07262697 0.005370247 0.030069577 0.084657535 -0.014620789 -0.025723966 -0.07726628 0.023296556
0.11035482 0.03115293 0.114202455 0.12371555 0.078442566 0.014265302 0.048097096 0.04450347
-0.070685424 -0.083827995 -0.040605817 -0.05578602 -0.18366227 -0.052990954 -0.005744562 -0.08234476
-0.09017736 -0.03441693 -0.07032153 -0.038570996 0.020715125 -0.038394753 -0.037753657 -0.03166618
0.020429302 -0.075221635 -0.094199814 0.011028249 0.069674544 0.038117103 0.016732058 0.045210093
0.06438721 0.09978597 0.10455555 3.344327e-05 -0.08503621 -0.08014528 -0.034035247 0.005722509
0.030881552 -0.033996098 0.0908028 -0.08250048 0.02249837 0.025714125 0.022543067 0.03202718
0.11187312 0.0071600974 0.020810537 0.09520189 0.11362924 -0.012649746 0.044175386 0.04922375
0.057815343 0.046436317 0.084761165 0.00058192306 0.030211926 0.09509761 -0.027892496 -0.17049137
0.018015694 -0.12748714 -0.053918514 0.09646769 0.031754788 -0.07605107 0.069796026 -0.024919955
-0.06523198 -0.0634316 -0.0020813553 0.024523595 -0.075991206 0.0150247365 -0.0048919627 0.0011140615
0.0035413315 -0.036881432 0.025113698 0.08010467 0.08049928 0.028036833 0.018141806 -0.021660998
-0.06668439 0.008255967 -0.008412949 -0.0036291895 0.01767724 -0.072078094 -0.047591772 -0.08835926
-0.032198813 0.03732159 -0.17995937 -0.003915506 0.11273886 -0.0096318545 -0.0595694 -0.0030402464
-0.24268429 -0.011808001 0.21531548 -0.056291364 0.028977957 0.026058331 -0.0033667353 -0.04197316
-0.006642236 -0.022222966 -0.055030324 -0.0011811965 -0.0511249 0.00042640654 0.020759773 0.010686756
00000000: 08f7 9abd 6f65 7c3b 98bf b93c cd6a 06bc
00000010: df41 a1bd 5c40 fabb 4b6b 20bd 381a 2ebd
00000020: f9d8 8b3c 767c 7f3d 17c9 5a3d 81ee 773d
00000030: 7d00 a33d ef2c ef3d 363e 023e 5f76 043e
00000040: 1841 7f3d 3673 8a3d b2d2 043d 2e69 803d
00000050: 7af1 32bd 7417 df3c 2432 d03c 5070 283d
00000060: ed02 57bd 69a1 103e 8ff7 97bc b5e6 6b3c
00000070: 5612 d43d 3639 4b3d 2ff5 f8bc 1ff4 843c
00000080: 211d cabc bc16 4f3d 8d9d 383d cd3a 843d
00000090: d50c 06bd 19c8 b93d b17a 65bd be27 b83a
000000a0: 6e2d a53d ed34 f73c cfea ba3d f697 253e
000000b0: cb7a be3d e869 9d3d 945b 673d d705 983d
000000c0: 5464 cd3c 419f 2e3d f513 fc3d a293 043d
000000d0: 1bd5 da3d 7952 953d e539 a23d 4542 463d
000000e0: 11f2 893d 1393 cf3b 0cbb ab3c 15af d03d
000000f0: 17e4 c23d 96fc ad3d b12a 143d 8124 31bd
00000100: 4b26 80bd fc74 fbbc 7d46 82bc 49b5 62bd
00000110: 96a6 513d 509b 8fbc 8bc6 bc3c 677c 5e3d
00000120: 0085 a03c a74a 0bbc ec5f 073d add9 1ebd
00000130: f66d 0cbd 421a 813c 61ed 0dbd 1d82 e43a
00000140: 04a4 a6bb 3929 30bd b09c 013d b56d a73d
00000150: 817f 5f3d 7cc9 493d 17ee d93d a37f 58bd
00000160: f828 34bc 55a8 c23d 0cf4 2bbd 8d3a 78bd
00000170: 57b8 f73c 3cab 9bbc 5140 a7bc 8c98 123c
00000180: b504 29bb 87b4 87bc 46fb 09bd 48ff 9ebd
00000190: ee0c 9bbd 7f45 a73b a687 eebc 1c0e 03bd
000001a0: 46f4 193c cdcd 1dbc 6083 ae3b 2f4c 50bd
000001b0: 1d48 063d 0e39 933c cd69 433d 2391 d8bc
000001c0: 29b9 6abd f119 363b 906b 853d 6146 6ebd
000001d0: 3b1a f83c 5123 1abd 542c ac3d 5a38 58bc
000001e0: 016f e2bc 1f81 a03d a97f b3bb ce62 233d
000001f0: c2e6 0c3d 0364 573d 5e2c d53c dbee 4abd
00000200: 73bd 943d e6f8 af3b 7954 f63c ee60 ad3d
00000210: 098c 6fbc 11bb d2bc c93d 9ebd 6bd8 be3c
00000220: b501 e23d 6e34 ff3c fae2 e93d 945e fd3d
00000230: 7fa6 a03d 03b9 693c 7601 453d 4549 363d
00000240: 85c3 90bd 03ae abbd 4952 26bd e27f 64bd
00000250: f611 3cbe 0b0d 59bd e13c bcbb 5fa4 a8bd
00000260: e8ae b8bd c4f8 0cbd bc04 90bd 9ffc 1dbd
00000270: c4b2 a93c d143 1dbd 94a3 1abd 65b4 01bd
00000280: 5a5b a73c cd0d 9abd d5eb c0bd d4af 343c
00000290: 87b1 8e3d ae20 1c3d ab11 893c 382e 393d
000002a0: 71dd 833d 965c cc3d 3821 d63d 7045 0c38
000002b0: 7727 aebd 3523 a4bd 8b68 0bbd e383 bb3b
000002c0: 4ffb fc3c 7e3f 0bbd d2f6 b93d 03f6 a8bd
000002d0: 804e b83c 6ea6 d23c 3dac b83c ef2e 033d
000002e0: bc1d e53d 409f ea3b dc7a aa3c 35f9 c23d
000002f0: 72b6 e83d e140 4fbc 40f1 343d d89e 493d
00000300: c8cf 6c3d 0234 3e3d 4397 ad3d 328c 183a
00000310: 007f f73c 89c2 c23d ce7e e4bc 4a95 2ebe
00000320: a695 933c fd8b 02be a9d9 5cbd da90 c53d
00000330: 4f11 023d aac0 9bbd 38f1 8e3d ef24 ccbc
00000340: 5898 85bd 6de8 81bd 5967 08bb b5e5 c83c
00000350: 47a1 9bbd 502a 763c c24c a0bb b305 923a
00000360: af15 683b fc10 17bd 3ebb cd3c eb0d a43d
00000370: cedc a43d 80ad e53c 209e 943c 6872 b1bc
00000380: d391 88bd 0944 073c 77d6 09bc b2d7 6dbb
00000390: dccf 903c ae9d 93bd 97ef 42bd b3f5 b4bd
000003a0: e7e2 03bd 86de 183d 4547 38be a54d 80bb
000003b0: a2e3 e63d edce 1dbc 0bff 73bd df3e 47bb
000003c0: 3b82 78be 5976 41bc a97b 5c3e c691 66bd
000003d0: 2e63 ed3c 4878 d53c 72a4 5cbb 0cec 2bbd
000003e0: 1da7 d9bb f00c b6bc 7a67 61bd 61d2 9aba
000003f0: 5868 51bd 518f df39 6610 aa3c 8117 2f3c

decoder.decoder.2.dconv.bias f4 [32]
0.0051469575 0.07389681 0.039833955 0.11060419 0.03590044 0.07814413 0.075461194 0.03821039
0.075399235 0.0538341 -0.019698579 -0.008705601 0.073599935 0.06140927 0.07289997 0.10032129
0.1900237 0.0014584098 0.021568147 0.048141576 0.037332043 0.016098872 0.057319324 0.055282082
0.054555405 -0.06390903 0.03886973 -0.07838106 0.047984652 0.069840826 0.052625958 0.075422145
00000000: cfa7 a83b 3657 973d ee28 233d 7384 e23d
00000010: 570c 133d 080a a03d 668b 9a3d 7f82 1c3d
00000020: ea6a 9a3d 2581 5c3d ea5e a1bc f0a1 0ebc
00000030: 90bb 963d 4988 7b3d 944c 953d 4075 cd3d
00000040: 9395 423e 1d28 bf3a afaf b03c 1a30 453d
00000050: 7ce9 183d c8e1 833c abc7 6a3d 776f 623d
00000060: 7d75 5f3d bde2 82bd de35 1f3d 4086 a0bd
00000070: 8e8b 443d b508 8f3d 518e 573d ed76 9a3d
