notebooks/saved_model/mnist_model/mnist_cae_1/mnist_cae00006.pth (torch, 541279 bytes, 51 tensors)

encoder.encoder.0.conv.weight f4 [32, 1, 3, 3]
0	0x3d18544d	0.03718977
1	0xbcd89c1b	-0.026441624
2	0x3e9ae32b	0.3025144
3	0xbdba2a03	-0.09090044
4	0xbb3f7fe7	-0.0029220523
5	0x3db278e4	0.08714464
6	0xbda21ee7	-0.079160504
7	0x3ebeae16	0.37242192
8	0x3e8d79f2	0.276321
9	0x3e77c17d	0.24194904
10	0xbe8d80af	-0.2763724
11	0xbef562b8	-0.4792688
12	0xbe0b1646	-0.13582715
13	0xbd98399c	-0.07432863
14	0xbc810e70	-0.015753955
15	0x3cc1fa2e	0.023678865
16	0x3e7cc2f7	0.24683748
17	0x3ef4e23e	0.4782886
18	0x3e160f01	0.14654161
19	0x3e3086f6	0.17238984
20	0xbe7c5d73	-0.24645023
21	0x3ec52705	0.38506332
22	0xbd89598c	-0.06706533
23	0x3e86ae75	0.26304975
24	0x3e0c1c94	0.13682777
25	0xbd066c7e	-0.03281831
26	0x3e938592	0.28812844
27	0xbe1a8f5d	-0.15093751
28	0x3d862986	0.06550889
29	0xbe9e647e	-0.30936044
30	0x3e81d3ba	0.25356847
31	0xbd4d306c	-0.050095007
32	0xbe58e092	-0.21179417
33	0x3e80c35a	0.2514904
34	0xbc4cb28f	-0.012493744
35	0xbecd95e8	-0.40153432
36	0xbd2ecbc4	-0.042674795
37	0x3e11d7fa	0.14242545
38	0xbe9f6d94	-0.3113829
39	0xbd282d49	-0.041058812
40	0xbdbf8240	-0.09351015
41	0xbe8d1b5c	-0.27559936
42	0x3dfd4e07	0.12368398
43	0x3df8a26a	0.12140353
44	0xbe596b60	-0.21232367
45	0xbe508eab	-0.20366924
46	0xbeda5372	-0.4264179
47	0xbd86c9c5	-0.06581453
48	0x3e13c6e4	0.1443134
49	0xbd9f2bab	-0.07772001
50	0xbec4bf4f	-0.38427207
51	0x3de8f81e	0.113754496
52	0xbe1c1716	-0.15243182
53	0xbe1c4212	-0.15259579
54	0x3ecc4894	0.39899123
55	0xbd1b7cf2	-0.037960954
56	0xbf1a4d9d	-0.6027468
57	0xbca34222	-0.019928996
58	0x3cfc76da	0.030818392
59	0xbf31442a	-0.69244635
60	0xbf04878c	-0.5176933
61	0xbe92d9b4	-0.2868172
62	0xbefd3778	-0.49456382
63	0x3dab2c66	0.08358078
64	0x3e93d46b	0.28873
65	0x3d4aa973	0.049478006
66	0x3eab14a7	0.33414194
67	0x3e07d3fb	0.13264458
68	0x3d972802	0.07380678
69	0xbda3f440	-0.08005571
70	0x3de1c594	0.11024013
71	0xbebafd9f	-0.36521623
72	0xbe022d59	-0.12712611
73	0x3eb22543	0.34794053
74	0x3e956e5d	0.29185763
75	0xbe412a26	-0.18863735
76	0x3e82c2e6	0.2553932
77	0x3eccef7f	0.4002647
78	0xbd84015a	-0.0644557
79	0xbee5305b	-0.44763455
80	0xbe321d6b	-0.17394035
81	0x3e5d2bc2	0.21598724
82	0xbd9dd0a7	-0.07705813
83	0x3b5187f8	0.0031971913
84	0x3975c5f1	0.0002343876
85	0x3e0f40bb	0.13989536
86	0x3f03d3c2	0.5149499
87	0xbdd45af3	-0.1036891
88	0x3ed386a1	0.4131365
89	0x3eaf15a6	0.34196204
90	0xbe2aed12	-0.16691998
91	0x3e998f31	0.2999206
92	0x3e7fbb90	0.24973893
93	0xbdf53b42	-0.11974193
94	0x3e069b4c	0.13145179
95	0x3e4afcc3	0.19822983
96	0xbddcba9b	-0.1077778
97	0xbeb725cf	-0.35771033
98	0x3e617f1d	0.22021146
99	0x3e844828	0.258363
100	0xbeac9914	-0.3371054
101	0xbecc3e93	-0.3989149
102	0x3d3e6af8	0.046488732
103	0xbe9d06e5	-0.30669323
104	0x3e67953a	0.22615519
105	0xbe2efd6d	-0.17088862
106	0xbe9dba51	-0.3080621
107	0xbc0a46e2	-0.008439751
108	0xbda78944	-0.08180478
109	0xbd8dc17b	-0.06921669
110	0x3e610d9e	0.21977851
111	0x3e65bdb2	0.22435644
112	0xbbe6562a	-0.0070293145
113	0xbda88b7f	-0.08229732
114	0xbdf294d5	-0.11844794
115	0x3e9ce398	0.3064239
116	0xbeafc3e4	-0.3432914
117	0x3df94cc0	0.12172842
118	0xbe88ad8e	-0.26694912
119	0x3d94d088	0.07266337
120	0xbeb8ec91	-0.36117986
121	0x3d2795d5	0.040914375
122	0x3d4e37ee	0.050346307
123	0xbecffc78	-0.40622306
124	0x3e0a8675	0.13527854
125	0x3ed93551	0.4242349
126	0x3ec7b719	0.3900688
127	0xbeb8f5bd	-0.36124983
128	0xbec4129c	-0.38295448
129	0x3eee73e7	0.465728
130	0xbd20181c	-0.039085492
131	0x3e609da3	0.21935134
132	0xbeab41d3	-0.33448657
133	0x3e4eceb2	0.20196036
134	0x3e519052	0.2046521
135	0x3e539603	0.20662694
136	0x3e57a3dd	0.21058603
137	0xbd14d199	-0.0363327
138	0x3e92f03b	0.28698906
139	0xbe1c3796	-0.1525558
140	0x3e855c2e	0.2604689
141	0xbe8e31b4	-0.27772295
142	0xbeb4f9cf	-0.3534684
143	0xbe2431dd	-0.16034646
144	0xbee2b806	-0.44281024
145	0x3ccc3f59	0.02493255
146	0x3e93d964	0.28876793
147	0x3d4b62a0	0.049654603
148	0x3ea79aa0	0.32735157
149	0xbde4ba54	-0.11168352
150	0x3e968b26	0.29403037
151	0xbe69b62b	-0.22823398
152	0xbe899049	-0.26867893
153	0xbebb695b	-0.36603817
154	0xbdacaa35	-0.08430902
155	0x3ece4301	0.40285495
156	0x3e905b8c	0.28194845
157	0xbe77bdc2	-0.2419348
158	0xbc9754ab	-0.01847299
159	0x3e9b2d13	0.30307826
160	0xbc04efd1	-0.008113817
161	0xbecd6ea8	-0.40123487
162	0x3e137562	0.14400247
163	0x3d9e6d26	0.07735662
164	0x3e22d9f1	0.1590345
165	0x3dd9930d	0.10623751
166	0xbdb5decd	-0.088803865
167	0x3e5e5eb0	0.21715808
168	0xbd96877b	-0.073500596
169	0x3e30a721	0.17251255
170	0x3e4c53c9	0.19953837
171	0xbe1d1cea	-0.15343061
172	0x3e4703ab	0.19434993
173	0xbde4bcfa	-0.11168857
174	0x3e74ddc4	0.23912722
175	0x3e26c8b8	0.16287506
176	0x3afc0e54	0.0019230344
177	0xbe669e7b	-0.22521393
178	0xbe30dafd	-0.17271037
179	0x3e79e8a7	0.24405156
180	0xbeba418a	-0.36378127
181	0xbeb5cfbe	-0.35510057
182	0x3d56d584	0.052449718
183	0x3e4e3f2d	0.20141287
184	0x3e0d8505	0.13820274
185	0x3e5050c9	0.20343317
186	0xbdcbc498	-0.09949607
187	0x3e8cdcef	0.2751231
188	0x3c31e184	0.01085699
189	0x3f16d1c9	0.58913857
190	0xbd53bac2	-0.051691778
191	0xbeb05353	-0.3443857
192	0x3da02483	0.07819464
193	0x3e85a604	0.26103222
194	0xbeb55c4f	-0.35421988
195	0x3f22c61c	0.6358354
196	0xbe61d343	-0.22053246
197	0xbeaee9ce	-0.34162754
198	0xbe8ad787	-0.2711756
199	0x3d0cbee4	0.034361735
200	0xbebde6f3	-0.37090263
201	0xbdbbc2e1	-0.091680296
202	0x3ef2d807	0.4743044
203	0xbe4e9712	-0.20174816
204	0x3e8c2937	0.27375194
205	0x3f043683	0.5164568
206	0x3ef7865b	0.48344693
207	0xbcfecedb	-0.031104496
208	0x3e3220c7	0.17395316
209	0x3e108ce3	0.14116244
210	0x3db2ae73	0.0872468
211	0xbe75acd8	-0.23991716
212	0x3d94d9af	0.07268082
213	0x3e0e7245	0.13910778
214	0x3e880b05	0.26570907
215	0x3d9d904b	0.07693537
216	0xbe6cdf90	-0.23132157
217	0x3bd7b1ae	0.0065824604
218	0xbe6b61fb	-0.22986595
219	0xbe6bda61	-0.23032524
220	0xbe253862	-0.1613479
221	0xbe1d6fd1	-0.15374686
222	0x3dba8b50	0.09108603
223	0x3cb86d0a	0.022512931
224	0x3cd641cd	0.026154423
225	0x3e7ed210	0.2488482
226	0x3f0f1a75	0.55899745
227	0xbd9902ea	-0.07471259
228	0xbe29a2e0	-0.16566038
229	0x3df52d3a	0.11971517
230	0xbe99991f	-0.29999635
231	0xbf292e04	-0.6608584
232	0xbeb4afd5	-0.352904
233	0xbf04a034	-0.5180695
234	0x3e191021	0.14947559
235	0xbd319a99	-0.043360326
236	0xbecc49c1	-0.3990002
237	0x3e947a46	0.28999537
238	0xbeb37058	-0.3504665
239	0xbe02c618	-0.1277088
240	0xbd574d3d	-0.052563895
241	0x3d60177c	0.054709896
242	0xbec5586e	-0.3854403
243	0xbeaf5129	-0.34241608
244	0xbe097e0a	-0.13426986
245	0xbe90b33f	-0.28261754
246	0x3e15180d	0.14559956
247	0xbe37b48f	-0.17939971
248	0xbe6b0ceb	-0.22954147
249	0xbdb007b4	-0.08595219
250	0x3e5410be	0.20709512
251	0x3dc5606e	0.09637533
252	0x3eb298f5	0.34882322
253	0x3d731d78	0.059354275
254	0xbecff190	-0.40613985
255	0xbbb4a18d	-0.0055124224

encoder.encoder.0.conv.bias f4 [32]
0	0xbea841cd	-0.32862702
1	0xbb0ad8b4	-0.0021186294
2	0xbe9d8627	-0.30766413
3	0x3e1257eb	0.1429135
4	0xbe7e82ed	-0.24854632
5	0x3e97a1e9	0.29615715
6	0x3e82ad4d	0.25522843
7	0xbe2782c7	-0.16358481
8	0x3c18b69e	0.009320883
9	0x3ba6ad21	0.0050865565
10	0x3e9b6931	0.30353692
11	0x3e8b1bfe	0.27169794
12	0x3e05f55e	0.13081881
13	0x3c8c18f8	0.01710175
14	0xbea2bb6d	-0.3178362
15	0x3e998471	0.29983857
16	0x39f191b4	0.0004607566
17	0x3cf5b57d	0.029993767
18	0x397542de	0.0002338993
19	0x3e37dddc	0.17955726
20	0x3e381088	0.17975056
21	0xbe046bb1	-0.12931706
22	0x3d313245	0.04326083
23	0xbb92103b	-0.004457501
24	0x3e953b40	0.29146767
25	0x3dbe33ef	0.09287249
26	0x3e08ed92	0.13371876
27	0x3e533db0	0.20629
28	0xbe011e85	-0.12609299
29	0xbd8250ae	-0.06363045
30	0xbea34f87	-0.31896612
31	0x3d2efb23	0.04271997

encoder.encoder.1.conv.weight f4 [32, 32, 3, 3]
0	0xbb9b1df7	-0.0047337967
1	0xbb451f72	-0.0030078557
2	0xbcd8dd94	-0.026472844
3	0xbb3d8f90	-0.0028924681
4	0x3c61c0c6	0.013778871
5	0xbcad233e	-0.021134969
6	0x3c691be4	0.014227841
7	0x3d01570a	0.031577148
8	0x3a3d2ed8	0.0007216758
9	0xbcca820b	-0.024720212
10	0x3bb77d0a	0.0055996226
11	0xbbfeab5f	-0.007771894
12	0xbcb41483	-0.021982437
13	0xbcdefb65	-0.027219484
14	0xbc35415d	-0.011062947
15	0xbd030686	-0.031988643
16	0xbd898244	-0.06714299
17	0xbd5ab29e	-0.053393
18	0xbd03748a	-0.032093562
19	0xbc84ebd2	-0.01622573
20	0xbd806ff6	-0.06271355
21	0x3d280410	0.0410195
22	0xbd345ac7	-0.044031885
23	0xba50b74c	-0.00079618837
24	0x3ba9359c	0.0051638614
25	0x3d2c2621	0.04202855
26	0xbbbd1cf8	-0.0057712756
27	0xbd51340a	-0.05107502
28	0xbd8313e9	-0.06400282
29	0xbcb6c070	-0.022308558
30	0x3c18661c	0.0093016885
31	0xbb393a96	-0.002826368
32	0xbd118309	-0.035525355
33	0xbd9722df	-0.07379698
34	0xbd606e5c	-0.054792747
35	0xbd5f1d6d	-0.054471422
36	0xbca5a86c	-0.020221911
37	0x3d477990	0.048699915
38	0xbd712b41	-0.05887914
39	0x3c78607c	0.015159722
40	0xbd8d5e22	-0.0690272
41	0x3d0463db	0.032321792
42	0xbbd2ead8	-0.006436687
43	0xbcf7cc81	-0.030248882
44	0xbd64b19f	-0.055833455
45	0x3d1cdc53	0.038296055
46	0xbceee393	-0.02916125
47	0xbd276135	-0.04086419
48	0xbca69d9a	-0.020338822
49	0xbceee201	-0.029160501
50	0xbb2305b1	-0.0024875219
51	0xbd78fd6d	-0.06078856
52	0xbc2394d0	-0.00998421
53	0x3cb75dd2	0.022383604
54	0xbd13719b	-0.035997014
55	0xbcb158bc	-0.021648757
56	0xbc959fcc	-0.018264674
57	0xbc9e6f7c	-0.01934027
58	0xbd7e0b10	-0.06202227
59	0xbd614b9f	-0.05500376
60	0x3caa6b63	0.02080316
61	0xbc2b7ddd	-0.01046702
62	0x3aedda5c	0.0018146741
63	0x3d0401ff	0.032228466
64	0xbd4935e8	-0.049123675
65	0xbcdd4cbc	-0.027014129
66	0xbd0c9241	-0.034319166
67	0xbba9ba6e	-0.005179695
68	0xbc5a8a81	-0.013338686
69	0xbbeb22dc	-0.0071757864
70	0xbd7a3e30	-0.061094463
71	0x3d0698d8	0.032860607
72	0xbd03a909	-0.032143626
73	0xbd1ee415	-0.038791735
74	0xbd14124c	-0.03615026
75	0x3cbd6372	0.023118708
76	0xbca96302	-0.020677093
77	0xbd2e2d18	-0.042523474
78	0xbd9127b7	-0.07087653
79	0xbc729199	-0.014805221
80	0xbd869430	-0.06571233
81	0x3d1c1663	0.038107287
82	0xbbcac114	-0.0061875675
83	0xbd54c91b	-0.0519496
84	0xbcf02d9d	-0.029318625
85	0xbd3b9951	-0.04580051
86	0xbd83f6dd	-0.0644357
87	0xbd8b049d	-0.06787989
88	0x3c374b3d	0.011187372
89	0x3ce7f332	0.028314207
90	0x3c8f4d60	0.01749295
91	0xbd879031	-0.06619299
92	0xbc879e37	-0.016554935
93	0xbd5e38fc	-0.054253563
94	0xbd604043	-0.054748785
95	0x3af4e605	0.0018684274
96	0x3cac7bea	0.02105518
97	0xbcd241e9	-0.025666194
98	0xbcd5ce7e	-0.02609944
99	0xbd8a7cee	-0.0676211
100	0x3c583f63	0.013198706
101	0x3c921dc6	0.017836463
102	0x3c2e8e4e	0.010654045
103	0xbaf2539c	-0.0018488052
104	0xbd89fec7	-0.06738048
105	0xbd433737	-0.04766008
106	0x3ce828b8	0.028339729
107	0x3c0488a5	0.008089219
108	0x3bd9fabc	0.0066522043
109	0x3d2745e9	0.040838156
110	0xbd3fac27	-0.046795037
111	0xbd17c553	-0.037053417
112	0x3d2108ef	0.03931516
113	0xbd9108d3	-0.07081761
114	0x3d187e01	0.03722954
115	0xbc9d9f8a	-0.019241113
116	0xbd0610fc	-0.03273104
117	0x3d366a95	0.04453524
118	0xbd49583b	-0.04915641
119	0xbd5a5215	-0.053300936
120	0xbd843e48	-0.06457192
121	0xbd2aed2b	-0.041730087
122	0xbd771ad5	-0.060328323
123	0xbbb46e53	-0.0055063157
124	0x3d066379	0.03280971
125	0x3bcfa879	0.006337222
126	0xbd32f2b3	-0.043688487
127	0xbd3c3e82	-0.04595805
128	0xbb3c3303	-0.0028716929
129	0x3bbdda96	0.0057938797
130	0x3ced2109	0.028946416
131	0xbd792506	-0.060826324
132	0x3d310ba2	0.043223985
133	0xbc75a2dc	-0.014992442
134	0x3ba1f370	0.00494235
135	0xbc64ad6f	-0.013957365
136	0xbd9a64f1	-0.07538784
137	0x3d264d4e	0.040601067
138	0x3c35b935	0.01109152
139	0xbd630b45	-0.05543067
140	0xbd8f81a6	-0.0700715
141	0x3d180b68	0.037120253
142	0xbd8131b1	-0.06308306
143	0x3c99917c	0.01874613
144	0x3c110b6f	0.008852824
145	0xbc82943d	-0.015939826
146	0xbd125351	-0.035723988
147	0xbbbacb7f	-0.005700528
148	0xbd378f13	-0.04481418
149	0xbc105669	-0.008809664
150	0x3ae368c2	0.0017349946
151	0x3d2bfbe0	0.041988254
152	0xbd07ae6a	-0.03312532
153	0xbce5d2cd	-0.02805462
154	0x3bc436ee	0.0059879934
155	0x3cf4a81f	0.029865323
156	0x3cff3c78	0.031156763
157	0xbb20c86d	-0.0024533526
158	0xbd6ebcce	-0.058285527
159	0xbcef4a93	-0.029210364
160	0xbd3077ba	-0.04308293
161	0x3d298371	0.041385118
162	0x3cf5f219	0.030022668
163	0x3cf2eb98	0.029653355
164	0x3d1eff78	0.038817853
165	0xbb8f626f	-0.004375748
166	0x3d089cb7	0.03335258
167	0xbd98aefa	-0.07455249
168	0x3ce8e9f3	0.028431868
169	0x3ce36080	0.027755976
170	0xbc9d9d35	-0.019240001
171	0xbd22ff7c	-0.03979443
172	0x3c6bc2ef	0.0143897375
173	0xbbb0e416	-0.0053982837
174	0xbd1f45d6	-0.03888496
175	0xbd85ee3e	-0.06539582
176	0xbd046561	-0.032323245
177	0xbc18f268	-0.009335138
178	0xbc0e812c	-0.008697789
179	0xbd6d467f	-0.05792856
180	0x3cf802d8	0.030274794
181	0x3cb1479f	0.021640597
182	0xbd5b7db1	-0.053586666
183	0x3cc7c53e	0.024386045
184	0xbac0bc91	-0.0014704635
185	0x3c373f3c	0.01118451
186	0xbbf8d44b	-0.0075936667
187	0xbd649e7e	-0.055815212
188	0x3cabd3c4	0.020975001
189	0x395d7b00	0.00021122023
190	0x3cbd22e3	0.023087924
191	0xbd3417b8	-0.043967932
192	0x3d34acbc	0.044110045
193	0xbd18e3dc	-0.03732668
194	0x3d8e9547	0.06962066
195	0x3b06bed5	0.0020560522
196	0xbd2f95d1	-0.042867485
197	0xbb51da77	-0.0032021084
198	0x3bc6f98e	0.0060722297
199	0xbc917726	-0.01775701
200	0x3c90df4d	0.017684603
201	0x3d300a93	0.042978834
202	0x3cb4de33	0.02207861
203	0x3c9bb158	0.019005463
204	0x3cda3103	0.026634699
205	0x3cb3510e	0.021889236
206	0x3c98c008	0.018646255
207	0xbce3389f	-0.02773696
208	0x3cfdf168	0.0309989
209	0xbce29c24	-0.027662344
210	0xbcec32ac	-0.028832756
211	0xbce62e2b	-0.028098186
212	0xbd894931	-0.06703413
213	0xbd19ef75	-0.03758188
214	0xbd8a0d97	-0.06740873
215	0x3bbe8c5f	0.0058150734
216	0x3d025fd7	0.03182968
217	0x3c87dabb	0.016583791
218	0x3cdf78bc	0.02727925
219	0x3b6949a1	0.0035596865
220	0x3c6cd520	0.01445511
221	0xbc09948f	-0.008397236
222	0xbd1eda09	-0.038782153
223	0xbd3a963c	-0.04555343
224	0x3c4b1830	0.0123959035
225	0x3d07b36f	0.033130106
226	0x3bf0d518	0.0073496215
227	0xbd4c4774	-0.04987283
228	0xbd240245	-0.040041227
229	0xbd5bd9a0	-0.05367434
230	0xbcdc477b	-0.026889553
231	0x3c168fc3	0.009189549
232	0xbd2e1ba3	-0.042506825
233	0xbd3934b6	-0.045216285
234	0x3c3ee24d	0.011650634
235	0xbb98a1d7	-0.0046579647
236	0xbd69693a	-0.056985117
237	0xbce70c89	-0.02820422
238	0x3cf7daa0	0.030255616
239	0xba6cfada	-0.00090400653
240	0xbd56a8fb	-0.052407246
241	0xbcef3a81	-0.029202702
242	0xbd8eeae5	-0.06978396
243	0x3d2cfce7	0.042233374
244	0x3d46ab65	0.0485033
245	0xbc1ec72e	-0.009691043
246	0xbd23d1e3	-0.039995085
247	0xbce36dfe	-0.02776241
248	0xbd897c39	-0.06713147
249	0xbd6280f9	-0.05529878
250	0xbd390afe	-0.0451765
251	0xbc55db52	-0.013052778
252	0xbd76bf04	-0.06024076
253	0xbd35e2b5	-0.044405658
254	0xbc9416ad	-0.018077219
255	0xbc6fa301	-0.0146262655

encoder.encoder.1.conv.bias f4 [32]
0	0xba027c8f	-0.0004977667
1	0x3ce22361	0.02760476
2	0xbc23f466	-0.010007
3	0xbcae67bc	-0.021289699
4	0xbd21ed26	-0.039532803
5	0x3aab8b28	0.0013087736
6	0x3d668419	0.056278322
7	0x3c96d1e4	0.01841063
8	0xbadde8d5	-0.0016930351
9	0x3d6c91df	0.0577563
10	0xbc69e148	-0.014274903
11	0xbc5a9b12	-0.013342636
12	0xbac8f3be	-0.001533143
13	0xbd5cd44f	-0.05391341
14	0xbd5a4188	-0.05328515
15	0x3da7aa33	0.0818676
16	0x3d7c7330	0.06163329
17	0x3b77a167	0.0037785412
18	0x3d99f27a	0.07516952
19	0x3bd80edf	0.0065935696
20	0xbcd10c12	-0.02551845
21	0xbcc729cf	-0.024311928
22	0xbd8ac1b0	-0.06775224
23	0xbd55b0e8	-0.052170664
24	0xbd45e413	-0.04831321
25	0x3d81cf9b	0.06338426
26	0x3c9f99bc	0.019482486
27	0xbd3b39fb	-0.04570959
28	0xbc9dcb96	-0.019262116
29	0xbd1d9b18	-0.038477987
30	0x3d09669f	0.033545133
31	0x3b9b14a8	0.004732687

encoder.encoder.2.conv.weight f4 [32, 32, 3, 3]
0	0xbcc4aa7c	-0.024007075
1	0xbcf7484e	-0.030185845
2	0x3d42018f	0.047364768
3	0xbbbc390a	-0.0057441043
4	0xbbbc2125	-0.005741256
5	0xbc571594	-0.013127703
6	0xbd546d27	-0.05186191
7	0xbd4a3ae8	-0.049372584
8	0x3d84d316	0.06485574
9	0xbcff7725	-0.031184742
10	0xbc492e71	-0.012279139
11	0xbd585ad2	-0.052820988
12	0xbc8ab823	-0.016933506
13	0x3d088613	0.03333099
14	0xbd309fb8	-0.04312107
15	0xbd663869	-0.05620614
16	0xbc1a799f	-0.009428411
17	0xbd396813	-0.04526527
18	0x3b8890e8	0.004167665
19	0xbd5e45c4	-0.054265752
20	0x3d0e345f	0.034717914
21	0x3c9d7f0a	0.019225616
22	0xba731780	-0.0009273216
23	0x3d5e53a1	0.054278973
24	0xbc425bea	-0.011862734
25	0xbd4b0da7	-0.049573567
26	0x3cadaa96	0.021199506
27	0xbd101f43	-0.035186063
28	0xbd82c31b	-0.0638487
29	0xbd609992	-0.054833956
30	0xbc73bede	-0.014877049
31	0xbd981d6d	-0.074274875
32	0x3d261371	0.040545885
33	0xbc938bf4	-0.01801107
34	0xbd8e2eca	-0.06942518
35	0x3d647a06	0.055780433
36	0xbd55e09e	-0.052216165
37	0xbc911cca	-0.017713923
38	0x3cabef3a	0.020988096
39	0xbc5266ec	-0.012841921
40	0x3ceccba8	0.028905705
41	0x3d1e0daf	0.03858727
42	0xbc27b968	-0.010237075
43	0x3c239ed2	0.009986596
44	0xbc9b6904	-0.018970974
45	0xbd3ae384	-0.045627132
46	0xbd93ddda	-0.07220049
47	0xbd1f587e	-0.038902752
48	0x3c5c2089	0.013435491
49	0xbd632ec4	-0.05546452
50	0x3b449810	0.0029997863
51	0x3c94c5af	0.01816067
52	0xbd0e4b31	-0.034739677
53	0x3cd26968	0.025685027
54	0x3c74738e	0.0149201285
55	0xbd561c8a	-0.05227331
56	0x3d1a5465	0.03767814
57	0x3cb114b9	0.021616327
58	0x3d0e4c3b	0.034740668
59	0xbcf2040e	-0.029542949
60	0x3c397817	0.011320136
61	0xbd3496fe	-0.04408931
62	0x3d89135e	0.06693147
63	0x3d120948	0.035653383
64	0x3be93e6e	0.007118038
65	0xbca774e4	-0.02044148
66	0x3c5ab2a2	0.013348253
67	0xbd23a900	-0.039956093
68	0x3c693b32	0.014235305
69	0xbbfcd191	-0.007715412
70	0x3d1a13cb	0.037616532
71	0xbcfacfdb	-0.030616691
72	0xbd2dd1ec	-0.042436525
73	0xbd2bd73c	-0.04195331
74	0xbce83893	-0.02834729
75	0xbc86d945	-0.016461024
76	0xbd9a9ccd	-0.075494386
77	0xbbbdbf94	-0.00579066
78	0xbca9aad4	-0.02071134
79	0xbd07b493	-0.033131193
80	0xbd84f3fa	-0.06491847
81	0xbd8a02b8	-0.067388
82	0xbd856e5d	-0.06515191
83	0xbcafc6e0	-0.021457136
84	0xbcfe7d94	-0.03106574
85	0xbd4e1cd2	-0.050320454
86	0xba89567c	-0.0010478045
87	0x3c125d13	0.008933323
88	0xbccb8faf	-0.024848787
89	0xbd4f4c54	-0.0506099
90	0xbcbb5428	-0.022867277
91	0xbd8982f3	-0.0671443
92	0x3b82b308	0.0039886273
93	0xbd85286b	-0.0650185
94	0x3bfeec6b	0.007779648
95	0xbd92ae05	-0.07162098
96	0xbc9cb064	-0.019127078
97	0x3d4f4ef4	0.050612405
98	0x3caa3653	0.020777857
99	0xbd5b6edb	-0.053572517
100	0xbcfdea30	-0.030995458
101	0xbd32090e	-0.043465666
102	0xbc4d1c86	-0.012519008
103	0xbd0f21f5	-0.034944493
104	0xbd548591	-0.05188519
105	0x3c55aea7	0.013042129
106	0x3c85e40d	0.016344095
107	0xbd8e4207	-0.069461875
108	0xbc06ab3d	-0.008219537
109	0xbd0e0402	-0.03467179
110	0xba6cadf2	-0.00090286054
111	0xbc803679	-0.015650975
112	0xbdba0f04	-0.09084895
113	0x3ad36a9c	0.0016129795
114	0x3d34d0a6	0.044144295
115	0x3a9bb049	0.0011878099
116	0xbd2c61eb	-0.04208557
117	0x3d0d508d	0.034500647
118	0x3ccd43a7	0.025056673
119	0x3cdc40a6	0.026886296
120	0xbcde34ed	-0.027124846
121	0x3c1ec39e	0.009690193
122	0xbc579e0d	-0.013160241
123	0xbc00a3b8	-0.007851534
124	0x3bbd6886	0.0057802824
125	0xbc501a05	-0.012701516
126	0x3d5671bd	0.052354563
127	0x3ce63e0e	0.028105762
128	0x3d020f9f	0.03175318
129	0x3d62f0bd	0.055405367
130	0xbd114d5c	-0.035474166
131	0xbcb82ae0	-0.022481382
132	0x3cf1e632	0.029528711
133	0x3cfb0412	0.03064159
134	0xbd63406a	-0.055481352
135	0x3cc5c611	0.024142297
136	0xbd00f491	-0.031483237
137	0x3c515ce4	0.0127784945
138	0x3cc5d410	0.02414897
139	0xbd663cde	-0.05621039
140	0xbd427d98	-0.047483057
141	0xbcc879a8	-0.024472073
142	0xbd623f26	-0.055236004
143	0xbd56cf8a	-0.05244402
144	0xbd74aee0	-0.059737086
145	0xbd3eb97b	-0.046563607
146	0xbc9f7282	-0.019463781
147	0x3ce5ca64	0.028050609
148	0xbd8b79c8	-0.06810337
149	0xbd962dfb	-0.07332989
150	0xbd6d1314	-0.057879522
151	0x3ba0242c	0.0048871245
152	0xbd576ae5	-0.052592177
153	0xbd570bbd	-0.05250143
154	0xbd36a265	-0.044588465
155	0x3d39953f	0.045308348
156	0xbd7d22db	-0.06180082
157	0x3d290b2d	0.041270424
158	0xbd199860	-0.03749883
159	0xbd56c0a6	-0.052429818
160	0xbd228259	-0.03967509
161	0xbd14aae9	-0.036295805
162	0x3c2d6336	0.010582736
163	0xbd81335f	-0.063086264
164	0xbd6cb5f6	-0.05779072
165	0x3ce6fedf	0.028197704
166	0xbc69d31d	-0.014271525
167	0xbd17402a	-0.036926426
168	0x3cb5b49f	0.022180853
169	0xbc881a87	-0.016614212
170	0xbc358455	-0.011078914
171	0xbd36d7eb	-0.04463951
172	0xbd14ce38	-0.036329478
173	0x3d096c7d	0.033550728
174	0xbc7140cb	-0.0147249205
175	0xbd5cfffa	-0.053955056
176	0x3b7792c0	0.0037776679
177	0xbbddf8be	-0.006774037
178	0x3c045810	0.008077636
179	0x3c4cb6b6	0.012494734
180	0x3cb76880	0.022388697
181	0x3c94fc4d	0.018186713
182	0xbbc0f440	-0.005888492
183	0xbd7c4bfd	-0.061595906
184	0x390d43ff	0.00013472138
185	0x3cd80be6	0.026372861
186	0x3b983efa	0.0046461793
187	0xbcfb9066	-0.030708503
188	0xbd873892	-0.06602587
189	0x3acdfb1b	0.0015715094
190	0xbd8b468b	-0.068005644
191	0xbd45e49a	-0.048313715
192	0xbd63e703	-0.05564023
193	0xbba426a0	-0.0050094873
194	0x3d03368e	0.03203445
195	0xbc9860de	-0.018600877
196	0xbd41a14a	-0.047272958
197	0x3cf166f1	0.029468032
198	0xbc04a1ac	-0.008095186
199	0xbcf04074	-0.029327609
200	0xbcd4b71e	-0.025966223
201	0xbc63b552	-0.013898211
202	0xbd0fbdba	-0.035093047
203	0x3c8cac06	0.01717187
204	0x3d08d5e0	0.033407092
205	0xbd7935bf	-0.060842272
206	0xbcdf843b	-0.027284732
207	0x3c47323d	0.012157974
208	0xbc800b3c	-0.015630357
209	0x3d2dad69	0.042401705
210	0xbd193ae9	-0.037409697
211	0xbd84225f	-0.06451868
212	0x3d3ee2bb	0.046602946
213	0x3d8e59bf	0.069507115
214	0xbd6ceec7	-0.057844903
215	0xbcc6faea	-0.024289567
216	0xbd85b1de	-0.06528066
217	0x3d2847ab	0.041083973
218	0xbcb22ef8	-0.021750912
219	0xbbe9a63b	-0.007130412
220	0xbd8b2805	-0.067947425
221	0x3d0f4503	0.034977924
222	0x3cd2d710	0.025737315
223	0x3ab5a5c0	0.0013858601
224	0x3d6eb19c	0.05827485
225	0xbbb3d17a	-0.005487618
226	0xbbdede9c	-0.0068014394
227	0x3c8eb41e	0.017419871
228	0xbd50b6a9	-0.05095545
229	0x3cf544c9	0.029940026
230	0x3cb386ee	0.021914925
231	0xbd723eb2	-0.059141822
232	0xbc2695c0	-0.010167539
233	0x3d6e63b8	0.058200568
234	0xbd6dcd6a	-0.058057226
235	0x3c4b8670	0.012422189
236	0x3c8ed65e	0.017436203
237	0x3c86c434	0.016450979
238	0xbc80011b	-0.015625527
239	0xbca3c13b	-0.0199896
240	0xbcc57bac	-0.024106823
241	0xbd827403	-0.06369784
242	0x3d4767d8	0.048683017
243	0xbb900e3a	-0.004396227
244	0x3d1dc1b6	0.038514815
245	0xbd12f66a	-0.03587953
246	0xbd76bc47	-0.06023815
247	0x3ce74576	0.028231364
248	0x3d3c8720	0.046027303
249	0xbc35d91c	-0.011099126
250	0xbc3bd9be	-0.011465488
251	0xbd3b33d5	-0.045703728
252	0xbd18e04e	-0.03732329
253	0xba9565c0	-0.0011398122
254	0xbd4b7e80	-0.049681187
255	0xbd25e108	-0.04049781

encoder.encoder.2.conv.bias f4 [32]
0	0xbc274853	-0.0102101145
1	0xbd8fc50e	-0.07020007
2	0x3cab04f4	0.020876385
3	0x3ce50b9c	0.027959637
4	0x3c219267	0.009861565
5	0xbd17c18c	-0.037049815
6	0x3d744da7	0.059644368
7	0x3ccd52c5	0.025063882
8	0xbc1ee53c	-0.009698208
9	0x3dc27548	0.09495026
10	0xbd60966b	-0.05483095
11	0xbc07e5e8	-0.00829456
12	0x398cdf95	0.00026869462
13	0xbca0788b	-0.01958873
14	0x3c86c526	0.01645143
15	0xbbfdd19a	-0.0077459337
16	0x3da28376	0.079352304
17	0xbd8e0726	-0.06934957
18	0x3d515182	0.051103123
19	0xbd4a80de	-0.049439304
20	0xbd0509e0	-0.03248012
21	0xbd64a3de	-0.05582034
22	0xbd0eafe0	-0.034835696
23	0xbc14bf9f	-0.009078889
24	0xbd83dcf3	-0.06438627
25	0x3d76bf7b	0.060241204
26	0x3d8fac6a	0.07015307
27	0xbc2fc9a0	-0.0107292235
28	0x3d0b314d	0.033982564
29	0xbd3194bb	-0.04335473
30	0x3cce5e4a	0.025191445
31	0x3da2c31b	0.0794737

encoder.encoder.3.conv.weight f4 [10, 32, 3, 3]
0	0x3c5a0184	0.013306025
1	0xbc9f162c	-0.019419752
2	0x3b88cbc8	0.0041746832
3	0x3bd41248	0.006471906
4	0xbd254576	-0.040349446
5	0x3c412562	0.011788698
6	0xbd5118fe	-0.051049225
7	0xbd519b7e	-0.05117368
8	0x3c685fa8	0.0141829625
9	0xbe0cf4a3	-0.13765197
10	0x3df66776	0.12031452
11	0x3c0b7ebb	0.008514102
12	0x3af4bbd3	0.0018671699
13	0xbc323a2f	-0.01087813
14	0x3c85cc23	0.016332692
15	0xbc904c56	-0.017614525
16	0x3d769223	0.06019796
17	0x3e03690d	0.12833042
18	0x3befb367	0.0073150876
19	0x3bd4d1a8	0.0064947195
20	0xbbdd90c0	-0.0067616403
21	0xbc2481b5	-0.01004069
22	0x3d06eac9	0.032938752
23	0xbbddb3b6	-0.006765808
24	0xbc53bcf6	-0.01292347
25	0x3cffa33c	0.031205766
26	0x3df2873a	0.11842199
27	0x3cade636	0.021227937
28	0xbb2cff0d	-0.002639714
29	0xbbd783d9	-0.0065769968
30	0x3c5b018a	0.013367066
31	0xb9eb2322	-0.0004484887
32	0x3cc4d022	0.024025027
33	0xbd470d52	-0.048596688
34	0x3d89a907	0.067216925
35	0x3d56f486	0.05247929
36	0x3d8f8d2f	0.070093505
37	0x3d97c707	0.07411008
38	0x3d03bf02	0.03216458
39	0x3d91def4	0.07122603
40	0xbcc1adb8	-0.023642406
41	0xba57cfe5	-0.0008232578
42	0xbc95235d	-0.01820534
43	0x3d9760a6	0.07391481
44	0xbc51c63a	-0.012803609
45	0x3c8b7544	0.01702369
46	0xbc4e3935	-0.012586881
47	0xbba47c99	-0.005019736
48	0xbd068c12	-0.032848425
49	0xbd101263	-0.035173785
50	0xbd9c3203	-0.076267265
51	0xbde9690c	-0.11396989
52	0x3c79385e	0.015211193
53	0xbdac9bd5	-0.0842816
54	0xbd465bca	-0.04842738
55	0xbd06343d	-0.032764662
56	0xbc1b56f5	-0.009481181
57	0x3b7e2fd2	0.0038785827
58	0x3d469767	0.048484232
59	0xbc5335e1	-0.012891264
60	0x3d32f863	0.04369391
61	0xbe5475b6	-0.20748028
62	0x3d462185	0.04837181
63	0x3ce26292	0.027634893
64	0x3b45ea90	0.0030199625
65	0xbbc7b320	-0.0060943514
66	0xbce814a5	-0.028330157
67	0x3d1d3093	0.038376402
68	0x3d4ea706	0.050452255
69	0xbd27588e	-0.040855937
70	0x3cc805fe	0.02441692
71	0x3caadff6	0.020858746
72	0xbc369b4a	-0.011145422
73	0xbd99447d	-0.07483766
74	0xbb805814	-0.0039167497
75	0xbd1fc55d	-0.03900658
76	0x3db57902	0.08860971
77	0xbd980546	-0.07422881
78	0xbd2a4bd6	-0.04157623
79	0xbc5fde55	-0.013663848
80	0x3e102dfc	0.14080042
81	0xbd190a10	-0.037363112
82	0xbd3ac38e	-0.04559665
83	0x3d651252	0.055925675
84	0xbc22ffa0	-0.009948641
85	0x3cb5289c	0.02211409
86	0xbb078bff	-0.002068281
87	0x3c87d4b4	0.016580917
88	0x3a36ff52	0.0006980795
89	0x3c87c4d2	0.016573343
90	0x3c1c5127	0.009540833
91	0xbcf469b4	-0.02983556
92	0x3ca1ae30	0.01973638
93	0x3d699d7a	0.057034947
94	0x3c19d96f	0.009390219
95	0xbe058a44	-0.13041025
96	0x3db28226	0.0871623
97	0x3dea6690	0.114453435
98	0xbe1ae205	-0.15125282
99	0xbc764d27	-0.015033043
100	0x3cc48b81	0.023992302
101	0xbbb15b21	-0.0054124747
102	0xbd274545	-0.040837545
103	0xbc98d356	-0.01865546
104	0x3d431111	0.047623698
105	0x3d5be923	0.053689133
106	0x3dd5f43f	0.10446977
107	0xbbef6e16	-0.0073068244
108	0x3c7168e6	0.014734482
109	0x3d459aef	0.04824346
110	0x3d8f8d9a	0.0700943
111	0x3bf6fc0b	0.00753737
112	0x3d9e1e57	0.077206306
113	0xbce46c4d	-0.027883673
114	0xbd8ab8a3	-0.06773498
115	0x3aa786bb	0.0012781242
116	0xbcfc6310	-0.030808955
117	0xbd2e6e7d	-0.04258584
118	0x3d57131d	0.052508462
119	0x3c9f2965	0.019428918
120	0x3cca8bb7	0.024724824
121	0x3d8869e4	0.06660822
122	0x3d090a7a	0.033457257
123	0xbd1fc80f	-0.03900915
124	0x3a106c52	0.0005509305
125	0x3d686b7f	0.05674314
126	0x3c3fd7c7	0.01170916
127	0x3be30281	0.0069277887
128	0xbce84f95	-0.02835826
129	0x3ac6331e	0.0015121435
130	0x3d8222dc	0.06354305
131	0xbcb40153	-0.021973288
132	0xbd139e91	-0.036039893
133	0xbd183e6d	-0.03716891
134	0x3ceff906	0.029293548
135	0xbc233afe	-0.009962795
136	0x3d040b46	0.032237314
137	0xbd1a4e7a	-0.037672497
138	0x3d1a6fa8	0.03770414
139	0x3d8ba4b6	0.068185255
140	0x3bb78995	0.005601118
141	0x3d15e3df	0.036594268
142	0xbd2ad0c2	-0.041702993
143	0xbd6591dd	-0.05604731
144	0x3d564466	0.052311324
145	0x3cccf0bc	0.025017135
146	0x3d0bc2ed	0.034121443
147	0x3d136f8c	0.03599505
148	0x3cb3ecde	0.021963533
149	0x3d25fcb1	0.04052419
150	0xbce408ec	-0.027836286
151	0x3d7ab352	0.06120617
152	0xbd1d3bd0	-0.03838712
153	0xbb7b5a04	-0.0038353214
154	0x3ccb16df	0.02479118
155	0xbe160672	-0.14650896
156	0xbb080a17	-0.0020757967
157	0x3e059197	0.1304382
158	0xbe3ee35a	-0.18641415
159	0xbde1be56	-0.11022632
160	0xbcf09cad	-0.029371584
161	0x3dd8fe1c	0.105953425
162	0x3d20ca5e	0.039255492
163	0xbc3b67c3	-0.011438313
164	0xbdc0b5d4	-0.09409681
165	0xbd864640	-0.06556368
166	0x3cbd3a6a	0.023099143
167	0x3d7d0bf0	0.061778963
168	0xbd5f3275	-0.05449148
169	0xbda26570	-0.07929504
170	0xbdbb84dc	-0.091562
171	0x3aa7b951	0.0012796317
172	0xbd837b50	-0.06420004
173	0xbcbf7a5d	-0.023373777
174	0xbd96d947	-0.07365661
175	0x3dd0b0c7	0.101899676
176	0xbdc3ceed	-0.09560952
177	0x3d28a177	0.04116961
178	0x3e824904	0.25446332
179	0x3def771f	0.116926424
180	0x3c1e59e5	0.009664987
181	0x3d23b8b6	0.039971076
182	0xbd1fc0a7	-0.039002087
183	0x3d017ce6	0.031613253
184	0xbce96399	-0.028489875
185	0x3cf44943	0.02982009
186	0xbce02592	-0.027361665
187	0xbcccb8f0	-0.024990529
188	0xbd2ee3c0	-0.042697668
189	0xbd05186f	-0.032494005
190	0x3d6a1173	0.057145547
191	0x3d53c5c3	0.051702272
192	0xbd65be34	-0.056089595
193	0xbd280a9d	-0.041025747
194	0x3cc4afea	0.024009664
195	0x3d3f6f73	0.046737146
196	0x3c7827bc	0.015146192
197	0x3d617be5	0.055049796
198	0x3ca72ef6	0.020408135
199	0x3d32b3c4	0.04362847
200	0x3d06ca7f	0.03290796
201	0xbd55be97	-0.052183714
202	0x3c4dd8b1	0.01256387
203	0x3cc0a820	0.023517668
204	0x3d353d7d	0.044248093
205	0x3c2e5e98	0.01064267
206	0xbcdbb0db	-0.02681773
207	0xbd5ce893	-0.053932738
208	0x3af914de	0.0019003411
209	0xbd997d22	-0.0749457
210	0x3cbef802	0.023311619
211	0xbcbcfa87	-0.02306868
212	0x3e826873	0.25470313
213	0x3dc91961	0.09819294
214	0x3e2c70a6	0.16839847
215	0x3d189d3d	0.03725933
216	0xbb7b9578	-0.003838865
217	0x3dc0a2f8	0.09406084
218	0x3df69959	0.120409675
219	0xbcb2cc7a	-0.021826018
220	0x3d85f731	0.06541289
221	0x3db1b586	0.08677201
222	0x3c08adbe	0.008342205
223	0xbddbfab2	-0.10741176
224	0xbda67e86	-0.08129601
225	0xbd566ad5	-0.052347977
226	0x3bd971f1	0.0066358973
227	0x3db58d95	0.08864895
228	0x3c6ccb17	0.014452717
229	0x3c57f579	0.013181084
230	0xbd3eb7fa	-0.046562172
231	0xbb1fdeaf	-0.0024394204
232	0x3a95f5e3	0.0011441078
233	0x3dddb938	0.10826343
234	0x3cf600c3	0.03002966
235	0x3ccfb714	0.025355853
236	0x3d02c204	0.03192331
237	0xbc86d418	-0.016458556
238	0x3d1ea589	0.038732085
239	0x3d8b603c	0.068054646
240	0xbcd88c16	-0.026433986
241	0xbc614593	-0.013749498
242	0xbb1d459a	-0.0023997785
243	0x3c102ecc	0.00880022
244	0xbcf9380b	-0.030422231
245	0x3d5d4afe	0.054026596
246	0xbc820b29	-0.015874462
247	0xbd1ce8bd	-0.038307894
248	0x3cdd670c	0.027026676
249	0xbd74258a	-0.059606113
250	0xbc8bf6e9	-0.01708551
251	0x3dbbedc5	0.0917621
252	0xbc37d8c8	-0.011221118
253	0x3ccf6750	0.025317818
254	0x3d5e9d83	0.054349434
255	0x3c012024	0.007881198

encoder.encoder.3.conv.bias f4 [10]
0	0x3c499ad3	0.012304979
1	0x3c9514ad	0.018198336
2	0x3b992634	0.0046737436
3	0x3d4a7fdf	0.049438354
4	0xbba478c5	-0.0050192797
5	0x3d267832	0.04064197
6	0x3d42e1d9	0.047578666
7	0x3cf6e807	0.030139936
8	0x3da72453	0.08161225
9	0x3c7df2c5	0.015499775

decoder.decoder.0.dconv.weight f4 [10, 32, 3, 3]
0	0xbb2f3f8c	-0.0026740758
1	0xbe962dcb	-0.29331812
2	0xbd166bf0	-0.03672403
3	0x3e7e1449	0.24812426
4	0xbe56172f	-0.20907281
5	0xbe3b54b5	-0.18294032
6	0xbe09b72f	-0.13448785
7	0x3b5957c4	0.0033163885
8	0xbe6a1c72	-0.22862414
9	0x3ca5956d	0.020212853
10	0x3dcd3a1c	0.10020849
11	0xbea0c418	-0.31399608
12	0x3df604f7	0.12012666
13	0xbda0f93d	-0.078600384
14	0x3d31324a	0.04326085
15	0x3c6f5183	0.014606836
16	0x3d062589	0.03275064
17	0xbe36d3ef	-0.17854284
18	0xbd2d0537	-0.0422413
19	0x3d92bff2	0.07165517
20	0x3d075dd4	0.033048466
21	0xbde7e1ed	-0.11322389
22	0xbd45cada	-0.048289157
23	0xbe0809fc	-0.13285059
24	0x3d0dc8f0	0.034615457
25	0xbd36d14e	-0.044633202
26	0xbda815f1	-0.0820731
27	0x3ddbf830	0.107406974
28	0xbe0d55cf	-0.13802265
29	0x3c113fbd	0.008865294
30	0xbc677c80	-0.014128804
31	0xbd4d8579	-0.050176118
32	0x3e8e7c2e	0.27829117
33	0xbb2e8bf2	-0.0026633707
34	0x3d357577	0.044301476
35	0xbc2e63d0	-0.010643914
36	0x3e100cfc	0.14067453
37	0x3ce7c497	0.028291984
38	0x3cb8f42a	0.022577364
39	0xbdc2f655	-0.0951964
40	0x3cd3e2e3	0.025865024
41	0x3e279b10	0.16367745
42	0xbd9d8106	-0.07690625
43	0xbe0e4867	-0.13894807
44	0x3e3aa885	0.18228348
45	0x3ddb3636	0.10703699
46	0xbd6416c1	-0.055685762
47	0x3c6b8ca2	0.014376791
48	0xbe4a53e7	-0.19758569
49	0x3ca9fc76	0.020750266
50	0x3d9de1e5	0.077091016
51	0x3ce21fe8	0.027603105
52	0x3e547f1f	0.20751618
53	0x3db1ebe4	0.08687571
54	0x3bbe7893	0.0058127134
55	0xbca5deba	-0.020247806
56	0x3d72120b	0.05909924
57	0x3dfcbf80	0.12341213
58	0x3ecfaa60	0.40559673
59	0x3def308d	0.11679182
60	0xbe19cacc	-0.15018767
61	0xbe004162	-0.12524942
62	0x3e45d6f7	0.19320284
63	0xbc702d20	-0.014659196
64	0x3e839cac	0.2570547
65	0x3ea58162	0.32325274
66	0x3e33ae0b	0.17546861
67	0xbcb93c5c	-0.02261179
68	0x3df4719f	0.11935734
69	0x3e456005	0.1927491
70	0xbd57f543	-0.052724134
71	0x3e8f04f7	0.27933475
72	0x3dc7f70c	0.09763917
73	0xbc81ffd9	-0.015869068
74	0x3d82bec0	0.06384039
75	0x3e261458	0.16218698
76	0x3d5b8dd3	0.05360205
77	0x3e967367	0.2938492
78	0x3b2b1c77	0.0026109496
79	0xbd9d0c16	-0.07668321
80	0x3cca0d1b	0.024664452
81	0xbd64cb34	-0.055857852
82	0x3e8d9cdb	0.27658734
83	0x3d8b420f	0.06799709
84	0xbe6cc562	-0.2312217
85	0xbd9d7292	-0.07687868
86	0xbe662052	-0.22473267
87	0xbe601475	-0.21882804
88	0x3e472591	0.19447924
89	0x3dafc89f	0.08583187
90	0x3e0cf813	0.13766508
91	0x3e00bdd0	0.12572408
92	0x3e16d5a0	0.14729929
93	0xbd2c917b	-0.04213093
94	0xbe157dd2	-0.14598778
95	0xbd2e5599	-0.0425621
96	0x3d622fdd	0.055221427
97	0x3a4d4c6a	0.0007831516
98	0x3e4f7ad0	0.20261693
99	0x3ce5b99e	0.02804261
100	0x3e7dfb23	0.24802832
101	0x3e2ee111	0.17078044
102	0x3e19ff87	0.15038882
103	0xbd7ff1d2	-0.062486477
104	0x3b3531be	0.0027648057
105	0x3df189d7	0.11793869
106	0x3ee4a61e	0.44657987
107	0x3e5fc752	0.21853378
108	0x3d9fcdc6	0.0780292
109	0x3e2161eb	0.15760009
110	0x3d3a2fc1	0.045455698
111	0x3e62e0bc	0.22156042
112	0x3c460834	0.012086917
113	0xbe1e9d02	-0.15489581
114	0x3da15680	0.07877827
115	0x3dc488ce	0.09596406
116	0x3e028bb0	0.12748599
117	0x3d5bc51e	0.053654782
118	0x3ea67353	0.3250986
119	0x3e0b3885	0.13595779
120	0x3cd09d51	0.02546564
121	0xbda5de71	-0.08099068
122	0x3e70700e	0.23480245
123	0x3d3584fa	0.04431627
124	0x3d31e428	0.043430477
125	0xbcd0443d	-0.025423164
126	0x3e0d83e8	0.1381985
127	0xbd115b19	-0.035487268
128	0x3b166ed8	0.0022954252
129	0xbcaea332	-0.021318052
130	0xbd3bab4c	-0.04581766
131	0x3d0563d5	0.03256591
132	0xbd9b9965	-0.07597617
133	0x3e1cf6f5	0.15328582
134	0x3e65db3e	0.22446916
135	0x3e102866	0.14077911
136	0xbd24aec0	-0.040205717
137	0x3d94327c	0.07236192
138	0x3d04d72d	0.03243177
139	0xbdb10919	-0.08644313
140	0xbd00e4a3	-0.031468045
141	0xbd263c89	-0.040585075
142	0xbd87d778	-0.06632894
143	0xbdee3553	-0.116312645
144	0x3ded7b12	0.115957394
145	0xbe351c0e	-0.17686483
146	0x3cc1ab0d	0.023641134
147	0x3c1cb12d	0.009563726
148	0xbd0f21d6	-0.034944378
149	0xbcc5225d	-0.024064237
150	0xbd6e7254	-0.0582145
151	0x3d8c3371	0.06845749
152	0x3df16783	0.117873214
153	0x3e063c2f	0.13108896
154	0xbd3ebc24	-0.046566144
155	0x3de437a1	0.11143423
156	0x3c912db5	0.01772199
157	0x3d8a74a2	0.06760527
158	0x3e6a612b	0.22888629
159	0x3cd7e44c	0.026353978
160	0xbd24437b	-0.040103417
161	0x3d7ef8a4	0.06224884
162	0x3d8a197f	0.06743144
163	0x3d52f834	0.051506236
164	0xbce8352b	-0.028345665
165	0xbd964f3f	-0.07339334
166	0xbd6d7b8c	-0.05797915
167	0x3e8b5bf8	0.27218604
168	0xbde52e7f	-0.11190509
169	0x3b03db0b	0.0020119573
170	0xbe960766	-0.2930252
171	0x3d42bcbe	0.04754328
172	0xbdcc467b	-0.099743806
173	0xbdbbfc77	-0.09179013
174	0x3d2c82f9	0.042117093
175	0x3b3b7685	0.0028604579
176	0x3e14ce1d	0.14531751
177	0x3e117e4f	0.14208339
178	0xbdd523fe	-0.104072556
179	0x3e84e8fb	0.25959
180	0x3dc547e1	0.096328504
181	0x3d564b0e	0.05231767
182	0x3e8840f4	0.26612055
183	0x3d49925c	0.049211845
184	0xbe3ed3b8	-0.18635452
185	0x3eadac61	0.33920577
186	0x3c30c17f	0.010788321
187	0x3c867a93	0.01641587
188	0x3e8b8f6c	0.2725786
189	0xbd3be4dc	-0.045872554
190	0x3e5d715d	0.21625276
191	0xbe7ba847	-0.24575911
192	0x3e00c5be	0.12575433
193	0xba3d5d0a	-0.0007223642
194	0x3e48271d	0.1954617
195	0x3e40f58f	0.18843673
196	0x3e75f7fd	0.24020381
197	0xbe0d6cf7	-0.13811098
198	0xbc244c83	-0.010028007
199	0xbc1460d2	-0.009056287
200	0x3e32dc1a	0.17466775
201	0x3d5cc848	0.05390194
202	0xbd6a8629	-0.05725685
203	0x3d4fa831	0.05069751
204	0xbc74d7ca	-0.014944026
205	0x3d9a9824	0.0754855
206	0x3e271973	0.16318302
207	0xbde3a634	-0.11115685
208	0x3de40be4	0.111350805
209	0x3d0fe66d	0.03513186
210	0xbbb0ce45	-0.005395683
211	0xbe159909	-0.1460916
212	0xbd634b1b	-0.055491548
213	0x3d917175	0.07101718
214	0x3ca3914d	0.019966746
215	0xbed2eeda	-0.41197854
216	0xbd62e8af	-0.055397686
217	0x3d137aa5	0.036005635
218	0xbcbbc684	-0.022921808
219	0x3d45f78a	0.048331775
220	0xbdc6c5c4	-0.097056895
221	0x3c6f5421	0.01460746
222	0xbcc1cada	-0.023656297
223	0x3e8ed48d	0.27896538
224	0x3ea6ac9e	0.3255357
225	0xbd51fab5	-0.051264483
226	0xbc9aa91c	-0.018879466
227	0xbd370355	-0.044680912
228	0x3e22f86b	0.15915076
229	0x3d5106d0	0.051031888
230	0x3e7b3201	0.24530794
231	0xbd2857dc	-0.041099414
232	0xbd9a4575	-0.07532779
233	0xbd553698	-0.052054018
234	0x3c7e0706	0.015504604
235	0x3e0dd356	0.1385015
236	0xbe344654	-0.17604953
237	0x3e203aaf	0.15647386
238	0xbd331531	-0.04372138
239	0x3c108a25	0.008821999
240	0x3e247add	0.16062494
241	0xbc170812	-0.009218233
242	0xbccfbee9	-0.025359588
243	0xbd01ced8	-0.031691402
244	0xbe00ad22	-0.12566045
245	0xbe2fc897	-0.17166363
246	0xbc727a61	-0.014799685
247	0x3d45cf3e	0.048293345
248	0xbe9ebad7	-0.31001922
249	0x3e49fe50	0.19725919
250	0xbe8b0cd6	-0.2715823
251	0x3cc2636a	0.023729045
252	0x3d2cf0cb	0.042221826
253	0xbdaace6e	-0.083401546
254	0x3e36423b	0.17798702
255	0x3c0c0690	0.0085464865

decoder.decoder.0.dconv.bias f4 [32]
0	0x3df93eaa	0.12170155
1	0x3d6101f8	0.05493352
2	0xbd0592c9	-0.03261069
3	0x3d917941	0.071032055
4	0x3ba12d2a	0.004918714
5	0xbd302d0a	-0.043011703
6	0x3d5f429d	0.054506887
7	0x3d0fb9e4	0.03508939
8	0x3dcd7761	0.10032535
9	0x3dad3739	0.084577985
10	0xbd1ce725	-0.038306374
11	0x3db64184	0.08899215
12	0x3d05077b	0.032477837
13	0x3de083d0	0.10962641
14	0xbd1a4482	-0.03766299
15	0xbc0af968	-0.008482315
16	0xbc646e6c	-0.013942342
17	0x3d6e5531	0.058186714
18	0x3a04c955	0.0005065401
19	0x3d295fbe	0.041351072
20	0x3e09e6ad	0.13466902
21	0x3da196cb	0.078900896
22	0x3dc8f8e6	0.098130986
23	0x3e43023a	0.19043818
24	0xbd5f3741	-0.054496054
25	0x3cafadb9	0.021445142
26	0x3d1df23f	0.038561102
27	0x3d948aa1	0.07253004
28	0x3e12d82e	0.14340279
29	0x3dac4827	0.084121995
30	0x3d8684b4	0.0656828
31	0xbcab3e17	-0.02090363

decoder.decoder.1.dconv.weight f4 [32, 32, 3, 3]
0	0xbe2d6f76	-0.1693705
1	0x3e8caaa6	0.27473944
2	0xbe9b83ca	-0.30373985
3	0xbeaa07e1	-0.33209136
4	0xbdb679dd	-0.08909962
5	0xbe82d4f1	-0.25553086
6	0xbdd91766	-0.10600166
7	0x3e1fa514	0.15590316
8	0xbe066091	-0.13122775
9	0xbe2e166d	-0.17000742
10	0x3ca7dd09	0.02049114
11	0x3e6d7675	0.23189719
12	0xbea00d1a	-0.31259996
13	0xbe9673c9	-0.29385212
14	0xbeb3d83c	-0.3512591
15	0xbe0920a8	-0.13391364
16	0xbbf5b5aa	-0.0074984627
17	0xbed1a102	-0.40943152
18	0xbf24c6f3	-0.6436607
19	0xbe03c49b	-0.12867968
20	0xbd26f567	-0.040761378
21	0xbf2efc39	-0.6835361
22	0xba741462	-0.00093108986
23	0x3f029de2	0.5102216
24	0x3ed14784	0.40874875
25	0x3e979b76	0.29610795
26	0xbda9dc28	-0.082939446
27	0x3e2904f7	0.165058
28	0xbdf00440	-0.117195606
29	0xbe88f85f	-0.26751992
30	0xbcef179d	-0.029186064
31	0xbe4e9e98	-0.20177686
32	0xbe64e1ce	-0.22351763
33	0xbe67fa91	-0.22654177
34	0x3d893110	0.06698811
35	0xbe05370f	-0.13009284
36	0x3dda8ec7	0.10671764
37	0x3d94bf68	0.0726307
38	0x3ca8a9ec	0.020588838
39	0xbcbc5257	-0.022988481
40	0xbe6c5e1f	-0.2308278
41	0xbf0a1010	-0.5393076
42	0xbe394773	-0.18093662
43	0x3e02838a	0.1274549
44	0x3d8f9d69	0.070124455
45	0x3ddfaa60	0.10921168
46	0xbe7d6129	-0.24744095
47	0xbe3dacbb	-0.18522923
48	0xbdc744a8	-0.09729892
49	0xbe71a243	-0.23597054
50	0xbeb036ed	-0.34416905
51	0xbebac973	-0.3648182
52	0xbc89e9d7	-0.016835136
53	0xbeeab604	-0.45841992
54	0xbdd8a71e	-0.1057875
55	0x3e6586e0	0.22414732
56	0xbe4f3849	-0.20236315
57	0xbdd9cd2c	-0.106348366
58	0xbe4cf880	-0.2001667
59	0xbeaa9abe	-0.33321184
60	0xbd3a1a8a	-0.045435466
61	0xbe0b7f7c	-0.1362285
62	0xbe8d9f1b	-0.2766045
63	0x3e0da6ab	0.1383311
64	0xbe04081c	-0.12893718
65	0x3e15e159	0.14636745
66	0xbe0299cb	-0.1275398
67	0xbd8302ab	-0.06396993
68	0xbdafedb5	-0.08590261
69	0xbe826158	-0.25464892
70	0x3c7ee190	0.015556708
71	0x3e1ca4de	0.15297267
72	0x3d0fd326	0.035113476
73	0xbe545a94	-0.20737678
74	0x3dd1e3ab	0.10248502
75	0xbd8dc91a	-0.06923123
76	0xbe87b1de	-0.2650289
77	0xbcb0dc21	-0.02158934
78	0xbe600e37	-0.21880423
79	0x3d92c225	0.071659364
80	0xbe6763ec	-0.22596711
81	0xbe62cd79	-0.22148694
82	0xbdadfcc5	-0.084954776
83	0xbd79e65e	-0.06101071
84	0xbd1683b6	-0.036746703
85	0xbea642d1	-0.32472852
86	0xbebe4b0f	-0.3716664
87	0xbe610431	-0.21974255
88	0x3da5ea46	0.08101325
89	0xbbd1f430	-0.0064072832
90	0x3df9a2c2	0.12189247
91	0xbf0fc08f	-0.56153196
92	0xbe90c290	-0.2827344
93	0x3e3df94d	0.18552132
94	0xbde7cad4	-0.11317983
95	0xbeb9847f	-0.362339
96	0x3d2cd17f	0.04219198
97	0x3e9c68f3	0.3054882
98	0x3dc751e8	0.09732419
99	0xbecd7d38	-0.40134597
100	0xbe731bec	-0.2374112
101	0xbecb694d	-0.39728776
102	0x3c8c9a60	0.017163455
103	0xbe835a6a	-0.25654918
104	0xbef63e7d	-0.4809455
105	0xbdd51c50	-0.10405791
106	0xba7b1ce9	-0.0009579198
107	0x3ddbc4c1	0.10730887
108	0xbd42fcf0	-0.0476045
109	0xbd69b6c9	-0.057059083
110	0x3a92d65e	0.0011202802
111	0x3e457e84	0.19286543
112	0x3e1417d9	0.14462222
113	0xbd3b4b10	-0.045725882
114	0x3ddd42b2	0.10803737
115	0xbb9bd60f	-0.0047557424
116	0xbde9e9e8	-0.11421567
117	0x3dd018ee	0.10161005
118	0x3ab6840a	0.0013924849
119	0xbd5e0ed2	-0.054213353
120	0x3dbdcf51	0.09268058
121	0xbe8b14cd	-0.27164307
122	0xbdf60600	-0.12012863
123	0x3cc9482d	0.024570549
124	0x3e1b9003	0.15191655
125	0x3e82b5d8	0.2552936
126	0x39dbefc2	0.0004194957
127	0x3e09ee38	0.1346978
128	0x3e8f52b4	0.27992785
129	0xbda79901	-0.0818348
130	0x3e478c0d	0.19487019
131	0x3d687762	0.056754477
132	0x3d1b4224	0.037904873
133	0x3e28c864	0.16482693
134	0x3e84da0d	0.2594761
135	0x3eb49b4b	0.3527473
136	0xbdba7254	-0.091038376
137	0xbe60f527	-0.21968518
138	0xbe923ad7	-0.28560516
139	0xbe806bbe	-0.250822
140	0xbcb9ae23	-0.022666043
141	0xbec86ad0	-0.3914399
142	0xbde271f4	-0.11056891
143	0xbc83c32c	-0.016084276
144	0xbe4195ee	-0.1890485
145	0x3bca2c37	0.0061698216
146	0x3d0a1ff3	0.033721875
147	0xbba24fbc	-0.0049533527
148	0xbd1691cb	-0.036760133
149	0x3f05c27c	0.52249885
150	0xbd18b5f0	-0.037282884
151	0xbeabf3d1	-0.33584455
152	0x3e846c35	0.25863805
153	0x3e1c14a7	0.15242253
154	0xbc4d3ccc	-0.012526702
155	0xbe735f93	-0.23766927
156	0x3dedc553	0.11609902
157	0xbe2a71e9	-0.16645016
158	0xbea326aa	-0.31865436
159	0xbd8dabcb	-0.069175325
160	0x3ce36a51	0.027760657
161	0x3ea3847a	0.3193701
162	0x3dc5bca2	0.096551195
163	0x3d54afd5	0.0519255
164	0xbe3f40e9	-0.18677105
165	0x3e0c85fd	0.13722987
166	0xbe636262	-0.22205499
167	0xbe993e0a	-0.29930145
168	0xbd32145f	-0.04347646
169	0xbe5074a4	-0.20356995
170	0xbe257705	-0.16158684
171	0xbe2509b4	-0.16116983
172	0xbd204bbd	-0.03913473
173	0x3e705afd	0.2347221
174	0xbea01555	-0.31266275
175	0x3e046fb9	0.12933244
176	0xbe4f5dd1	-0.20250632
177	0x3e1b50a0	0.15167475
178	0xbdce0bc8	-0.10060841
179	0x3d44606e	0.047943525
180	0xbdb4f115	-0.08835045
181	0x3d2a3f16	0.04156407
182	0x3e436afd	0.19083782
183	0xbe8fcdd8	-0.28086734
184	0xbe91b2d0	-0.28456736
185	0xbdf42fc3	-0.11923172
186	0xbe4a578e	-0.19759962
187	0xbdf372f0	-0.11887157
188	0x3e7e4c46	0.24833784
189	0x3e41c98e	0.18924543
190	0xbd863548	-0.06553131
191	0xbe9d98bb	-0.30780587
192	0x3ea35855	0.3190333
193	0xbd3f25fd	-0.046667088
194	0xbde066ba	-0.109570935
195	0x3f0392b9	0.51395756
196	0x3d6237bf	0.055228945
197	0x3dd24557	0.10267132
198	0x3cf7e9dc	0.03026288
199	0xbbc31ef2	-0.0059546167
200	0xbef38a92	-0.47566658
201	0xbe94073e	-0.28911775
202	0xbe8d150e	-0.27555126
203	0xbe1def3a	-0.15423289
204	0xbe109b79	-0.14121808
205	0xbce121f1	-0.027482005
206	0x3cd2b1c9	0.02571954
207	0xbea4696d	-0.32111683
208	0xbd806a8c	-0.06270322
209	0xbe7af08c	-0.24505824
210	0xbe82a162	-0.2551375
211	0xbe412d9f	-0.1886506
212	0xbdc8387b	-0.09776398
213	0xbe2f81b0	-0.17139316
214	0xbd973d2b	-0.07384714
215	0xbdd8c601	-0.10584641
216	0x3cfae9bc	0.030629031
217	0xbd0fbdf2	-0.035093255
218	0x3e2e60da	0.17029133
219	0xbc2f3f61	-0.010696263
220	0x3e00c6b2	0.12575796
221	0x3ed34a43	0.41267595
222	0x3e400d14	0.18754989
223	0x3dfae049	0.1224981
224	0x3ea51aeb	0.322471
225	0x3e1c9848	0.15292466
226	0xbd9fa048	-0.07794243
227	0x3e700210	0.23438287
228	0xbd8dbd30	-0.0692085
229	0xbe61ff72	-0.22070101
230	0xbde91d59	-0.11382551
231	0xbe4d3369	-0.20039143
232	0xbdc31685	-0.0952578
233	0x3e9223ed	0.28543034
234	0xbe5c8491	-0.21534945
235	0xbd68ca77	-0.05683371
236	0xbe9dadfb	-0.307968
237	0x3d477c30	0.04870242
238	0xbe887064	-0.26648247
239	0xbf01f430	-0.50763226
240	0xbd3e4cb5	-0.046459872
241	0xbe052be1	-0.1300502
242	0xbdd511f7	-0.10403817
243	0xbe2fa31c	-0.17152065
244	0xbe4b90c6	-0.19879445
245	0xbe946195	-0.289807
246	0xbd6785ee	-0.05652421
247	0xbe3a0433	-0.18165664
248	0xbe435cda	-0.19078389
249	0xbe5182e5	-0.20460089
250	0x3e5d83f2	0.21632364
251	0x3d9ab998	0.075549304
252	0xbb2d8b13	-0.00264806
253	0xbe693920	-0.22775698
254	0x3c4eeee2	0.012630196
255	0xbe466ce0	-0.1937747

decoder.decoder.1.dconv.bias f4 [32]
0	0x3d47acca	0.04874877
1	0x3d8c4a3c	0.068500966
2	0x3e56f911	0.20993449
3	0x3e00b414	0.12568694
4	0x3de6797b	0.11253639
5	0x3d540df6	0.051771127
6	0x3d592358	0.053012222
7	0x3da6fc9c	0.0815365
8	0x3d864325	0.065557756
9	0x3d595c3d	0.05306648
10	0x3e801795	0.25017992
11	0x3d403b5a	0.046931602
12	0xbc90fd81	-0.017699005
13	0x3d92f426	0.07175474
14	0x3e600df5	0.21880324
15	0x3dc6755a	0.09690352
16	0x3d902614	0.07038513
17	0x3db44554	0.08802286
18	0x3d9f100f	0.07766735
19	0x3ca4784c	0.020076893
20	0x3de178f9	0.11009402
21	0x3db9fe6b	0.090817295
22	0x3dc46d2d	0.09591136
23	0x3cae5ff3	0.021285987
24	0x3d6c7a52	0.05773384
25	0x3dc6e534	0.09711686
26	0x3d74bf79	0.059752915
27	0x3da58f2f	0.08083951
28	0x3db5d44e	0.088783845
29	0x3d75c2a6	0.060000084
30	0x3dd3e99e	0.10347293
31	0xbd6d94a8	-0.058003098
