notebooks/saved_model/mnist_model/mnist_cae_1/mnist_cae00025.pth (torch, 541279 bytes, 51 tensors)

encoder.encoder.0.conv.weight f4 [32, 1, 3, 3]
-0.2399397 -0.4810975 0.15223941 -0.023062056 -0.14620234 -0.5366728 0.4646084 0.13045132
-0.40614104 0.013191999 0.076028585 -0.12595296 0.15209427 0.19765028 0.04279205 -0.077102125
-0.2306462 0.05343657 -0.04679097 0.33572024 0.70505124 -0.3928785 -0.22810861 0.042380244
-0.15215448 -0.32722065 -0.04258074 -0.1840888 0.7200498 0.3385107 -0.7361638 -1.1092554
-0.75434643 0.54032487 0.42138767 0.16787106 -0.1585853 -0.2533478 -0.25880796 -0.17288859
-0.2380905 -0.29606056 -0.27722612 -0.09829105 -0.39672324 -0.19750288 -0.3898713 0.3225219
0.30202854 -0.45898488 0.2602685 0.34849545 0.04141366 -0.4373569 -0.26232153 -0.31767124
-0.058556587 -0.10577452 0.11465356 -0.09548685 0.009524733 -0.29747853 -0.0673227 0.068689905
-0.08745836 -0.27272654 -0.035563476 0.18367411 -0.044745132 -0.045852777 -0.13939674 0.14015374
-0.003079267 -0.6711084 -0.5378278 -0.30131772 0.19706605 0.34979826 0.34762594 0.29205248
0.2937613 -0.16485685 -0.15153402 0.08316401 -0.22530976 0.34591565 0.16610092 0.14038877
0.22246116 -0.40518153 0.3403517 -0.093165666 0.2281632 0.11684946 0.4207392 0.085676715
0.27671757 -0.1858283 -0.2585466 0.40452784 -0.05063596 -0.012565657 0.11384389 -0.6224808
-0.062346667 -0.16348027 -0.05008698 0.44560048 0.043313652 0.14785238 -0.22709389 -0.30587465
0.16324893 -0.62046015 -0.32283363 -0.56885004 -0.40163502 0.32282934 0.41911507 -0.23923978
0.33915478 0.35891736 -0.65963 -0.21286206 -0.67360914 -0.5288231 0.44354683 -0.047236692
-0.3798032 -0.17547263 -0.01787031 0.08219681 -0.32023215 -0.042687654 0.39216942 -0.16959898
-0.20882073 -0.20866208 0.25428465 0.17840496 0.35071057 -0.26106516 -0.3071087 -0.2744122
0.079013996 0.18336262 -0.06680571 -0.0849653 -0.03076277 -0.4196371 0.14999114 0.47807717
-0.06583624 0.004542182 -0.18502618 -0.3417153 -0.04310426 0.065655656 -0.11791535 -0.13468376
0.19680606 -0.15354447 0.032081235 0.031605195 0.085462816 -0.4164467 0.0026378562 -0.059388373
0.21173902 0.05168858 -0.019554157 -0.08276132 0.0627329 -0.24405308 -0.3537832 0.07980318
0.04106161 0.08887973 0.2622357 -0.15424968 -0.22215939 -0.24217659 0.22126119 0.002129092
-0.2074985 0.26042992 -0.3443681 -0.48516783 0.1117671 -0.27582625 -0.39811093 -0.062123638
0.38666698 0.26486015 0.15502472 0.23110117 -0.15193285 0.2153663 0.07591572 0.30170992
-0.046133365 0.12599933 0.15389001 0.04743951 0.15705466 0.45359576 0.023585033 -0.37078783
0.13381644 0.4343198 -0.41422078 -0.030512607 0.15612368 -0.30596867 0.045378566 0.5850425
0.062171675 0.058265254 0.36613464 0.28499 0.5854338 0.06663409 -0.36076182 -0.6947335
-0.4353588 -0.10738732 0.115103066 0.2264464 -0.3751691 0.2356179 -0.2698793 0.2441048
-0.08330148 -0.1353389 -0.14022833 -0.49578816 -0.087010376 -0.45499274 -0.20621915 0.3398108
-0.2510058 -0.026511757 0.52805305 -0.2803242 -0.31491917 0.13175759 -0.044700906 -0.1484052
0.26963285 0.19898106 -0.07906204 0.34776688 0.12253521 -0.35426408 0.002694145 -0.006629511
00000000: c1b2 75be 6952 f6be a6e4 1b3e a3ec bcbc
00000010: 11b6 15be 6363 09bf 27e1 ed3e 0895 053e
00000020: b8f1 cfbe 4123 583c e0b4 9b3d d0f9 00be
00000030: 9abe 1b3e d664 4a3e b746 2f3d b8e7 9dbd
00000040: 842e 6cbe 4ee0 5a3d e3a7 3fbd 86e3 ab3e
00000050: 3d7e 343f 5f27 c9be 4e95 69be e896 2d3d
00000060: 62ce 1bbe 7789 a7be 2469 2ebd c681 3cbe
00000070: 2f55 383f 4651 ad3e 3b75 3cbf 15fc 8dbf
00000080: d91c 41bf bb52 0a3f 20c0 d73e 64e6 2b3e
00000090: 2f64 22be ceb6 81be 7a82 84be b509 31be
000000a0: ffcd 73be 4095 97be 95f0 8dbe d14c c9bd
000000b0: 4f1f cbbe 323e 4abe 369d c7be 9721 a53e
000000c0: 7ca3 9a3e 1100 ebbe ea41 853e ff6d b23e
000000d0: 5fa1 293d 3eed dfbe 024f 86be cea5 a2be
000000e0: 08d9 6fbd 50a0 d8bd 7ccf ea3d 9c8e c3bd
000000f0: a00d 1c3c 1b4f 98be 7ce0 89bd 4bad 8c3d
00000100: 5e1d b3bd d0a2 8bbe 02ab 11bd 1115 3c3e
00000110: ac46 37bd 1fd0 3bbd 05be 0ebe 7684 0f3e
00000120: 87cd 49bb c3cd 2bbf 15af 09bf 5146 9abe
00000130: afcb 493e c218 b33e 07fc b13e e787 953e
00000140: e267 963e 3cd0 28be bc2b 1bbe e451 aa3d
00000150: 9ab7 66be db1b b13e 5c16 2a3e 13c2 0f3e
00000160: dccc 633e f473 cfbe 9442 ae3e a4cd bebd
00000170: 9da3 693e c54e ef3d 216b d73e 4677 af3d
00000180: edad 8d3e c649 3ebe 3860 84be 461e cf3e
00000190: a767 4fbd 2fe0 4dbc fc26 e93d e75a 1fbf
000001a0: 385f 7fbd 5f67 27be 0128 4dbd bf25 e43e
000001b0: a869 313d 9d66 173e 4d8b 68be 9a9b 9cbe
000001c0: ba2a 273e 7ad6 1ebf 734a a5be 28a0 11bf
000001d0: 1ba3 cdbe e349 a53e 4096 d63e 46fb 74be
000001e0: b2a5 ad3e 04c4 b73e 83dd 28bf 83f8 59be
000001f0: a671 2cbf f360 07bf 9218 e33e 437b 41bd
00000200: 9175 c2be 19af 33be c264 92bc cd56 a83d
00000210: 78f5 a3be 40d9 2ebd 6eca c83e 5bab 2dbe
00000220: 1ad5 55be 83ab 55be 9931 823e caaf 363e
00000230: 5690 b33e 55aa 85be 5a3d 9dbe c27f 8cbe
00000240: 17d2 a13d 69c3 3b3e 6fd1 88bd 4a02 aebd
00000250: 3402 fcbc adda d6be 4797 193e 88c6 f43e
00000260: 27d5 86bd 96d6 943b 8177 3dbe 4ff5 aebe
00000270: 188e 30bd 7976 863d 9a7d f1bd 8aea 09be
00000280: 8787 493e c33a 1dbe 9d67 033d 7374 013d
00000290: 2107 af3d 8038 d5be e2df 2c3b 3941 73bd
000002a0: 1dd2 583e 68b7 533d 0a30 a0bc c47e a9bd
000002b0: 1b7a 803d 0de9 79be 1223 b5be da6f a33d
000002c0: 3830 283d 9306 b63d c243 863e a1f3 1dbe
000002d0: c07d 63be 24fd 77be 4b92 623e 3d88 0b3b
000002e0: 7d7a 54be 1257 853e 0451 b0be eb67 f8be
000002f0: 26e6 e43d 1939 8dbe 32d5 cbbe 5b75 7ebd
00000300: 37f9 c53e c09b 873e cdbe 1e3e c9a5 6c3e
00000310: 4994 1bbe fc88 5c3e b379 9b3d b979 9a3e
00000320: 57f6 3cbd f805 013e 5895 1d3e ee4f 423d
00000330: f0d2 203e b43d e83e 6635 c13c e7d7 bdbe
00000340: 2d07 093e 2a5f de3e bf14 d4be 93f5 f9bc
00000350: e3de 1f3e eda7 9cbe e0de 393d 58c5 153f
00000360: baa7 7e3d 8ca7 6e3d 0076 bb3e 36ea 913e
00000370: fdde 153f 7477 883d c6b5 b8be 0eda 31bf
00000380: 59e7 debe e2ed dbbd 28bb eb3d 91e1 673e
00000390: 2a16 c0be d245 713e 9f2d 8abe 9cf6 793e
000003a0: f799 aabd 4896 0abe 0498 0fbe f2d7 fdbe
000003b0: 7f32 b2bd cff4 e8be 1d2b 53be aefb ad3e
000003c0: d583 80be 2f2f d9bc 7c2e 073f a786 8fbe
000003d0: 163d a1be 76eb 063e 4c18 37bd 88f7 17be
000003e0: 510d 8a3e b1c1 4b3e 47eb a1bd 800e b23e
000003f0: bdf3 fa3d 1a62 b5be 4190 303b 5e3c d9bb

encoder.encoder.0.conv.bias f4 [32]
0.09378472 0.088379 -0.004893821 0.089726605 0.12537554 0.13652165 -0.2694177 0.0911874
0.010419746 -0.10209955 0.0041430765 -0.0038721403 0.2587054 0.06622256 0.04069964 0.20429459
-0.06049245 0.18701534 0.060322277 0.056889568 0.038131647 -0.127315 -0.0029778741 -0.0047084955
-0.006024631 0.047129523 -0.006220502 -0.13665041 0.23676497 -0.15882389 0.0013834531 -0.19349143
00000000: 3412 c03d 0d00 b53d 595c a0bb 95c2 b73d
00000010: 7262 003e 55cc 0b3e 1ef1 89be 76c0 ba3d
00000020: 95b7 2a3c 9219 d1bd a5c2 873b bcc3 7dbb
00000030: 0975 843e b29f 873d aab4 263d 9a32 513e
00000040: eec6 77bd f380 3f3e 7e14 773d 0905 693d
00000050: ee2f 1c3d dd5e 02be 7028 43bb b949 9abb
00000060: 456a c5bb e30a 413d 5ad5 cbbb 16ee 0bbe
00000070: 8472 723e bba2 22be fc54 b53a 9e22 46be

encoder.encoder.1.conv.weight f4 [32, 32, 3, 3]
0.14140242 0.19670078 0.15395856 -0.003172614 0.12203463 0.08465444 -0.085591376 -0.026435008
0.13528979 -0.032918975 -0.032046303 -0.038133077 0.046925135 0.027158396 -0.025880575 0.067720674
0.08195406 0.007005069 -0.05857982 -0.2677116 -0.41465494 -0.11059171 -0.3995381 -0.52178144
-0.35157797 -0.531486 -0.36244228 -0.06363471 -0.003316466 -0.1134433 -0.24851413 -0.112343
-0.12113088 -0.17321688 -0.1733496 -0.042387627 -0.091894664 0.025802484 0.04944674 -0.02009303
-0.0039483546 0.042665325 -0.082791045 0.022439208 0.058967326 -0.014747763 0.086899385 0.08252199
-0.029894209 0.010033611 0.049016736 -0.037841614 0.050862186 0.073558636 0.0037981533 0.031697717
0.047911976 0.01253343 -0.01389531 0.01308101 0.008708712 -0.0085358955 -0.022376288 -0.008167558
0.0016884806 0.0692777 -0.025606029 -0.0090890955 0.02664616 -0.01759852 0.07954074 0.013898877
-0.04958253 -0.11650723 -0.43856135 -0.2150799 -0.3982055 -0.61775684 -0.1271938 -0.3278092
-0.4738644 0.04850751 -0.10638079 -0.09824362 0.008359314 0.008144073 -0.17290987 0.086521395
0.14270552 -0.16992253 0.081351526 0.06833951 -0.195642 0.11053855 0.07322968 -0.08849035
0.20327619 0.101117186 -0.1621773 -0.06521696 -0.11000119 -0.046392374 0.04578986 -0.06652814
0.0030381856 0.07306234 0.0024037291 -0.004584859 -0.038904108 0.015970351 0.09125411 0.07266341
0.115902744 0.12461335 -0.010392032 0.09768596 0.052371297 -0.07881717 -0.09410674 -0.022520611
-0.08988281 0.031716786 0.041915927 0.094389305 0.2318146 0.16974008 0.009804604 -0.045785807
-0.036696434 0.061526522 -0.015384219 0.00066773035 0.026030038 0.040558197 -0.023879262 0.039134692
0.095980704 0.096759036 0.09273132 0.04473447 0.05250506 0.07323463 0.07293916 0.18546753
-0.0032869189 0.020643389 0.01220755 0.071953654 -0.038197108 0.021388808 0.093762785 0.032703187
-0.020309996 0.085559525 0.09490774 0.036192536 0.081963085 0.06997761 0.013558336 0.071605735
0.034913164 0.04892908 -0.054921404 0.019498251 -0.031028163 0.068125345 0.067680754 0.022136556
0.027991906 0.027462559 0.017369779 0.02013606 -0.021409243 0.036434554 0.019689882 0.022594506
0.017509371 0.021429308 0.043311905 0.0057440302 0.06401982 0.09971985 0.1408606 0.1252403
0.0048197233 0.053951904 0.2285549 -0.011004308 0.15501441 -0.011747253 -0.13182065 -0.1999962
-0.08065663 -0.07394445 -0.31358957 -0.10956942 -0.13000295 -0.10265075 0.14130323 0.05489752
-0.2090905 0.15169927 0.10547307 -0.17590596 0.12132996 0.008085103 -0.2871614 0.20586984
0.23591273 0.23374009 0.3019919 0.48322144 0.57604766 0.057720006 0.16724522 0.32770053
-0.2731677 -0.47251406 -0.5487985 -0.26122913 -0.4554112 -0.6281189 -0.06973629 -0.16876455
-0.40341207 0.021620678 -0.0044504227 -0.04009089 -0.011742021 0.044498716 0.05516563 0.06181183
-0.0176146 -0.056535985 0.11918159 0.16180041 0.14415762 0.26820722 0.28573734 0.046366222
0.2679072 0.15528934 -0.12356815 -0.058692224 -0.11078371 0.045708295 0.06592669 0.065434545
0.051598866 -0.0067741014 0.01616226 0.03580272 -0.008340302 0.033179466 0.10817076 0.14599015
00000000: cccb 103e ee6b 493e 50a7 1d3e a1eb 4fbb
00000010: 4bed f93d 4f5f ad3d 884a afbd 3b8e d8bc
00000020: 6889 0a3e 0cd6 06bd fc42 03bd 6e31 1cbd
00000030: 9234 403d 497b de3c 8003 d4bc 23b1 8a3d
00000040: 88d7 a73d c78a e53b 65f1 6fbd 7f11 89be
00000050: a74d d4be e87d e2bd 4290 ccbe 7893 05bf
00000060: 0702 b4be 770f 08bf 0992 b9be ea52 82bd
00000070: 1159 59bb f654 e8bd 7d7a 7ebe 1614 e6bd
00000080: 7813 f8bd c45f 31be 8f82 31be a69e 2dbd
00000090: 4533 bcbd bb5f d33c aa88 4a3d 239a a4bc
000000a0: 3361 81bb d6c1 2e3d 5a8e a9bd 6ed2 b73c
000000b0: b987 713d 9aa0 71bc 4ef8 b13d 4a01 a93d
000000c0: b3e4 f4bc 0464 243c c6c5 483d cfff 1abd
000000d0: de54 503d e9a5 963d 70ea 783b 77d5 013d
000000e0: 593f 443d 0459 4d3c 28a9 63bc bc51 563c
000000f0: fcae 0e3c 24da 0bbc 7a4e b7bc 39d1 05bc
00000100: 0250 dd3a 77e1 8d3d bcc3 d1bc 6eea 14bc
00000110: 0c49 da3c c52a 90bc 41e6 a23d 1eb8 633c
00000120: 0d17 4bbd 589b eebd 1d8b e0be e83d 5cbe
00000130: 97e1 cbbe 5025 1ebf 173f 02be 9cd6 a7be
00000140: 5b9e f2be d0af 463d 2cde d9bd f333 c9bd
00000150: 81f5 083c b86e 053c 490f 31be 2132 b13d
00000160: 6521 123e 2c00 2ebe a19b a63d 96f5 8b3d
00000170: 6056 48be 0962 e23d 71f9 953d 6e3a b5bd
00000180: a227 503e 8716 cf3d ce11 26be 7890 85bd
00000190: 4e48 e1bd ee05 3ebd 268e 3b3d e83f 88bd
000001a0: 4c1c 473b b5a1 953d e287 1d3b 963c 96bb
000001b0: ea59 1fbd 41d4 823c 6fe3 ba3d 8ed0 943d
000001c0: 6b5e ed3d 4935 ff3d 5743 2abc 940f c83d
000001d0: 4983 563d e56a a1bd 09bb c0bd 257d b8bc
000001e0: 7b14 b8bd 76e9 013d 09b0 2b3d 2e4f c13d
000001f0: ce60 6d3e 58d0 2d3e 7da3 203c e689 3bbd
00000200: 004f 16bd 3c03 7c3d 170e 7cbc a00a 2f3a
00000210: f23c d53c 5a20 263d 719e c3bc b34b 203d
00000220: 8891 c43d 9a29 c63d ebe9 bd3d 7e3b 373d
00000230: 8c0f 573d 0afc 953d 2061 953d 33eb 3d3e
00000240: 5969 57bb 531c a93c 2d02 483c 705c 933d
00000250: 9274 1cbd 9537 af3c b406 c03d c7f3 053d
00000260: 2661 a6bc d539 af3d fd5e c23d a03e 143d
00000270: 43dc a73d 6c50 8f3d c823 5e3c 07a6 923d
00000280: 1b01 0f3d dc69 483d 44f5 60bd ccba 9f3c
00000290: c62e febc 4d85 8b3d 359c 8a3d b957 b53c
000002a0: 484f e53c 29f9 e03c 114b 8e3c 61f4 a43c
000002b0: 7062 afbc 663c 153d ad4c a13c 1d18 b93c
000002c0: d06f 8f3c 848c af3c d367 313d 6b38 bc3b
000002d0: d31c 833d ec39 cc3d c33d 103e fe3e 003e
000002e0: c5ee 9d3b acfc 5c3d 4c0a 6a3e 6a4b 34bc
000002f0: 19bc 1e3e 8d77 40bc fefb 06be cecb 4cbe
00000300: 4e2f a5bd 3070 97bd d08e a0be ef65 e0bd
00000310: 7e1f 05be 8e3a d2bd cbb1 103e 39dc 603d
00000320: d21b 56be 0e57 1b3e 4402 d83d b120 34be
00000330: d87b f83d 6177 043c d206 93be 8bcf 523e
00000340: 1b93 713e 9059 6f3e af9e 9a3e cd68 f73e
00000350: dc77 133f d06b 6c3d 5542 2b3e 5dc8 a73e
00000360: a3dc 8bbe 5ded f1be 0f7e 0cbf d3bf 85be
00000370: a82b e9be 66cc 20bf e6d1 8ebd 9dd0 2cbe
00000380: 078c cebe d91d b13c dad4 91bb 5836 24bd
00000390: 9b61 40bc 4944 363d 5bf5 613d 672e 7d3d
000003a0: 7e4c 90bc 4792 67bd 7a15 f43d 02af 253e
000003b0: 0e9e 133e 7552 893e 2a4c 923e 82ea 3d3d
000003c0: 222b 893e 2b04 1f3e 4c11 fdbd 4267 70bd
000003d0: 92e2 e2bd 9f38 3b3d 9304 873d 8c02 863d
000003e0: 5559 533d 48f9 ddbb b766 843c dfa5 123d
000003f0: c3a5 08bc 31e7 073d a288 dd3d 717e 153e

encoder.encoder.1.conv.bias f4 [32]
0.037363436 0.035103243 -0.04448585 0.017266503 0.071948595 0.10003912 -0.03021548 -0.008577355
0.04332303 0.011731817 0.017930372 0.010966993 0.07052115 0.016228233 0.03990597 0.03559319
0.00047208404 -0.014615912 -0.030264545 -0.05667148 0.082809605 0.004906646 0.031539306 -0.10023513
0.025908832 0.029261112 0.060127795 -0.045209073 0.0061865435 0.073534876 -0.06374255 -0.012711233
00000000: 670a 193d 6bc8 0f3d cb36 36bd 7b72 8d3c
00000010: c959 933d 4fe1 cc3d 7486 f7bc 0988 0cbc
00000020: 7d73 313d cf36 403c b7e2 923c e7ae 333c
00000030: 656d 903d 12f1 843c 7174 233d 2aca 113d
00000040: 0c82 f739 9477 6fbc 5aed f7bc 5b20 68bd
00000050: 1598 a93d eec7 a03b 5c2f 013d 1348 cdbd
00000060: c23e d43c 00b5 ef3c 9048 763d 262d 39bd
00000070: 7db8 ca3b 7499 963d 748b 82bd c742 50bc

encoder.encoder.2.conv.weight f4 [32, 32, 3, 3]
0.03877059 -0.073685125 0.07052035 -0.018975608 -0.014920753 0.14547506 -0.12673344 -0.036301557
0.015976662 0.027428571 -0.07591335 0.1785753 -0.087648205 -0.13067475 -0.08289872 -0.14903222
-0.07686301 0.012469587 0.05834024 -0.054985322 -0.025331868 -0.0037903865 0.10705503 0.089004844
0.005078527 0.2579384 0.0924565 -0.015985733 -0.056187324 0.054802295 -0.008920253 -0.03660827
-0.02868327 0.019348508 -0.012538591 -0.0026258188 0.038726825 0.07524731 0.12027618 -0.06944687
0.020375105 0.045136523 -0.035760723 -0.03392006 0.033184506 0.12443247 -0.072275236 0.06644401
0.044762705 -0.19112843 -0.043514382 -0.0038717913 -0.17219295 -0.13011356 0.028630309 -0.019916791
0.055415846 0.00806584 0.021021528 0.038951695 0.0067338063 -0.07742336 0.004170276 -0.03156213
-0.00015855311 -0.072002985 -0.018425621 -0.022102032 -0.02399763 -0.014201509 -0.0074671744 -0.068601884
-0.00233749 -0.040566877 0.021876637 0.044452917 -0.033970986 0.041071877 0.025476329 -0.020876661
-0.04850176 -0.044543315 0.024743997 0.0012063025 -0.024088252 -0.026842324 -0.0676165 0.016264284
-0.012206847 -0.020223755 -0.064975545 0.07816473 0.08720935 -0.048833184 0.031877045 -0.04631768
-0.07951513 0.12831932 0.06062291 -0.17174113 -0.2290706 -0.37842673 -0.00059101474 -0.22233826
-0.165809 0.052068524 -0.41664478 0.018916132 0.18021013 0.08511967 0.203266 -0.13154683
-0.15704055 -0.06267964 -0.07601688 -0.12129993 0.043728527 0.09027589 -0.022789508 0.15058431
0.027236545 -0.06092175 -0.0077899727 -0.08221131 0.09411181 -0.038634934 -0.06406662 -0.21035999
0.039902538 -0.0015303273 -0.20427181 0.15840857 0.011774975 -0.05987019 0.107867144 0.06392022
0.18774875 0.06741206 -0.2525758 -0.24527144 0.039830618 0.11099343 0.003962783 0.03901884
-0.04791193 -0.06719113 -0.065159425 0.045841165 -0.052041337 -0.019408396 0.027528344 0.03488146
-0.03950096 -0.11858579 -0.07255647 -0.05769534 -0.07283195 -0.0790268 -0.003551355 0.028730648
0.010596081 -0.10564798 0.06358403 -0.00071626116 0.048033163 -0.036919262 0.19581017 0.17518248
-0.095100045 0.092359535 0.2880414 -0.0619282 -0.012350582 -0.051459216 -0.068492346 -0.10512716
-0.028440604 0.065963 0.07863355 0.107284665 -0.014500362 0.08959155 0.050177872 -0.105649166
-0.019417146 0.13392007 -0.1032691 0.10481931 0.055664334 -0.030669745 -0.059377123 0.035564397
0.038162842 -0.053394206 0.027656877 -0.03385022 0.026391307 0.017848067 0.15776855 0.23685224
0.1601208 0.056510165 -0.026501011 -0.03362182 0.14602706 -0.07372628 -0.0295424 -0.051851746
-0.071628764 -0.011534942 -0.03956133 -0.004192008 -0.010702568 -0.06391556 -0.120272666 0.010676291
-0.03560535 -0.063627414 0.035309505 0.028013876 -0.011040204 -0.018274251 -0.08259524 -0.008157468
-0.0029363811 0.024908774 0.020181928 0.12510693 -0.011987139 0.24920501 0.1777845 -0.0358551
0.26528102 0.10533092 -0.030423224 0.06511471 0.051069774 -0.086113974 0.079124406 0.06377567
0.004546396 0.08074764 0.13212405 0.008926395 -0.05546336 -0.2319528 -0.076191284 -0.4006989
-0.036810722 -0.2837594 0.09899981 -0.04529929 0.03167159 -0.039767027 0.16529281 -0.16299815
00000000: e9cd 1e3d 3ae8 96bd f96c 903d bc72 9bbc
00000010: 2d76 74bc 6af7 143e 69c6 01be f1b0 14bd
00000020: 7de1 823c e2b1 e03c 7578 9bbd 72dc 363e
00000030: e780 b3bd 9acf 05be cec6 a9bd e79b 18be
00000040: 5b6a 9dbd 3d4d 4c3c 2df6 6e3d 4a38 61bd
00000050: c784 cfbc 2268 78bb ab3f db3d 2c48 b63d
00000060: c669 a63b 8110 843e d559 bd3d 83f4 82bc
00000070: ae24 66bd 5f78 603d 4126 12bc 8ef2 15bd
00000080: 2df9 eabc c380 9e3c aa6e 4dbc ee15 2cbb
00000090: 05a0 1e3d 431b 9a3d 5c53 f63d 293a 8ebd
000000a0: b1e9 a63c 13e1 383d d679 12bd c3ef 0abd
000000b0: 7aec 073d 73d6 fe3d 0a05 94bd cc13 883d
000000c0: 1959 373d 2cb7 43be 233c 32bd e1bd 7dbb
000000d0: 5953 30be 7d3c 05be 1c8a ea3c 8a28 a3bc
000000e0: bafb 623d 9626 043c 5735 ac3c d08b 1f3d
000000f0: 43a7 dc3b 2390 9ebd d0a6 883b 4b47 01bd
00000100: 4741 26b9 4d76 93bd 54f1 96bc 520f b5bc
00000110: ae96 c4bc 72ad 68bc 33af f4bb 257f 8cbd
00000120: 9330 19bb 7429 26bd a236 b33c 4314 363d
00000130: 2925 0bbd fc3a 283d bcb3 d03c 8805 abbc
00000140: c8a9 46bd 0d73 36bd ecb3 ca3c cc1c 9e3a
00000150: ba54 c5bc 6fe4 dbbc 857a 8abd ad3c 853c
00000160: 3aff 47bc 4aac a5bc e611 85bd d414 a03d
00000170: d19a b23d 4e05 48bd 8191 023d 9cb7 3dbd
00000180: d4d8 a2bd 2466 033e ba4f 783d e8dc 2fbe
00000190: 7c91 6abe 26c1 c1be 54ee 1aba a4ac 63be
000001a0: d6c9 29be ce45 553d 7752 d5be 01f6 9a3c
000001b0: 0189 383e 3953 ae3d f624 503e 36b4 06be
000001c0: 3dcf 20be 2f5e 80bd bdae 9bbd 196c f8bd
000001d0: af1c 333d 91e2 b83d 10b1 babc c632 1a3e
000001e0: 2d1f df3c 1689 79bd 0743 ffbb 675e a8bd
000001f0: b1bd c03d aa3f 1ebd 5c35 83bd 9c68 57be
00000200: d870 233d 4395 c8ba a12c 51be db35 223e
00000210: d3eb 403c 723a 75bd 73e9 dc3d 9be8 823d
00000220: 3541 403e 560f 8a3d 9e51 81be 7028 7bbe
00000230: 6e25 233d 8650 e33d 3cda 813b 38d2 1f3d
00000240: 4d3f 44bd 819b 89bd 4e72 85bd f2c3 3b3d
00000250: 4c29 55bd 5bfe 9ebc 1f83 e13c dddf 0e3d
00000260: c2cb 21bd 1bdd f2bd 7d98 94bd f351 6cbd
00000270: eb28 95bd ced8 a1bd dabd 68bb 895c eb3c
00000280: 2f9b 2d3c f85d d8bd 5838 823d 79c3 3bba
00000290: 6cbe 443d a738 17bd 7682 483e 0963 333e
000002a0: d0c3 c2bd ff26 bd3d 2a7a 933e 6da8 7dbd
000002b0: 185a 4abc e6c6 52bd b745 8cbd e94c d7bd
000002c0: 45fc e8bc 9c17 873d a00a a13d 10b8 db3d
000002d0: ed92 6dbc c67b b73d 5087 4d3d 975e d8bd
000002e0: b510 9fbc 5822 093e c07e d3bd 82ab d63d
000002f0: 4900 643d 1e3f fbbc 6d35 73bd f9ab 113d
00000300: a450 1c3d e2b3 5abd ad90 e23c 87a6 0abd
00000310: 9532 d83c 1c36 923c 148e 213e 6589 723e
00000320: b5f6 233e 3477 673d a618 d9bc 09b7 09bd
00000330: 1e88 153e cefd 96bd e702 f2bc 7f62 54bd
00000340: 1ab2 92bd 0efd 3cbc 100b 22bd 1d5d 89bb
00000350: d359 2fbc 29e6 82bd 8451 f6bd 9ceb 2e3c
00000360: ead6 11bd 174f 82bd b3a0 103d 5b7d e53c
00000370: f9e1 34bc e2b3 95bc b127 a9bd e7a6 05bc
00000380: 4d70 40bb 7c0d cc3c 9254 a53c 081c 003e
00000390: b465 44bc 992f 7f3e 240d 363e ccdc 12bd
000003a0: ead2 873e bdb7 d73d 203a f9bc dc5a 853d
000003b0: 8a2e 513d 865c b0bd fa0b a23d d29c 823d
000003c0: eff9 943b 055f a53d 874b 073e 0440 123c
000003d0: 8c2d 63bd 0985 6dbe 2d0a 9cbd 6828 cdbe
000003e0: d7c6 16bd e948 91be 6ac0 ca3d c08b 39bd
000003f0: 12ba 013d c0e2 22bd 8542 293e fde8 26be

encoder.encoder.2.conv.bias f4 [32]
-0.1249149 0.030700712 -0.11148036 -0.058794975 -0.04307007 0.055289987 -0.05872644 0.032499827
-0.059476815 0.19210976 3.6114025e-06 -0.260592 0.029298326 0.03630132 -0.24459395 0.01475221
0.011404065 0.040765263 0.0011811197 -0.10024358 -0.20620751 -0.008531897 -0.05149326 0.11296813
0.06176461 -0.13570887 -0.012419454 -0.085599326 0.07197883 0.014207347 0.030382622 0.096054904
00000000: 62d3 ffbd 0f80 fb3c d14f e4bd 00d3 70bd
00000010: 3e6a 30bd c177 623d 238b 70bd 8a1e 053d
00000020: f69d 73bd 6cb8 443e 6c5b 7236 516c 85be
00000030: 0b03 f03c b1b0 143d d676 7abe 41b3 713c
00000040: 1ed8 3a3c 7af9 263d cdcf 9a3a 824c cdbd
00000050: 1028 53be 5fc9 0bbc 99ea 52bd d65b e73d
00000060: e3fc 7c3d 44f7 0abe f77a 4bbc b34e afbd
00000070: a369 933d efc5 683c fae4 f83c 6fb8 c43d

encoder.encoder.3.conv.weight f4 [10, 32, 3, 3]
-0.049699154 0.10377001 -0.073904365 0.028012937 -0.12473635 -0.110628314 -0.07741282 -0.07937749
-0.05835795 0.037577856 0.01993296 0.027295012 0.06596826 -0.031428963 0.06588038 -0.044094674
0.020803565 -0.0021363432 -0.100524195 0.03449946 -0.3020785 0.019975686 -0.13224508 -0.021242024
0.111797675 -0.046896644 0.021405913 0.031014042 -0.032415155 -0.0420637 0.011573058 -0.08163893
-0.024025846 -0.0064808377 -0.021274745 -0.0034294666 0.0070390664 0.085703395 0.07138732 0.0072668185
-0.056879297 -0.02045419 0.02619719 0.0068540187 0.06463603 0.010595333 0.048297353 0.002535621
-0.066816404 0.0011029537 -0.0018098998 -0.05489978 0.0051418887 0.06302126 0.035521936 0.014664609
0.018031124 0.009865385 0.055778366 -0.014471051 -0.04512745 0.05136859 0.0017141253 -0.020847833
-0.21867895 0.18300259 0.038601786 -0.13392073 -0.060390558 -0.0028097313 0.3006173 -0.065154344
0.081888564 -0.047261674 0.13742839 -0.01737501 -0.019709986 -0.11116921 0.016947933 0.16920525
0.19657196 -0.0005181291 0.043101635 0.033917956 0.00056952826 0.10201924 0.13617016 0.004012993
0.0042235265 -0.037150852 -0.035537925 0.06310247 0.16988136 0.1530986 0.12947692 -0.014080556
0.15102929 -0.018329993 -0.29300013 -0.027641427 0.13899499 0.02455414 -0.09753611 -0.10547782
-0.012481339 0.10543374 0.10411622 0.09593333 0.025734538 0.09571177 0.11477547 -0.03152422
-0.0012791579 0.06531137 -0.05361246 0.02296353 0.031900797 0.04868588 -0.017453521 -0.024253476
0.034226567 0.01287541 -0.007899729 0.06235019 0.03849088 0.001932103 -0.122104034 -0.16349624
0.118429944 -0.09996186 -0.10590489 0.1887234 -0.02666719 0.38929498 -0.1273363 0.0043713115
-0.0423435 0.05275874 0.0004655294 0.04313115 0.072460435 -0.013406937 0.009933108 0.0140669625
0.039511587 -0.03787505 0.036439072 0.07688699 -0.13778298 -0.04630085 0.07289244 -0.14370696
0.080337666 -0.04645271 0.041866507 0.03389399 -0.13259731 0.15829462 -0.07614352 0.20290291
-0.00029110603 0.21090348 0.02883084 0.033891145 0.06785563 0.03399753 -0.104818664 -0.1206472
0.18348496 0.1146515 -0.1680924 0.027910417 -0.025465025 0.0127863325 -0.04036649 -0.043544013
-0.0148828495 -0.07941129 0.038207218 0.00022529515 -0.19076517 -0.34684643 0.23839724 -0.15169527
0.12764941 -0.07892969 0.0016179022 0.24671324 -0.34893188 -0.004255275 0.0181546 0.008975437
0.038089894 0.044326548 0.05881164 0.088364415 0.055167083 -0.0057702786 -0.027677644 -0.006089494
-0.04523058 0.021732213 -0.01579785 -0.006164438 0.057020247 0.017280083 0.013420497 -0.051645666
-0.003371374 0.049431074 -0.1575866 0.020574221 0.049002886 -0.009194501 -0.054875687 -0.18200114
0.0189429 -0.09923492 -0.20628032 -0.19246489 -0.021756778 -0.18149585 0.15100078 0.024036743
0.10057688 0.03968196 0.015505475 -0.07841763 -0.04866905 0.019951282 0.048850734 -0.12727565
0.08534501 0.0048206155 0.016317563 0.07077755 0.0629252 0.017982438 0.022675836 -0.023932522
-0.032692827 0.03638444 0.057676125 0.08561449 0.0006210164 0.03648327 -0.018241972 0.015121347
-0.07540602 0.031112533 -0.033782855 0.17174274 -0.02906396 0.07469585 -0.08287593 -0.0978305
00000000: 5791 4bbd 5f85 d43d 2c5b 97bd 637b e53c
00000010: c575 ffbd 1991 e2bd 9d8a 9ebd aa90 a2bd
00000020: bf08 6fbd 3deb 193d 724a a33c ca99 df3c
00000030: 5e1a 873d a8bb 00bd 4bec 863d 9e9c 34bd
00000040: 3d6c aa3c e401 0cbb a1df cdbd 4e4f 0d3d
00000050: 08aa 9abe 0da4 a33c 416b 07be c103 aebc
00000060: 2ef6 e43d b216 40bd 745b af3c 2911 fe3c
00000070: c1c5 04bd fc4a 2cbd ec9c 3d3c 5032 a7bd
00000080: dad1 c4bc 355d d4bb 6048 aebc e7c0 60bb
00000090: f8a7 e63b 4385 af3d 8433 923d 7e1e ee3b
000000a0: 44fa 68bd 8c8f a7bc 7d9b d63c ad97 e03b
000000b0: e55f 843d 0c98 2d3c 72d3 453d a92c 263b
000000c0: 0ad7 88bd fc90 903a 293a edba 97de 60bd
000000d0: 4a7d a83b 4a11 813d 737f 113d d443 703c
000000e0: 02b6 933c 6ca2 213c db77 643d fd17 6dbc
000000f0: 90d7 38bd df67 523d 80ac e03a 13c9 aabc
00000100: 60ed 5fbe 0865 3b3e e81c 1e3d 8422 09be
00000110: 175c 77bd 7823 38bb 83ea 993e a46f 85bd
00000120: 31b5 a73d 7595 41bd 07ba 0c3e 0956 8ebc
00000130: d676 a1bc afac e3bd 64d6 8a3c 2444 2d3e
00000140: 294a 493e 0ed3 07ba 578b 303d 8eed 0a3d
00000150: 654c 153a 77ef d03d 3170 0b3e 6d7f 833b
00000160: 8265 8a3b 7e2b 18bd 3790 11bd de3b 813d
00000170: 61f5 2d3e e1c5 1c3e 9995 043e 22b2 66bc
00000180: 6ca7 1a3e c828 96bc 1d04 96be 4670 e2bc
00000190: b454 0e3e c425 c93c 03c1 c7bd c104 d8bd
000001a0: 887e 4cbc a5ed d73d e23a d53d b278 c43d
000001b0: 3dd1 d23c 8804 c43d 670f eb3d 8a1f 01bd
000001c0: 6ba9 a7ba f8c1 853d bd98 5bbd 031e bc3c
000001d0: 69aa 023d d86a 473d b0fa 8ebc 3aaf c6bc
000001e0: 2831 0c3d 62f3 523c dd6d 01bc ea62 7f3d
000001f0: 9da8 1d3d 9e3e fd3a ae11 fabd 8f6b 27be
00000200: 668b f23d ceb8 ccbd aae4 d8bd b540 413e
00000210: 2775 dabc ac51 c73e 7264 02be 383d 8f3b
00000220: 6170 2dbd 8c19 583d 4c12 f439 4aaa 303d
00000230: 2366 943d c5a8 5bbc 7abe 223c 1e79 663c
00000240: e7d6 213d de22 1bbd 2341 153d ed76 9d3d
00000250: fb16 0dbe f6a5 3dbd a248 953d eb27 13be
00000260: 1388 a43d 3245 3ebd 377c 2b3d 6dd4 0a3d
00000270: 97c7 07be fc17 223e 22f1 9bbd c8c5 4f3e
00000280: 979f 98b9 15f7 573e a72e ec3c 71d1 0a3d
00000290: e4f7 8a3d fe40 0b3d 2bab d6bd e115 f7bd
000002a0: 7be3 3b3e 68ce ea3d 6a20 2cbe 63a4 e43c
000002b0: 079c d0bc c47d 513c 5557 25bd 355b 32bd
000002c0: 32d7 73bc 63a2 a2bd 2c7f 1c3d 353d 6c39
000002d0: f257 43be db95 b1be 681e 743e 0156 1bbe
000002e0: 87b6 023e e4a5 a1bd ca0f d43a 65a2 7c3e
000002f0: 33a7 b2be d56f 8bbb f5b8 943c b60d 133c
00000300: 2604 1c3d c18f 353d 79e4 703d 67f8 b43d
00000310: e1f6 613d 9b14 bdbb 3abc e2bc 618a c7bb
00000320: b343 39bd c107 b23c 7e6a 81bc 0eff c9bb
00000330: 108e 693d f68e 8d3c a5e1 5b3c 688a 53bd
00000340: 45f2 5cbb 3d78 4a3d 625e 21be 458b a83c
00000350: 40b7 483d 88a4 16bc 54c5 60bd 825e 3abe
00000360: 242e 9b3c ae3b cbbd 263b 53be 8415 45be
00000370: 453b b2bc 0cda 39be f39f 1a3e b4e8 c43c
00000380: 40fb cd3d 8d89 223d ad0a 7e3c 6c99 a0bd
00000390: 3359 47bd df70 a33c b517 483d 8c54 02be
000003a0: 5dc9 ae3d 41f6 9d3b 69ac 853c d2f3 903d
000003b0: edde 803d e84f 933c adc2 b93c 230e c4bc
000003c0: eae8 05bd da07 153d cd3d 6c3d a656 af3d
000003d0: b5cb 223a 7b6f 153d 3070 95bc 87bf 773c
000003e0: 796e 9abd b6df fe3c e45f 0abd 54dd 2f3e
000003f0: 8b17 eebc 23fa 983d dbba a9bd 5b5b c8bd

encoder.encoder.3.conv.bias f4 [10]
0.13296807 0.11565983 0.14403307 0.12614568 0.1044168 0.109263204 0.11938001 0.14185798
0.07191142 0.05734123
00000000: c828 083e 10df ec3d 687d 133e 552c 013e
00000010: 7ad8 d53d 63c5 df3d 827d f43d 3843 113e
00000020: 4b46 933d a3de 6a3d

decoder.decoder.0.dconv.weight f4 [10, 32, 3, 3]
0.12723665 -0.18815906 -0.24275158 -0.05405244 -0.1889568 0.32994062 0.121733986 -0.3957557
0.4342745 0.109547265 -0.102612436 0.21400793 -0.17053016 -0.13607667 -0.27948928 0.06570964
0.41971764 -0.16716854 -0.1970526 -0.06163959 0.09450544 -0.12588988 0.09076999 0.42880213
-0.013843425 -0.15483657 -0.08360224 0.04857614 -0.0012725769 0.18084161 -0.20990047 0.07034503
0.13993956 -0.069538794 0.0066449917 -0.064916104 0.00019323055 0.014328663 -0.078804046 -0.040909242
0.1824165 0.07739558 0.24753657 -0.09926388 0.32522476 -0.08204241 -0.14394855 -0.3244911
0.24433856 0.12709159 -0.27778983 -0.2524972 0.15744703 0.26563567 0.19901322 0.10619461
-0.04882893 -0.19908918 -0.052396458 0.21739799 -0.08396725 0.19634345 -0.116602644 -0.08595968
-0.08552372 0.01877524 0.06699743 -0.0840133 0.120324716 -0.08601682 -0.20211187 0.024907535
0.007950352 0.012545972 -0.040223274 0.046060927 -0.037363205 -0.11010291 -0.20694658 -0.071325295
-0.061105836 0.0497391 0.040280018 0.0033328398 -0.058254454 0.10778237 0.25563025 0.13534333
-0.16410026 0.27932504 0.00289956 0.07506314 0.0954702 -0.16549033 -0.25885674 -0.11767434
-0.22760555 0.13119999 0.4935787 0.19613078 -0.065710865 0.108015284 0.06097861 -0.08968297
-0.24945791 0.114980094 0.12292157 0.029239245 0.058164306 -0.057535805 0.045771338 -0.20707221
-0.6924263 0.37583297 0.049067486 -0.100732796 0.39972845 0.044814695 -0.031921923 0.03522067
0.2911163 -0.018627658 -0.3208815 0.027976085 -0.011900194 -0.009993047 -0.010649651 0.15617415
-0.053545974 0.0498686 0.09315363 0.119902074 -0.17181414 -0.27811515 -0.57587147 0.07949665
0.16170314 0.14513543 0.1242148 -0.28484225 -0.12011212 -0.15889476 -0.10469752 -0.13738367
-0.034644827 -0.030292049 -0.013518462 -0.0019558235 -0.1385693 0.13629201 0.23360568 -0.014162643
0.037561554 -0.064403854 -0.066699944 -0.0025698177 -0.004365951 -0.08097487 0.025618542 0.009672847
0.017759364 -0.053390797 0.10229395 -0.00767834 0.11638426 0.0068975794 -0.33186054 0.025609076
-0.27805853 0.11640863 0.14999174 -0.032750975 -0.18232714 0.34164137 -0.0074518877 -0.15122823
0.1666029 -0.082414895 -0.09419753 0.3110321 0.06198444 0.05232201 -0.30489564 0.09834248
-0.4244833 0.21863629 0.09781589 -0.16073954 -0.19795072 -0.15630056 -0.16138245 -0.09973638
-0.14278677 -0.054367058 0.17230386 -0.027620312 0.14563784 0.23163405 -0.02747397 0.024112185
0.052301433 0.062325116 -0.26751107 0.25731778 0.24805984 -0.2009287 0.2340107 -0.061409093
-0.57435536 0.15142243 -0.1099641 -0.059021123 0.3391721 -0.0039230967 -0.011779686 0.22441153
0.29142928 0.3098246 0.04657017 0.1261449 -0.074639484 0.06616915 0.18340385 0.2504089
0.3670257 -0.06506096 0.025471216 0.51196265 0.24451703 -0.32010803 -0.3538468 0.33366185
-0.01685666 0.0991543 0.06550818 -0.060210947 0.044243988 -0.17838296 -0.41753176 0.1911561
-0.0011875258 0.098539084 0.28549612 -0.08266024 0.16672763 -0.14192683 -0.02358264 -0.03177324
0.087003924 -0.010811835 0.05454232 0.07275772 -0.045815393 0.16857105 -0.024974573 0.025678992
00000000: 534a 023e c5ac 40be df93 78be 1766 5dbd
00000010: e47d 41be faed a83e ab4f f93d 7ea0 cabe
00000020: 3a59 de3e 515a e03d 7826 d2bd e524 5b3e
00000030: 759f 2ebe af57 0bbe 3819 8fbe c792 863d
00000040: 3be5 d63e 3b2e 2bbe 28c8 49be cb79 7cbd
00000050: 118c c13d 47e9 00be 9ee5 b93d f48b db3e
00000060: 88cf 62bc 7a8d 1ebe a737 abbd c6f7 463d
00000070: 98cc a6ba 8b2e 393e 26f0 56be 0e11 903d
00000080: 514c 0f3e 5b6a 8ebd 3bbe d93b bcf2 84bd
00000090: ee9d 4a39 c5c2 6a3c 0464 a1bd 7390 27bd
000000a0: 64cb 3a3e 9381 9e3d 3a7a 7d3e dc4a cbbd
000000b0: dc83 a63e da05 a8bd 4067 13be b323 a6be
000000c0: e333 7a3e 4c24 023e 783a 8ebe 5047 81be
000000d0: cb39 213e 6601 883e 1fca 4b3e 8f7c d93d
000000e0: d800 48bd 09de 4bbe ab9d 56bd 949d 5e3e
000000f0: 06f7 abbd 420e 493e 5ecd eebd a10b b0bd
00000100: 0f27 afbd 88ce 993c f335 893d 2a0f acbd
00000110: ce6c f63d 9629 b0bd 6af6 4ebe e30a cc3c
00000120: 3142 023c 9f8d 4d3c 29c1 24bd 62aa 3c3d
00000130: 290a 19bd a27d e1bd cee9 53be ff12 92bd
00000140: 1d4a 7abd 3abb 4b3d a9fc 243d c66b 5a3b
00000150: 399c 6ebd 01bd dc3d f8e1 823e 7197 0a3e
00000160: e609 28be b103 8f3e 8b06 3e3b b4ba 993d
00000170: e185 c33d 4c76 29be df88 84be 3fff f0bd
00000180: 6e11 69be 4a59 063e 59b6 fc3e 82d6 483e
00000190: 6b93 86bd 1e37 dd3d b5c4 793d b4ab b7bd
000001a0: e571 7fbe af7a eb3d 4ebe fb3d 2487 ef3c
000001b0: b23d 6e3d aaaa 6bbd ba7a 3b3d bd0a 54be
000001c0: da42 31bf 2e6d c03e fdfa 483d ff4c cebd
000001d0: 35a9 cc3e 9d8f 373d 90c0 02bd 8d43 103d
000001e0: 320d 953e 0899 98bc 944a a4be 1a2e e53c
000001f0: 08f9 42bc e1b9 23bc e07b 2ebc 1eec 1f3e
00000200: 0653 5bbd 0443 4c3d 55c7 be3d 388f f53d
00000210: 0cf0 2fbe 1c65 8ebe 506c 13bf 24cf a23d
00000220: 8295 253e 629e 143e 5464 fe3d d8d6 91be
00000230: 58fd f5bd 4fb5 22be a76b d6bd 4eae 0cbe
00000240: bce7 0dbd 0827 f8bc 8a7c 5dbc 462d 00bb
00000250: 1ce5 0dbe 2290 0b3e 5436 6f3e 6e0a 68bc
00000260: 25da 193d 2be6 83bd fb99 88bd 636a 28bb
00000270: 4010 8fbb 27d6 a5bd fadd d13c dc7a 1e3c
00000280: 167c 913c 4fb0 5abd 7e7f d13d 969a fbbb
00000290: df5a ee3d 1705 e23b a0e9 a9be 20ca d13c
000002a0: b05d 8ebe a667 ee3d 6f97 193e e325 06bd
000002b0: f7b3 3abe 9eeb ae3e f72e f4bb 93db 1abe
000002c0: f399 2a3e 24c9 a8bd a2ea c0bd 993f 9f3e
000002d0: 65e3 7d3d 9b4f 563d 481b 9cbe c867 c93d
000002e0: e055 d9be 31e2 5f3e b353 c83d e898 24be
000002f0: 98b3 4abe 410d 20be 7141 25be 9642 ccbd
00000300: b236 12be feaf 5ebd 6c70 303e fe43 e2bc
00000310: 1622 153e 7a31 6d3e 1711 e1bc eb86 c53c
00000320: 073a 563d 9f48 7f3d 36f7 88be 28bf 833e
00000330: 6603 7e3e 41c0 4dbe 80a0 6f3e 1a88 7bbd
00000340: f408 13bf 7b0e 1b3e dc34 e1bd 22c0 71bd
00000350: f7a7 ad3e 528d 80bb 96ff 40bc 23cc 653e
00000360: 3836 953e 54a1 9e3e 5dc0 3e3d 212c 013e
00000370: 96dc 98bd b183 873d 38ce 3b3e 9835 803e
00000380: cbea bb3e ae3e 85bd 03a9 d03c fc0f 033f
00000390: ac62 7a3e 33e5 a3be 682b b5be bad5 aa3e
000003a0: fa16 8abc 6911 cb3d 2729 863d c19f 76bd
000003b0: 2f39 353d 06aa 36be b9c6 d5be 6dbe 433e
000003c0: c1a6 9bba dcce c93d 8c2c 923e c649 a9bd
000003d0: a6ba 2a3e 4455 11be 6130 c1bc a824 02bd
000003e0: 1d2f b23d 1f24 31bc c567 5f3d 0002 953d
000003f0: eca8 3bbd e49d 2c3e 7a97 ccbc c05c d23c

decoder.decoder.0.dconv.bias f4 [32]
0.04094879 0.28585383 0.1775899 0.036703434 -0.109424435 0.1359917 -0.10054916 -0.053940482
-0.046508905 0.079595186 0.25962013 0.21536006 -0.14988391 -0.31911567 0.0775015 0.05469505
-0.009361091 -0.5343991 0.33414197 0.09938335 0.1504419 -0.08695812 0.027129157 -0.033896137
-0.14555056 0.10545608 -0.117330685 -0.16561504 -0.03264687 0.028009607 -0.017357014 0.28236815
00000000: ebb9 273d 6f5b 923e 20da 353e 5756 163d
00000010: eb19 e0bd 6941 0b3e b8ec cdbd b2f0 5cbd
00000020: 1f80 3ebd cd02 a33d eeec 843e 5987 5c3e
00000030: 2b7b 19be 2163 a3be 1bb9 9e3d eb07 603d
00000040: 435f 19bc 61ce 08bf a814 ab3e 7f89 cb3d
00000050: 710d 1a3e 1917 b2bd f73d de3c add6 0abd
00000060: 350b 15be 5bf9 d73d 124b f0bd fd96 29be
00000070: b9b8 05bd 6774 e53c 4c30 8ebc 8f92 903e

decoder.decoder.1.dconv.weight f4 [32, 32, 3, 3]
-0.26738524 0.13634907 0.10597734 -0.31858462 -0.22987592 0.20292725 0.109062195 0.4275463
0.2869758 -0.04691599 -0.101054795 -0.17324807 -0.16010672 -0.3930327 -0.41116613 0.16918443
-0.21085685 0.34307727 -0.21002398 -0.16544491 -0.021008965 0.12117639 -0.2949369 -0.03277642
0.32301122 0.11390496 0.019768348 0.22379734 -0.37428764 -0.113104045 -0.11063636 -0.41659328
-0.17779784 0.044533823 -0.17581716 -0.039148632 -0.22397323 -0.06943901 0.015279623 -0.16470356
-0.40020967 -0.17374732 -0.2573623 0.3776178 0.65277934 0.33801818 -0.19466072 -0.12203564
-0.5183888 -0.2523522 -0.06822998 0.102908514 0.22010714 -0.29996112 -0.11003592 -0.5448146
-0.07395228 -0.367126 -0.026993005 -0.11494421 0.07973159 0.23305939 0.145077 -0.24863043
-0.11023012 0.05629999 -0.18498467 -0.2847703 -0.1330247 -0.07518344 -0.15848072 0.11658574
0.011674631 -0.35711712 -0.21603446 0.13582014 -0.23741376 -0.12510893 -0.21086785 0.15640439
0.2071801 0.24474274 0.07176302 -0.39700875 -0.39040652 -0.066993795 0.44627786 -0.57725036
0.056467805 0.49777153 -0.027666982 -0.03437699 0.012730052 -0.90691954 0.0035432503 -0.6271991
0.38544166 -0.10882886 0.08646804 0.14587702 0.17912406 0.020086495 -0.40587568 0.0064194207
0.34929746 0.52198774 -0.6810866 0.3197953 -0.4224429 -0.79919165 -0.29707184 -0.20722851
-0.455523 -0.018483352 -0.19566952 -0.2784367 -0.49755245 0.2584072 -0.30452082 0.14738747
-0.5599309 -0.31895924 -0.42163205 -0.2509186 0.32701084 0.25596076 0.0517865 -0.16334397
-0.45868856 -0.55932903 -0.04077775 0.35221994 -0.11416139 0.18173687 -0.14134118 -0.30654743
-0.3133748 -0.025586607 0.03986483 -0.6050196 0.13759652 0.016470121 0.38004485 -0.17273192
-0.72962385 -0.24073505 -0.42983824 -0.26711407 0.40543237 -0.017518973 -0.5240975 0.71719867
0.3488693 0.08484513 -0.19844577 -0.46425235 -0.8646992 -0.15132515 -0.54647225 -0.15200098
-0.13555317 0.07233407 0.1321901 -0.2904566 -0.40873545 -0.7188564 -0.33054858 0.5599942
-0.101050794 0.29098603 -0.25133255 -0.10711223 -0.13381866 -0.48956642 -0.209176 -0.0025325338
-0.19994493 -0.0069448953 -0.033449378 0.3202663 -0.014024455 -0.04804115 -0.037515394 -0.041769773
0.012347134 0.006389888 0.051147494 -0.0015835162 -0.014338478 -0.34045762 -0.12758096 -0.5161622
-0.6124513 -0.21517105 -0.05681325 -0.24008562 -0.5951645 0.15976858 0.18207802 0.117669076
-0.29724255 -0.23631762 -0.51580256 -0.07919759 0.30219772 0.16269064 -0.5780791 -0.18171602
0.1910228 0.0856132 -0.1415691 0.32539183 0.112276524 -0.1878453 -0.52808857 0.383108
-0.18020423 -0.025819141 -0.30233234 0.25113338 -0.19465551 -0.5131533 0.10871903 -0.14673069
0.021469425 -0.08077675 -0.02979891 0.30306587 -0.18819389 -0.45553514 0.41071123 0.16685537
-0.14742604 -0.23918359 -0.0037234984 0.16574296 -0.030509254 -0.029353 -0.21963865 -0.050342236
-0.046995886 -0.62108755 -0.018328618 -0.13928086 -0.20906013 0.07924317 -0.23851809 0.041919693
0.7435821 0.33530825 0.32026595 0.54585624 -0.7556622 -0.0076222694 -0.1379749 -0.48530224
00000000: b8e6 88be 179f 0b3e a60a d93d 861d a3be
00000010: 9864 6bbe 29cc 4f3e 005c df3d 59e7 da3e
00000020: 7eee 923e fb2a 40bd d1f5 cebd f167 31be
00000030: 04f3 23be 953b c9be 5e84 d2be af3e 2d3e
00000040: dcea 57be d3a7 af3e 8710 57be 646a 29be
00000050: fe1a acbc 542b f83d f801 97be 9140 06bd
00000060: ba61 a53e 0147 e93d 3bf1 a13c 212b 653e
00000070: a1a2 bfbe 18a3 e7bd 5195 e2bd b74b d5be
00000080: a310 36be 1969 363d 6a09 34be 515a 20bd
00000090: 3d59 65be 0a36 8ebd 6257 7a3c 0da8 28be
000000a0: 48e8 ccbe d1ea 31be fec4 83be 1f57 c13e
000000b0: 8c1c 273f b810 ad3e 2455 47be d2ed f9bd
000000c0: 21b5 04bf 4f34 81be 29bc 8bbd b3c1 d23d
000000d0: c463 613e 8194 99be 835a e1bd f878 0bbf
000000e0: 4b74 97bd f0f7 bbbe 6f20 ddbc df67 ebbd
000000f0: 514a a33d 1fa7 6e3e 118f 143e fa98 7ebe
00000100: 54c0 e1bd d19a 663d 9f6c 3dbe 6acd 91be
00000110: a137 08be c7f9 99bd c548 22be 81c4 ee3d
00000120: f446 3f3c 0ed8 b6be 2338 5dbe 6f14 0b3e
00000130: 981c 73be 8e1c 00be beed 57be 7928 203e
00000140: 0527 543e d79d 7a3e 7df8 923d bb44 cbbe
00000150: 5de3 c7be 0b34 89bd 887e e43e aec6 13bf
00000160: c94a 673d e9db fe3e dea5 e2bc e3ce 0cbd
00000170: b591 503c e12b 68bf e035 683b 1f90 20bf
00000180: 9c58 c53e aae1 debd 2816 b13d c960 153e
00000190: 4c6c 373e 6f8c a43c f0ce cfbe 015a d23b
000001a0: 1ed7 b23e fda0 053f b15b 2ebf 36bc a33e
000001b0: 704a d8be d397 4cbf cd19 98be b633 54be
000001c0: 503a e9be 666a 97bc 975d 48be 418f 8ebe
000001d0: 32bf febe f34d 843e 27ea 9bbe beec 163e
000001e0: a257 0fbf a04e a3be 28e0 d7be 6778 80be
000001f0: f76d a73e 4a0d 833e 151e 543d a443 27be
00000200: 3ad9 eabe 3030 0fbf 9206 27bd 2c56 b43e
00000210: 72cd e9bd 3b19 3a3e bebb 10be c9f3 9cbe
00000220: a972 a0be 019b d1bc 4e49 233d 91e2 1abf
00000230: 1ae6 0c3e 59ec 863c 3d95 c23e a3e0 30be
00000240: a1c8 3abf 4083 76be c213 dcbe 2dc3 88be
00000250: d594 cf3e f383 8fbc 412b 06bf 559a 373f
00000260: ff9e b23e 49c3 ad3d 5e35 4bbe 7cb2 edbe
00000270: ed5c 5dbf fbf4 1abe 9be5 0bbf 25a6 1bbe
00000280: 73ce 0abe e323 943d d75c 073e bab6 94be
00000290: c645 d1be f906 38bf aa3d a9be c85b 0f3f
000002a0: b8f3 cebd 1ffc 943e a9ae 80be a85d dbbd
000002b0: c207 09be 73a8 fabe 3c32 56be def8 25bb
000002c0: 5dbe 4cbe 0192 e3bb 3702 09bd f2f9 a33e
000002d0: d4c6 65bc ccc6 44bd bea9 19bd c816 2bbd
000002e0: a24b 4a3c 4462 d13b 0980 513d fd8d cfba
000002f0: f0eb 6abc 7650 aebe 95a4 02be 3523 04bf
00000300: 9cc9 1cbf cd55 5cbe 03b5 68bd 01d9 75be
00000310: b35c 18bf 609a 233e a972 3a3e 7cfc f03d
00000320: 2d30 98be 3ffd 71be a30b 04bf 5932 a2bd
00000330: a9b9 9a3e 6098 263e fefc 13bf c413 3abe
00000340: 7b9b 433e f955 af3d 7df7 10be c299 a63e
00000350: 3cf1 e53d 855a 40be d030 07bf bb26 c43e
00000360: 7587 38be aa82 d3bc 4ecb 9abe 8e94 803e
00000370: c653 47be 045e 03bf 15a8 de3d 9240 16be
00000380: a6e0 af3c 486e a5bd d81c f4bc 732b 9b3e
00000390: e6b5 40be e73b e9be be48 d23e 22dc 2a3e
000003a0: daf6 16be 8bec 74be f005 74bb 86b8 293e
000003b0: 8bee f9bc b475 f0bc f4e8 60be a933 4ebd
000003c0: c27e 40bd 98ff 1ebf e625 96bc a49f 0ebe
000003d0: dc13 56be 3e4a a23d 163e 74be fcb3 2b3d
000003e0: 665b 3e3f 86ad ab3e e6f9 a33e 3cbd 0b3f
000003f0: 1473 41bf 3bc4 f9bb 4b49 0dbe 8979 f8be

decoder.decoder.1.dconv.bias f4 [32]
0.054843802 0.15791866 0.091016635 0.07994354 -0.054717634 0.23750544 0.12540819 0.082804434
0.04226775 0.07822954 0.029916916 0.09012507 0.14318119 0.10145911 0.112232395 0.068399616
-0.041175894 0.1427749 0.13862087 0.09263885 -0.1094048 0.007884289 -0.0363339 0.25498164
0.15874852 0.14406832 -0.085092485 0.122010656 0.092191584 -0.1208337 0.101811916 0.100372724
00000000: e5a3 603d 6eb5 213e ee66 ba3d 70b9 a33d
00000010: 991f 60bd a034 733e 016b 003e 5f95 a93d
00000020: f320 2d3d cf36 a03d 5214 f53c 7e93 b83d
00000030: 179e 123e cbc9 cf3d 19da e53d 1915 8c3d
00000040: 0ea8 28bd 9533 123e a1f2 0d3e 70b9 bd3d
00000050: a00f e0bd 1b2d 013c dbd2 14bd f48c 823e
00000060: f98e 223e a586 133e f844 aebd b9e0 f93d
00000070: f1ce bc3d a977 f7bd c482 d03d 3790 cd3d

decoder.decoder.2.dconv.weight f4 [32, 32, 3, 3]
0.11106234 -0.44651517 -0.3135609 -0.10911935 0.54150915 -0.29432768 0.19283575 -0.034125663
0.1359358 -0.0040153936 0.0044636973 -0.0022905837 -0.038188715 -0.015739143 0.024532242 -0.040168434
-0.040557437 -0.04539658 0.13587838 -0.22016427 -0.32142636 -0.39548224 -0.3091825 -0.6208964
0.34656093 -0.3838212 -0.17263635 0.12627864 0.29874784 0.04146245 0.03840801 0.39059976
-0.041041825 0.3294366 0.5568274 -0.123309314 -0.31343392 -0.21248299 -0.23874357 -0.19537695
-0.048238944 0.19380648 -0.1826143 0.3198524 -0.0034582792 0.026275646 0.16767658 0.25893164
0.3219932 0.51109236 0.14759515 0.14613508 0.61905646 -0.06879528 -0.23017624 -0.087821536
-0.09465505 -0.12729096 -0.036638934 -0.2247773 -0.18087086 0.21019626 0.3870736 0.10456584
-0.1452568 -0.29455134 -0.14107792 0.058937527 -0.12008679 -0.55645615 -0.27902582 -0.14102045
-0.14889392 -0.3035165 -0.25301242 -0.18989404 -0.15649262 -0.25558648 0.18174346 0.08730905
0.38658053 0.011137408 0.06318236 -0.14050928 0.34022376 0.20560314 0.012617767 0.45811528
0.20315635 0.3051931 -0.1904428 -0.19285448 -0.03617583 -0.2947784 -0.43408278 -0.22462745
-0.2027304 -0.4462095 -0.22951514 -0.10373197 -0.15166856 -0.27615818 -0.159586 -0.19331394
-0.1497254 -0.1408033 -0.03638446 -0.13475911 0.05729829 0.29539368 0.22127903 -0.105079815
-0.20644268 0.069040224 0.5260758 -0.22462934 -0.29531145 -0.25973773 -0.24213418 -0.08778284
-0.2973959 -0.18448323 -0.3611254 -0.121719785 0.23325689 0.10223464 0.021561027 -0.08660298
-0.12162413 -0.07906653 -0.16641465 0.008110609 -0.33398426 0.17203984 0.3481523 -0.23009475
-0.3657191 -0.23667511 -0.07855355 -0.09591237 -0.15394713 -0.040675204 -0.017428229 0.2930169
-0.011537388 0.026489962 -0.06381929 0.049753238 0.47899628 -0.03465121 0.029961895 0.024435246
0.037527796 0.08250765 -0.036238033 -0.3819717 0.020923665 0.37649953 0.05966203 0.25716203
-0.6303101 0.2886476 0.05778803 -0.027393738 -0.45687026 0.59407073 0.15526223 0.33248848
-0.2375 0.008168977 -0.1792301 -0.029469237 -0.036312714 -0.0715358 -0.06638279 0.5130145
-0.0021729355 -0.034642953 -0.01763888 0.05079887 -0.29182166 0.02645823 -0.055959024 -0.2555891
-0.2704955 -0.0412127 -0.09792813 -0.53693354 0.081992954 0.032996614 -0.08457772 -0.21691209
-0.08591967 -0.12679559 -0.22222047 -0.20483725 -0.022746218 0.08015343 -0.37285239 -0.45871016
-0.39891464 -0.05335024 -0.23809385 0.21580632 -0.19133456 0.022370555 0.42431858 0.26197082
-0.20820104 -0.52186644 -0.36141133 -0.5164972 -0.10170581 0.19875678 0.29793653 0.40767926
-0.098391786 -0.08556251 -0.05525684 0.017166495 -0.56947273 -0.004401024 0.23323554 -0.911677
-0.16311844 -0.010184453 -0.00534777 0.17918096 0.37110904 0.073641315 0.25923574 0.47599807
0.38789883 0.07299849 0.10351235 -0.08620523 -0.089748286 -0.16472879 -0.2466363 0.15975033
0.25322595 -0.2837757 0.031609703 -0.170216 -0.32777566 -0.23862526 -0.15193315 0.0044446993
-0.17031617 0.103280924 0.26752698 0.36991847 -0.032150928 -0.12067056 -0.07713688 -0.06611997
00000000: a774 e33d a39d e4be 0e8b a0be f779 dfbd
00000010: 58a0 0a3f 1eb2 96be bc76 453e 5ac7 0bbd
00000020: c132 0b3e 9093 83bb 3544 923b 9e1d 16bb
00000030: c56b 1cbd 60ef 80bc d7f7 c83c a887 24bd
00000040: 8e1f 26bd c4f1 39bd b423 0b3e be72 61be
00000050: ff91 a4be a67c cabe 2b4d 9ebe 11f3 1ebf
00000060: 6f70 b13e 3684 c4be 95c7 30be 304f 013e
00000070: 7af5 983e 88d4 293d b851 1d3d b1fc c73e
00000080: 791b 28bd eaab a83e 3e8c 0e3f 9889 fcbd
00000090: 697a a0be 2495 59be 3279 74be e510 48be
000000a0: 3396 45bd 3575 463e 3eff 3abe b2c3 a33e
000000b0: 4ca4 62bb 0640 d73c 69b3 2b3e b092 843e
000000c0: 4bdc a43e f3d6 023f 2f23 173e 6fa4 153e
000000d0: 7c7a 1e3f 8ae4 8cbd 52b3 6bbe c7db b3bd
000000e0: 82da c1bd 9058 02be b512 16bd 052c 66be
000000f0: 3636 39be b03d 573e 832e c63e 9d26 d63d
00000100: 33be 14be 6fcf 96be bb76 10be 7a68 713d
00000110: 10f0 f5bd e973 0ebf 79dc 8ebe aa67 10be
00000120: a677 18be 8466 9bbe d88a 81be 9573 42be
00000130: 9a3f 20be 3bdc 82be f51a 3a3e 16cf b23d
00000140: e2ed c53e ad79 363c c165 813d aae1 0fbe
00000150: cf31 ae3e a189 523e c0ba 4e3c 168e ea3e
00000160: 3808 503e 4542 9c3e 7003 43be a57b 45be
00000170: 1b2d 14bd 32ed 96be 1940 debe bd04 66be
00000180: 8f98 4fbe 9275 e4be 0406 6bbe 6d71 d4bd
00000190: 014f 1bbe 9b64 8dbe 836a 23be 17f4 45be
000001a0: 9e51 19be be2e 10be df07 15bd 4bfe 09be
000001b0: 9db1 6a3d d73d 973e f896 623e 1634 d7bd
000001c0: b665 53be f664 8d3d e7ac 063f 3c05 66be
000001d0: 1033 97be 58fc 84be 06f2 77be 7dc7 b3bd
000001e0: 4744 98be 2ce9 3cbe 6ee5 b8be 3948 f9bd
000001f0: e5da 6e3e 6560 d13d c0a0 b03c e75c b1bd
00000200: 1216 f9bd a2ed a1bd 9a68 2abe 5ce2 043c
00000210: fcff aabe 362b 303e 0541 b23e f59d 6bbe
00000220: 893f bbbe f65a 72be afe0 a0bd b46d c4bd
00000230: 51a4 1dbe 0b9b 26bd a5c5 8ebc 5006 963e
00000240: 5007 3dbc 7a01 d93c b0b3 82bd 0dca 4b3d
00000250: 003f f53e 6dee 0dbd a672 f53c 6d2c c83c
00000260: bfb6 193d c5f9 a83d 556e 14bd cb91 c3be
00000270: 1b68 ab3c 8cc4 c03e 2c60 743d beaa 833e
00000280: 015c 21bf 9ec9 933e 24b3 6c3d d568 e0bc
00000290: e6ea e9be 0515 183f 10fd 1e3e ee3b aa3e
000002a0: 3333 73be 2cd7 053c 1888 37be 7869 f1bc
000002b0: a4bc 14bd 5d81 92bd b3f3 87bd eb54 033f
000002c0: cf67 0ebb c5e5 0dbd 6a7f 90bc 7a12 503d
000002d0: a669 95be eebe d83c 4a35 65bd 93dc 82be
000002e0: 637e 8abe a6ce 28bd 8b8e c8bd 7a74 09bf
000002f0: eceb a73d 7527 073d 1537 adbd 341e 5ebe
00000300: a7f6 afbd b4d6 01be c38d 63be dbc0 51be
00000310: 4756 babc 7b27 a43d 82e6 bebe 0fdc eabe
00000320: 8a3e ccbe c885 5abd e0ce 73be 55fc 5c3e
00000330: 35ed 43be 7442 b73c 4940 d93e 0a21 863e
00000340: a732 55be 0a99 05bf e80a b9be 2939 04bf
00000350: 234b d0bd e686 4b3e 238b 983e 56bb d03e
00000360: a281 c9bd 663b afbd ff54 62bd c0a0 8c3c
00000370: f7c8 11bf 7736 90bb 4cd5 6e3e aa63 69bf
00000380: 8508 27be b1dc 26bc 593c afbb 377b 373e
00000390: 0102 be3e 42d1 963d 8cba 843e 05b6 f33e
000003a0: ad9a c63e 3b80 953d 48fe d33d 5e8c b0bd
000003b0: f3cd b7bd aaae 28be 3a8e 7cbe 9795 233e
000003c0: d5a6 813e 0c4b 91be 2d79 013d 1a4d 2ebe
000003d0: 36d2 a7be 2e5a 74be 5d94 1bbe d7a4 913b
000003e0: 5d67 2ebe f384 d33d 4cf9 883e f465 bd3e
000003f0: b1b0 03bd 2022 f7bd f1f9 9dbd e869 87bd

decoder.decoder.2.dconv.bias f4 [32]
0.010514709 -0.08800239 -0.01644011 -0.0013325355 0.22716315 0.036609203 0.05052106 0.0021038007
0.11068665 0.2524798 0.06980834 0.0691338 0.021781217 0.079267524 0.14404859 0.18316652
-0.40227553 0.06667581 -0.019870508 -0.001688861 0.058153655 0.086107306 0.098125435 0.047894105
0.00018361135 0.13177408 0.11684214 0.022295358 -0.058285333 0.059918884 -0.007450384 0.05001618
00000000: e345 2c3c 993a b4bd 69ad 86bc 79a8 aeba
00000010: 759d 683e 88f3 153d 2cef 4e3d ebdf 093b
00000020: afaf e23d 0845 813e adf7 8e3d 0696 8d3d
00000030: 866e b23c 0357 a23d 7981 133e 0190 3b3e
00000040: 0ff7 cdbe 548d 883d 7ac7 a2bc c65c ddba
00000050: 8732 6e3d 0759 b03d fdf5 c83d 9c2c 443d
00000060: cc87 4039 c9ef 063e ef4a ef3d c1a4 b63c
00000070: 9abc 6ebd 816d 753d 5a22 f4bb c4dd 4c3d
