notebooks/saved_model/mnist_model/mnist_cae_1/mnist_cae00045.pth (torch, 541279 bytes, 51 tensors)

encoder.encoder.0.conv.weight f4 [32, 1, 3, 3]
-0.3304582 -0.6320952 0.2211408 -0.030225782 -0.16546687 -0.5942785 0.5112121 0.22921014
-0.42234188 -0.048750482 0.059865266 -0.22546719 0.08543248 0.25133637 0.041324902 -0.18498823
-0.23947534 0.08609034 0.0066568027 0.30255824 0.59283876 -0.37238353 -0.2300662 0.031133095
-0.08898863 -0.3322902 -0.04861459 -0.027813641 0.6644533 0.30935228 -0.5625851 -1.0224646
-0.73380286 0.49983266 0.44849363 0.25007457 -0.62182015 -0.6950337 -0.89475584 -0.40401763
-0.28255516 -0.82328063 -0.8100817 -0.48688406 -1.0810361 -0.15208678 -0.4094789 0.4095078
0.34779754 -0.52404976 0.29372722 0.32003745 0.07579559 -0.38920963 -0.26232153 -0.31767124
-0.058556587 -0.10577452 0.11465356 -0.09548685 0.009524733 -0.29747853 -0.0673227 -0.02126791
-0.106509395 -0.3296971 -0.100936726 0.1674925 -0.21576181 -0.107233435 -0.17048153 0.14296216
0.050710108 -0.57674193 -0.4883831 -0.27366143 0.19305842 0.33587345 0.28097233 0.24506113
0.21641575 -0.18567587 -0.23339929 0.08408152 -0.28020665 0.45671055 0.25818774 0.061715953
0.37180963 -0.5952832 0.34689897 -0.12686817 0.14002235 0.050491314 0.35779688 0.078290164
0.10427783 -0.22095346 -0.26932526 0.42525518 -0.03969617 0.05683142 0.07837712 -0.7573899
-0.08727464 -0.12836789 -0.026916943 0.5118004 0.028900217 0.2448906 -0.29732078 -0.41818807
0.24879333 -0.80765134 -0.7442266 -0.9708753 -0.6782168 0.27753615 0.47260684 -0.2229005
0.348002 0.35790923 -0.62057567 -0.1804837 -0.5344523 -0.3718296 0.50408494 -0.02432986
-0.44694203 -0.24568497 -0.002178884 0.1577517 -0.2965102 0.0060441876 0.4017709 -0.1914443
-0.11525854 -0.19451165 0.226625 0.30457646 0.4865782 -0.29958746 -0.31431523 -0.24206175
-0.046749488 0.25280055 -0.020890405 -0.17803459 0.06759014 -0.51383 0.031579938 0.52547836
-0.13195203 0.03113925 -0.1868965 -0.39048532 0.009911644 0.1603889 -0.17255405 -0.16463034
0.26167548 -0.09609592 -0.017102044 -0.06535016 0.02268627 -0.48683578 -0.020361286 -0.063466616
0.1898667 0.09920216 -0.014471974 -0.05815305 0.22493999 -0.2934776 -0.48502058 0.23540458
-0.03338926 -0.01831674 0.37386677 -0.28151393 -0.17479464 -0.38874635 0.25284216 0.122480154
-0.25149107 0.40243623 -0.2637066 -0.65119755 0.15736143 -0.2663109 -0.36034757 -0.08253663
0.42216423 0.26961216 0.13614611 0.18014717 -0.16385125 0.17885906 -0.012533967 0.2043426
-0.1469168 0.07488537 0.05976819 0.003839633 0.09912435 0.37512133 0.0037478704 -0.34289125
0.08974418 0.36362636 -0.34271988 -0.01011143 0.10499502 -0.3034725 0.038217966 0.53241473
0.013500847 -0.043076526 0.2806852 0.2887399 0.57807827 0.12274487 -0.33299205 -0.63745207
-0.33109435 -0.21133743 0.14406651 0.27566558 -0.3614342 0.28482515 -0.4070707 0.20695958
-0.049231123 -0.2753235 0.16789939 -0.44910625 -0.072478734 -0.4035574 -0.22509319 0.26888552
-0.33016032 -0.07432343 0.47349006 -0.29879037 -0.31285858 0.032861467 -0.060198117 -0.12988585
0.20609646 0.24501243 -0.06714943 0.349907 0.16107391 -0.45401856 -0.0031751674 0.19783719
00000000: d131 a9be fed0 21bf bc72 623e 0f9c f7bc
00000010: 2670 29be a322 18bf ccde 023f 10b6 6a3e
00000020: 323d d8be 96ae 47bd 4835 753d dfe0 66be
00000030: 39f7 ae3d 29af 803e 4d44 293d 8e6d 3dbe
00000040: 0639 75be 2250 b03d 4f21 da3b eae8 9a3e
00000050: 48c4 173f 0ea9 bebe 7996 6bbe d50a ff3c
00000060: ac3f b6bd f121 aabe 1820 47bd 6fd9 e3bc
00000070: 9d19 2a3f 6c63 9e3e 9405 10bf 1fe0 82bf
00000080: 81da 3bbf 11ea ff3e f5a0 e53e c609 803e
00000090: 9b2f 1fbf bbed 31bf b80e 65bf 66db cebe
000000a0: 12ab 90be 85c2 52bf 8461 4fbf de48 f9be
000000b0: 645f 8abf a3bc 1bbe 38a7 d1be 02ab d13e
000000c0: 8512 b23e 2028 06bf 6a63 963e f3db a33e
000000d0: b83a 9b3d 7c46 c7be 024f 86be cea5 a2be
000000e0: 08d9 6fbd 50a0 d8bd 7ccf ea3d 9c8e c3bd
000000f0: a00d 1c3c 1b4f 98be 7ce0 89bd 0a3a aebc
00000100: 9921 dabd 0fce a8be eab7 cebd 2783 2b3e
00000110: aaf0 5cbe 349d dbbd b692 2ebe ac64 123e
00000120: 67b5 4f3d 5ca5 13bf 5a0d fabe 5a1d 8cbe
00000130: 1bb1 453e 9bf7 ab3e 9bdb 8f3e 4ef1 7a3e
00000140: 179c 5d3e d121 3ebe 3900 6fbe ef32 ac3d
00000150: 3f77 8fbe f7d5 e93e 2f31 843e dec9 7c3d
00000160: d55d be3e 7b64 18bf be9c b13e bbe9 01be
00000170: 0562 0f3e fbcf 4e3d 2731 b73e 9856 a03d
00000180: 9d8f d53d a041 62be 00e5 89be 0cbb d93e
00000190: 7398 22bd 10c8 683d 2f84 a03d 4ee4 41bf
000001a0: 0cbd b2bd df72 03be ec80 dcbc 5a05 033f
000001b0: 26c0 ec3c 9ac4 7a3e 6e3a 98be bf1c d6be
000001c0: aec3 7e3e 3dc2 4ebf a285 3ebf 498b 78bf
000001d0: 9e9f 2dbf 3819 8e3e 86f9 f13e 0740 64be
000001e0: 512d b23e e13f b73e 0cde 1ebf b8d0 38be
000001f0: ded1 08bf 7360 bebe b60b 013f 6a4f c7bc
00000200: 96d5 e4be d794 7bbe 9ccb 0ebb a989 213e
00000210: 2fd0 97be 520e c63b eab4 cd3e f909 44be
00000220: ab0c ecbd 102e 47be 6210 683e 72f1 9b3e
00000230: c720 f93e 8763 99be eded a0be 09df 77be
00000240: 647c 3fbd 136f 813e 5b22 abbc b34e 36be
00000250: b36c 8a3d 5d8a 03bf f759 013d c085 063f
00000260: 6f1e 07be be17 ff3c cc61 3fbe b1ed c7be
00000270: 7364 223c fd3c 243e 02b2 30be db94 28be
00000280: 54fa 853e f0cd c4bd 9619 8cbc 4ed6 85bd
00000290: 8ed8 b93c 8a42 f9be b6cc a6bc c9fa 81bd
000002a0: 6b6c 423e 812a cb3d dc1b 6dbc e431 6ebd
000002b0: ab56 663e b242 96be 9e54 f8be e60d 713e
000002c0: 2dc3 08bd fd0c 96bc 776b bf3e 9822 90be
000002d0: 5efd 32be c309 c7be 8774 813e e0d6 fa3d
000002e0: 70c3 80be 1f0c ce3e 8d04 87be e2b4 26bf
000002f0: 5b23 213e e759 88be 7a7f b8be f708 a9bd
00000300: e925 d83e 9b0a 8a3e e369 0b3e 8078 383e
00000310: 9fc8 27be d426 373e 455b 4dbc 303f 513e
00000320: 5c71 16be 805d 993d 7dcf 743d 5aa2 7b3b
00000330: b501 cb3d e70f c03e d59e 753b 718f afbe
00000340: cccb b73d 3c2d ba3e fb78 afbe 69aa 25bc
00000350: a107 d73d bf60 9bbe 718a 1c3d 554c 083f
00000360: a832 5d3c 0371 30bd f8b5 8f3e b7d5 933e
00000370: f0fc 133f aa61 fb3d ef7d aabe 0f30 23bf
00000380: 3385 a9be d768 58be 2c86 133e 0a24 8d3e
00000390: e70d b9be 9ad4 913e 926b d0be 36ed 533e
000003a0: 93a6 49bd 34f7 8cbe d1ed 2b3e 41f1 e5be
000003b0: bb6f 94bd 139f cebe d47e 66be 5dab 893e
000003c0: c60a a9be e236 98bd 4a6d f23e 0dfb 98be
000003d0: 002f a0be bf99 063d 4d92 76bd cc00 05be
000003e0: f30a 533e 8ae4 7a3e a485 89bd 0327 b33e
000003f0: 8ff0 243e 1f75 e8be 7816 50bb d595 4a3e

encoder.encoder.0.conv.bias f4 [32]
0.06675064 -0.028101 -0.007896024 0.03323707 0.14030384 0.002621029 -0.2694177 0.014594673
0.006886325 -0.047756582 -0.011160898 -0.036067437 0.17828819 0.028983295 -0.08432736 0.06798454
-0.076645754 0.048040625 -0.0171304 -0.028364707 0.009263684 -0.16594082 0.0072702575 -0.007905199
-0.018876934 -0.009122251 -0.00588516 -0.21354093 0.14343727 -0.21014625 0.0025616153 -0.2255224
00000000: 8fb4 883d 1134 e6bc 535e 01bc 9823 083d
00000010: cfab 0f3e 92c5 2b3b 1ef1 89be 7f1e 6f3c
00000020: aea6 e13b 689c 43bd 33dc 36bc 73bb 13bd
00000030: 2e91 363e 606e ed3c d3b3 acbd 7a3b 8b3d
00000040: 73f8 9cbd 3fc6 443d 0d55 8cbc 1a5d e8bc
00000050: b5c6 173c 64ec 29be 573b ee3b cf84 01bc
00000060: cda3 9abc 7e75 15bc 4dd8 c0bb 79aa 5abe
00000070: 38e1 123e 9430 57be c6e0 273b 58ef 66be

encoder.encoder.1.conv.weight f4 [32, 32, 3, 3]
0.12503238 0.21583079 0.15266307 -0.013544176 0.16647792 0.05809388 -0.15194896 -0.11895184
0.11656951 -0.027666913 -0.050890867 -0.03119467 0.023661612 0.005339202 -0.049078427 0.063946776
0.037995744 -0.004799543 -0.08131486 -0.23430112 -0.52134615 -0.25509223 -0.68669677 -0.566965
-0.36593255 -0.6663312 -0.43029374 -0.0978834 0.029961502 -0.18526989 -0.27700362 -0.13834883
-0.13862844 -0.29685247 -0.17172314 -0.03531753 -0.18391389 0.012785547 0.10970843 -0.1210889
0.027313696 0.06221086 -0.17588474 0.051359735 0.19840817 -0.03200022 0.1567668 0.02560246
-0.021271974 0.016394716 0.013682465 -0.06515282 -0.026241777 0.07858653 0.0037981533 0.031697717
0.047911976 0.01253343 -0.01389531 0.01308101 0.008708712 -0.0085358955 -0.022376288 -0.01270559
-0.005545005 0.04514797 -0.048398305 -0.008723778 0.0036155467 -0.030458933 0.078071676 -0.023932703
-0.11334211 -0.09003292 -0.26232442 -0.15370995 -0.3451375 -0.56974214 -0.0882818 -0.2964672
-0.3327231 -0.011482249 -0.10166804 -0.11682696 0.13699494 -0.0045754705 -0.30157483 0.20453742
0.18001261 -0.2918606 0.16327885 0.085332446 -0.25515306 0.1465616 0.07167186 -0.09758347
0.23584448 0.12395191 -0.1920224 -0.06981443 -0.13867304 -0.0066353204 -0.0025253904 -0.051908407
0.00376704 0.13182056 0.033563983 0.05087369 -0.13019161 -0.011348895 0.074412785 -0.024654908
0.1138796 0.14050911 -0.054483406 0.126429 0.13627476 -0.07089642 -0.14356956 -0.026021274
-0.076840624 -0.05650937 0.018194903 0.1710474 0.23419061 0.2882828 0.010506246 -0.1336338
-0.0667524 0.025331281 -0.075214304 -0.07705187 -0.093406364 -0.008051308 -0.00522909 -0.0062380987
0.11367003 0.13727993 0.022136766 0.036921255 0.05344542 0.0047365995 0.068851486 0.22883815
-0.0698497 -0.08813837 0.057817608 0.068656154 -0.10688544 0.12513846 0.059773374 0.08095671
0.10264982 0.11051842 0.10940267 0.06491197 0.08170889 0.071682416 0.0032974074 0.03645782
0.037959833 0.029931735 -0.07055189 -0.0062519177 -0.0032784212 0.108596675 0.052625034 0.029318186
0.010557429 0.041145362 0.02605113 0.14503723 0.091303475 0.1509142 0.19599211 0.07355306
0.034613624 0.14982936 0.11233602 -0.013220152 0.017841294 0.13797924 0.20071632 0.033669226
0.07623105 0.15010265 0.17822959 -0.0024827975 0.13292496 -0.030124003 -0.02270034 -0.16142303
-0.2035023 -0.06143588 -0.25830057 -0.12629062 -0.18614194 -0.12343219 0.18953916 0.04517055
-0.24275424 0.19332261 0.11273225 -0.19851562 0.16564558 0.0422548 -0.32219866 0.12939915
0.14205067 0.11994813 0.30326346 0.30029774 0.50137323 0.06879171 0.102585614 0.24849579
-0.24473011 -0.42144892 -0.53283983 -0.29506713 -0.49533677 -0.58686584 -0.13318026 -0.26512414
-0.2547688 0.016483217 -0.02315233 -0.01622891 -0.012434031 0.06395584 -0.0044032773 0.04810091
-0.07257755 -0.09436277 0.11000397 0.1346256 0.16859692 0.27726322 0.39599523 0.0005839238
0.27011722 0.33300254 -0.10428331 -0.15782459 -0.15163913 -0.046068523 0.046845496 0.074882954
0.0415725 -0.058672488 0.049920592 0.10986142 0.018494379 0.06840103 0.11489856 0.21994211
00000000: 7d08 003e bf02 5d3e b553 1c3e 64e8 5dbc
00000010: 3079 2a3e d9f3 6d3d 8298 1bbe 069d f3bd
00000020: ffbb ee3d b9a5 e2bc f172 50bd f78b ffbc
00000030: ffd5 c13c 79f4 ae3b 7606 49bd 87f6 823d
00000040: 6da1 1b3d 7c45 9dbb 6888 a6bd a2ec 6fbe
00000050: f176 05bf 739b 82be 5ccb 2fbf 9e24 11bf
00000060: 835b bbbe ae94 2abf 764f dcbe 1877 c8bd
00000070: d371 f53c 64b7 3dbe 6bd3 8dbe 51ab 0dbe
00000080: 9df4 0dbe 0cfd 97be 31d8 2fbe 1da9 10bd
00000090: ec53 3cbe 797a 513c d0ae e03d 75fd f7bd
000000a0: f9c0 df3c d1d0 7e3d 211b 34be 965e 523d
000000b0: 832b 4b3e aa12 03bd 7a87 203e 40bc d13c
000000c0: 9042 aebc 364e 863c 6b2c 603c d76e 85bd
000000d0: fff8 d6bc faf1 a03d 70ea 783b 77d5 013d
000000e0: 593f 443d 0459 4d3c 28a9 63bc bc51 563c
000000f0: fcae 0e3c 24da 0bbc 7a4e b7bc 1b2b 50bc
00000100: e0b2 b5bb 14ed 383d 4d3d 46bd 2dee 0ebc
00000110: cff2 6c3b 0385 f9bc 0be4 9f3d 840e c4bc
00000120: e81f e8bd 2e63 b8bd 634f 86be 2466 1dbe
00000130: ddb5 b0be 9fda 11bf 17cd b4bd 8dca 97be
00000140: af5a aabe 0b20 3cbc 5537 d0bd f942 efbd
00000150: 6748 0c3e d4ed 95bb 0468 9abe 4272 513e
00000160: 3a55 383e c16e 95be 9232 273e c7c2 ae3d
00000170: 6ca3 82be 3e14 163e b2c8 923d d8d9 c7bd
00000180: 3781 713e 80da fd3d 85a1 44be defa 8ebd
00000190: 4e00 0ebe 1a6d d9bb 0581 25bb e99d 54bd
000001a0: 72e0 763b f8fb 063e 637a 093d ee60 503d
000001b0: f350 05be b7f0 39bc bb65 983d 17f9 c9bc
000001c0: b539 e93d 9fe1 0f3e fe29 5fbd 9b76 013e
000001d0: 9c8b 0b3e 2432 91bd e603 13be 912a d5bc
000001e0: 9e5e 9dbd 5f76 67bd 7a0d 953c 0d27 2f3e
000001f0: aacf 6f3e ce99 933e 6422 2c3c 4dd7 08be
00000200: 7bb5 88bd 8c83 cf3c f509 9abd 5fcd 9dbd
00000210: d64b bfbd a2e9 03bc c958 abbb f768 ccbb
00000220: d5cb e83d 1c93 0c3e 2a58 b53c be3a 173d
00000230: 96e9 5a3d 7a35 9b3b 0202 8d3d 8c54 6a3e
00000240: 5c0d 8fbd e481 b4bd 28d2 6c3d 999b 8c3d
00000250: c1e6 dabd 4c24 003e edd4 743d a2cc a53d
00000260: 123a d23d 7b57 e23d 820e e03d 91f0 843d
00000270: fe56 a73d 3bce 923d 5119 583b cc54 153d
00000280: c57b 1b3d 6633 f53c 827d 90bd e3dc ccbb
00000290: c8da 56bb ef67 de3d 598d 573d b12c f03c
000002a0: 11f9 2c3c 0a88 283d 2e69 d53c a484 143e
000002b0: 51fd ba3d 4189 1a3e 28b2 483e fda2 963d
000002c0: 04c7 0d3d de6c 193e 6d10 e63d 5699 58bc
000002d0: e827 923c 6e4a 0d3e 9488 4d3e bee8 093d
000002e0: 061f 9c3d 82b4 193e d181 363e 6eb6 22bb
000002f0: 7b1d 083e 9dc6 f6bc 10f6 b9bc 144c 25be
00000300: e862 50be 30a4 7bbd f93f 84be 5452 01be
00000310: fe9b 3ebe 04ca fcbd 8e16 423e c104 393d
00000320: 9194 78be 5df6 453e 2ae0 e63d ae47 4bbe
00000330: ff9e 293e 5f13 2d3d 39f7 a4be 3681 043e
00000340: bb75 113e 5da7 f53d 5945 9b3e a0c0 993e
00000350: ff59 003f abe2 8c3d 6818 d23d ae75 7e3e
00000360: 889a 7abe 27c8 d7be 3168 08bf 0a13 97be
00000370: c89c fdbe d73c 16bf 6860 08be 5abe 87be
00000380: 0e71 82be d007 873c f5a9 bdbc 7ef2 84bc
00000390: 1bb8 4bbc 48fb 823d 5e49 90bb 7605 453d
000003a0: 8aa3 94bd 4541 c1bd c349 e13d 4bdb 093e
000003b0: aca4 2c3e 72f5 8d3e e3bf ca3e 7612 193a
000003c0: ce4c 8a3e 4f7f aa3e 7d92 d5bd c59c 21be
000003d0: 4a47 1bbe 59b2 3cbd 10e1 3f3d 3c5c 993d
000003e0: ed47 2a3d 9052 70bd 8979 4c3d 06ff e03d
000003f0: 8681 973c d715 8c3d f04f eb3d 8138 613e

encoder.encoder.1.conv.bias f4 [32]
0.084228225 0.07402519 -0.06602021 0.016832752 0.078011006 0.14359769 -0.03021585 -0.008621441
0.04316026 0.011731817 0.03111227 -0.002287122 0.10609233 -0.008005779 0.090690956 0.07596408
-0.005952315 -0.024917768 -0.014634424 -0.038367506 0.15119925 0.0032692673 0.044521954 -0.101771064
0.011844499 0.012975312 0.11322176 -0.042566348 0.02701131 0.10345581 -0.06374255 -0.07718337
00000000: d97f ac3d 859a 973d 9b35 87bd d7e4 893c
00000010: 3cc4 9f3d 460b 133e 3b87 f7bc f240 0dbc
00000020: d0c8 303d cf36 403c 29df fe3c 8ae3 15bb
00000030: ef46 d93d ac2a 03bc 2ebc b93d 0e93 9b3d
00000040: a30b c3bb 5920 ccbc 39c5 6fbc 3f27 1dbd
00000050: fad3 1a3e 3441 563b a75c 363d 596d d0bd
00000060: 6e0f 423c 6796 543c cfe0 e73d 0d5a 2ebd
00000070: d346 dd3c a4e0 d33d 748b 82bd 5112 9ebd

encoder.encoder.2.conv.weight f4 [32, 32, 3, 3]
0.043186117 -0.18957217 0.1239953 0.03082004 -0.066570334 0.21010098 -0.084366925 -0.12782598
0.0127743855 0.046799224 -0.052086018 0.23071761 -0.13786173 -0.18921979 -0.13484259 -0.21665032
-0.1372863 0.01049529 0.024060605 -0.07996958 -0.043821312 0.02259758 0.1685181 0.11053279
0.07062852 0.21598417 0.1047878 -0.015985733 -0.056187324 0.054802295 -0.008920253 -0.03660827
-0.02868327 0.019348508 -0.012538591 -0.0026258188 0.17100275 0.21118477 0.06503372 -0.10048657
0.009873207 0.07258569 -0.008968664 0.016520152 -0.026789295 0.1740557 -0.030187456 0.13534684
0.0013295882 -0.23696157 -0.032515235 -0.0035744568 -0.31712487 -0.15413773 0.028630309 -0.019916791
0.055415846 0.00806584 0.021021528 0.038951695 0.0067338063 -0.07742336 0.004170276 -0.03156213
-0.00015855311 -0.072002985 -0.018425621 -0.022102032 -0.02399763 -0.014201509 -0.0074671744 -0.068601884
-0.00233749 -0.040566877 0.021876637 0.044452917 -0.034057904 0.041071877 0.025476329 -0.020876661
-0.04850176 -0.044543315 0.024743997 0.0012063025 -0.024088252 -0.026842324 -0.0676165 0.016264284
-0.012206847 -0.020223755 -0.0190117 0.13361421 0.122199506 -0.13221343 0.03977089 -0.06890598
-0.037422933 0.09152016 0.019202273 -0.006337251 -0.1613039 -0.40249595 -0.001801699 -0.22007744
-0.28898913 -0.045368355 -0.44502106 -0.12985575 0.21206243 0.08198493 0.12082354 -0.17186855
-0.15121388 -0.16018459 -0.04237174 -0.136728 0.05371401 0.0661364 -0.011914785 0.15929475
-0.0106233535 -0.009907307 -0.050587483 0.033176757 0.20188107 -0.1289254 -0.023115534 -0.288294
0.02002297 -0.031423226 -0.23794727 0.16694118 -0.021192651 -0.073008195 0.12390017 0.07165766
0.18289015 0.03180344 -0.18531442 -0.25334355 0.004930217 0.13807477 0.013643912 0.091569595
-0.04791193 -0.06719113 -0.065159425 0.045841165 -0.052041337 -0.019408396 0.027528344 0.03488146
-0.03950096 -0.118294574 -0.07255647 -0.05769534 -0.07291696 -0.0790268 -0.003551355 0.028722152
0.010596081 -0.10564798 0.13468061 -0.0022935723 -0.012462738 0.07077669 0.25393027 0.23187234
-0.16745296 0.18884967 0.32819805 -0.0758474 0.006421752 -0.11406088 -0.19738652 -0.037072472
-0.05752048 -0.09315178 0.1015238 0.017364271 -0.00089763716 0.078425236 0.11912898 -0.06197064
-0.07479856 0.13763222 -0.025612231 0.11776863 0.102032684 -0.030669745 -0.059377123 0.035564397
0.038088072 -0.053394206 0.027656877 -0.03385022 0.026391307 0.017848067 0.18605031 0.2585057
0.23481466 0.097344436 -0.052307956 0.019278524 0.16484576 -0.09309639 -0.01099194 -0.051851746
-0.071628764 -0.011534942 -0.03956133 -0.004192008 -0.010702568 -0.06391556 -0.120272666 0.010676291
-0.03563479 -0.06141952 0.035085276 0.011677915 -0.021326037 -0.0416911 -0.0826679 -0.009624602
-0.002822375 0.08017614 0.059487578 0.15587127 0.08837406 0.23640124 0.26676 -0.032830823
0.26521626 0.03479413 0.11480864 0.079375975 0.1686471 -0.097795345 0.05971071 0.0643289
0.03617205 0.025169602 0.17585942 0.0030370993 0.037264757 -0.24351227 -0.045672256 -0.29978046
0.027667927 -0.19764672 0.1291689 -0.060731173 0.0668596 -0.038401272 -0.06382617 -0.31007996
00000000: ede3 303d 351f 42be 3ff1 fd3d 4f7a fc3c
00000010: 0756 88bd b624 573e 91c8 acbd d0e4 02be
00000020: a84b 513c 8bb0 3f3d 2658 55bd 3d41 6c3e
00000030: a02b 0dbe d5c2 41be 2d14 0abe 95d9 5dbe
00000040: c894 0cbe 70f4 2b3c bf1a c53c 17c7 a3bd
00000050: fa7d 33bd 8f1e b93c 0290 2c3e 045f e23d
00000060: afa5 903d f42a 5d3e fc9a d63d 83f4 82bc
00000070: ae24 66bd 5f78 603d 4126 12bc 8ef2 15bd
00000080: 2df9 eabc c380 9e3c aa6e 4dbc ee15 2cbb
00000090: 581b 2f3e d240 583e 6630 853d e7cb cdbd
000000a0: 3bc3 213c cea7 943d 4ef1 12bc 4555 873c
000000b0: 3975 dbbc a83b 323e af4b f7bc 5d98 0a3e
000000c0: 9445 ae3a 0ea6 72be b22e 05bd 6f41 6abb
000000d0: 315e a2be 48d6 1dbe 1c8a ea3c 8a28 a3bc
000000e0: bafb 623d 9626 043c 5735 ac3c d08b 1f3d
000000f0: 43a7 dc3b 2390 9ebd d0a6 883b 4b47 01bd
00000100: 4741 26b9 4d76 93bd 54f1 96bc 520f b5bc
00000110: ae96 c4bc 72ad 68bc 33af f4bb 257f 8cbd
00000120: 9330 19bb 7429 26bd a236 b33c 4314 363d
00000130: 4d80 0bbd fc3a 283d bcb3 d03c 8805 abbc
00000140: c8a9 46bd 0d73 36bd ecb3 ca3c cc1c 9e3a
00000150: ba54 c5bc 6fe4 dbbc 857a 8abd ad3c 853c
00000160: 3aff 47bc 4aac a5bc 6dbe 9bbc 2ad2 083e
00000170: bc43 fa3d f562 07be cde6 223d 941e 8dbd
00000180: ca48 19bd ec6e bb3d 164e 9d3c b7a8 cfbb
00000190: d92c 25be f313 cebe fd26 ecba fb5b 61be
000001a0: 62f6 93be 2bd4 39bd cdd9 e3be e8f8 04be
000001b0: e526 593e b7e7 a73d 5572 f73d 4ffe 2fbe
000001c0: d0d7 1abe 6e07 24be fd8d 2dbd 6d02 0cbe
000001d0: 3903 5c3d 8572 873d 3b36 43bc 2a1e 233e
000001e0: 930d 2ebc 4252 22bc d234 4fbd 5ae4 073d
000001f0: e9b9 4e3e 0505 04be ca5c bdbc 459b 93be
00000200: 3607 a43c a4b5 00bd 73a8 73be a1f2 2a3e
00000210: 369c adbc 5285 95bd 5fbf fd3d 40c1 923d
00000220: 8e47 3b3e 5344 023d 10c3 3dbe 3fb6 81be
00000230: a88d a13b 7963 0d3e b78a 5f3c d788 bb3d
00000240: 4d3f 44bd 819b 89bd 4e72 85bd f2c3 3b3d
00000250: 4c29 55bd 5bfe 9ebc 1f83 e13c dddf 0e3d
00000260: c2cb 21bd 6d44 f2bd 7d98 94bd f351 6cbd
00000270: 7d55 95bd ced8 a1bd dabd 68bb b84a eb3c
00000280: 2f9b 2d3c f85d d8bd b7e9 093e c24f 16bb
00000290: 8330 4cbc 5ff3 903d 2603 823e f16f 6d3e
000002a0: ca78 2bbe cf61 413e 9309 a83e e255 9bbd
000002b0: 8f6d d23b c098 e9bd b11f 4abe 4ed9 17bd
000002c0: 989a 6bbd 5cc6 bebd b6eb cf3d 843f 8e3c
000002d0: 694f 6bba 699d a03d e5f9 f33d edd4 7dbd
000002e0: fd2f 99bd 76ef 0c3e bed0 d1bc ae30 f13d
000002f0: 83f6 d03d 1e3f fbbc 6d35 73bd f9ab 113d
00000300: 3d02 1c3d e2b3 5abd ad90 e23c 87a6 0abd
00000310: 9532 d83c 1c36 923c f983 3e3e dc5a 843e
00000320: 4173 703e 855c c73d de40 56bd ffed 9d3c
00000330: 54cd 283e 52a9 bebd 8a17 34bc 7f62 54bd
00000340: 1ab2 92bd 0efd 3cbc 100b 22bd 1d5d 89bb
00000350: d359 2fbc 29e6 82bd 8451 f6bd 9ceb 2e3c
00000360: c9f5 11bd 0993 7bbd 94b5 0f3d ba54 3f3c
00000370: f1b3 aebc 49c4 2abd ca4d a9bd 82b0 1dbc
00000380: 98f7 38bb 6333 a43d 3fa9 733d b89c 1f3e
00000390: 76fd b43d 2b13 723e c494 883e 9d79 06bd
000003a0: 6dca 873e 4a84 0e3d cb20 eb3d df8f a23d
000003b0: d3b1 2c3e ed48 c8bd 3893 743d dfbe 833d
000003c0: 2529 143d 7b30 ce3c 7e14 343e 120a 473b
000003d0: eea2 183d 485b 79be d512 3bbd d37c 99be
000003e0: d9a7 e23c e763 4abe da44 043e 40c1 78bd
000003f0: b0ed 883d a74a 1dbd 4cb7 82bd cdc2 9ebe

encoder.encoder.2.conv.bias f4 [32]
-0.20118743 0.030700712 -0.24874912 -0.058794975 -0.04307007 0.0760911 -0.116117075 0.021371635
-0.11723111 0.25764325 -0.02391663 -0.33886766 0.122143514 0.036271337 -0.28918827 0.01475221
0.038870454 0.07105222 -0.024676293 -0.10024358 -0.30160564 0.006694436 -0.08787798 0.14423226
0.031199113 -0.22110274 -0.012635743 -0.15845594 0.15322542 0.0050296187 0.09240786 0.108903565
00000000: 1404 4ebe 0f80 fb3c 17b8 7ebe 00d3 70bd
00000010: 3e6a 30bd a7d5 9b3d cace edbd 9113 af3c
00000020: dd16 f0bd d1e9 833e cfec c3bc 1080 adbe
00000030: 6126 fa3d 4191 143d 7c10 94be 41b3 713c
00000040: a036 1f3d d483 913d f025 cabc 824c cdbd
00000050: 0e6c 9abe 005d db3b 5ff9 b3bd 9fb1 133e
00000060: 4895 ff3c c268 62be 2606 4fbc 4642 22be
00000070: 20e7 1c3e 80cf a43b 5540 bd3d d508 df3d

encoder.encoder.3.conv.weight f4 [10, 32, 3, 3]
0.044873085 0.20716013 -0.0749532 0.10266057 -0.09481048 -0.14483811 -0.08537348 -0.1093903
-0.0678458 0.037577856 0.01993296 0.027295012 0.06596826 -0.031428963 0.06588038 -0.044094674
0.020803565 -0.0021363432 -0.16368908 0.040596917 -0.25882804 -0.036853552 -0.152285 -0.04024924
0.124597386 0.05059078 -0.1693973 0.031014042 -0.032415155 -0.0420637 0.011573058 -0.08163893
-0.024025846 -0.0064808377 -0.021274745 -0.0034294666 0.0070390664 0.085703395 0.07138732 0.0072668185
-0.056879297 -0.02045419 0.02619719 0.0068540187 0.06463603 -0.02536486 0.012750565 0.03565037
-0.06758903 -0.060678035 -0.042440075 -0.0138332 0.023347529 0.22083293 -0.02264184 0.014664609
-0.040980123 0.009865385 0.055778366 -0.014471051 -0.09078063 0.05136859 -0.047702983 -0.099698015
-0.29386285 0.16794762 0.058849934 -0.24978982 -0.017170504 -0.069172814 0.33567905 -0.14029048
0.06210498 -0.0002968419 0.15195562 0.010304756 -0.035452884 -0.1115759 0.03521952 0.20653003
0.22499177 0.0070002456 0.057928257 -0.0042814324 -0.011584199 0.13301165 0.16072752 0.010623694
0.0124960765 -0.049201123 -0.054736383 0.012238761 0.22750975 0.26518443 0.21580665 -0.12272484
0.21186256 0.017361376 -0.20591833 -0.04009451 0.1289326 0.020119006 -0.101583906 -0.08755249
0.03366506 0.12613808 0.10268578 0.04414416 -0.010574048 0.13856664 0.18387589 -0.019247083
0.019567536 0.06251556 -0.0592831 -0.0010069843 0.04053914 0.04868588 -0.017453521 -0.024253476
0.034226567 0.01287541 -0.007899729 0.06235019 0.038492456 0.001932103 -0.23711348 -0.27302286
0.10518756 -0.028084867 -0.106863044 0.16606946 0.050511256 0.35834098 -0.08467631 0.0043713115
-0.0423435 0.05275874 0.0004655294 0.04313115 0.072460435 -0.013406937 0.009933108 0.0140669625
9.4042734e-05 -0.09847384 0.08246041 0.14152804 -0.028374413 0.024201626 0.09729262 -0.2181856
0.053961396 -0.031283427 0.032085452 0.023341706 -0.18809703 0.34265244 -0.07033681 0.18786108
0.06107434 0.3265136 0.033954218 0.03665415 0.14412203 0.035597537 -0.15905197 -0.12332587
0.18164393 0.11089341 -0.18588494 0.027910417 -0.025465025 0.0127863325 -0.04036649 -0.043544013
-0.0148828495 -0.07941129 0.038207218 0.00022529515 -0.24938114 -0.36481827 0.41422394 -0.040792074
0.07637069 -0.076231025 -0.03226328 0.24316679 -0.51378745 -0.014638603 0.09546649 0.05747472
0.07724255 0.07298834 0.017043445 0.090933606 0.07572959 -0.1095091 -0.093742445 -0.08456959
-0.10115829 0.023354216 -0.040753733 -0.0016596125 0.06838529 0.062965386 -0.13841073 -0.072514884
-0.020878619 0.09479951 -0.16082455 -0.0061843856 0.011984891 -0.034307368 0.003799007 -0.17767328
0.06764929 -0.10945423 -0.123193756 -0.205247 -0.085019946 -0.21118346 0.16107823 0.096285276
0.09516305 0.01790479 0.013738408 -0.10569445 -0.0649372 0.03491366 0.02651485 -0.17262717
0.028126264 0.04308178 0.016317563 0.07077755 0.0629252 0.017982438 0.022675836 -0.023932522
-0.032692827 0.03638444 0.057711817 0.0017832438 -0.019843059 0.0069722347 -0.01939922 0.11014874
0.02670664 -0.030636262 -0.014127771 0.1835335 -0.02588246 0.093909115 -0.09186633 -0.06524344
00000000: d7cc 373d c921 543e 1081 99bd b43f d23d
00000010: ff2b c2bd 7150 14be 4bd8 aebd 0608 e0bd
00000020: bdf2 8abd 3deb 193d 724a a33c ca99 df3c
00000030: 5e1a 873d a8bb 00bd 4bec 863d 9e9c 34bd
00000040: 3d6c aa3c e401 0cbb 1c9e 27be f448 263d
00000050: 1c85 84be c0f3 16bd 99f0 1bbe 63dc 24bd
00000060: ea2c ff3d 4738 4f3d 7c76 2dbe 2911 fe3c
00000070: c1c5 04bd fc4a 2cbd ec9c 3d3c 5032 a7bd
00000080: dad1 c4bc 355d d4bb 6048 aebc e7c0 60bb
00000090: f8a7 e63b 4385 af3d 8433 923d 7e1e ee3b
000000a0: 44fa 68bd 8c8f a7bc 7d9b d63c ad97 e03b
000000b0: e55f 843d f8c9 cfbc bfe7 503c 1f06 123d
000000c0: 1e6c 8abd 8889 78bd a5d5 2dbd a5a4 62bc
000000d0: 5143 bf3c 0722 623e 617b b9bc d443 703c
000000e0: c6da 27bd 6ca2 213c db77 643d fd17 6dbc
000000f0: 32eb b9bd df67 523d 3464 43bd 792e ccbd
00000100: 3175 96be 76fa 2b3e a10c 713d e7c8 7fbe
00000110: 28a9 8cbc 7aaa 8dbd 20de ab3e 4fa8 0fbe
00000120: cb61 7e3d 72a1 9bb9 419a 1b3e 48d5 283c
00000130: 0b37 11bd e881 e4bd 5842 103d 9c7c 533e
00000140: 3e64 663e 5162 e53b 2e46 6d3d 424b 8cbb
00000150: a7cb 3dbc 3534 083e c195 243e 010f 2e3c
00000160: 58bc 4c3c 1e87 49bd 4233 60bd 1685 483c
00000170: 51f8 683e 41c6 873e 6bfc 5c3e 2957 fbbd
00000180: 80f2 583e 7239 8e3c 41dc 52be 243a 24bd
00000190: e806 043e 9dd0 a43c 390b d0bd b84e b3bd
000001a0: 60e4 093d 572a 013e ec4c d23d 82d0 343d
000001b0: c63e 2dbc 6ae4 0d3e f649 3c3e 0fac 9dbc
000001c0: 194c a03c 2808 803d d6d2 72bd c9fc 83ba
000001d0: 5f0c 263d d86a 473d b0fa 8ebc 3aaf c6bc
000001e0: 2831 0c3d 62f3 523c dd6d 01bc ea62 7f3d
000001f0: 44aa 1d3d 9e3e fd3a e0cd 72be a7c9 8bbe
00000200: 936c d73d 3c12 e6bc 03db dabd 1d0e 2a3e
00000210: e4e4 4e3d 7878 b73e c66a adbd 383d 8f3b
00000220: 6170 2dbd 8c19 583d 4c12 f439 4aaa 303d
00000230: 2366 943d c5a8 5bbc 7abe 223c 1e79 663c
00000240: cf38 c538 a7ac c9bd 01e1 a83d baec 103e
00000250: 7571 e8bc 7d42 c63c 5a41 c73d 0c6c 5fbe
00000260: a006 5d3d 0d23 00bd 096c 033d 1b37 bf3c
00000270: 829c 40be 2470 af3e bf0c 90bd a85e 403e
00000280: 1629 7a3d ca2c a73e 9413 0b3d a922 163d
00000290: ba94 133e b9ce 113d 85de 22be 4692 fcbd
000002a0: de00 3a3e 161c e33d 9f58 3ebe 63a4 e43c
000002b0: 079c d0bc c47d 513c 5557 25bd 355b 32bd
000002c0: 32d7 73bc 63a2 a2bd 2c7f 1c3d 353d 6c39
000002d0: c55d 7fbe 76c9 babe 2915 d43e 9715 27bd
000002e0: 3c68 9c3d 031f 9cbd 8026 04bd b700 793e
000002f0: 9387 03bf c0d6 6fbc ef83 c33d 9d6a 6b3d
00000300: 5831 9e3d e97a 953d b29e 8b3c 663b ba3d
00000310: 1e18 9b3d 4f46 e0bd 0afc bfbd d232 adbd
00000320: 142c cfbd 5751 bf3c 63ed 26bd 5b87 d9ba
00000330: 960d 8c3d fff3 803d 8bbb 0dbe af82 94bd
00000340: a309 abbc 3f26 c23d 31af 24be 63a6 cabb
00000350: 475c 443c e285 0cbd c3f8 783b fcef 35be
00000360: b68b 8a3d 8a29 e0bd 024d fcbd 452c 52be
00000370: f01e aebd 7a40 58be b1f1 243e 3731 c53d
00000380: d8e4 c23d 11ad 923c 0f17 613c 5576 d8bd
00000390: cbfd 84bd a001 0f3d ac35 d93c 2dc5 30be
000003a0: 0d69 e63c 8576 303d 69ac 853c d2f3 903d
000003b0: edde 803d e84f 933c adc2 b93c 230e c4bc
000003c0: eae8 05bd da07 153d 3a63 6c3d bcbb e93a
000003d0: e98d a2bc 5877 e43b 1deb 9ebc aa95 e13d
000003e0: e2c7 da3c e6f8 fabc 2b78 67bc 35f0 3b3e
000003f0: 7407 d4bc 6c53 c03d 6a24 bcbd 5a9e 85bd

encoder.encoder.3.conv.bias f4 [10]
0.19710821 0.26170135 0.2769368 0.31578287 0.2341564 0.25062168 0.23808149 0.314551
0.17142522 0.20272571
00000000: bcd6 493e b8fd 853e a9ca 8d3e 4bae a13e
00000010: b2c6 6f3e 7c51 803e a2cb 733e d40c a13e
00000020: 188a 2f3e 5497 4f3e

decoder.decoder.0.dconv.weight f4 [10, 32, 3, 3]
0.12723665 -0.23546979 -0.24275158 -0.09519066 -0.19010822 0.37798285 0.08586741 -0.4400175
0.48075122 -0.034548454 -0.006603465 0.18694194 -0.16173264 -0.17533243 -0.3062646 0.19981745
0.5587919 -0.26401785 -0.26100522 -0.06163959 0.16134179 -0.250321 0.030410517 0.510861
-0.0075023775 -0.15483657 -0.18462421 0.03628147 -0.017162284 0.09847725 -0.21088736 0.10959249
0.21154465 -0.04456898 0.15433207 -0.15496033 0.06376163 0.014328663 0.0026364848 0.03638683
0.23127115 0.042208016 0.30552778 -0.09926388 0.38302168 -0.08204241 -0.115658924 -0.3244911
0.20393817 0.025632368 -0.22897446 -0.30255824 0.22082628 0.25142562 0.135059 0.13405703
-0.03506424 -0.26360092 -0.052396458 0.24336939 -0.13002236 0.24473535 -0.107198164 -0.07054888
-0.1269449 0.05458497 -0.0079055615 -0.0840133 0.11026085 -0.20081118 -0.2986429 0.12445397
-0.04051725 0.012545972 -0.05195687 0.020582197 -0.037363205 -0.13569908 -0.425327 -0.071325295
0.016782615 0.04252677 0.08692512 0.26042986 -0.12287479 0.07193708 0.4048487 0.112992294
-0.13442229 0.28759292 0.05675935 0.033744477 0.051764056 -0.10002352 -0.3180164 -0.28086284
-0.15318093 0.084580116 0.6006847 0.24480245 -0.13436885 0.11903608 0.054044507 -0.12126408
-0.29327008 -0.012002812 0.18691799 -0.09762858 0.08360945 -0.09367627 0.05408956 -0.20707221
-1.1846932 0.36298856 0.031390894 -0.039823793 0.60394484 0.044814695 -0.031921923 0.03522067
0.18146017 -0.018627658 -0.4493858 0.027976085 -0.011900194 -0.009993047 0.004358571 0.19925079
-0.023774235 0.104418516 0.09387486 0.06931554 -0.16661982 -0.30912662 -0.56389457 0.086139075
0.28199178 0.10576005 0.1640725 -0.18292218 0.025424581 -0.091552 -0.12605509 -0.2694009
0.02121609 -0.13594423 0.026806543 -0.0902466 -0.1385693 0.19338533 0.34603244 0.006454581
0.021356836 -0.1534724 -0.066699944 0.026177987 -0.004365951 -0.08097487 0.025618542 0.028393855
0.017759364 -0.14867337 0.10229395 -0.029284896 0.06572527 -0.09198938 -0.4109462 -0.08556888
-0.28377068 0.25024185 0.14468493 -0.069321066 -0.21944954 0.40871567 -0.019375281 -0.16474691
0.18666016 -0.124916784 -0.08080312 0.37656114 0.044482607 0.11934057 -0.3352439 0.04721791
-0.41165778 0.34260565 0.033396494 -0.19564617 -0.43186536 -0.101871915 -0.14650634 -0.2245042
-0.20778279 -0.054367058 0.111854285 -0.0023415508 0.26248133 0.2767018 -0.06888306 -0.036316317
-0.005580094 0.06863844 -0.30882064 0.19379427 0.17405282 -0.36143893 0.27046487 -0.07588245
-0.4836657 0.19791844 -0.020879589 -0.059021123 0.4797618 -0.05223327 -0.100281686 0.2404868
0.3415613 0.28372818 -0.029899156 0.09389597 -0.03318385 0.057304963 0.18059555 0.2967484
0.41163218 -0.046759557 0.025471216 0.46581122 0.2735785 -0.49454498 -0.41748714 0.38234103
-0.01685666 0.15885024 0.038926262 -0.010704843 0.038289543 -0.076770104 -0.56550807 0.20985907
0.08903409 0.08509568 0.37271917 -0.030619381 0.08889635 -0.164485 -0.09031158 -0.03177324
0.21546513 0.007952643 0.01747273 0.026800422 -0.045815393 0.15154016 -0.024974573 -0.033455607
00000000: 534a 023e fe1e 71be df93 78be 52f3 c2bd
00000010: bbab 42be f886 c13e 41db af3d f949 e1be
00000020: 0625 f63e ae82 0dbd e161 d8bb b56d 3f3e
00000030: 3e9d 25be 588a 33be b7ce 9cbe f29c 4c3e
00000040: fc0c 0f3f 592d 87be 7aa2 85be cb79 7cbd
00000050: c836 253e 132a 80be 7a1f f93c c9c7 023f
00000060: 81d6 f5bb 7a8d 1ebe 210e 3dbe e19b 143d
00000070: eb97 8cbc 71ae c93d dbf2 57be 0772 e03d
00000080: 299f 583e f68d 36bd 3a09 1e3e ecad 1ebe
00000090: 7595 823d c5c2 6a3c e0c8 2c3b 5b0a 153d
000000a0: 58d2 6c3e 50e2 2c3d 236e 9c3e dc4a cbbd
000000b0: 6b1b c43e da05 a8bd 96de ecbd b323 a6be
000000c0: 2bd5 503e f9fa d13c 4878 6abe eae8 9abe
000000d0: 4920 623e dcba 803e e84c 0a3e 3f46 093e
000000e0: 859f 0fbd b3f6 86be ab9d 56bd d335 793e
000000f0: 9524 05be e79b 7a3e b68a dbbd ee7b 90bd
00000100: d8fd 01be 7d94 5f3d 5486 01bc 2a0f acbd
00000110: 71d0 e13d 72a1 4dbe b9e7 98be b9e1 fe3d
00000120: 6af5 25bd 9f8d 4d3c bad0 54bd ff9b a83c
00000130: 290a 19bd b3f4 0abe 76c4 d9be ff12 92bd
00000140: b27b 893c 8d30 2e3d cc05 b23d 1057 853e
00000150: c7a5 fbbd bf53 933d 5448 cf3e 8168 e73d
00000160: ffa5 09be 613f 933e 7e7c 683d a637 0a3d
00000170: 8c06 543d 22d9 ccbd 0cd3 a2be 41cd 8fbe
00000180: 76db 1cbe 5738 ad3d 79c6 193f 7ead 7a3e
00000190: fd97 09be 30c9 f33d c65d 5d3d 4d59 f8bd
000001a0: 7f27 96be 71a7 44bc 6e67 3f3e 7ef1 c7bd
000001b0: 6e3b ab3d 58d9 bfbd 048d 5d3d bd0a 54be
000001c0: 07a4 97bf a3d9 b93e bd93 003d 461e 23bd
000001d0: 219c 1a3f 9d8f 373d 90c0 02bd 8d43 103d
000001e0: b2d0 393e 0899 98bc e515 e6be 1a2e e53c
000001f0: 08f9 42bc e1b9 23bc 58d2 8e3b 6608 4c3e
00000200: 2fc2 c2bc 60d9 d53d 7641 c03d 4ef5 8d3d
00000210: 639e 2abe d845 9ebe 655b 10bf af69 b03d
00000220: 3a61 903e ba98 d83d 9f02 283e f44f 3bbe
00000230: 3647 d03c 9d7f bbbd 9614 01be eaee 89be
00000240: 5ecd ad3c f734 0bbe 6599 db3c 36d3 b8bd
00000250: 1ce5 0dbe ce06 463e 2a2b b13e f380 d33b
00000260: 88f4 ae3c de27 1dbe fb99 88bd 3873 d63c
00000270: 4010 8fbb 27d6 a5bd fadd d13c 3b9a e83c
00000280: 167c 913c d53d 18be 7e7f d13d e1e6 efbc
00000290: f89a 863d ee64 bcbd 8a67 d2be bd3e afbd
000002a0: 644a 91be b31f 803e 4928 143e 34f8 8dbd
000002b0: 61b7 60be 2e43 d13e e9b8 9ebc 6ab3 28be
000002c0: d723 3f3e 5fd4 ffbd 1b7c a5bd 9fcc c03e
000002d0: 6533 363d d468 f43d 17a5 abbe 9167 413d
000002e0: cfc4 d2be 026a af3e c3ca 083d 7857 48be
000002f0: 751d ddbe 39a2 d0bd c205 16be 6ee4 65be
00000300: 03c5 54be feaf 5ebd dc13 e53d b474 19bb
00000310: f463 863e dcab 8d3e 9012 8dbd 6bc0 14bd
00000320: 39d9 b6bb 4f92 8c3d bd1d 9ebe 0172 463e
00000330: e73a 323e 860e b9be 5f7a 8a3e 4268 9bbd
00000340: 08a3 f7be 22ab 4a3e ac0b abbc 22c0 71bd
00000350: 57a3 f53e 8ef2 55bd 7c60 cdbd 2c42 763e
00000360: 1fe1 ae3e d244 913e 13ef f4bc 884c c03d
00000370: caeb 07bd 9cb8 6a3d 0aee 383e 68ef 973e
00000380: 74c1 d23e f386 3fbd 03a9 d03c cf7e ee3e
00000390: 7b12 8c3e 0035 fdbe e0c0 d5be 34c2 c33e
000003a0: fa16 8abc a3a9 223e 2571 1f3d 5e63 2fbc
000003b0: 7fd5 1c3d a539 9dbd 23c5 10bf 4ce5 563e
000003c0: 8157 b63d a546 ae3d 0cd5 be3e 7fd5 fabc
000003d0: 4a0f b63d c16e 28be 47f5 b8bd a824 02bd
000003e0: e4a2 5c3e cd4b 023c f822 8f3c 8f8c db3c
000003f0: eca8 3bbd 582d 1b3e 7a97 ccbc bf08 09bd

decoder.decoder.0.dconv.bias f4 [32]
-0.009474816 0.4161228 0.2534262 0.023734381 -0.18751049 0.11100735 -0.08953312 0.0020089005
0.017893776 0.12026794 0.38355732 0.3034179 -0.21286985 -0.42534673 0.13093732 0.06967887
0.03527655 -0.7270942 0.3495683 0.21445131 0.19232434 -0.15609847 0.018677292 -0.067150444
-0.11839782 0.12756033 -0.21493381 -0.20894185 0.05698031 0.03253285 0.0321889 0.30380073
00000000: 423c 1bbc 0c0e d53e 14c1 813e 9b6e c23c
00000010: c002 40be d257 e33d 245d b7bd c2a7 033b
00000020: f895 923c 0a4f f63d a061 c43e 9759 9b3e
00000030: 8efa 59be 0cc7 d9be 6f14 063e ccb3 8e3d
00000040: 257e 103d d822 3abf 9efa b23e 2099 5b3e
00000050: acf0 443e 47d8 1fbe 1f01 993c 2c86 89bd
00000060: 8e7a f2bd 2d9f 023e 9c17 5cbe daf4 55be
00000070: 2f64 693d 2a41 053d 82d8 033d c58b 9b3e

decoder.decoder.1.dconv.weight f4 [32, 32, 3, 3]
-0.21476795 0.20337674 0.018637262 -0.4387577 -0.40879247 0.31858423 0.2426208 0.38128248
0.27267897 -0.26499912 -0.19493468 -0.13322237 -0.44547877 -0.4516019 -0.72521526 0.05201845
-0.15240741 0.19857204 -0.21329516 -0.07026993 -0.072710276 0.31506246 -0.50542486 -0.056005847
0.538995 0.23216176 -0.025442585 0.16303164 -0.18212916 -0.36410847 0.11998081 -0.35945627
0.039382923 -0.033253495 -0.04653534 -0.15426365 -0.35978657 -0.08009576 0.16622066 -0.13059998
-0.47397807 -0.22035947 -0.3532908 0.32001364 0.47198644 0.1783915 -0.22084072 -0.17374213
-0.31239024 -0.24963415 -0.21699227 0.03244388 0.25384307 -0.18460625 -0.09762161 -0.52707785
-0.25776598 -0.32957056 -0.1405041 0.004724277 -0.025847208 0.30853957 0.20811209 -0.3434483
-0.10868427 0.06764046 -0.14197402 -0.29844114 -0.20454457 -0.15574485 -0.30603975 -0.19327718
0.073777474 -0.40444392 -0.36367118 0.27725953 -0.2585867 -0.17581794 -0.088300325 0.013074262
0.15453526 0.42375538 0.09258337 -0.38418514 -0.32603183 0.10377131 0.589053 -1.0961443
0.29720595 0.5571224 -0.042454224 -0.7753128 0.08802363 -0.5616957 -0.5645106 -1.3534558
0.18736659 0.085831225 0.13275433 0.18462662 0.25157735 0.10054545 -0.25526318 -0.0039712638
0.3592324 0.60637045 -1.057326 0.29431444 -0.3521371 -1.0075543 -0.06639585 0.001991985
-0.4402939 -0.18917367 -0.2670033 -0.43330634 -0.2710781 0.20315817 -0.36750284 0.30938873
-0.4730143 -0.32969737 -0.3903826 -0.23091136 0.5282748 0.48241332 -0.067107804 -0.16341747
-0.5077635 -0.76327914 -0.1247164 0.51915777 -0.24047437 0.043823835 -0.0610782 -0.36775568
-0.17335117 0.0498532 -0.017714228 -0.6490027 -0.17585681 -0.53395647 0.5156987 -0.3338646
-0.59612733 -0.20836717 -0.3145332 -0.39757338 0.41882458 0.03925591 -1.053424 0.79666495
0.20375526 0.13146497 -0.34112406 -0.39044255 -0.9258301 -0.06402097 -0.6825548 -0.084111616
-0.18635686 0.63403815 0.05136213 -0.2440045 -0.3917148 -0.8407054 -0.42819104 0.63356084
-0.109119296 0.3815869 -0.59922475 -0.4029189 0.048814975 -0.28266203 -0.09404418 0.16441557
-0.038880374 0.03282162 -0.43189478 0.32820728 -0.014024455 -0.04804115 -0.037515394 -0.041769773
0.012347134 0.006389888 0.051147494 -0.0015835162 -0.014338478 -0.49594632 -0.14702255 -0.21824585
-0.6033433 -0.18150567 0.07050266 -0.0075989896 -0.75894225 0.16130891 0.40662646 0.29389238
-0.27630833 -0.10746482 -0.34290045 -0.17309302 0.2447437 0.30275652 -0.66273534 -0.048042182
0.16874292 0.37609455 -0.07744809 0.27435705 0.11565796 -0.25884196 -0.5182067 0.049234867
-0.216227 0.26014242 -0.4873315 0.26828593 -0.15531649 -0.68740916 0.17373934 -0.116501845
0.12560059 0.10102007 -0.023267485 0.19334784 -0.1495728 -0.49970642 0.4659099 0.072420426
-0.17337662 -0.33977872 -0.0037234984 0.2102491 -0.030509254 -0.029353 -0.4488045 -0.050342236
-0.046995886 -0.40587658 -0.018328618 -0.13016836 -0.2850521 0.17315488 -0.19366346 0.02773179
0.8950057 0.2565721 0.4001559 0.7582832 -0.30930158 0.02512419 -0.38365018 -0.27589878
00000000: 21ec 5bbe fe41 503e 2cad 983c d9a4 e0be
00000010: 3f4d d1be 791d a33e 9671 783e 7537 c33e
00000020: 949c 8b3e f7ad 87be f59c 47be 726b 08be
00000030: cb15 e4be 5d38 e7be b5a7 39bf 4c11 553d
00000040: b010 1cbe 7856 4b3e 0c6a 5abe aee9 8fbd
00000050: 20e9 94bd de4f a13e 8663 01bf 6366 65bd
00000060: 94fb 093f d0bb 6d3e f86c d0bc c4f1 263e
00000070: 1180 3abe 6d6c babe 80b8 f53d a70a b8be
00000080: fd4f 213d d134 08bd d79b 3ebd 4af7 1dbe
00000090: f235 b8be 3f09 a4bd c035 2a3e 00bc 05be
000000a0: 41ad f2be eaa5 61be 88e2 b4be d4d8 a33e
000000b0: 35a8 f13e 43ac 363e 1224 62be 75e9 31be
000000c0: 9df1 9fbe 18a0 7fbe 3933 5ebe e0e3 043d
000000d0: b8f7 813e 6c09 3dbe d7ed c7bd 93ee 06bf
000000e0: e7f9 83be 79bd a8be 4fe0 0fbe 1cce 9a3b
000000f0: 86bd d3bc e6f8 9d3e 561b 553e 75d8 afbe
00000100: dc95 debd 1587 8a3d a361 11be 47cd 98be
00000110: 2274 51be 947b 1fbe 3eb1 9cbe 74ea 45be
00000120: a518 973d 4613 cfbe 1c33 babe f6f4 8d3e
00000130: 7a65 84be 9e09 34be cdd6 b4bd 6e35 563c
00000140: 7e3e 1e3e 77f6 d83e 5a9c bd3d eab3 c4be
00000150: a5ed a6be 0d86 d43d 2dcc 163f 754e 8cbf
00000160: 612b 983e 939f 0e3f 7be4 2dbd e67a 46bf
00000170: bc45 b43d 4acb 0fbf c483 10bf 0a3e adbf
00000180: 07dd 3f3e 48c8 af3d c0f0 073e c30e 3d3e
00000190: bfce 803e c6ea cd3d dbb1 82be 6021 82bb
000001a0: 4fed b73e 183b 1b3f 7556 87bf 62b0 963e
000001b0: 504b b4be 8af7 80bf 8cfa 87bd f68b 023b
000001c0: 346e e1be beb6 41be a8b4 88be 54da ddbe
000001d0: c0ca 8abe b208 503e 5529 bcbe 3368 9e3e
000001e0: ee2e f2be 18ce a8be 3ae0 c7be 0774 6cbe
000001f0: 043d 073f e1fe f63e d16f 89bd e956 27be
00000200: cafc 01bf 4366 43bf 506b ffbd 86e7 043f
00000210: ea3e 76be 9f80 333d 222d 7abd 794a bcbe
00000220: f882 31be de32 4c3d 6e1d 91bc 0a25 26bf
00000230: cf13 34be 5fb1 08bf d404 043f 4df0 aabe
00000240: cd9b 18bf 345e 55be 7f0a a1be bd8e cbbe
00000250: 2d70 d63e ceca 203d 99d6 86bf 3cf2 4b3f
00000260: 38a5 503e c19e 063e d0a7 aebe 16e8 c7be
00000270: 3403 6dbf 6d1d 83bd e9bb 2ebf b642 acbd
00000280: 55d4 3ebe 5350 223f 1961 523d 51dc 79be
00000290: d88e c8be 7838 57bf db3b dbbe 0b31 223f
000002a0: f079 dfbd 5c5f c33e cb66 19bf 634b cebe
000002b0: 36f2 473d 14b9 90be 3c9a c0bd 8e5c 283e
000002c0: 0741 1fbd f76f 063d 5021 ddbe c90a a83e
000002d0: d4c6 65bc ccc6 44bd bea9 19bd c816 2bbd
000002e0: a24b 4a3c 4462 d13b 0980 513d fd8d cfba
000002f0: f0eb 6abc adec fdbe 148d 16be d77b 5fbe
00000300: b574 1abf 9fdc 39be b363 903d f200 f9bb
00000310: 0a4a 42bf 2a2e 253e 5831 d03e 1079 963e
00000320: 4978 8dbe 8416 dcbd a690 afbe 4c3f 31be
00000330: 189e 7a3e e702 9b3e 06a9 29bf e1c7 44bd
00000340: f2ca 2c3e 778f c03e 1b9d 9ebd 8778 8c3e
00000350: 15de ec3d ef86 84be 32a9 04bf 80aa 493d
00000360: 9c6a 5dbe 6331 853e 8483 f9be c65c 893e
00000370: 490b 1fbe 0cfa 2fbf bae8 313e 8598 eebd
00000380: 719d 003e 9ce3 ce3d 749b bebc fafc 453e
00000390: 9d29 19be 85d9 ffbe be8b ee3e 2951 943d
000003a0: a489 31be 7af7 adbe f005 74bb 8a4b 573e
000003b0: 8bee f9bc b475 f0bc b4c9 e5be a933 4ebd
000003c0: c27e 40bd 0ecf cfbe e625 96bc db4a 05be
000003d0: 59f2 91be 834f 313e b74f 46be c72d e33c
000003e0: 181f 653f 6b5d 833e 3ce1 cc3e d91e 423f
000003f0: c75c 9ebe 3fd1 cd3c cc6d c4be 9b42 8dbe

decoder.decoder.1.dconv.bias f4 [32]
0.068167865 0.16057758 0.09903884 0.09899831 -0.08084421 0.29610056 0.14406808 0.00808378
0.034701005 0.11865573 0.11754199 0.14363176 0.18300664 0.11345873 0.13157098 0.08685382
-0.05502017 0.20827772 0.16298662 0.0976893 -0.1094048 -0.0382426 -0.04944615 0.26208082
0.15868427 0.1221647 -0.09334992 0.119546205 0.104187116 -0.1221118 0.07130146 0.14086169
00000000: 989b 8b3d 736e 243e e0d4 ca3d a0bf ca3d
00000010: a691 a5bd 7e9a 973e 9586 133e d571 043c
00000020: a422 0e3d c601 f33d dbb9 f03d 3414 133e
00000030: 1866 3b3e 0d5d e83d 8bba 063e 6ae0 b13d
00000040: d45c 61bd c146 553e f7e5 263e 5411 c83d
00000050: a00f e0bd 46a4 1cbd 0c88 4abd 752f 863e
00000060: 217e 223e 7c31 fa3d 3e2e bfbd a4d4 f43d
00000070: 0e60 d53d c015 fabd 8006 923d 0c3e 103e

decoder.decoder.2.dconv.weight f4 [32, 32, 3, 3]
0.1932208 -0.30244273 -0.24465182 -0.096314974 0.6868932 -0.31081545 -0.0021695478 -0.19335297
0.57657987 0.01020664 0.0044636973 -0.040927257 -0.12184088 -0.015739143 0.044798903 0.15368357
-0.040557437 -0.13160205 0.14378002 -0.2952315 -0.22468314 -0.17673008 -0.33680394 -0.70623416
0.4155562 -0.5876616 -0.24825713 0.10338684 0.32642585 -0.12845941 -0.22936535 0.3760451
-0.12242526 0.3099656 0.9346264 0.14058217 -0.090553194 -0.32940534 -0.30643335 -0.1678457
-0.041188776 0.29779196 -0.3467024 0.03844593 -0.21837679 0.013899579 0.1101935 0.2928104
0.2032281 0.5795638 -0.11401202 0.19193704 0.85520023 0.059858825 -0.091296144 -0.09807194
-0.012117456 -0.06711417 -0.005143054 -0.18548207 -0.23640639 0.1038893 0.025410216 0.14536715
-0.35829046 -0.27296123 -0.11157235 0.07454788 -0.01819754 -0.6654991 -0.17084488 -0.0410014
-0.2801743 -0.5177438 -0.18236868 -0.08613018 -0.1630908 -0.4070823 0.0668088 0.054719746
0.4339376 -0.0290247 -0.02574847 -0.13045035 0.19226533 0.08338448 -0.08979272 0.3200568
0.09223942 0.3380131 -0.09864909 -0.14723407 0.18608849 -0.31119856 -0.6869615 -0.23330542
-0.3704219 -0.3733692 -0.40862745 -0.11374174 -0.21289974 -0.46764198 -0.10026051 -0.08973573
-0.36071444 -0.048311107 -0.14374422 -0.38519835 -0.039091043 0.08252372 0.35211962 -0.105079815
-0.53495264 0.06987521 0.46929738 -0.44510555 -0.028835416 -0.36522022 -0.39258745 -0.06637618
-0.15078925 -0.15927643 -0.39801526 -0.11847603 0.43572953 0.07582449 0.15933469 -0.15148158
0.08679593 0.06838967 -0.30382246 -0.1298004 -0.5386809 -0.02258814 0.23010913 -0.30452722
-0.27781588 -0.1376465 -0.16520914 -0.29257384 0.004340777 -0.11580299 0.06868995 0.22571115
-0.011537388 0.026489962 -0.06381929 0.049753238 0.3626727 -0.03465121 0.029961895 0.024435246
0.037527796 -0.11084447 -0.11852181 -0.2516968 -0.34106317 0.3813211 -0.015856186 -0.04561966
-0.61052537 0.040686425 0.335878 -0.3528755 -0.6944464 0.4973394 0.09393208 0.26127672
-0.48632932 -0.1293741 -0.44744864 -0.029469237 -0.036312714 -0.0715358 -0.06638279 0.4913472
-0.0035343631 -0.034642953 -0.01763888 0.05079887 -0.51904243 0.041046433 -0.07526114 -0.3065036
-0.48178524 -0.051832065 0.069039784 -0.65089107 -0.02285502 0.11056442 -0.047943275 -0.33960027
0.046717092 -0.17998795 -0.22227742 -0.33653742 -0.16971575 -0.16897014 -0.7312596 -0.5064312
-0.7325211 -0.051054817 -0.21029809 0.19552669 0.61438644 -0.17213792 0.84027433 0.5240887
-0.32441062 -0.7622216 -0.5273545 -0.54449385 -0.28922185 -0.0712573 0.35657382 0.42719588
0.47766042 0.43236262 0.2423225 -0.0059674415 -0.49668378 -0.004401024 0.20447505 -0.67568296
-0.37093884 -0.025678517 0.063260876 0.17218067 0.2545868 -0.11438644 0.09174463 0.5308207
0.40109828 0.30448183 -0.034730885 -0.0166025 0.07676763 -0.39454114 -0.3846026 0.19766667
0.4911225 0.1240628 0.14083228 -0.15721716 -0.32709897 -0.21266526 -0.4457255 -0.38510087
-0.4432353 0.08968809 0.18863252 0.47548506 -0.032150928 -0.2515959 -0.07713688 -0.06611997
00000000: acdb 453e c6d9 9abe 0286 7abe c940 c5bd
00000010: 3cd8 2f3f 3423 9fbe f92e 0ebb 52fe 45be
00000020: bd9a 133f c039 273c 3544 923b 57a3 27bd
00000030: b687 f9bd 60ef 80bc 0e7f 373d 3a5f 1d3e
00000040: 8e1f 26bd b0c2 06be 123b 133e 9528 97be
00000050: 5613 66be bbf8 34be 9171 acbe c3cb 34bf
00000060: c8c3 d43e fe70 16bf 1e37 7ebe 7bbc d33d
00000070: 4a21 a73e dd8a 03be c0de 6abe fc88 c03e
00000080: 18ba fabd d0b3 9e3e ad43 6f3f c6f4 0f3e
00000090: f473 b9bd d1a7 a8be d5e4 9cbe bedf 2bbe
000000a0: 90b5 28bd 3078 983e fa82 b1be 7b79 1d3d
000000b0: 2a9e 5fbe 0fbb 633c 21ad e13d 3feb 953e
000000c0: 071b 503e 4b5e 143f 227f e9bd 258b 443e
000000d0: 67ee 5a3f 872e 753d 79f9 babd f1d9 c8bd
000000e0: 4b88 46bc 2773 89bd 1087 a8bb 03ef 3dbe
000000f0: 8414 72be eac3 d43d 1629 d03c 20db 143e
00000100: d971 b7be 93c1 8bbe 0b80 e4bd 8fac 983d
00000110: 0213 95bc 265e 2abf f6f1 2ebe 16f1 27bd
00000120: 0173 8fbe dc8a 04bf dbbe 3abe 0565 b0bd
00000130: 4601 27be 176d d0be 0dd3 883d d021 603d
00000140: 122d de3e 35c5 edbc 75ee d2bc c794 05be
00000150: 34e1 443e 7bc5 aa3d 3fe5 b7bd 7cde a33e
00000160: 05e8 bc3d 0e10 ad3e 8908 cabd 87c4 16be
00000170: fb8d 3e3e 6b55 9fbe b5dc 2fbf 9ee7 6ebe
00000180: f0a7 bdbe 3f2a bfbe 9e37 d1be 6ef1 e8bd
00000190: 6402 5abe c56e efbe 6255 cdbd 5ec7 b7bd
000001a0: 90af b8be dee1 45bd af31 13be b838 c5be
000001b0: ee1d 20bd 3202 a93d 0649 b43e 1634 d7bd
000001c0: a8f2 08bf bc1a 8f3d bf47 f03e e0e4 e3be
000001d0: 4038 ecbc 25fe babe 3901 c9be 3cf0 87bd
000001e0: 7f68 1abe 5c19 23be a8c8 cbbe 90a3 f2bd
000001f0: f117 df3e df49 9b3d a228 233e fd1d 1bbe
00000200: 11c2 b13d e20f 8c3d 9e8e 9bbe 65ea 04be
00000210: fee6 09bf c30a b9bc baa1 6b3e feea 9bbe
00000220: e23d 8ebe 34f3 0cbe 962c 29be 3dcc 95be
00000230: 143d 8e3b 1e2a edbd 51ad 8c3d d320 673e
00000240: 5007 3dbc 7a01 d93c b0b3 82bd 0dca 4b3d
00000250: 3cb0 b93e 6dee 0dbd a672 f53c 6d2c c83c
00000260: bfb6 193d 6d02 e3bd 90bb f2bd 67de 80be
00000270: d59f aebe 853c c33e d5e4 81bc aedb 3abd
00000280: 644b 1cbf cfa6 263d 34f8 ab3e 19ac b4be
00000290: 3dc7 31bf 45a3 fe3e 765f c03d 10c6 853e
000002a0: 2800 f9be a57a 04be fd17 e5be 7869 f1bc
000002b0: a4bc 14bd 5d81 92bd b3f3 87bd dc91 fb3e
000002c0: c6a0 67bb c5e5 0dbd 6a7f 90bc 7a12 503d
000002d0: f7df 04bf 4e20 283d 8322 9abd 0aee 9cbe
000002e0: 8eac f6be dc4d 54bd bb64 8d3d cca0 26bf
000002f0: 733a bbbc 996f e23d 2b60 44bd 16e0 adbe
00000300: 6c5a 3f3d c34e 38be b19c 63be a24e acbe
00000310: f7c9 2dbe 8206 2dbe d433 3bbf 7aa5 01bf
00000320: 8186 3bbf db1e 51bd 6258 57be 2638 483e
00000330: 6e48 1d3f ec44 30be 381c 573f ad2a 063f
00000340: 2619 a6be f420 43bf b400 07bf f363 0bbf
00000350: e314 94be 59ef 91bd d890 b63e 6bb9 da3e
00000360: e88f f43e a25e dd3e 6423 783e 878a c3bb
00000370: 564d febe 7736 90bb e861 513e 8ff9 2cbf
00000380: b2eb bdbe c15b d2bc eb8e 813d 2150 303e
00000390: 3359 823e 7043 eabd 9ce4 bb3d dee3 073f
000003a0: c15c cd3e 0be5 9b3e f941 0ebd f701 88bc
000003b0: 5938 9d3d 4c01 cabe a2ea c4be 2269 4a3e
000003c0: 6974 fb3e a314 fe3d 5636 103e 89fd 20be
000003d0: 8479 a7be ecc4 59be 2236 e4be f12b c5be
000003e0: bdef e2be 64ae b73d e228 413e c772 f33e
000003f0: b1b0 03bd 2ed1 80be f1f9 9dbd e869 87bd

decoder.decoder.2.dconv.bias f4 [32]
-0.0054469025 -0.13973944 0.004727269 0.013314592 0.21333298 0.089018285 0.030493641 0.042790763
0.094829686 0.27668926 0.046655472 0.06920296 0.030575112 0.07684523 0.18003617 0.19117379
-0.50356275 0.080347575 -0.02291703 -0.03518245 0.099350534 0.06527695 0.0591798 0.055635095
-0.020647416 0.13503599 0.11637522 0.024196617 -0.14421715 0.07424108 -0.0027306394 0.063128136
00000000: ee7b b2bb db17 0fbe 35e7 9a3b 7225 5a3c
00000010: f673 5a3e 384f b63d cdcd f93c 5e45 2f3d
00000020: 1136 c23d 37aa 8d3e cf19 3f3d 48ba 8d3d
00000030: a878 fa3c 0861 9d3d 675b 383e 10c3 433e
00000040: 7de9 00bf 458d a43d 7fbc bbbc 791b 10bd
00000050: 4b78 cb3d ecaf 853d 8566 723d a0e1 633d
00000060: c524 a9bc e046 0a3e 2256 ee3d fc37 c63c
00000070: a9ad 13be b50b 983d 87f4 32bb 5349 813d
