notebooks/saved_model/mnist_model/mnist_cae_1/mnist_cae00050.pth (torch, 541279 bytes, 51 tensors)

encoder.encoder.0.conv.weight f4 [32, 1, 3, 3]
0	0xbea06984	-0.31330502
1	0xbf16911f	-0.5881519
2	0x3e7586c9	0.23977198
3	0xbca5b369	-0.020227151
4	0xbe205782	-0.15658382
5	0xbf22faa7	-0.63663715
6	0x3f03b75c	0.5145166
7	0x3e7e24a6	0.24818668
8	0xbee8a667	-0.45439455
9	0xbd546e59	-0.05186305
10	0x3da68d99	0.08132476
11	0xbe8b7c31	-0.27243188
12	0x3d8c72a7	0.06857806
13	0x3ea39c37	0.3195512
14	0x3da35447	0.07975059
15	0xbe884421	-0.26614478
16	0xbe7c9a3d	-0.24668212
17	0x3dca819c	0.09888002
18	0x3c6ebc69	0.014571288
19	0x3e9928e5	0.29914013
20	0x3f10dc85	0.56586486
21	0xbeb923a7	-0.36160013
22	0xbe5b5498	-0.21418989
23	0x3d29219f	0.04129183
24	0xbda9f606	-0.08298878
25	0xbea11a3a	-0.31465322
26	0xbd3227cf	-0.043494996
27	0xbc70a239	-0.014687114
28	0x3f2ab7b2	0.66686547
29	0x3e9f1b8b	0.310757
30	0xbf0b4bde	-0.5441264
31	0xbf7c6906	-0.98597753
32	0xbf40fbae	-0.7538403
33	0x3ef87b7e	0.48531717
34	0x3ee706f8	0.45122504
35	0x3e8045c5	0.2505323
36	0xbf3a4801	-0.7276612
37	0xbf5c31d7	-0.8601355
38	0xbf895c5d	-1.0731312
39	0xbecc8ec5	-0.39952675
40	0xbe7f975a	-0.2496008
41	0xbf6db691	-0.928567
42	0xbf5d1a26	-0.86368024
43	0xbf1afb7f	-0.6054
44	0xbfa50687	-1.2892617
45	0xbe157a3d	-0.14597411
46	0xbecfbdd2	-0.4057451
47	0x3ed896dc	0.42302597
48	0x3eb30d65	0.34971157
49	0xbf071705	-0.527695
50	0x3e9a824e	0.3017754
51	0x3e9509b1	0.29108956
52	0x3d9d9000	0.076934814
53	0xbec93393	-0.3929716
54	0xbe864f02	-0.26232153
55	0xbea2a5ce	-0.31767124
56	0xbd6fd908	-0.058556587
57	0xbdd8a050	-0.10577452
58	0x3deacf7c	0.11465356
59	0xbdc38e9c	-0.09548685
60	0x3c1c0da0	0.009524733
61	0xbe984f1b	-0.29747853
62	0xbd89e07c	-0.0673227
63	0xbcbcf795	-0.023067275
64	0xbe072ebc	-0.13201421
65	0xbeb5b6ab	-0.35490927
66	0xbddf4f72	-0.10903825
67	0x3e063430	0.13105845
68	0xbe7f6d89	-0.24944128
69	0xbde3d83b	-0.11125227
70	0xbe4e7178	-0.20160472
71	0x3e316a71	0.1732576
72	0x3d3af2db	0.04564176
73	0xbf0e65e0	-0.556242
74	0xbeeefae2	-0.46675783
75	0xbe91eaa6	-0.28499335
76	0x3e34e284	0.17664534
77	0x3ea865ec	0.3289026
78	0x3e861c97	0.26193687
79	0x3e6dc6b9	0.23220338
80	0x3e54dc05	0.20787056
81	0xbe1f9199	-0.15582885
82	0xbe755b7f	-0.23960684
83	0x3d8086de	0.06275724
84	0xbea3c957	-0.31989548
85	0x3edfde79	0.4372442
86	0x3e81000b	0.25195345
87	0x3c137995	0.009001155
88	0x3ebbedfe	0.3670501
89	0xbf1eb2f3	-0.61991805
90	0x3eac410e	0.33643383
91	0xbe14758a	-0.14497963
92	0x3de74913	0.11293235
93	0x3d4baf58	0.049727768
94	0x3eb5f4b7	0.35538265
95	0x3db3165e	0.087445006
96	0x3dab02d6	0.0835015
97	0xbe6248e6	-0.22098121
98	0xbe8ffd39	-0.2812288
99	0x3ed9b06d	0.42517415
100	0xbd3e964b	-0.04653005
101	0x3d842254	0.0645186
102	0x3dbc758e	0.09202109
103	0xbf430686	-0.7618183
104	0xbdd2c0d0	-0.10290682
105	0xbdda43ef	-0.106574886
106	0xbd37a6c9	-0.044836793
107	0x3f003036	0.50073564
108	0x3daabc9d	0.083367564
109	0x3ea7d0e0	0.32776546
110	0xbe6f436e	-0.23365566
111	0xbecc3a7e	-0.39888376
112	0x3e7a732a	0.24457994
113	0xbf576e29	-0.84152466
114	0xbf53de33	-0.82760924
115	0xbf814037	-1.0097722
116	0xbf35122f	-0.7073087
117	0x3e805181	0.25062183
118	0x3eee2cc0	0.46518517
119	0xbe5e9895	-0.21737893
120	0x3eab7eb9	0.3349512
121	0x3eb2e809	0.34942654
122	0xbf1d81ba	-0.6152607
123	0xbe36a7a3	-0.17837386
124	0xbefef0c4	-0.49793065
125	0xbeaa915c	-0.33314025
126	0x3f01d16a	0.50710166
127	0xbce03914	-0.027370967
128	0xbee3f4be	-0.4452266
129	0xbe7da086	-0.24768266
130	0x3c0a98f1	0.008459316
131	0x3e32ba81	0.17453958
132	0xbe9b833a	-0.30373555
133	0xbb4428e9	-0.002993161
134	0x3ec5dd62	0.38645464
135	0xbe593786	-0.21212587
136	0xbdfa6f84	-0.12228301
137	0xbe6e3b73	-0.23264866
138	0x3e4cf6cc	0.2001602
139	0x3e98a743	0.2981511
140	0x3efaea4d	0.49006882
141	0xbe9fb15b	-0.3119
142	0xbe9728f9	-0.29523447
143	0xbe6917fe	-0.22763059
144	0xbda910ec	-0.08255181
145	0x3e872c88	0.26401162
146	0x3b244464	0.0025065178
147	0xbe42e480	-0.19032478
148	0x3dcbcc4b	0.09951075
149	0xbf00ce8a	-0.50315154
150	0x3c8e15ee	0.017344441
151	0x3f05d519	0.52278286
152	0xbe1055ee	-0.1409528
153	0x3d76e1e3	0.060274016
154	0xbde8ac4c	-0.11360988
155	0xbebf3fef	-0.37353465
156	0x3d65de9a	0.056120493
157	0x3e5a0c89	0.21293844
158	0xbe4b3d88	-0.19847691
159	0xbe16bbb7	-0.14720045
160	0x3e971258	0.29506183
161	0xbdcea15f	-0.10089373
162	0xbbb803cc	-0.005615687
163	0xbda249d6	-0.07924239
164	0xbbdc1a31	-0.0067169894
165	0xbf078677	-0.5293955
166	0xbd98927f	-0.07449817
167	0xbdae2410	-0.08502972
168	0x3e4061f2	0.18787363
169	0x3d9dd488	0.07706553
170	0xbcda8cbe	-0.02667844
171	0xbdb8fe64	-0.09032896
172	0x3e6d0870	0.2314775
173	0xbeaa2841	-0.33233836
174	0xbf00ac70	-0.5026312
175	0x3e89c53b	0.26908287
176	0xbd74a9a3	-0.05973209
177	0xbd4f8ee5	-0.050673384
178	0x3ecb9962	0.3976546
179	0xbea35ce6	-0.31906813
180	0xbe70e109	-0.23523344
181	0xbecc0cab	-0.39853415
182	0x3e7644ed	0.2404973
183	0x3cb3fb3d	0.021970386
184	0xbe6cbd8b	-0.2311918
185	0x3ec027a2	0.37530237
186	0xbe8dbc6d	-0.2768282
187	0xbf234c30	-0.6378813
188	0x3ddc0018	0.107422054
189	0xbe8f6a3a	-0.28010732
190	0xbeb3554d	-0.35026017
191	0xbd87f98d	-0.06639395
192	0x3ed58ed5	0.41710535
193	0x3e840a82	0.25789267
194	0x3e085c41	0.13316442
195	0x3e21d8eb	0.15805404
196	0xbe1dba6f	-0.1540315
197	0x3e453582	0.19258693
198	0xbcad9ab7	-0.021191938
199	0x3e3fb9e6	0.18723258
200	0xbe183681	-0.14864542
201	0x3da8efbf	0.08248853
202	0x3d328015	0.04357918
203	0x3cbac72d	0.022800053
204	0x3dc44fff	0.095855705
205	0x3eaeb897	0.34125206
206	0xbb559cc5	-0.0032594663
207	0xbea31ab8	-0.31856322
208	0x3db8099f	0.0898621
209	0x3eb95469	0.36197212
210	0xbea9e265	-0.33180538
211	0xbc0319aa	-0.008001724
212	0x3dd6dabd	0.1049094
213	0xbe9df9cf	-0.3085465
214	0x3d002133	0.03128166
215	0x3f05e2f8	0.5229945
216	0x3c4b8da5	0.012423907
217	0xbd739cfc	-0.059475884
218	0x3e89dc14	0.2692572
219	0x3e8dba8b	0.27681383
220	0x3f0f7661	0.56040007
221	0x3e030497	0.1279472
222	0xbeafce24	-0.3433696
223	0xbf1ff8ad	-0.62488824
224	0xbea74e4a	-0.32676917
225	0xbe73cfd9	-0.23809756
226	0x3e21c93c	0.15799421
227	0x3e81ccb2	0.25351483
228	0xbeb5e592	-0.3552671
229	0x3e9bc094	0.30420363
230	0xbee3bd96	-0.4448058
231	0x3e556ea9	0.20842995
232	0xbd555693	-0.052084517
233	0xbe9922ec	-0.29909456
234	0x3dda2a33	0.1065258
235	0xbee11908	-0.4396441
236	0xbd2f3ee3	-0.042784583
237	0xbecb024d	-0.39650193
238	0xbe41ebe9	-0.18937649
239	0x3e88de7b	0.2673224
240	0xbeaabf51	-0.33349088
241	0xbd2f1187	-0.042741325
242	0x3eefc938	0.46833205
243	0xbea08684	-0.31352627
244	0xbe9143db	-0.28372082
245	0x3d18d947	0.037316587
246	0xbd8926e7	-0.06696873
247	0xbe00ccb7	-0.12578093
248	0x3e46deba	0.19420901
249	0x3e883ec4	0.26610386
250	0xbd7a09aa	-0.061044373
251	0x3eb01044	0.3438741
252	0x3e32e482	0.17469981
253	0xbee3845c	-0.4443692
254	0x3bb786e1	0.0056007956
255	0x3e709b6e	0.23496792

encoder.encoder.0.conv.bias f4 [32]
0	0x3d76d5de	0.060262553
1	0xbd1f77d2	-0.03893263
2	0xbc17310a	-0.009228
3	0x3ca648dc	0.020298414
4	0x3e0eb80c	0.13937396
5	0x39d4f447	0.00040617792
6	0xbe89f11e	-0.2694177
7	0x3c2889b1	0.010286734
8	0x3c20b24e	0.009808136
9	0xbd7e4274	-0.062075093
10	0x3bb97ab4	0.0056603793
11	0xbd2fc7e3	-0.042915236
12	0x3e254424	0.16139275
13	0x3c8e6d49	0.017386096
14	0xbdd175cd	-0.10227547
15	0x3d080c48	0.033214837
16	0xbda1d562	-0.07902028
17	0x3d2165d6	0.03940376
18	0xbcf90d29	-0.030401783
19	0xbccf4e14	-0.025305785
20	0xbbf896b4	-0.0075863246
21	0xbe347b5c	-0.17625183
22	0xbc16bc04	-0.0092001
23	0x3bba9780	0.0056943297
24	0xbcc08eaa	-0.023505528
25	0xbcab8ae0	-0.020940244
26	0xbbbafa11	-0.00570608
27	0xbe4d8104	-0.20068747
28	0x3df754f8	0.120767534
29	0xbe6f6ea8	-0.23382056
30	0x3c115d2c	0.008872312
31	0xbe7b10b1	-0.24518086

encoder.encoder.1.conv.weight f4 [32, 32, 3, 3]
0	0x3e1699dd	0.14707132
1	0x3e7018cd	0.23446961
2	0x3e369971	0.17831971
3	0xbda4ac5e	-0.08040689
4	0x3e2ee1eb	0.17078368
5	0x3d8fe2f7	0.07025712
6	0xbe0348be	-0.12820718
7	0xbdfefb86	-0.12450318
8	0x3da78c47	0.08181053
9	0xbd38581b	-0.0450059
10	0xbd4668b8	-0.04843971
11	0xbd3c3b22	-0.04595483
12	0x3b0dcf55	0.0021638472
13	0xbcfd5cea	-0.030928094
14	0xbd84f84e	-0.06492673
15	0x3bafa676	0.00536042
16	0x3c81da06	0.015851032
17	0xbc3b3369	-0.011425831
18	0xbdc52b4c	-0.09627399
19	0xbe648759	-0.22317256
20	0xbef3803f	-0.47558782
21	0xbe9492f0	-0.29018354
22	0xbf35930d	-0.70927507
23	0xbf0f7d3b	-0.5605046
24	0xbeabe5d1	-0.33573774
25	0xbf283971	-0.6571265
26	0xbef51e43	-0.4787465
27	0xbda54461	-0.08069683
28	0x3d1ec018	0.038757414
29	0xbe4bf873	-0.19918995
30	0xbe98ee26	-0.29869193
31	0xbe0483ad	-0.12940855
32	0xbdf7af97	-0.12094038
33	0xbe9a2447	-0.30105802
34	0xbe30985e	-0.17245623
35	0xbdb11907	-0.08647352
36	0xbe4afdac	-0.1982333
37	0x3c8a2b4a	0.016866345
38	0x3df167e0	0.11787391
39	0xbe20cfe8	-0.1570431
40	0x3d43c796	0.04779776
41	0x3d9ee69b	0.07758828
42	0xbe3eecb7	-0.18644987
43	0x3da83843	0.08213856
44	0x3e71f289	0.23627676
45	0x3b04a9eb	0.002024288
46	0x3e13afe1	0.14422561
47	0x3ca0c99f	0.01962739
48	0xbd902ee3	-0.07040193
49	0xbcb157c5	-0.021648297
50	0xbcb44da5	-0.02200968
51	0xbcf4760c	-0.029841445
52	0xbd42a3c4	-0.04751946
53	0x3d43e663	0.047827136
54	0x3b78ea70	0.0037981533
55	0x3d01d577	0.031697717
56	0x3d443f59	0.047911976
57	0x3c4d5904	0.01253343
58	0xbc63a928	-0.01389531
59	0x3c5651bc	0.01308101
60	0x3c0eaefc	0.008708712
61	0xbc0bda24	-0.0085358955
62	0xbcb74e7a	-0.022376288
63	0xbcf509bf	-0.029911874
64	0x3b9f010c	0.0048524197
65	0x3d739d19	0.059475992
66	0xbcd41903	-0.025890833
67	0x3b427a2d	0.0029674873
68	0xbb6de554	-0.003630002
69	0xbcce4a5b	-0.02518194
70	0x3db481bd	0.08813808
71	0xbd7d14aa	-0.061787285
72	0xbdd9eab0	-0.10640466
73	0xbde4cc79	-0.111718126
74	0xbe89775f	-0.26848885
75	0xbe32d76b	-0.17464988
76	0xbeae4703	-0.34038553
77	0xbf10ddb7	-0.5658831
78	0xbdaf71e3	-0.08566644
79	0xbe9cfc33	-0.30661163
80	0xbea2e9be	-0.31818956
81	0xbd9b4e49	-0.07583291
82	0xbddad278	-0.10684675
83	0xbdb9ea9f	-0.090779535
84	0x3dc0e0ab	0.09417852
85	0xbc613e46	-0.013747757
86	0xbe881239	-0.26576403
87	0x3e3fd5b8	0.18733871
88	0x3e0dfdf1	0.13866402
89	0xbe828d79	-0.2549856
90	0x3e380a0e	0.17972586
91	0x3dae71e5	0.085178174
92	0xbe860796	-0.26177663
93	0x3e3f4db7	0.1868199
94	0x3da5a1a7	0.08087473
95	0xbdefde4d	-0.117123224
96	0x3e8400a5	0.25781742
97	0x3e08d5a4	0.13362747
98	0xbe32fc15	-0.17478974
99	0xbd107048	-0.03526333
100	0xbe3aabbf	-0.18229578
101	0xbcff5101	-0.031166555
102	0xbd2c3cab	-0.042050045
103	0xbdcaa723	-0.0989516
104	0xbce6b0a1	-0.028160395
105	0x3e1febaf	0.1561725
106	0x3d00e349	0.031466756
107	0x3bb8bef6	0.0056379987
108	0xbe257e6e	-0.1616151
109	0xbcae508f	-0.021278648
110	0x3d8b790f	0.068101995
111	0xbd6472f9	-0.05577371
112	0x3deff178	0.117159784
113	0x3e185c3f	0.14878939
114	0xbd729a16	-0.05922898
115	0x3e1bbfdf	0.15209912
116	0x3e2e75a8	0.1703707
117	0xbdb075f5	-0.086162485
118	0xbe19be14	-0.15013915
119	0xbcfa52ce	-0.030557062
120	0xbd73a11c	-0.059479818
121	0xbd61dea9	-0.055143986
122	0x3cc1767b	0.023616066
123	0x3e3fc896	0.18728861
124	0x3e77445a	0.24147168
125	0x3ea679cf	0.32514808
126	0x3bf733f7	0.0075440365
127	0xbe478bbb	-0.19486897
128	0xbdc18433	-0.09449043
129	0xbc97aff5	-0.01851652
130	0xbdf3d9ca	-0.11906774
131	0xbe126550	-0.1429646
132	0xbdf85168	-0.12124902
133	0xbcac06c9	-0.02099933
134	0xbca0cf9d	-0.019630248
135	0xbca18e42	-0.019721154
136	0x3dfe5463	0.12418439
137	0x3e10ab2e	0.141278
138	0xbca29e84	-0.019850977
139	0x3d28f247	0.04124668
140	0x3d8fbff1	0.07019032
141	0xbcf7b0a4	-0.030235596
142	0x3d8ad36b	0.06778606
143	0x3e7364cf	0.23768924
144	0xbd9f4d58	-0.07778424
145	0xbdecf8f3	-0.11570921
146	0x3db07d74	0.08617678
147	0x3d30165b	0.04299007
148	0xbe010009	-0.1259767
149	0x3e30ad73	0.17253666
150	0x3c9fe37b	0.01951765
151	0x3d4d45e7	0.050115492
152	0x3dfff0ec	0.12497124
153	0x3df5a1e6	0.1199377
154	0x3df99d2a	0.1218818
155	0x3dcb80fa	0.0993671
156	0x3d896894	0.067094
157	0x3d97d680	0.074139595
158	0x3c034b26	0.008013522
159	0x3c4994d4	0.01230355
160	0x3d3603a7	0.044437077
161	0x3c3c21d7	0.011482677
162	0xbded41c2	-0.11584808
163	0xbce96b81	-0.028493645
164	0x3c6a1005	0.014286046
165	0x3e047efc	0.12939066
166	0x3da71738	0.081587255
167	0x3d34f5ba	0.044179656
168	0xbcc81595	-0.024424354
169	0x3d34e8d0	0.04416734
170	0x3c84e88a	0.016224165
171	0x3e09ae39	0.13445367
172	0x3e07c248	0.13257706
173	0x3e5514f3	0.20808773
174	0x3e4ab63e	0.19796082
175	0x3d7abc0f	0.061214503
176	0x3d568c09	0.05237964
177	0x3e353e17	0.17699467
178	0x3e24c2e7	0.16089974
179	0x3ce1deb8	0.02757202
180	0x3baf7f1e	0.0053557297
181	0x3e0bb59d	0.13643499
182	0x3e4f6a01	0.20255281
183	0x3c71be49	0.01475484
184	0x3ddb9020	0.10720849
185	0x3dff1b9f	0.1245644
186	0x3e1d1904	0.15341574
187	0x3c636885	0.0138799
188	0x3df11bc0	0.11772871
189	0x3bc846da	0.006111962
190	0xbcd3d7bb	-0.025859704
191	0xbe4c2cd9	-0.19938983
192	0xbe681fe0	-0.2266841
193	0xbd96b6cc	-0.073590845
194	0xbe92ba93	-0.2865797
195	0xbdec4f15	-0.11538521
196	0xbe532204	-0.20618445
197	0xbde9f36f	-0.114233844
198	0x3e5474a9	0.20747627
199	0x3d5223eb	0.051303785
200	0xbe813bc0	-0.25240898
201	0x3e590cfd	0.21196361
202	0x3df752f7	0.12076371
203	0xbe45a91e	-0.19302794
204	0x3e3b29ce	0.18277666
205	0x3d494a01	0.04914284
206	0xbea16a33	-0.31526336
207	0x3de3f7aa	0.111312225
208	0x3df86a6b	0.121296726
209	0x3e171d22	0.14757207
210	0x3e8ef2ac	0.2791952
211	0x3e99a370	0.30007505
212	0x3f038c52	0.51385987
213	0x3d733500	0.059376717
214	0x3dcbd75c	0.09953186
215	0x3e6121b7	0.21985517
216	0xbe91ba01	-0.28462222
217	0xbee31aaf	-0.44356295
218	0xbefad9cc	-0.4899429
219	0xbe9c9009	-0.3057864
220	0xbef6751d	-0.48136225
221	0xbf1857da	-0.5950905
222	0xbe17525e	-0.14777514
223	0xbe87dad9	-0.26534155
224	0xbe705365	-0.23469312
225	0xbd16c59e	-0.036809556
226	0xbd85d360	-0.06534457
227	0x3b00c272	0.0019647148
228	0xbca554a9	-0.02018197
229	0xbba92409	-0.0051617664
230	0xbcf26b9a	-0.029592324
231	0x3ca102c6	0.019654643
232	0xbda32604	-0.07966235
233	0xbda2abc9	-0.07942922
234	0x3def4b61	0.11684299
235	0x3ddea9a1	0.10872198
236	0x3e3604e9	0.1777531
237	0x3e892c5d	0.2679166
238	0x3ebfc14e	0.37452167
239	0xbcfe620d	-0.031052614
240	0x3e815db0	0.2526679
241	0x3ec32b8b	0.38119158
242	0xbe03055a	-0.1279501
243	0xbe060f0d	-0.13091679
244	0xbe72b7dc	-0.2370295
245	0xbdb970da	-0.09054728
246	0x3d5ffcaf	0.054684337
247	0x3d8042f1	0.06262768
248	0xbcb8289e	-0.022480305
249	0xbd9c6a32	-0.07637443
250	0x3d795a5c	0.06087719
251	0x3df397a4	0.118941575
252	0x3d1689d6	0.036752544
253	0x3d9b9e2d	0.07598529
254	0x3dd20e31	0.10256613
255	0x3e7ca875	0.24673636

encoder.encoder.1.conv.bias f4 [32]
0	0x3dd038d5	0.1016709
1	0x3d96196c	0.073290676
2	0xbd881404	-0.06644443
3	0x3c89e4d7	0.016832752
4	0x3d9011d2	0.07034649
5	0x3e1c50dd	0.15265222
6	0xbcf78e62	-0.03021926
7	0xbc0d40f2	-0.008621441
8	0x3d2ed6be	0.042685263
9	0xbcbd6ce4	-0.023123212
10	0x3ccfb487	0.025354637
11	0x3b8ef752	0.004362979
12	0x3df486e3	0.1193979
13	0xbc140497	-0.009034297
14	0x3dc69fba	0.09698434
15	0x3da3522a	0.07974656
16	0xbbc30ba3	-0.005952315
17	0xbccc2059	-0.024917768
18	0xbc851e97	-0.016249938
19	0xbd160197	-0.03662261
20	0x3e216076	0.15759453
21	0x3b564134	0.0032692673
22	0x3d211497	0.039326277
23	0xbde9b981	-0.11412335
24	0x3c0bdd9a	0.008536721
25	0x3c5c5ea1	0.013450296
26	0x3e0026d8	0.12514818
27	0xbd0c53ed	-0.034259725
28	0x3c942f57	0.01808898
29	0x3ddf7da9	0.1091264
30	0xbd828b74	-0.06374255
31	0xbe04dba3	-0.1297441

encoder.encoder.2.conv.weight f4 [32, 32, 3, 3]
0	0x3d3c2095	0.04592951
1	0xbe6324fa	-0.22182074
2	0x3e1144ca	0.14186397
3	0x3d68e021	0.05685437
4	0xbd4056ef	-0.046957906
5	0x3e55c0ad	0.20874281
6	0xbd807be8	-0.06273633
7	0xbe1b5b30	-0.15171504
8	0x3ca486d0	0.020083815
9	0x3db5e85a	0.08882208
10	0xbd4fc1bc	-0.05072187
11	0x3e759646	0.23983106
12	0xbe1bcd2a	-0.15214983
13	0xbe471994	-0.19443351
14	0xbe15774a	-0.14596286
15	0xbe7e16c7	-0.24813376
16	0xbe13bce4	-0.14427525
17	0xbb2bf140	-0.0026236326
18	0x3c869f45	0.016433368
19	0xbd896715	-0.067091145
20	0xbd8175e4	-0.06321314
21	0x3d06f699	0.032950018
22	0x3e2e1777	0.17001139
23	0x3e008a37	0.12552725
24	0x3dfe7e2b	0.124264084
25	0x3e4ae586	0.19814119
26	0x3e1cb105	0.15301903
27	0xbc82f483	-0.015985733
28	0xbd6624ae	-0.056187324
29	0x3d60785f	0.054802295
30	0xbc122641	-0.008920253
31	0xbd15f28e	-0.03660827
32	0xbceaf92d	-0.02868327
33	0x3c9e80c3	0.019348508
34	0xbc4d6eaa	-0.012538591
35	0xbb2c15ee	-0.0026258188
36	0x3e5fa731	0.21841122
37	0x3e422fa0	0.1896348
38	0x3d2ae956	0.041726433
39	0xbd60092d	-0.05469625
40	0xbc0d7f04	-0.00863624
41	0x3dcd06e5	0.10011081
42	0x3c9d0986	0.01916958
43	0xbd6eac00	-0.0582695
44	0xbd36fc0c	-0.044673964
45	0x3e19c48b	0.15016381
46	0xbd00471a	-0.031317808
47	0x3e137a5b	0.14402144
48	0xbca78f68	-0.020454124
49	0xbe938a20	-0.2881632
50	0xbd0e964e	-0.03481131
51	0x3cb7a62c	0.022418104
52	0xbeb102c8	-0.34572434
53	0xbe1e5f0e	-0.15465948
54	0x3cea8a1c	0.028630309
55	0xbca3288a	-0.019916791
56	0x3d62fbba	0.055415846
57	0x3c042696	0.00806584
58	0x3cac3557	0.021021528
59	0x3d1f8bd0	0.038951695
60	0x3bdca743	0.0067338063
61	0xbd9e9023	-0.07742336
62	0x3b88a6d0	0.004170276
63	0xbd01474b	-0.03156213
64	0xb9264147	-0.00015855311
65	0xbd93764d	-0.072002985
66	0xbc96f154	-0.018425621
67	0xbcb50f52	-0.022102032
68	0xbcc496ae	-0.02399763
69	0xbc68ad72	-0.014201509
70	0xbbf4af33	-0.0074671744
71	0xbd8c7f25	-0.068601884
72	0xbb193093	-0.00233749
73	0xbd262974	-0.040566877
74	0x3cb336a2	0.021876637
75	0x3d361443	0.044452917
76	0xbd0b804d	-0.034057904
77	0x3d283afc	0.041071877
78	0x3cd0b3bc	0.025476329
79	0xbcab0588	-0.020876661
80	0xbd46a9c8	-0.04850176
81	0xbd683eae	-0.0567004
82	0x3c34cd2e	0.011035247
83	0x38567c81	5.113753e-05
84	0xbd08ae9d	-0.03336965
85	0xbc88acff	-0.016684053
86	0xbdc50e15	-0.096218266
87	0x3d142a5e	0.036173217
88	0xbc9b704f	-0.018974451
89	0xbcc8a67b	-0.024493447
90	0xbcb39545	-0.021921763
91	0x3de6d3e0	0.11270881
92	0x3df82c7c	0.1211786
93	0xbe5a8c43	-0.21342568
94	0x3ce3c987	0.027806057
95	0xbdd45cb1	-0.10369242
96	0x3c4b5901	0.012411357
97	0x3e0d71e1	0.13812973
98	0xbd1ecd0a	-0.03876976
99	0x3dbbb33b	0.09165045
100	0xbe3f4ec1	-0.18682386
101	0xbeb1210d	-0.34595528
102	0x3d8bbe0f	0.0682336
103	0xbe363567	-0.17793809
104	0xbe6d1d0d	-0.23155613
105	0xbca125d1	-0.019671353
106	0xbed677bd	-0.41888228
107	0xbe495e80	-0.19664955
108	0x3e45326f	0.1925752
109	0x3d95f568	0.07322198
110	0x3defbafb	0.117055856
111	0xbe558fc5	-0.20855625
112	0xbe2998c5	-0.16562183
113	0xbe25f0b4	-0.16205102
114	0xbd959a20	-0.07304788
115	0xbe00c76b	-0.12576072
116	0x3d357e4c	0.0443099
117	0x3da1c8bc	0.07899615
118	0x3c830e36	0.015997987
119	0x3e4a2c03	0.19743352
120	0xbd013bdc	-0.031551227
121	0xbb60db9f	-0.0034310592
122	0xbd5ba620	-0.053625226
123	0x3d2841d5	0.041078407
124	0x3e249453	0.16072206
125	0xbdd6e8d1	-0.10493625
126	0xbc545f69	-0.012962201
127	0xbe88d590	-0.26725435
128	0x3c8768d6	0.016529482
129	0xbd4f27f2	-0.050575204
130	0xbe765b5b	-0.24058287
131	0x3e300d84	0.17192656
132	0xbbdb84b3	-0.0066991686
133	0xbdb6f462	-0.08933331
134	0x3e1da237	0.15393911
135	0x3dc3eeb0	0.095670104
136	0x3e0c5b92	0.13706806
137	0x3bf9767a	0.0076130005
138	0xbe333645	-0.17501171
139	0xbe6c8158	-0.23096216
140	0xbc1baa6b	-0.00950108
141	0x3dbe4d56	0.092920944
142	0x3d08fe01	0.033445362
143	0x3dd21fa8	0.10259944
144	0xbd443f4d	-0.04791193
145	0xbd899b81	-0.06719113
146	0xbd85724e	-0.065159425
147	0x3d3bc3f2	0.045841165
148	0xbd55294c	-0.052041337
149	0xbc9efe5b	-0.019408396
150	0x3ce1831f	0.027528344
151	0x3d0edfdd	0.03488146
152	0xbd21cbc2	-0.03950096
153	0xbdf2446d	-0.118294574
154	0xbd94987d	-0.07255647
155	0xbd6c51f3	-0.05769534
156	0xbd95557d	-0.07291696
157	0xbda1d8ce	-0.0790268
158	0xbb68bdda	-0.003551355
159	0x3ceb4ab8	0.028722152
160	0x3c2d9b2f	0.010596081
161	0xbdd85df8	-0.10564798
162	0x3de0c7b5	0.10975591
163	0xb991cb51	-0.00027808038
164	0xbc0a0a2d	-0.008425278
165	0x3d5c0f53	0.05372555
166	0x3e7fb292	0.24970463
167	0x3e9383b7	0.28811428
168	0xbe444fbb	-0.1917104
169	0x3e5213e1	0.20515396
170	0x3eb7d250	0.35902643
171	0xbd37a759	-0.04483733
172	0x3d2f564e	0.042806916
173	0xbe081b77	-0.13291727
174	0xbe6cf473	-0.23140125
175	0xbd1ff7d1	-0.039054696
176	0xbd33e529	-0.043919716
177	0xbd0fedeb	-0.035139006
178	0x3dfd5159	0.123690315
179	0x3c74b994	0.014936823
180	0x3ce27f56	0.02764861
181	0x3da42185	0.08014206
182	0x3dfb5fa4	0.122741014
183	0xbd5958f6	-0.053063355
184	0xbde0706c	-0.10958943
185	0x3e179b7d	0.14805408
186	0xbcc0c527	-0.02353151
187	0x3dcf8bb9	0.10134072
188	0x3dcb6141	0.09930659
189	0xbcfb3f1e	-0.030669745
190	0xbd73356d	-0.059377123
191	0x3d11abf9	0.035564397
192	0x3d1c023d	0.038088072
193	0xbd5ab3e2	-0.053394206
194	0x3ce290ad	0.027656877
195	0xbd0aa687	-0.03385022
196	0x3cd83295	0.026391307
197	0x3c92361c	0.017848067
198	0x3e424783	0.18972592
199	0x3e8ed77a	0.2789877
200	0x3e72c359	0.23707332
201	0x3d677bac	0.056514427
202	0xbd16e460	-0.03683889
203	0x3c739e39	0.014869266
204	0x3e1f83cb	0.15577619
205	0xbdfbfb00	-0.12303734
206	0x3c9fada4	0.019491978
207	0xbd54627f	-0.051851746
208	0xbd92b21a	-0.071628764
209	0xbc3cfd0e	-0.011534942
210	0xbd220b10	-0.03956133
211	0xbb895d1d	-0.004192008
212	0xbc2f59d3	-0.010702568
213	0xbd82e629	-0.06391556
214	0xbdf65184	-0.120272666
215	0x3c2eeb9c	0.010676291
216	0xbd11f5c9	-0.03563479
217	0xbd7bed91	-0.061505858
218	0x3d0fb594	0.035085276
219	0x3c3aa069	0.011390784
220	0xbcb08d6e	-0.021551814
221	0xbd2c4407	-0.042057063
222	0xbda94dca	-0.0826679
223	0xbc20b91a	-0.009809757
224	0xbb38f798	-0.002822375
225	0x3d7cc34f	0.0617097
226	0x3d7e167e	0.06203317
227	0x3e3cd9b9	0.1844243
228	0x3db98f75	0.090605654
229	0x3e767755	0.24068959
230	0x3e8ccdd9	0.275008
231	0xbadcf66a	-0.0016858105
232	0x3e880c8d	0.26572075
233	0x3d01fd3a	0.031735636
234	0x3e065918	0.13119924
235	0x3de0dffb	0.10980221
236	0x3e1d864d	0.15383263
237	0xbde3d3f3	-0.111244105
238	0x3d32fb29	0.043696556
239	0x3d386166	0.04501476
240	0x3d73b0b6	0.059494697
241	0x3d57e180	0.052705288
242	0x3e47afa6	0.19500598
243	0xba957c06	-0.001140476
244	0x3d877deb	0.06615814
245	0xbe652106	-0.22375879
246	0xbd9bbb60	-0.07604098
247	0xbebce3cd	-0.36892548
248	0x3c909345	0.017648349
249	0xbe7ba9a6	-0.24576434
250	0x3defcc2c	0.117088646
251	0xbd0a6562	-0.033788092
252	0x3cbf6369	0.023362832
253	0xbd8b9be6	-0.06816845
254	0xbd648f65	-0.055800814
255	0xbea36923	-0.3191615

encoder.encoder.2.conv.bias f4 [32]
0	0xbe6384dc	-0.2221865
1	0x3cf5aa38	0.029988393
2	0xbe8a0bb7	-0.26962063
3	0xbd70d300	-0.058794975
4	0xbd306a3e	-0.04307007
5	0x3da1d284	0.07901481
6	0xbdedceca	-0.116117075
7	0x3c8d1fd5	0.017227093
8	0xbe05cd77	-0.1306666
9	0x3e8a4254	0.2700373
10	0xbced9200	-0.029000282
11	0xbeb20f45	-0.34777275
12	0x3e09fdbe	0.13475701
13	0x3d1472a0	0.036242127
14	0xbe986bf4	-0.29769862
15	0x3c43b20d	0.011944306
16	0x3d43dcab	0.047817867
17	0x3d9a4dc3	0.07534363
18	0xbd071cbd	-0.03298639
19	0xbdcd4c82	-0.10024358
20	0xbea60e7d	-0.3243293
21	0x3bfe2fbf	0.0077571566
22	0xbdcb756b	-0.09934505
23	0x3e1b87cc	0.15188521
24	0x3d118aae	0.035532646
25	0xbe805ae8	-0.25069356
26	0xbc4f0626	-0.012635743
27	0xbe277ecb	-0.16356961
28	0x3e2c7149	0.1684009
29	0xbba43921	-0.005011693
30	0x3dd33c90	0.10314286
31	0x3dcef59c	0.1010544

encoder.encoder.3.conv.weight f4 [10, 32, 3, 3]
0	0xbc01e0c7	-0.007927126
1	0x3e5e6c2f	0.21720956
2	0xbdf7bfc9	-0.12097127
3	0x3ddbc351	0.10730613
4	0xbdc32bbe	-0.095298275
5	0xbe2d164b	-0.16903035
6	0xbda8f824	-0.08250454
7	0xbdfac2d9	-0.122441955
8	0xbd80e38f	-0.06293403
9	0x3d19eb3d	0.037577856
10	0x3ca34a72	0.01993296
11	0x3cdf99ca	0.027295012
12	0x3d871a5e	0.06596826
13	0xbd00bba8	-0.031428963
14	0x3d86ec4b	0.06588038
15	0xbd349c9e	-0.044094674
16	0x3cb4541a	0.022012759
17	0xbb0c01e4	-0.0021363432
18	0xbe374727	-0.17898236
19	0x3d832eff	0.06405448
20	0xbe837217	-0.2567298
21	0xbd250ac7	-0.04029348
22	0xbde8a239	-0.113590665
23	0x3c65fbb6	0.014037063
24	0x3e12b366	0.14326248
25	0x3d19a1ef	0.037507948
26	0xbe1d2b4a	-0.15348545
27	0x3cfe1129	0.031014042
28	0xbd04c5c1	-0.032415155
29	0xbd2c4afc	-0.0420637
30	0x3c3d9cec	0.011573058
31	0xbda73250	-0.08163893
32	0xbcc4d1da	-0.024025846
33	0xbbd45d35	-0.0064808377
34	0xbcae4860	-0.021274745
35	0xbb60c0e7	-0.0034294666
36	0x3be6a7f8	0.0070390664
37	0x3daf8543	0.085703395
38	0x3d923384	0.07138732
39	0x3bee1e7e	0.0072668185
40	0xbd68fa44	-0.056879297
41	0xbca78f8c	-0.02045419
42	0x3cd69b7d	0.02619719
43	0x3be097ad	0.0068540187
44	0x3d845fe5	0.06463603
45	0x3bc12a85	0.0058949613
46	0x3caccdf2	0.021094296
47	0x3d40269a	0.046911813
48	0xbdd4f40d	-0.103981115
49	0xbd262597	-0.040563192
50	0xbd2dad57	-0.042401638
51	0x3b989f2b	0.004657646
52	0x3c0cd4cb	0.008595656
53	0x3e784f47	0.24248992
54	0xbcb97b61	-0.02264184
55	0x3c7043d4	0.014664609
56	0xbd27dac6	-0.040980123
57	0x3c21a26c	0.009865385
58	0x3d6477db	0.055778366
59	0xbc6d17fd	-0.014471051
60	0xbdb9eb32	-0.09078063
61	0x3d5267df	0.05136859
62	0xbd436434	-0.047702983
63	0xbdd1c738	-0.10243076
64	0xbe923e6f	-0.28563258
65	0x3e2d270e	0.1690943
66	0x3cd52fb1	0.026023718
67	0xbe415a70	-0.18882155
68	0x3c188565	0.0093091475
69	0xbd5ea65b	-0.054357868
70	0x3ea91b67	0.3302872
71	0xbe116b21	-0.14201023
72	0x3d83684e	0.06416379
73	0xbb17fee4	-0.0023192698
74	0x3dff3c87	0.124627165
75	0x3c7ae67d	0.015313742
76	0xbd0b797e	-0.03405141
77	0xbda0535d	-0.078284
78	0x3c926f8c	0.017875455
79	0x3e6154c1	0.22004987
80	0x3e70787b	0.2348346
81	0xba7d0272	-0.00096515485
82	0x3d69bc56	0.057064377
83	0xbc6e1baa	-0.014532963
84	0xbc949a4b	-0.018139979
85	0x3e0be36a	0.1366097
86	0x3e2a7f36	0.1665009
87	0x3c732bc3	0.014841977
88	0xbaeb0742	-0.001793124
89	0xbd8816a3	-0.066449426
90	0xbd6f2c01	-0.058391575
91	0x3b8f83be	0.0043797186
92	0x3e6e10fe	0.2324867
93	0x3e89df70	0.26928282
94	0x3e64733b	0.22309582
95	0xbe1c1c8b	-0.15245263
96	0x3e6b1eea	0.22961012
97	0x3d2ffa51	0.04296333
98	0xbe4d2afe	-0.20035931
99	0xbd5062d4	-0.0508755
100	0x3dd653c5	0.104651965
101	0x3c114345	0.008866136
102	0xbdb796e6	-0.089643285
103	0xbda71e50	-0.081600785
104	0xbc0174e6	-0.007901406
105	0x3e00c2b1	0.12574269
106	0x3ddab68c	0.10679349
107	0x3d5bf3c9	0.05369929
108	0xbce79d9f	-0.028273402
109	0x3e10fbd5	0.14158566
110	0x3e32f847	0.17477523
111	0xbbccbbb6	-0.006247963
112	0x3c214258	0.009842478
113	0x3d25ce71	0.04048008
114	0xbd8bf78e	-0.06834327
115	0xbcb6bad9	-0.022305893
116	0x3d0c18d7	0.034203377
117	0x3d476ad8	0.04868588
118	0xbc8efab0	-0.017453521
119	0xbcc6af3a	-0.024253476
120	0x3d0c3128	0.034226567
121	0x3c52f362	0.01287541
122	0xbc016ddd	-0.007899729
123	0x3d7f62ea	0.06235019
124	0x3d1dac66	0.03849449
125	0x3afd3e9e	0.001932103
126	0xbe668350	-0.22511029
127	0xbe873dfd	-0.2641448
128	0x3dc6a150	0.09698737
129	0xbca58900	-0.020206928
130	0xbdcf9cdb	-0.1013734
131	0x3e1e4432	0.15455702
132	0x3d35ea76	0.044413052
133	0x3eb52094	0.35376418
134	0xbd9fc304	-0.07800868
135	0x3b8f3d38	0.0043713115
136	0xbd2d7061	-0.0423435
137	0x3d58198c	0.05275874
138	0x39f4124c	0.0004655294
139	0x3d30aa4a	0.04313115
140	0x3d936f34	0.07198945
141	0xbc5ba8c5	-0.013406937
142	0x3c22be7a	0.009933108
143	0x3c66791e	0.0140669625
144	0xbd02e2b8	-0.031954497
145	0xbdfbb968	-0.12291223
146	0x3da68c1a	0.08132191
147	0x3e14ff96	0.14550623
148	0xbcf75d7b	-0.030195942
149	0x3cf2341d	0.029565865
150	0x3dd8b80d	0.1058198
151	0xbe89b111	-0.26892903
152	0x3d52b5cd	0.05144291
153	0xbd0aaa3a	-0.033853747
154	0x3d164348	0.03668526
155	0x3d1982ea	0.037478365
156	0xbe421d65	-0.18956526
157	0x3ebb87bb	0.36626992
158	0xbd3760eb	-0.044770163
159	0x3e4f7f09	0.20263304
160	0x3d64f616	0.05589875
161	0x3eb1f2a6	0.3475544
162	0x3d479252	0.048723526
163	0x3b17d86c	0.002316977
164	0x3e1b1204	0.15143591
165	0x3cb22575	0.021746377
166	0xbe2aff09	-0.1669885
167	0xbe0d552f	-0.13802026
168	0x3e1d9528	0.1538893
169	0x3ded44a3	0.11585357
170	0xbe4b8d30	-0.19878078
171	0x3ce4a463	0.027910417
172	0xbcd09c07	-0.025465025
173	0x3c517dc4	0.0127863325
174	0xbd255755	-0.04036649
175	0xbd325b35	-0.043544013
176	0xbc73d732	-0.0148828495
177	0xbda2a263	-0.07941129
178	0x3d1c7f2c	0.038207218
179	0x396c3d35	0.00022529515
180	0xbe86b6dc	-0.26311386
181	0xbeb3ad4d	-0.35093156
182	0x3edbfc60	0.42965984
183	0xbd5e7cc1	-0.054318193
184	0x3e02b92a	0.12765947
185	0xbdaa27a5	-0.08308343
186	0xbd48f6be	-0.049063437
187	0x3e587cad	0.2114131
188	0xbf101f5d	-0.56297857
189	0xbcaf8060	-0.021423519
190	0x3dd9b60e	0.10630427
191	0x3d841d65	0.06450919
192	0x3dc45a49	0.09587533
193	0x3daccff0	0.084380984
194	0x3c02841c	0.007966068
195	0x3dd62db3	0.10457935
196	0x3db68a25	0.08913068
197	0xbde03809	-0.10948188
198	0xbdeb8d13	-0.11501517
199	0xbdab0867	-0.08351212
200	0xbde5cde7	-0.112209134
201	0x3d211bd9	0.0393332
202	0xbd12e138	-0.035859317
203	0x3b3795ff	0.0028012989
204	0x3da86bab	0.08223661
205	0x3da2c052	0.079468384
206	0xbe206ff0	-0.15667701
207	0xbda346c9	-0.079724856
208	0xbd33d28c	-0.043901965
209	0x3de4b64a	0.111675814
210	0xbe22cd73	-0.15898685
211	0xbcabec2b	-0.020986637
212	0x3d424034	0.04742451
213	0xbd348328	-0.044070393
214	0x3c865ee0	0.016402662
215	0xbe39697b	-0.18106644
216	0x3d7d3055	0.06181367
217	0xbdc2dad3	-0.09514394
218	0xbdeefe0f	-0.116695516
219	0xbe63f85c	-0.2226271
220	0xbddc1293	-0.1074573
221	0xbe5bb203	-0.21454625
222	0x3e245c98	0.16050947
223	0x3da52306	0.08063321
224	0x3dd730cf	0.105073564
225	0x3c90801e	0.017639216
226	0xbc1a4eea	-0.009418229
227	0xbded5581	-0.11588574
228	0xbd990aa2	-0.07472731
229	0x3d45e489	0.04831365
230	0x3cab606d	0.020920003
231	0xbe2e2453	-0.17006044
232	0x3d48f221	0.049059037
233	0x3d2845b1	0.041082088
234	0x3c85ac69	0.016317563
235	0x3d90f3d2	0.07077755
236	0x3d80deed	0.0629252
237	0x3c934fe8	0.017982438
238	0x3cb9c2ad	0.022675836
239	0xbcc40e23	-0.023932522
240	0xbd05e8ea	-0.032692827
241	0x3d1507da	0.03638444
242	0x3d6c633a	0.057711817
243	0xbc26a703	-0.010171655
244	0xbd00c79c	-0.031440362
245	0xbc3fa207	-0.011696345
246	0xbc871953	-0.016491568
247	0x3e056959	0.13028468
248	0x3d3d8887	0.04627278
249	0xbd22e641	-0.03977037
250	0x3bb6a4d5	0.0055738487
251	0x3e3a48cb	0.18191831
252	0xbbf59da0	-0.007495597
253	0x3dba20dd	0.090882994
254	0xbdad9c4e	-0.084770784
255	0xbd992feb	-0.07479843

encoder.encoder.3.conv.bias f4 [10]
0	0x3e5d1040	0.2158823
1	0x3e995dca	0.29954368
2	0x3e9b3517	0.30313942
3	0x3eba2ce5	0.36362377
4	0x3e873f88	0.26415658
5	0x3e8f3a16	0.27974004
6	0x3e89190c	0.26776922
7	0x3eb83c76	0.35983628
8	0x3e47b725	0.19503458
9	0x3e7513d3	0.23933344

decoder.decoder.0.dconv.weight f4 [10, 32, 3, 3]
0	0x3e024a53	0.12723665
1	0xbe72ff41	-0.23730184
2	0xbe7893df	-0.24275158
3	0xbdaf1ad4	-0.08550039
4	0xbe42abbb	-0.19010822
5	0x3ec7535e	0.38930792
6	0x3dea5c07	0.11443334
7	0xbed889ad	-0.42292538
8	0x3ef3d613	0.47624263
9	0xbd720350	-0.05908519
10	0x3b8f2d50	0.0043694153
11	0x3e4edb37	0.20200811
12	0xbe551ca3	-0.20811705
13	0xbe361aff	-0.17783736
14	0xbe971b6c	-0.2951311
15	0x3e57ceb3	0.21074943
16	0x3f12bb4e	0.57317054
17	0xbe8a71f2	-0.27040058
18	0xbe758770	-0.23977447
19	0xbd7c79cb	-0.06163959
20	0x3e2ba4db	0.16762106
21	0xbe804c2f	-0.25058123
22	0xbcb705e8	-0.022341684
23	0x3f050998	0.51967764
24	0xbc13eed7	-0.009029112
25	0xbe1e8d7a	-0.15483657
26	0xbe553268	-0.2082001
27	0x3d5c0c3f	0.053722616
28	0xbc8c97eb	-0.017162284
29	0x3dd7e0d4	0.105409294
30	0xbe57f2db	-0.21088736
31	0x3ddf06be	0.10889958
32	0x3e72cc3a	0.23710719
33	0xbd252b0a	-0.04032425
34	0x3e11bfd1	0.14233328
35	0xbe32407b	-0.1740741
36	0x3d94f5ba	0.07273431
37	0x3c6ac2c5	0.014328663
38	0x3ca217c5	0.019786725
39	0x3d2ffdcb	0.042966645
40	0x3e81668e	0.25273556
41	0x3d447764	0.047965422
42	0x3ea3e173	0.32007942
43	0xbdcb4adc	-0.09926388
44	0x3ec33042	0.38122755
45	0xbda805da	-0.08204241
46	0xbde30873	-0.11085596
47	0xbea623b3	-0.3244911
48	0x3e4389c0	0.19095516
49	0x3c51e6c2	0.012811365
50	0xbe559fdb	-0.20861761
51	0xbe9aed9a	-0.302594
52	0x3e71b37e	0.23603627
53	0x3e78a150	0.24280286
54	0x3ddf9945	0.10917906
55	0x3e1a7e4a	0.15087238
56	0xbd35788b	-0.04430441
57	0xbe888c52	-0.26669556
58	0xbd569dab	-0.052396458
59	0x3e8ba03d	0.2727069
60	0xbe12178e	-0.14266798
61	0x3e7046fe	0.23464581
62	0xbdf5c607	-0.12000661
63	0xbda5295e	-0.08064531
64	0xbe244e9c	-0.16045612
65	0x3d7bea2f	0.06150263
66	0xbc87bef0	-0.016570538
67	0xbdac0f2a	-0.0840133
68	0x3dc12d2e	0.094324455
69	0xbe794455	-0.24342473
70	0xbe9f4399	-0.3110626
71	0x3e07912d	0.13238974
72	0xbdc8849c	-0.09790918
73	0x3c4d8d9f	0.012545972
74	0xbd4cb0dc	-0.049973354
75	0x3b88412e	0.0041581606
76	0xbd190a29	-0.037363205
77	0xbdc6a4c9	-0.09699399
78	0xbef0ad90	-0.47007418
79	0xbd9212ff	-0.071325295
80	0x3d249c09	0.04018787
81	0x3d9ca4f4	0.0764865
82	0x3ddbe37e	0.1073675
83	0x3e9083b1	0.28225473
84	0xbdd41e4a	-0.1035734
85	0x3d4363be	0.047702543
86	0x3edc4acc	0.43025815
87	0x3dd6ddc2	0.10491516
88	0xbe10b801	-0.14132692
89	0x3e8836be	0.26604265
90	0x3d7bf6b5	0.061514575
91	0x3c149cbe	0.009070573
92	0x3d46ec76	0.04856535
93	0xbd79efb4	-0.061019614
94	0xbec57e62	-0.38572985
95	0xbe91044b	-0.28323588
96	0xbe05820d	-0.13037892
97	0x3d5aaa16	0.053384863
98	0x3f1ed099	0.62037045
99	0x3e5fbe6c	0.21849984
100	0xbdf6b8f9	-0.120469995
101	0x3e12f823	0.14352469
102	0x3d42022c	0.047365353
103	0xbdfa63f3	-0.12226095
104	0xbe9405b9	-0.28910616
105	0xbc22b136	-0.009929946
106	0x3e383e4b	0.17992513
107	0xbe0a4da9	-0.13506187
108	0x3df4d14a	0.11953981
109	0xbd9ce1cb	-0.07660254
110	0x3d96643e	0.073433384
111	0xbe540abd	-0.20707221
112	0xbfa208df	-1.2658957
113	0x3ebc4bf9	0.36776713
114	0x3d0359d4	0.03206809
115	0xbc7f4c61	-0.015582175
116	0x3f1d9798	0.6155944
117	0x3d378f9d	0.044814695
118	0xbd02c090	-0.031921923
119	0x3d10438d	0.03522067
120	0x3e2cc8dd	0.16873498
121	0xbc989908	-0.018627658
122	0xbef0b1b7	-0.47010586
123	0x3ce52e1a	0.027976085
124	0xbc42f908	-0.011900194
125	0xbc23b9e1	-0.009993047
126	0xbc8fa09d	-0.017532641
127	0x3e43aefe	0.19109723
128	0xbc171896	-0.00922217
129	0x3dc128e6	0.09431629
130	0x3dc2d4a8	0.09513217
131	0x3db2d0b5	0.08731214
132	0xbe22d74f	-0.15902446
133	0xbeb34373	-0.35012397
134	0xbf17c777	-0.59288734
135	0x3da8adf2	0.082363024
136	0x3ea9e43d	0.33181944
137	0x3dbb3c9f	0.09142422
138	0x3e433919	0.1906475
139	0xbe286314	-0.16444045
140	0x3d871677	0.06596082
141	0xbd95b56d	-0.07309995
142	0xbe2da4bc	-0.16957372
143	0xbe8fa082	-0.28052145
144	0xbb6c67c6	-0.0036072596
145	0xbe0871e9	-0.13324703
146	0x3cfa7220	0.030571997
147	0xbdf46b01	-0.11934472
148	0xbe0de51c	-0.1385693
149	0x3e50c46b	0.20387428
150	0x3eb6df9d	0.35717478
151	0xbc575894	-0.013143677
152	0x3cf2b6a4	0.029628105
153	0xbdfe9a3b	-0.12431761
154	0xbd8899fb	-0.066699944
155	0x3d57dbfb	0.052700024
156	0xbb8f1040	-0.004365951
157	0xbda5d627	-0.08097487
158	0x3cd1ddfa	0.025618542
159	0x3c89f19b	0.01683884
160	0x3c917c16	0.017759364
161	0xbe296098	-0.16540754
162	0x3dd339d7	0.103137664
163	0xbd2bbdf2	-0.041929193
164	0x3d9519c8	0.07280308
165	0xbdf64166	-0.120241925
166	0xbed385f5	-0.4131314
167	0xbddd2be8	-0.1079939
168	0xbe91f469	-0.28506783
169	0x3e8a7684	0.27043545
170	0x3e0c56c1	0.13704969
171	0xbd8df834	-0.069321066
172	0xbe60b761	-0.21944954
173	0x3ec494d9	0.38394812
174	0xbceca1be	-0.028885718
175	0xbe28a399	-0.16468658
176	0x3e56ed26	0.20988902
177	0xbdd3b791	-0.10337747
178	0xbd26436e	-0.04059165
179	0x3ec0d1a6	0.3765995
180	0x3cfb10ae	0.030647602
181	0x3e0a868c	0.13527888
182	0xbeaee373	-0.34157905
183	0x3d49a762	0.049231894
184	0xbed0840a	-0.40725738
185	0x3ebb0275	0.36525312
186	0x3d3d2b0a	0.046183623
187	0xbe3e798c	-0.18601054
188	0xbf025915	-0.5091718
189	0xbde0677c	-0.10957238
190	0xbe246b6c	-0.16056603
191	0xbe7e7f40	-0.2485323
192	0xbe63b2bd	-0.22236152
193	0xbd5eaffe	-0.054367058
194	0x3da23a88	0.0792132
195	0x3c2d38db	0.010572637
196	0x3e83a708	0.25713372
197	0x3e8c2f6b	0.27379927
198	0xbd691792	-0.056907244
199	0xbd34475b	-0.044013362
200	0xbcc73578	-0.024317488
201	0x3db743e2	0.089484945
202	0xbea501a4	-0.32227814
203	0x3e2e4da7	0.1702181
204	0x3e213145	0.15741451
205	0xbebb1ede	-0.36546987
206	0x3e916117	0.28394386
207	0xbd98d1c1	-0.074618824
208	0xbf03801d	-0.5136736
209	0x3e439abf	0.19102
210	0xbcd9dbbb	-0.026594033
211	0xbd71c022	-0.059021123
212	0x3f043798	0.5164733
213	0xbd57576a	-0.0525736
214	0xbe009391	-0.12556292
215	0x3e63b6e0	0.2223773
216	0x3ea24d72	0.3169971
217	0x3e930410	0.28714037
218	0xbd3ce8ec	-0.04612057
219	0x3db72977	0.08943456
220	0xbb76b0b7	-0.0037641951
221	0x3d368a4c	0.044565484
222	0x3e4c0612	0.1992419
223	0x3e9fe4e5	0.3122932
224	0x3ee84d16	0.45371312
225	0xbda2e66a	-0.07954104
226	0x3cd0a903	0.025471216
227	0x3ee922c7	0.45534346
228	0x3e8af14a	0.27137214
229	0xbf0c63e6	-0.5483993
230	0xbeddaefd	-0.43297568
231	0x3ec0f825	0.3768932
232	0xbc8a16fa	-0.01685666
233	0x3e3b90c0	0.18316936
234	0x3d5200d4	0.05127032
235	0xbab97ef4	-0.0014152215
236	0x3d0fbe01	0.03509331
237	0xbda36f90	-0.07980263
238	0xbf1e099b	-0.61733407
239	0x3e589455	0.21150334
240	0x3de55523	0.11197879
241	0x3d771024	0.060318127
242	0x3ecaca0b	0.39607272
243	0xbc76b83a	-0.0150585715
244	0x3d9dedf3	0.07711401
245	0xbe06318c	-0.13104838
246	0xbdbc154d	-0.0918375
247	0xbd0224a8	-0.03177324
248	0x3e6eb326	0.23310527
249	0x3cc84130	0.024445146
250	0x3d419401	0.04726029
251	0x3ce75699	0.028239535
252	0xbd3ba8ec	-0.045815393
253	0x3e1ca662	0.15297845
254	0xbccc977a	-0.024974573
255	0xbd116c04	-0.035503402

decoder.decoder.0.dconv.bias f4 [32]
0	0xbcf50622	-0.02991015
1	0x3edaea16	0.42756718
2	0x3e8aa242	0.27076918
3	0x3ca2a19f	0.019852458
4	0xbe5e57ad	-0.21713133
5	0x3dbec2ac	0.093144745
6	0xbdaddff3	-0.084899805
7	0x3c76cc01	0.015063287
8	0x3cc69545	0.0242411
9	0x3dfbc87c	0.12294099
10	0x3ed10c54	0.40829718
11	0x3e9d676f	0.30742976
12	0xbe70889a	-0.2348961
13	0xbede6690	-0.43437624
14	0x3e1cbc14	0.15306121
15	0x3d8aa1fd	0.06769178
16	0x3d35a213	0.04434402
17	0xbf423832	-0.75867
18	0x3eb79fb4	0.3586403
19	0x3e8170e9	0.25281456
20	0x3e43dca7	0.19127141
21	0xbe288060	-0.16455221
22	0x3c82d5b9	0.015971052
23	0xbd94ad0a	-0.07259567
24	0xbe014275	-0.12623008
25	0x3e0522c2	0.1300154
26	0xbe70c56e	-0.23512813
27	0xbe5d8e33	-0.21636276
28	0x3db1ff13	0.0869123
29	0x3d392693	0.045202803
30	0x3d196df9	0.037458394
31	0x3ea2ae60	0.31773663

decoder.decoder.1.dconv.weight f4 [32, 32, 3, 3]
0	0xbe44371f	-0.19161652
1	0x3e5d30a5	0.21600588
2	0xbcbe04f0	-0.023195714
3	0xbef35dc7	-0.47532484
4	0xbede581d	-0.434266
5	0x3ebdce4d	0.37071458
6	0x3e8c5956	0.27411908
7	0x3ec4e027	0.38452265
8	0x3e9baa21	0.30403236
9	0xbe8a0d57	-0.26963302
10	0xbe3e0236	-0.18555531
11	0xbdb1504c	-0.086578935
12	0xbed73489	-0.4203227
13	0xbee6bab8	-0.4506433
14	0xbf3e9d8b	-0.7445914
15	0x3d1b4c13	0.037914347
16	0xbe19af52	-0.15008286
17	0x3e3f6064	0.18689114
18	0xbe7337a6	-0.23751697
19	0xbcc7a3e7	-0.024370147
20	0xbdbbea33	-0.09175529
21	0x3eb495ee	0.35270637
22	0xbef4e781	-0.47832873
23	0xbde0e9fd	-0.1098213
24	0x3f0b2498	0.5435271
25	0x3e93045b	0.2871426
26	0xbb8afd2e	-0.004241607
27	0x3db864f1	0.09003628
28	0xbe31afb2	-0.17352179
29	0xbeb41400	-0.3517151
30	0x3dd7ac41	0.10530902
31	0xbeaf20c9	-0.342047
32	0x3d14831d	0.036257852
33	0x3c8b8493	0.01703099
34	0x3bcc4854	0.006234208
35	0xbe51f7bf	-0.20504664
36	0xbec8c7b1	-0.39214852
37	0xbd9f9534	-0.0779213
38	0x3e3d1a76	0.18467125
39	0xbdec5959	-0.11540479
40	0xbf01f42b	-0.50763196
41	0xbe27b76b	-0.16378562
42	0xbeed24fc	-0.4631728
43	0x3eadcef4	0.33946955
44	0x3edb9d8d	0.4289364
45	0x3e3cf566	0.18452987
46	0xbe437e3d	-0.19091125
47	0xbe5e47df	-0.21707104
48	0xbef03137	-0.46912548
49	0xbe6918a6	-0.22763309
50	0xbe913c5a	-0.28366357
51	0xbcef4fc2	-0.029212836
52	0x3e936ef2	0.28795582
53	0xbe369af2	-0.17832544
54	0xbd14f600	-0.036367416
55	0xbef30fac	-0.47472894
56	0xbe9d597c	-0.30732334
57	0xbe9fbef0	-0.3120036
58	0xbe3288f7	-0.1743506
59	0x3d966d0e	0.07345019
60	0xbdb46625	-0.08808545
61	0x3ea2674a	0.31719428
62	0x3e5a65ca	0.21327892
63	0xbec7e350	-0.39040613
64	0xbd89066b	-0.06690677
65	0x3d929ab4	0.071584135
66	0xbe2d3477	-0.16914545
67	0xbea60f93	-0.32433757
68	0xbe6d9c23	-0.23204093
69	0xbe6ec72e	-0.23318169
70	0xbec6ed4a	-0.38852912
71	0xbe75f7e3	-0.24020343
72	0x3d702364	0.0586275
73	0xbec819fe	-0.3908233
74	0xbebd211a	-0.36939317
75	0x3e8ae7f0	0.2713008
76	0xbe6af868	-0.22946322
77	0xbe2c44c2	-0.16823104
78	0xbe7745cd	-0.2414772
79	0xbd4b520f	-0.049638804
80	0x3e3d39a1	0.18479015
81	0x3ee543ea	0.44778377
82	0x3da23045	0.07919363
83	0xbebf6931	-0.37384942
84	0xbe919bf9	-0.2843931
85	0x3d010518	0.031499
86	0x3f1e632b	0.6187007
87	0xbfafe6ae	-1.3742273
88	0x3ec9cea7	0.39415476
89	0x3f066ece	0.52512825
90	0xbcb87584	-0.022516973
91	0xbf3ed767	-0.7454743
92	0x3db6134d	0.088904
93	0xbf0432ae	-0.5163983
94	0xbf1b9083	-0.6076738
95	0xbfb2154a	-1.3912747
96	0x3e35c33f	0.17750262
97	0x3e30c27b	0.17261688
98	0x3e03082f	0.1279609
99	0x3e16a458	0.1471113
100	0x3e59c9de	0.21268412
101	0x3de30ca2	0.11086394
102	0xbe532204	-0.20618445
103	0x3ba0e65e	0.0049102744
104	0x3ebf35f6	0.37345856
105	0x3f19f47b	0.6013867
106	0xbf7a52af	-0.97782415
107	0x3e91adcc	0.2845291
108	0xbec3abd1	-0.38217023
109	0xbf8058bd	-1.0027081
110	0xbd38bedd	-0.045103896
111	0x3d1d2044	0.03836085
112	0xbecd4960	-0.40095043
113	0xbe15a75f	-0.14614628
114	0xbe9d235a	-0.30691034
115	0xbee8ecda	-0.45493203
116	0xbe6b6288	-0.22986805
117	0x3e311603	0.17293553
118	0xbed25483	-0.41080102
119	0x3e9b72d0	0.30361032
120	0xbecdefb6	-0.40221947
121	0xbec576a8	-0.3856709
122	0xbec59b79	-0.3859518
123	0xbea7a22d	-0.32740918
124	0x3f146629	0.57968384
125	0x3f0a321e	0.5398272
126	0xbd4ff169	-0.050767336
127	0xbe38714e	-0.18011972
128	0xbf05dd7b	-0.5229108
129	0xbf52bdb2	-0.823207
130	0xbdd1c3bb	-0.10242411
131	0x3eff99c3	0.49921998
132	0xbe7c4c00	-0.24638367
133	0x3d3bf646	0.04588916
134	0xbcc93b77	-0.024564488
135	0xbec234f4	-0.37931025
136	0xbe1b16cf	-0.1514542
137	0x3d2dd7aa	0.042442
138	0xbdac6ad7	-0.084188156
139	0xbf2a37bb	-0.6649129
140	0xbe7a761e	-0.2445912
141	0xbf1a8306	-0.60356176
142	0x3f0dea6c	0.55435824
143	0xbe9ab321	-0.3021479
144	0xbf140e60	-0.57834435
145	0xbdca3b43	-0.098745845
146	0xbeb4f2a2	-0.35341364
147	0xbf020c28	-0.507998
148	0x3ecb1a1b	0.39668354
149	0x3c2b12aa	0.010441462
150	0xbf98e10c	-1.1943679
151	0x3f4f669d	0.8101595
152	0x3e60914f	0.21930431
153	0x3dcccaa4	0.09999588
154	0xbed04515	-0.40677705
155	0xbeaf29f5	-0.34211698
156	0xbf6b6f89	-0.91967064
157	0xbd5fd1c7	-0.05464342
158	0xbf32da46	-0.6986431
159	0xbc00dcd0	-0.007865146
160	0xbe3c9829	-0.1841742
161	0x3f384a2b	0.7198817
162	0x3d69a5d6	0.05704292
163	0xbe730ffa	-0.23736563
164	0xbec44d9b	-0.38340458
165	0xbf4cc2c2	-0.79984677
166	0xbedc7667	-0.43059084
167	0x3f2b7fbc	0.6699178
168	0xbe3b7e9c	-0.18310016
169	0x3ed53e4a	0.41649085
170	0xbf200ba2	-0.6251775
171	0xbeea0d42	-0.4571324
172	0x3d48b316	0.048998915
173	0xbe312f52	-0.17303208
174	0xbdc0795f	-0.0939815
175	0x3e4885bd	0.19582267
176	0xbd883e54	-0.06652513
177	0xbd0ec26f	-0.034853395
178	0xbef5805d	-0.47949496
179	0x3eaa5069	0.33264473
180	0xbc65c6d4	-0.014024455
181	0xbd44c6cc	-0.04804115
182	0xbd19a9be	-0.037515394
183	0xbd2b16c8	-0.041769773
184	0x3c4a4ba2	0.012347134
185	0x3bd16244	0.006389888
186	0x3d518009	0.051147494
187	0xbacf8dfd	-0.0015835162
188	0xbc6aebf0	-0.014338478
189	0xbf080025	-0.5312522
190	0xbdc0f6bd	-0.094220616
191	0xbe5ffc20	-0.21873522
192	0xbf209e7d	-0.62741834
193	0xbe1328d6	-0.14371046
194	0x3d290bc5	0.04127099
195	0x3c9d2186	0.019181024
196	0xbf46719f	-0.7751712
197	0x3e9f56dc	0.31120956
198	0x3ee5ff45	0.44921318
199	0x3ebd762a	0.37004215
200	0xbe8b2801	-0.27178958
201	0xbe23cc88	-0.15995991
202	0xbea28981	-0.31745532
203	0xbe3d460c	-0.18483752
204	0x3e662c3b	0.2247781
205	0x3e941c19	0.28927687
206	0xbf2de0d3	-0.6792118
207	0xbcd365cf	-0.025805382
208	0x3e395fb1	0.1810291
209	0x3ec53e08	0.3852389
210	0xbcf0572d	-0.029338444
211	0x3e9750ed	0.2955393
212	0x3e0f300c	0.13983172
213	0xbea7ed41	-0.32798198
214	0xbef8041e	-0.4844064
215	0xbd08c960	-0.03339517
216	0xbe5b9c2e	-0.21446297
217	0x3e96c5ed	0.2944788
218	0xbefe02bf	-0.4961147
219	0x3e8c27d3	0.27374133
220	0xbe02ad49	-0.12761416
221	0xbf34991a	-0.70546114
222	0x3e4a59eb	0.19760863
223	0xbe384dce	-0.1799843
224	0x3e3a3607	0.18184672
225	0x3dd6e164	0.104922086
226	0xbca3bf7f	-0.019988773
227	0x3e12dd53	0.14342241
228	0xbe2d023b	-0.16895382
229	0xbf036ce8	-0.5133805
230	0x3ef5dd39	0.48020342
231	0x3dbf531b	0.09342023
232	0xbe3524ed	-0.17689867
233	0xbec224d1	-0.37918714
234	0xbb7405f0	-0.0037234984
235	0x3e6df812	0.23239163
236	0xbcf9ee8b	-0.030509254
237	0xbcf075b4	-0.029353
238	0xbee97475	-0.45596662
239	0xbd4e33a9	-0.050342236
240	0xbd407ec2	-0.046995886
241	0xbedb267c	-0.428028
242	0xbc9625e6	-0.018328618
243	0xbe03b6fd	-0.12862773
244	0xbead76c2	-0.33879668
245	0x3e3d8b71	0.18510224
246	0xbe65c012	-0.2243655
247	0x3d177676	0.036978208
248	0x3f6f9241	0.9358254
249	0x3e7b130a	0.24518982
250	0x3ed61d07	0.4181902
251	0x3f50ac25	0.8151267
252	0xbe91c39e	-0.28469557
253	0x3c8bad00	0.017050266
254	0xbee7d8ab	-0.45282492
255	0xbeb22097	-0.3479049

decoder.decoder.1.dconv.bias f4 [32]
0	0x3d92ef2a	0.07174523
1	0x3e1b00a2	0.1513696
2	0x3dd64637	0.10462611
3	0x3ddafa12	0.106922284
4	0xbdac257d	-0.08405588
5	0x3e9cfe37	0.306627
6	0x3e1ed981	0.15512659
7	0xb783b435	-1.5700332e-05
8	0x3cf1c496	0.029512685
9	0x3deeeb40	0.11665964
10	0x3df1ef3c	0.118132085
11	0x3e11d54e	0.14241526
12	0x3e485a00	0.19565582
13	0x3de0680b	0.109573446
14	0x3e0ee148	0.13953125
15	0x3da2b4c4	0.079446346
16	0xbd29c285	-0.041445274
17	0x3e5aca51	0.2136624
18	0x3e33114e	0.1748707
19	0x3dbc4cb4	0.091943175
20	0xbde00fa0	-0.1094048
21	0xbd1b1fbf	-0.037872072
22	0xbd73edd1	-0.05955297
23	0x3e88e0de	0.2673406
24	0x3e295c15	0.16539033
25	0x3df2ab02	0.118490234
26	0xbdaf5fec	-0.085632175
27	0x3e03bec3	0.12865739
28	0x3ddfca5b	0.10927268
29	0xbdfbed14	-0.123010784
30	0x3d83951e	0.06424926
31	0x3e0e47d4	0.13894588
