notebooks/saved_model/mnist_model/mnist_cae_1/mnist_cae00020.pth (torch, 541279 bytes, 51 tensors)

encoder.encoder.0.conv.weight f4 [32, 1, 3, 3]
0	0xbe6d1898	-0.23153913
1	0xbec6d92f	-0.38837573
2	0x3e26887c	0.16263002
3	0xbd5b7e0a	-0.053586997
4	0xbdc72ba7	-0.09725123
5	0xbf00fc7f	-0.5038528
6	0x3ed38d90	0.4131894
7	0x3dae0b8b	0.084982954
8	0xbec7dc94	-0.39035475
9	0x3d71b081	0.059006218
10	0x3dbb9667	0.09159546
11	0xbdd01aa2	-0.1016133
12	0x3e466b5d	0.19376893
13	0x3e651992	0.22373036
14	0x3da5427e	0.08069323
15	0xbcf5d841	-0.030010344
16	0xbe4edd8e	-0.20201704
17	0x3dad3cef	0.08458888
18	0xbd65ef24	-0.056136265
19	0x3eb15cd3	0.34641132
20	0x3f3b1f83	0.7309496
21	0xbec7c7a1	-0.39019492
22	0xbe5c21fb	-0.21497338
23	0x3cfa449a	0.03055029
24	0xbe449df3	-0.19200878
25	0xbea43349	-0.32070377
26	0xbd457dc4	-0.048215643
27	0xbe626e49	-0.22112383
28	0x3f38bc4e	0.7216233
29	0x3eb38631	0.35063317
30	0xbf41550e	-0.7552041
31	0xbf8d6a8b	-1.1048139
32	0xbf43a03b	-0.7641637
33	0x3f0fb92f	0.5614194
34	0x3ece5e73	0.40306434
35	0x3ded8477	0.11597531
36	0xbe0488bb	-0.12942784
37	0xbe60ad77	-0.21941172
38	0xbe3949c6	-0.18094549
39	0xbe08acfd	-0.1334724
40	0xbe6fd8d5	-0.23422559
41	0xbe689005	-0.22711189
42	0xbe403726	-0.18771037
43	0xbd62b722	-0.05535043
44	0xbe9e56a5	-0.3092548
45	0xbe68d320	-0.22736788
46	0xbec70d8a	-0.38877517
47	0x3e8c935a	0.2745617
48	0x3e8b030a	0.27150756
49	0xbece4b60	-0.40291882
50	0x3e837151	0.2567239
51	0x3e9b2232	0.30299526
52	0x3d1aaaae	0.03776043
53	0xbed88d85	-0.4229547
54	0xbe864f02	-0.26232153
55	0xbea2a5ce	-0.31767124
56	0xbd6fd908	-0.058556587
57	0xbdd8a050	-0.10577452
58	0x3deacf7c	0.11465356
59	0xbdc38e9c	-0.09548685
60	0x3c1c0da0	0.009524733
61	0xbe984f1b	-0.29747853
62	0xbd89e07c	-0.0673227
63	0x3ddb38e0	0.107042074
64	0xbd97b304	-0.074071914
65	0xbe88923a	-0.26674062
66	0xbca9a28f	-0.020707397
67	0x3e3bb2a3	0.18329863
68	0xbd7a8c66	-0.06116905
69	0xbd062103	-0.032746326
70	0xbe1056a9	-0.14095558
71	0x3ddf7dfc	0.109127015
72	0xbd00e954	-0.03147252
73	0xbf2ce5c6	-0.67538106
74	0xbf095ca6	-0.53656995
75	0xbe972d19	-0.29526594
76	0x3e4c3472	0.19941881
77	0x3eb4a923	0.3528529
78	0x3ec4058b	0.3828548
79	0x3e98ce29	0.29844788
80	0x3ea1a251	0.3156915
81	0xbd3db349	-0.046313558
82	0xbddc6778	-0.107619226
83	0x3dcded64	0.10055044
84	0xbe297a8d	-0.16550656
85	0x3e92511e	0.28577513
86	0x3e002200	0.1251297
87	0x3e1e6eb3	0.15471916
88	0x3e2eb46d	0.17061014
89	0xbea89305	-0.32924667
90	0x3eb07a5f	0.34468362
91	0xbde2f043	-0.110809825
92	0x3e86603b	0.26245293
93	0x3e0dd89b	0.1385216
94	0x3ed54d46	0.41660517
95	0x3da659c6	0.08122592
96	0x3eb0716a	0.34461528
97	0xbe217b73	-0.15769748
98	0xbe653bce	-0.22386095
99	0x3ebeb550	0.37247705
100	0xbd7cb8f1	-0.06169981
101	0x3c98b8a0	0.018642724
102	0x3ded7854	0.115952164
103	0xbf0c5162	-0.5481168
104	0xbc616ba1	-0.013758571
105	0xbe2bf0b6	-0.16791043
106	0xbd8b7931	-0.06810225
107	0x3ecc483f	0.3989887
108	0x3d44a5e9	0.048009787
109	0x3de0d4f2	0.10978116
110	0xbe5a784a	-0.21334949
111	0xbe9672e4	-0.2938453
112	0x3e02acad	0.12761183
113	0xbf0e6811	-0.5562754
114	0xbe7e885c	-0.24856704
115	0xbf024eee	-0.5090169
116	0xbe9d7c54	-0.30758917
117	0x3ea693ee	0.32534736
118	0x3ebdefc5	0.37096992
119	0xbe8d1835	-0.2755753
120	0x3ea1fc0c	0.3163761
121	0x3eabb1f5	0.33534208
122	0xbf218e09	-0.63107353
123	0xbe3bed73	-0.18352298
124	0xbf2c186f	-0.6722478
125	0xbf17bd18	-0.5927291
126	0x3ed86302	0.42263037
127	0xbd86479f	-0.065566294
128	0xbeb8cc0e	-0.3609318
129	0xbe22c73f	-0.15896319
130	0xbbee4fd1	-0.0072726985
131	0x3d40ee0e	0.047102027
132	0xbe9a39c5	-0.301222
133	0xbdc886d9	-0.09791345
134	0x3e9db85d	0.3080472
135	0xbe30a8ac	-0.17251843
136	0xbe5c7b57	-0.21531425
137	0xbe57d74a	-0.2107822
138	0x3e7d7e6c	0.24755257
139	0x3e3b6c62	0.18303064
140	0x3eac9d8f	0.33713958
141	0xbe8211ab	-0.25404105
142	0xbe7f4bfa	-0.24931327
143	0xbe814a8f	-0.25252196
144	0x3e0f2ae3	0.13981204
145	0x3e221b31	0.15830685
146	0xbda01fd5	-0.078185715
147	0xbd0d3f7f	-0.034484383
148	0xbdc8535f	-0.09781527
149	0xbee57a5c	-0.44819915
150	0x3e3a88fa	0.18216315
151	0x3edc7ebc	0.4306544
152	0xbd91ec5c	-0.0712516
153	0x3cc19ff1	0.023635836
154	0xbe1da7c2	-0.15396026
155	0xbeb35eb6	-0.35033196
156	0xbd4ba87a	-0.04972122
157	0x3da65e75	0.08123485
158	0xbddd1f17	-0.107969455
159	0xbdf23748	-0.1182695
160	0x3e52748b	0.2055227
161	0xbe232159	-0.1593069
162	0x3c8ff487	0.017572654
163	0x3d1b3211	0.037889544
164	0x3dce4e0a	0.100734785
165	0xbed2dc4b	-0.41183695
166	0x3cadea4e	0.02122989
167	0xbd1c11d7	-0.03810295
168	0x3e4d3612	0.20040157
169	0x3d3267d3	0.043556046
170	0xbc06ab05	-0.008219485
171	0xbda00cf5	-0.07814971
172	0x3cfd5a40	0.030926824
173	0xbe8482bf	-0.25881
174	0xbea730f3	-0.32654533
175	0x3d361c33	0.044460487
176	0x3d463b94	0.048396662
177	0x3e0a923d	0.13532348
178	0x3e7bb7e5	0.24581869
179	0xbe0e256a	-0.1388146
180	0xbe6ffb58	-0.23435724
181	0xbe2e2760	-0.17007208
182	0x3e582d83	0.21111111
183	0xbb38b472	-0.0028183726
184	0xbe4c1a53	-0.19931917
185	0x3e42fd33	0.190419
186	0xbea195af	-0.31559512
187	0xbecaa60d	-0.39579812
188	0x3db1781c	0.08665487
189	0xbe9617a4	-0.2931491
190	0xbecc44f4	-0.39896357
191	0xbd628c91	-0.055309836
192	0x3ebc83a9	0.368192
193	0x3e897fc4	0.2685529
194	0x3e1e87f4	0.1548155
195	0x3e811e77	0.25218555
196	0xbe11616d	-0.14197321
197	0x3e66e280	0.2254734
198	0x3dbe37c1	0.09287978
199	0x3e9aeaf0	0.30257368
200	0xbcadb6d3	-0.021205341
201	0x3e2c0845	0.1680003
202	0x3e30e0ca	0.1727325
203	0x3d4982be	0.04919695
204	0x3e561ed6	0.209102
205	0x3ef8d8c1	0.4860287
206	0x3d297251	0.041368786
207	0xbebbfe1a	-0.36717302
208	0x3e141b26	0.14463481
209	0x3ee906bc	0.4551295
210	0xbed6cbc4	-0.41952336
211	0xbcf9c4d6	-0.030489367
212	0x3e389a84	0.18027693
213	0xbe96ea9b	-0.29475865
214	0x3d57d7a5	0.05269589
215	0x3f1be07e	0.6088942
216	0x3de0753b	0.1095986
217	0x3db57498	0.08860129
218	0x3ecc644a	0.39920264
219	0x3e90e53a	0.28299886
220	0x3f11f7a8	0.5701852
221	0x3d26b27f	0.04069757
222	0xbebcc6f9	-0.36870554
223	0xbf33b1e0	-0.7019329
224	0xbef3df4a	-0.47631294
225	0xbd5ecf26	-0.05439677
226	0x3e041a7d	0.1290073
227	0x3e78f8ba	0.24313632
228	0xbeaf34a9	-0.34219864
229	0x3e65b065	0.2243057
230	0xbe7a2076	-0.24426445
231	0x3e76a91c	0.24087948
232	0xbdfeeec9	-0.124478884
233	0xbe0ce8f2	-0.13760737
234	0xbe9d76a6	-0.30754584
235	0xbef36f96	-0.4754607
236	0xbd9ce363	-0.07660558
237	0xbedb1d65	-0.42795864
238	0xbe50e71c	-0.20400661
239	0x3eb86055	0.36010996
240	0xbe6120bd	-0.21985145
241	0xbca42bfb	-0.020040503
242	0x3f060b07	0.52360576
243	0xbe9168e8	-0.2840035
244	0xbe9c5919	-0.30536726
245	0x3e28f1c0	0.1649847
246	0xbcf3716e	-0.029717173
247	0xbe37f6cb	-0.17965238
248	0x3e8b049f	0.27151963
249	0x3e42e8f3	0.19034176
250	0xbda5b3b7	-0.080909185
251	0x3eb5704d	0.3543724
252	0x3dce794a	0.10081728
253	0xbe9b1f2b	-0.30297217
254	0x3cd41665	0.025889585
255	0xbe098812	-0.13430813

encoder.encoder.0.conv.bias f4 [32]
0	0x3dcba1f7	0.09943002
1	0x3e1adaaa	0.15122476
2	0xbc20bcb7	-0.009810618
3	0x3dddcbfd	0.10829923
4	0x3e01be65	0.12670286
5	0x3e307bc4	0.17234713
6	0xbe89f11e	-0.2694177
7	0x3e2031cd	0.15643997
8	0x3c1a9f54	0.009437401
9	0xbdfd86e4	-0.12379244
10	0xbbca023e	-0.006164818
11	0x3be7ab3c	0.0070699733
12	0x3e8e84b5	0.27835622
13	0x3d9ccd5c	0.07656357
14	0x3dc70c2b	0.09719118
15	0x3e813a66	0.25239867
16	0xbd5b7635	-0.053579528
17	0x3e6bde23	0.23033957
18	0x3df20d3a	0.11818929
19	0x3dcb318c	0.0992156
20	0x3d3db8e5	0.046318907
21	0xbde26bfc	-0.11055753
22	0xbb9ae7fa	-0.004727361
23	0xbb1e7d11	-0.0024183432
24	0x3b9a3baa	0.0047068195
25	0x3dc19a8f	0.09453308
26	0xbb90554c	-0.0044046994
27	0xbde05712	-0.10954107
28	0x3e8593e3	0.2608939
29	0xbe00bd18	-0.12572134
30	0x3b652c0d	0.0034968883
31	0xbe27c958	-0.163854

encoder.encoder.1.conv.weight f4 [32, 32, 3, 3]
0	0x3e052393	0.13001852
1	0x3e2b45c9	0.1672584
2	0x3de3e71c	0.11128065
3	0x3becbbeb	0.00722455
4	0x3de17e60	0.11010432
5	0x3d3256d3	0.043539833
6	0xbd83ad50	-0.06429541
7	0x3b0fc374	0.0021936568
8	0x3dcfa8a4	0.101395875
9	0xbd200604	-0.039068237
10	0xbd186719	-0.037207697
11	0xbd1c8942	-0.038216837
12	0x3d2bea19	0.0419713
13	0x3cc7f7ad	0.024410093
14	0xbd1e23cd	-0.03860836
15	0x3d679a90	0.056543887
16	0x3d9e97b7	0.07743781
17	0x3b92f787	0.004485074
18	0xbd16dc1f	-0.036831018
19	0xbe3c86d5	-0.1841081
20	0xbebeb82c	-0.37249887
21	0xbd9e9a37	-0.07744258
22	0xbec42562	-0.3830977
23	0xbefaf27b	-0.49013123
24	0xbe9174d5	-0.28409448
25	0xbedcfb8d	-0.43160668
26	0xbec7b8a5	-0.3900806
27	0xbd2dd69d	-0.042441
28	0x3c2e1589	0.010625252
29	0xbdb8d136	-0.09024279
30	0xbe6ff0a3	-0.2343164
31	0xbd9ecff3	-0.07754507
32	0xbdf04b43	-0.11733105
33	0xbe0ea02d	-0.1392829
34	0xbe4ad3ad	-0.1980731
35	0xbd9d4827	-0.076797776
36	0xbd0d00b1	-0.034424488
37	0x3d8d2988	0.06892687
38	0x3d6205ce	0.055181317
39	0x3bb0d814	0.0053968523
40	0x3c981130	0.018562883
41	0x3d17835c	0.03699051
42	0xbd9a0221	-0.07519937
43	0x3d0d9c37	0.034572806
44	0x3d266ddd	0.040632118
45	0xbcddaa68	-0.027058795
46	0x3dac90c4	0.08426049
47	0x3d9f813f	0.077883236
48	0xbcbd69f5	-0.023121813
49	0xbb0bb1cd	-0.0021315694
50	0x3d1456b1	0.036215488
51	0xbd31b878	-0.043388814
52	0x3d5c919d	0.053849805
53	0x3d769b8f	0.060206946
54	0x3b78ea70	0.0037981533
55	0x3d01d577	0.031697717
56	0x3d443f59	0.047911976
57	0x3c4d5904	0.01253343
58	0xbc63a928	-0.01389531
59	0x3c5651bc	0.01308101
60	0x3c0eaefc	0.008708712
61	0xbc0bda24	-0.0085358955
62	0xbcb74e7a	-0.022376288
63	0xbc5d63a4	-0.013512526
64	0xbc1beca4	-0.009516869
65	0x3d89728e	0.06711303
66	0xbcc4ad3f	-0.024008391
67	0xbc80c59f	-0.015719233
68	0x3ce5a047	0.028030528
69	0xbcc89bed	-0.024488414
70	0x3da19273	0.07889261
71	0x3c4de116	0.012565872
72	0xbd967c3f	-0.07347917
73	0xbdd19a45	-0.10234503
74	0xbee266bc	-0.44219005
75	0xbe66262d	-0.224755
76	0xbee5cb75	-0.44881788
77	0xbf110498	-0.56647635
78	0xbdfb2fb1	-0.12264956
79	0xbea6d484	-0.32584012
80	0xbf0667d4	-0.5250218
81	0x3ca83a0c	0.020535491
82	0xbde13263	-0.10995939
83	0xbd84eed3	-0.064908646
84	0x3cf7971c	0.030223422
85	0x3c011492	0.0078784395
86	0xbe055997	-0.13022457
87	0x3d0177a6	0.031608246
88	0x3dcd4dc1	0.10024596
89	0xbd9448a8	-0.072404206
90	0x3d930e08	0.071804106
91	0x3d75ec4f	0.060039815
92	0xbe40853b	-0.18800823
93	0x3dd5cb1e	0.10439132
94	0x3d7beefc	0.06150721
95	0xbdd8a191	-0.10577691
96	0x3e3b3c45	0.1828471
97	0x3db0af25	0.08627156
98	0xbe146aae	-0.1449382
99	0xbd904d26	-0.07045965
100	0xbdad789e	-0.084702715
101	0xbd0e3aab	-0.03472392
102	0x3cd305cd	0.025759602
103	0xbd8f3fec	-0.06994614
104	0x3d285ae2	0.041102298
105	0x3d8cadc7	0.06869083
106	0xbcc8c5df	-0.024508415
107	0x3ca4fdc9	0.020140545
108	0x3c57f6c2	0.01318139
109	0x3d58e605	0.05295374
110	0x3de6311c	0.112398356
111	0x3d9ed30e	0.07755099
112	0x3dfaa008	0.12237555
113	0x3ded165d	0.11576531
114	0xbc041c71	-0.008063422
115	0x3ddf0e00	0.10891342
116	0x3d06203f	0.032745596
117	0xbdacbd31	-0.08434523
118	0xbd7f158e	-0.062276416
119	0xbc5194c6	-0.012791818
120	0xbd70bd9c	-0.058774576
121	0x3d941587	0.072306685
122	0x3d99cfdf	0.075103514
123	0x3da2f2bf	0.079564564
124	0x3e72def4	0.23717862
125	0x3e0c5ade	0.13706538
126	0x3ce15a9b	0.027509024
127	0xbd03a0f9	-0.032135937
128	0xbc64c12e	-0.013962073
129	0x3d460641	0.048345808
130	0xbcbfa099	-0.023392009
131	0x3c826aca	0.015920062
132	0x3d34424a	0.04400853
133	0x3d0613ef	0.032733854
134	0x3b3fd9bc	0.0029274067
135	0x3cfbc034	0.030731298
136	0x3db3dde7	0.08782559
137	0x3dbf36f8	0.09336656
138	0x3dc5b5c7	0.09653812
139	0x3d0f2726	0.034949444
140	0x3cf52dc6	0.029929053
141	0x3d8977fa	0.06712337
142	0x3d90cd2f	0.07070386
143	0x3e287efb	0.16454689
144	0xbbb7aadb	-0.0056050844
145	0x3d64313d	0.05571102
146	0xbbf7fd7a	-0.0075680586
147	0x3d697ab9	0.057001803
148	0xbd4038c3	-0.046929132
149	0x3d81c25d	0.063359
150	0x3d9f76c3	0.07786324
151	0x3cb836cf	0.022487072
152	0xbd04b678	-0.03240058
153	0x3dbd1f8d	0.092345335
154	0x3dd6ff46	0.10497908
155	0x3d016eaa	0.031599678
156	0x3da3bd19	0.07995052
157	0x3d7ffc4e	0.062496476
158	0x3c41e2c0	0.011833847
159	0x3d7a40e4	0.06109704
160	0x3d18b4a0	0.037281632
161	0x3d215b1b	0.039393526
162	0xbd5671fe	-0.052354805
163	0x3ced92f4	0.029000737
164	0xbcd22fc7	-0.025657548
165	0x3d979de1	0.0740316
166	0x3d8d566f	0.069012515
167	0x3cbae4e6	0.022814225
168	0x3d04169d	0.03224813
169	0x3d07c726	0.033148907
170	0x3c86ea3e	0.016469117
171	0x3cb5c7f6	0.022190075
172	0xbbb7695c	-0.0055972766
173	0x3cdc57ac	0.026897274
174	0x3cb5df3e	0.022201177
175	0x3ceca001	0.02888489
176	0x3c82405a	0.015899826
177	0x3b99a580	0.0046889186
178	0x3d2220bf	0.03958201
179	0xbc556e14	-0.013026733
180	0x3c44f644	0.012021605
181	0x3d89e216	0.067325756
182	0x3e048596	0.12941584
183	0x3d98be2e	0.07458149
184	0xbbfdda25	-0.007746952
185	0x3d61f29c	0.05516301
186	0x3e359f93	0.17736654
187	0xbca0a552	-0.01961008
188	0x3e054008	0.13012707
189	0xbd273fdb	-0.04083238
190	0xbe0d72da	-0.13813344
191	0xbe37f71b	-0.17965357
192	0xbd7b0a90	-0.06128937
193	0xbdc4c6ba	-0.096082166
194	0xbea65c8d	-0.32492486
195	0xbdc60a55	-0.096699394
196	0xbdb7a226	-0.08966474
197	0xbe02e326	-0.12781963
198	0x3e080acb	0.13285367
199	0x3d4c0f93	0.04981954
200	0xbe5c8521	-0.2153516
201	0x3e11d601	0.14241792
202	0x3dc21efb	0.09478565
203	0xbe3cadc6	-0.18425664
204	0x3dcae06e	0.09906088
205	0xbc42631c	-0.01186445
206	0xbe8e6ab5	-0.27815786
207	0x3e60240b	0.2188875
208	0x3e7730d5	0.24139722
209	0x3e76c999	0.24100341
210	0x3e9c5e4b	0.3054069
211	0x3f0218fa	0.5081936
212	0x3f1a713c	0.6032903
213	0x3d63a00f	0.055572566
214	0x3e4566b0	0.19277453
215	0x3eb8c9f1	0.3609157
216	0xbe8a24e2	-0.26981264
217	0xbef2e2a3	-0.47438535
218	0xbf05e858	-0.52307653
219	0xbe7eca63	-0.24881892
220	0xbef4357d	-0.47697058
221	0xbf283b15	-0.6571515
222	0xbd87235b	-0.065985404
223	0xbe19d22e	-0.15021583
224	0xbefaaf6c	-0.4896196
225	0x3d2efe97	0.042723265
226	0x3c8dc189	0.017304199
227	0xbcc52f60	-0.024070442
228	0xbb109c2a	-0.0022065737
229	0x3d487b6c	0.04894583
230	0x3d57a30b	0.052645724
231	0x3d93c7e6	0.07215862
232	0xbc333d5f	-0.010939925
233	0xbd423654	-0.047415093
234	0x3e084216	0.1330646
235	0x3e196989	0.14981665
236	0x3e3722bd	0.17884345
237	0x3e2d74da	0.16939107
238	0x3e2a4c7e	0.16630742
239	0x3e08f451	0.1337445
240	0x3e86108d	0.26184502
241	0x3dbeea09	0.093219824
242	0xbd81ecdc	-0.063440055
243	0xbcdb011d	-0.02673393
244	0xbdd04b9e	-0.10170673
245	0x3dc969d8	0.09834641
246	0x3d45b8bd	0.048271883
247	0x3d2814f8	0.041035622
248	0x3de58c74	0.1120843
249	0xbbcd1f25	-0.0062598162
250	0x3cabda5a	0.020978142
251	0x3d171a05	0.03689005
252	0x3b6a242d	0.003572713
253	0x3d126cf1	0.035748426
254	0x3de914a4	0.1138089
255	0x3dfc72d4	0.12326589

encoder.encoder.1.conv.bias f4 [32]
0	0x3ccd9eba	0.0251001
1	0x3d03d6e0	0.032187343
2	0xbd19a776	-0.03751322
3	0x3c8d727b	0.017266503
4	0x3d99dd2e	0.0751289
5	0x3dab6312	0.083685055
6	0xbcf78674	-0.03021548
7	0xbc0c8809	-0.008577355
8	0x3d31874e	0.043341927
9	0x3c4036cf	0.011731817
10	0x3cde58f3	0.027142024
11	0x3bd111e9	0.006380309
12	0x3d689d8c	0.056790873
13	0x3c963807	0.018337263
14	0x3d04dfd4	0.03244002
15	0x3c6468b4	0.013940979
16	0x3c9d5418	0.019205138
17	0xbc6f126a	-0.014591793
18	0xbcc7e1a1	-0.02439958
19	0xbd6846fe	-0.05670833
20	0x3d7b10ae	0.061295204
21	0x3ba0c7ee	0.004906646
22	0x3ce78a7d	0.028264279
23	0xbdcd4813	-0.10023513
24	0x3cd7940b	0.02631571
25	0x3d0d126c	0.034441397
26	0x3d4b2e1a	0.049604513
27	0xbd3b282f	-0.04569262
28	0xbb04621f	-0.0020200086
29	0x3d85eb50	0.06539023
30	0xbd825fe0	-0.06365943
31	0xbc5042c7	-0.012711233

encoder.encoder.2.conv.weight f4 [32, 32, 3, 3]
0	0x3d1ad5aa	0.037801422
1	0xbd17ee98	-0.037092775
2	0x3d8353b7	0.06412452
3	0xbc6b5eae	-0.014365835
4	0xbace2ed5	-0.001573051
5	0x3dc222d3	0.094792984
6	0xbdd71704	-0.10502437
7	0xbcb2f719	-0.021846341
8	0xbc0e0959	-0.008669221
9	0x3cea9dfb	0.028639784
10	0xbd89e754	-0.067335755
11	0x3e319139	0.17340554
12	0xbdb27433	-0.087135695
13	0xbde78ef9	-0.11306567
14	0xbd9c7969	-0.07640345
15	0xbe0e96b6	-0.13924679
16	0xbdb9e396	-0.09076612
17	0x3b81bae4	0.0039590467
18	0x3d37d1f0	0.044877946
19	0xbd141042	-0.036148317
20	0x3c695cd7	0.014243326
21	0xbb85ee36	-0.004087235
22	0x3da125c4	0.07868531
23	0x3d7ec3af	0.062198337
24	0xbc74a6df	-0.014932363
25	0x3e848c9b	0.25888523
26	0x3d714f74	0.058913663
27	0xbc82f483	-0.015985733
28	0xbd6624ae	-0.056187324
29	0x3d60785f	0.054802295
30	0xbc122641	-0.008920253
31	0xbd15f28e	-0.03660827
32	0xbceaf92d	-0.02868327
33	0x3c9e80c3	0.019348508
34	0xbc4d6eaa	-0.012538591
35	0xbb2c15ee	-0.0026258188
36	0x3ca62db2	0.020285461
37	0x3d821465	0.06351546
38	0x3ddde1ca	0.108340815
39	0xbda01cb0	-0.07817972
40	0xbaa2cd1a	-0.0012420744
41	0x3d33502a	0.043777622
42	0xbd58730a	-0.052844085
43	0xbced0682	-0.028933767
44	0x3c8e9c0d	0.017408395
45	0x3e1176b6	0.14205441
46	0xbdd61036	-0.10452311
47	0x3d8037b2	0.06260623
48	0x3cb31912	0.02186254
49	0xbe68f36b	-0.22749107
50	0xbd8a57e7	-0.06755047
51	0xbd2b3b9e	-0.041804902
52	0xbe369ba9	-0.17832817
53	0xbe0f7a73	-0.14011554
54	0x3cea8a1c	0.028630309
55	0xbca3288a	-0.019916791
56	0x3d62fbba	0.055415846
57	0x3c042696	0.00806584
58	0x3cac3557	0.021021528
59	0x3d1f8bd0	0.038951695
60	0x3bdca743	0.0067338063
61	0xbd9e9023	-0.07742336
62	0x3b88a6d0	0.004170276
63	0xbd01474b	-0.03156213
64	0xb9264147	-0.00015855311
65	0xbd93764d	-0.072002985
66	0xbc96f154	-0.018425621
67	0xbcb50f52	-0.022102032
68	0xbcc496ae	-0.02399763
69	0xbc68ad72	-0.014201509
70	0xbbf4af33	-0.0074671744
71	0xbd8c7f25	-0.068601884
72	0xbb193093	-0.00233749
73	0xbd262974	-0.040566877
74	0x3cb336a2	0.021876637
75	0x3d362a8f	0.04447418
76	0xbd0b2529	-0.033970986
77	0x3d283afc	0.041071877
78	0x3cd0b3bc	0.025476329
79	0xbcab0588	-0.020876661
80	0xbd46a9c8	-0.04850176
81	0xbd36730d	-0.044543315
82	0x3ccab3ec	0.024743997
83	0x3a9e1ccc	0.0012063025
84	0xbcc554ba	-0.024088252
85	0xbcdbe46f	-0.026842324
86	0xbd8a7a85	-0.0676165
87	0x3c853cad	0.016264284
88	0xbc47ff3a	-0.012206847
89	0xbca5ac4a	-0.020223755
90	0xbd1ef2bd	-0.038805712
91	0x3d41f8bd	0.047356356
92	0x3d8ac459	0.067757316
93	0xbcf20a90	-0.029546052
94	0x3cd3655b	0.025805166
95	0xbca8d632	-0.020609949
96	0xbdf003be	-0.11719464
97	0x3d92825a	0.07153769
98	0x3de626b1	0.112378486
99	0xbe7b7ee1	-0.24560119
100	0xbe712376	-0.23548684
101	0xbea47695	-0.3212172
102	0x3c9fd85a	0.019512344
103	0xbe883681	-0.26604083
104	0xbe5ee77b	-0.2176799
105	0xbc823e70	-0.015898913
106	0xbed105d1	-0.4082475
107	0xbd460ea7	-0.048353817
108	0x3e1189fe	0.14212796
109	0x3dd1994f	0.102343194
110	0x3e346bd6	0.17619261
111	0xbdc34134	-0.09533921
112	0xbe221687	-0.15828906
113	0xbd139bdb	-0.036037307
114	0xbdc23fc7	-0.09484821
115	0xbddb7aed	-0.107168056
116	0x3c4b5fd3	0.012412983
117	0x3daf22b1	0.08551539
118	0xbcdd95d4	-0.027048983
119	0x3dfd2055	0.123596825
120	0x3cca72d3	0.024712956
121	0xbd373928	-0.044732243
122	0xbba9ee26	-0.00518586
123	0xbd9ef173	-0.077608965
124	0x3d5aad33	0.053387832
125	0xbd140e63	-0.036146533
126	0xbd95df42	-0.07317974
127	0xbe5000bf	-0.20312785
128	0x3c9d00e6	0.019165467
129	0x39cb22e2	0.00038745167
130	0xbe380316	-0.17969927
131	0x3e1db411	0.15400721
132	0x3cbb1fb5	0.022842268
133	0xbd120c4d	-0.035656262
134	0x3db0131e	0.08597396
135	0x3d854521	0.06507326
136	0x3e350c60	0.17680502
137	0x3cf8a12d	0.030350292
138	0xbe7fb06b	-0.24969642
139	0xbe4babf2	-0.1988981
140	0x3d52a543	0.051427137
141	0x3dc4e97f	0.09614848
142	0xbc3ad501	-0.011403323
143	0x3d30618b	0.043061774
144	0xbd443f4d	-0.04791193
145	0xbd899b81	-0.06719113
146	0xbd84d034	-0.06485024
147	0x3d3bfa54	0.04589303
148	0xbd55294c	-0.052041337
149	0xbc9efe5b	-0.019408396
150	0x3ce1831f	0.027528344
151	0x3d0edfdd	0.03488146
152	0xbd21cbc2	-0.03950096
153	0xbdf2edd4	-0.11861768
154	0xbd94987d	-0.07255647
155	0xbd6c51f3	-0.05769534
156	0xbd9528eb	-0.07283195
157	0xbda1d8ce	-0.0790268
158	0xbb68bdda	-0.003551355
159	0x3ceb5c89	0.028730648
160	0x3c2d9b2f	0.010596081
161	0xbdd85df8	-0.10564798
162	0x3cfba935	0.030720333
163	0xbd2b481b	-0.041816812
164	0x3d034da5	0.03205647
165	0xbcf9efbb	-0.03050982
166	0x3e2cdd9f	0.16881417
167	0x3e5fbd74	0.21849614
168	0xbd902d07	-0.07039838
169	0x3d3512ed	0.044207502
170	0x3e840a1a	0.25788957
171	0xbda0ba98	-0.0784809
172	0x3d4b58ae	0.04964512
173	0xbd8e5d78	-0.069514215
174	0xbd0e3d66	-0.034726523
175	0xbd7985f7	-0.060918774
176	0xbd6094b8	-0.05482933
177	0xb8f867af	-0.00011844874
178	0x3d89d5fb	0.06730267
179	0x3e1f2cc7	0.15544425
180	0xbcb9d464	-0.022684284
181	0x3daaa3c6	0.083320186
182	0x3cd794fa	0.026316155
183	0xbde37c44	-0.11107686
184	0xbc01bdd4	-0.007918794
185	0x3e04dbef	0.12974523
186	0xbdc2ef63	-0.09518316
187	0x3ddae0d7	0.10687416
188	0x3d6f5c11	0.05843741
189	0xbcfb3f1e	-0.030669745
190	0xbd73356d	-0.059377123
191	0x3d11abf9	0.035564397
192	0x3d1c50a4	0.038162842
193	0xbd5ab3e2	-0.053394206
194	0x3ce290ad	0.027656877
195	0xbd0aa687	-0.03385022
196	0x3cd83295	0.026391307
197	0x3c92361c	0.017848067
198	0x3e133ce8	0.14378703
199	0x3e3c9f3b	0.18420117
200	0x3e1a0746	0.15041837
201	0x3d6130e4	0.054978266
202	0xbd0ba8aa	-0.034096397
203	0xbd4d2955	-0.050088245
204	0x3dfa9b1c	0.12236616
205	0xbddd2910	-0.10798848
206	0xbd066663	-0.032812487
207	0xbd54627f	-0.051851746
208	0xbd92b21a	-0.071628764
209	0xbc3cfd0e	-0.011534942
210	0xbd220b10	-0.03956133
211	0xbb895d1d	-0.004192008
212	0xbc2f59d3	-0.010702568
213	0xbd82e629	-0.06391556
214	0xbdf65184	-0.120272666
215	0x3c2eeb9c	0.010676291
216	0xbd11d6ea	-0.03560535
217	0xbd824f17	-0.063627414
218	0x3d10a0b3	0.035309505
219	0x3ce57d5b	0.028013876
220	0xbc7362f2	-0.014855133
221	0xbc95b3e2	-0.018274251
222	0xbda927b1	-0.08259524
223	0xbc05a6e7	-0.008157468
224	0xbb40704d	-0.0029363811
225	0x3c6ba2ab	0.014382045
226	0x3c28a6c1	0.0102936635
227	0x3e082e33	0.13298874
228	0xbc5ea366	-0.013588762
229	0x3e6409f2	0.22269419
230	0x3e30088d	0.17190762
231	0xbcd7734a	-0.026300091
232	0x3e8d76a1	0.2762957
233	0x3e072e96	0.13201365
234	0xbd06fa33	-0.032953452
235	0x3d5b2bf9	0.053508732
236	0x3cc44f7e	0.023963686
237	0xbd87fa64	-0.06639555
238	0x3daf06c0	0.08546209
239	0x3d93b499	0.07212181
240	0x3b9b7c18	0.0047450177
241	0x3da62cbc	0.08114001
242	0x3dfd2074	0.123597056
243	0x3cedaea4	0.02901394
244	0xbcee4953	-0.029087698
245	0xbe5eafcf	-0.21746753
246	0xbdbe8beb	-0.09304031
247	0xbedef905	-0.43549362
248	0xbda13a54	-0.07872453
249	0xbe753e2a	-0.23949495
250	0x3db938a1	0.09044004
251	0xbc98f642	-0.018672112
252	0x3d9109ad	0.07081924
253	0xbb5082fd	-0.0031816356
254	0x3e1c70fa	0.15277472
255	0xbd7c9c77	-0.061672654

encoder.encoder.2.conv.bias f4 [32]
0	0xbdd1a4f6	-0.10236542
1	0x3cfb800f	0.030700712
2	0xbd909d07	-0.070612006
3	0xbd70d300	-0.058794975
4	0xbd306a3e	-0.04307007
5	0x3d4c0f3a	0.04981921
6	0xbd708b23	-0.05872644
7	0x3ce3024c	0.027711056
8	0xbd3b60fe	-0.045746796
9	0x3e214a46	0.1575099
10	0x3b5de2ed	0.0033857182
11	0xbe72a4e5	-0.23695715
12	0x3c0878b3	0.008329558
13	0x3d14b0b1	0.03630132
14	0xbe5f97a9	-0.21835198
15	0x3c71b341	0.01475221
16	0x3b2a3442	0.002597109
17	0x3d25dc39	0.040493224
18	0xbbbe510d	-0.005808002
19	0xbdcd4c82	-0.10024358
20	0xbe301677	-0.1719607
21	0xbc926f45	-0.017875323
22	0xbd284d27	-0.041089203
23	0x3dbf8761	0.09351993
24	0x3d95f7b6	0.07322638
25	0xbdfc1ced	-0.12310205
26	0xbc4b7af7	-0.012419454
27	0xbd8ff178	-0.070284784
28	0x3d16967c	0.036764607
29	0x3ce20544	0.027590401
30	0x3c354269	0.011063197
31	0x3da81708	0.08207518

encoder.encoder.3.conv.weight f4 [10, 32, 3, 3]
0	0xbd8e3a5f	-0.06944727
1	0x3d9ad8d5	0.07560889
2	0xbda043e5	-0.0782545
3	0xbc7bae12	-0.015361326
4	0xbe0b4220	-0.13599443
5	0xbdb829cf	-0.08992349
6	0xbd984ab0	-0.074361205
7	0xbdad523a	-0.08462949
8	0xbd8f7e1f	-0.070064776
9	0x3d19eb3d	0.037577856
10	0x3ca34a72	0.01993296
11	0x3cdf99ca	0.027295012
12	0x3d871a5e	0.06596826
13	0xbd00bba8	-0.031428963
14	0x3d86ec4b	0.06588038
15	0xbd349c9e	-0.044094674
16	0x3caa6c3d	0.020803565
17	0xbb0c01e4	-0.0021363432
18	0xbd6dd1f7	-0.058061566
19	0x3ce069de	0.027394231
20	0xbea00926	-0.3125698
21	0x3ca16d00	0.019705296
22	0xbd5ac26d	-0.053408075
23	0xbd2655d1	-0.040609185
24	0x3dd11713	0.10209479
25	0xbd4014f6	-0.04689499
26	0x3dfc3d37	0.12316363
27	0x3cfe1129	0.031014042
28	0xbd04c5c1	-0.032415155
29	0xbd2c4afc	-0.0420637
30	0x3c3d9cec	0.011573058
31	0xbda73250	-0.08163893
32	0xbcc4d1da	-0.024025846
33	0xbbd45d35	-0.0064808377
34	0xbcae4860	-0.021274745
35	0xbb60c0e7	-0.0034294666
36	0x3be6a7f8	0.0070390664
37	0x3daf8543	0.085703395
38	0x3d923384	0.07138732
39	0x3bee1e7e	0.0072668185
40	0xbd68fa44	-0.056879297
41	0xbca78f8c	-0.02045419
42	0x3cd69b7d	0.02619719
43	0x3be097ad	0.0068540187
44	0x3d845fe5	0.06463603
45	0x3cfb4bc0	0.030675769
46	0x3d49c559	0.04926047
47	0xbc5ebdc0	-0.013595045
48	0xbd15c23a	-0.036562182
49	0xbcb49cff	-0.022047518
50	0x3d5dba90	0.054132998
51	0xbcba7af7	-0.022763712
52	0xbc0d4086	-0.008621341
53	0x3cb9984e	0.022655632
54	0x3d117f73	0.035521936
55	0x3c7043d4	0.014664609
56	0x3c93b602	0.018031124
57	0x3c21a26c	0.009865385
58	0x3d6477db	0.055778366
59	0xbc6d17fd	-0.014471051
60	0xbd38d790	-0.04512745
61	0x3d5267df	0.05136859
62	0x3ae0ac80	0.0017141253
63	0xbbc15db1	-0.0059010615
64	0xbe59de3c	-0.21276182
65	0x3e1ee60e	0.15517446
66	0x3c93d6e6	0.018046807
67	0xbdd375cd	-0.10325203
68	0xbd57b718	-0.052664846
69	0x3ca188f2	0.01971862
70	0x3e9aab1b	0.30208668
71	0xbd2a7597	-0.04161605
72	0x3d99aecc	0.07504043
73	0xbd92c9a4	-0.07167366
74	0x3def23be	0.11676739
75	0xbc839d16	-0.016066115
76	0xbcc8ab07	-0.024495615
77	0xbdcbbd58	-0.09948224
78	0x3cfda461	0.030962171
79	0x3e219aed	0.15781756
80	0x3e57d57f	0.21077536
81	0xbb82ea56	-0.00399522
82	0x3d2d8a83	0.042368423
83	0x3d1b9050	0.037979424
84	0xbc2cc976	-0.010546079
85	0x3ddd8b1f	0.10817551
86	0x3dfb945b	0.12284156
87	0x3c251fbd	0.010078368
88	0x3c5c063c	0.013429221
89	0xbd80a83a	-0.06282087
90	0xbb156e2f	-0.002280127
91	0x3d4f28b4	0.050575927
92	0x3df9c4b5	0.12195722
93	0x3e0851f6	0.13312516
94	0x3df6440f	0.120247
95	0xbc30053b	-0.010743435
96	0x3d96185a	0.073288634
97	0xbc907e6f	-0.017638413
98	0xbe8c1433	-0.2735916
99	0xbd2567ae	-0.04038208
100	0x3e026862	0.12735131
101	0x3d1f7041	0.038925413
102	0xbe0b171a	-0.13583031
103	0xbdcc5d8f	-0.099787824
104	0x3c0dc058	0.008651815
105	0x3dbe69f5	0.092975534
106	0x3e08ed92	0.13371876
107	0x3ddfa76f	0.10920607
108	0x3cfc2b1b	0.030782273
109	0x3d7a0a6e	0.061045103
110	0x3dc295e3	0.09501245
111	0xbccc8639	-0.024966346
112	0xbc88cd19	-0.01669936
113	0x3d8dd95f	0.06926226
114	0xbd3eea67	-0.046610262
115	0x3d21f1d1	0.039537255
116	0x3cd80041	0.026367309
117	0x3d476ad8	0.04868588
118	0xbc8efab0	-0.017453521
119	0xbcc6af3a	-0.024253476
120	0x3d0c3128	0.034226567
121	0x3c52f362	0.01287541
122	0xbc016ddd	-0.007899729
123	0x3d7f62ea	0.06235019
124	0x3d1da89d	0.03849088
125	0x3afd3e9e	0.001932103
126	0xbd986746	-0.07441573
127	0xbe094279	-0.13404264
128	0x3df76395	0.12079541
129	0xbe0b1249	-0.13581194
130	0xbe209049	-0.1568004
131	0x3e1844e2	0.14870027
132	0xbd5311e0	-0.05153072
133	0x3eb45dec	0.35227907
134	0xbdf95f82	-0.1217642
135	0x3b8f3d38	0.0043713115
136	0xbd2d7061	-0.0423435
137	0x3d58198c	0.05275874
138	0x39f4124c	0.0004655294
139	0x3d30aa4a	0.04313115
140	0x3d946623	0.072460435
141	0xbc5ba8c5	-0.013406937
142	0x3c22be7a	0.009933108
143	0x3c66791e	0.0140669625
144	0x3d228c53	0.039684605
145	0x3c348fd5	0.01102062
146	0x3c817e69	0.015807347
147	0x3d294774	0.04132791
148	0xbe0e0dd1	-0.13872458
149	0xbd696397	-0.056979742
150	0x3d626d06	0.055279754
151	0xbdb8e5f5	-0.09028236
152	0x3dd204e6	0.102548406
153	0xbd8adbf4	-0.06780234
154	0x3d06ad9c	0.03288041
155	0x3d610022	0.054931767
156	0xbdfbac4e	-0.12288724
157	0x3e00d77e	0.12582204
158	0xbd6b559c	-0.05745469
159	0x3e4454e5	0.1917301
160	0x3c20b337	0.009808353
161	0x3e345d63	0.17613749
162	0x3ccfd88e	0.025371816
163	0x3d00ac34	0.031414226
164	0x3ccbde96	0.02488641
165	0x3c8c837a	0.017152537
166	0xbd948039	-0.07251019
167	0xbde34e8c	-0.11098966
168	0x3e268b36	0.16264042
169	0x3de0d7c9	0.10978658
170	0xbe0b5b06	-0.13608941
171	0x3ce4a463	0.027910417
172	0xbcd09c07	-0.025465025
173	0x3c517dc4	0.0127863325
174	0xbd255755	-0.04036649
175	0xbd325b35	-0.043544013
176	0xbc73d732	-0.0148828495
177	0xbda2a263	-0.07941129
178	0x3d1c7f2c	0.038207218
179	0x396c3d35	0.00022529515
180	0xbe57c3ac	-0.21070737
181	0xbec6c112	-0.38819176
182	0x3e4cfd5d	0.20018525
183	0xbe411020	-0.18853807
184	0x3e2c823e	0.16846558
185	0xbda1693f	-0.07881402
186	0x3ce00c6e	0.027349677
187	0x3e467006	0.19378671
188	0xbeb2863e	-0.34868044
189	0x3c31c2fb	0.01084971
190	0xbbf1c38a	-0.0073780464
191	0xba4a4dc1	-0.0007717275
192	0x3cd5ec94	0.026113786
193	0x3d1edec7	0.038786676
194	0x3d873c80	0.06603336
195	0x3d97f235	0.07419244
196	0x3d28785c	0.04113041
197	0x3ce63a5c	0.028104
198	0xbc4bf2a0	-0.012447983
199	0xbc4bfefb	-0.012450929
200	0xbd34987f	-0.044090744
201	0x3d221b8d	0.039577056
202	0xbc4bbc32	-0.012435006
203	0xbc0ac996	-0.008470913
204	0x3d23eac2	0.040018804
205	0x3c576b52	0.013148146
206	0x3cb826e1	0.022479476
207	0xbd4705e3	-0.0485896
208	0x3c7b79a8	0.015348829
209	0x3d49b526	0.049245022
210	0xbe051eee	-0.1300008
211	0x3c663120	0.014049798
212	0x3d218a67	0.03943863
213	0x3c061752	0.008184271
214	0xbd66670f	-0.056250628
215	0xbe409eba	-0.1881055
216	0x3d0bd1da	0.034135677
217	0xbda522d9	-0.08063287
218	0xbe1e71e4	-0.15473133
219	0xbe45b170	-0.19305968
220	0xbcb7551e	-0.022379454
221	0xbdf068db	-0.117387496
222	0x3e322c8a	0.17399803
223	0x3cb4e728	0.02208288
224	0x3dc48286	0.09595208
225	0x3c7973cf	0.015225365
226	0x3badbb90	0.0053019
227	0xbda88402	-0.082283035
228	0xbd1aa20d	-0.0377522
229	0x3c27c940	0.010240853
230	0x3d47137e	0.048602574
231	0xbdf6f9c2	-0.12059356
232	0x3de3547d	0.11100099
233	0x3c157cfa	0.009124035
234	0x3c85ac69	0.016317563
235	0x3d90f3d2	0.07077755
236	0x3d80deed	0.0629252
237	0x3c934fe8	0.017982438
238	0x3cb9c2ad	0.022675836
239	0xbcc40e23	-0.023932522
240	0xbd05e8ea	-0.032692827
241	0x3d1507da	0.03638444
242	0x3d6c3dcd	0.057676125
243	0x3dad2c7d	0.08455751
244	0x3c6304a9	0.013856092
245	0x3d74db5f	0.05977952
246	0xbc9347b3	-0.017978525
247	0xbb94dfbc	-0.004543273
248	0xbd92718a	-0.07150562
249	0xba8ddf3b	-0.0010823974
250	0xbd52bad4	-0.051447704
251	0x3e1afa74	0.15134603
252	0xbd1a8b1b	-0.037730318
253	0x3d9e476c	0.077284664
254	0xbd9a6ede	-0.075406775
255	0xbdd312ee	-0.10306345

encoder.encoder.3.conv.bias f4 [10]
0	0x3de8bb63	0.11363866
1	0x3dac7601	0.08420945
2	0x3de51613	0.11185851
3	0x3db80091	0.08984483
4	0x3d8a52d3	0.06754079
5	0x3d9b1d22	0.07573916
6	0x3dbb1876	0.09135525
7	0x3dc6ed6a	0.09713252
8	0x3d2dd373	0.04243798
9	0x3cb226f7	0.021747096

decoder.decoder.0.dconv.weight f4 [10, 32, 3, 3]
0	0x3e03296f	0.12808774
1	0xbe40acc5	-0.18815906
2	0xbe787d72	-0.24266604
3	0xbd2e1b67	-0.0425066
4	0xbe4188f4	-0.188999
5	0x3e9c0c4d	0.30478135
6	0x3df060b0	0.11737192
7	0xbeac8aab	-0.33699545
8	0x3ec36af2	0.3816753
9	0x3de6e415	0.11273972
10	0xbe44d747	-0.19222747
11	0x3e5894ae	0.21150467
12	0xbe2ddf82	-0.16979793
13	0xbe2e4196	-0.17017207
14	0xbe7373db	-0.23774664
15	0x3cc884e9	0.024477439
16	0x3ec1e6f0	0.37871504
17	0xbe211f1e	-0.15734527
18	0xbe2d698d	-0.16934796
19	0xbd7c79cb	-0.06163959
20	0x3d1dc7ca	0.03852061
21	0xbe073780	-0.13204765
22	0x3cdda1b4	0.027054645
23	0x3ece5793	0.4030119
24	0xbc90fb3c	-0.017697923
25	0xbe1e8d7a	-0.15483657
26	0xbd9b2951	-0.0757624
27	0x3cfc9924	0.030834742
28	0xbaadcd42	-0.0013260024
29	0x3e4dda58	0.20102823
30	0xbe56cf9e	-0.20977637
31	0x3dc8c2bc	0.09802768
32	0x3dbe93e0	0.09305549
33	0xbdc00bdb	-0.09377261
34	0xbd700bb2	-0.058604904
35	0xbd6340e9	-0.055481825
36	0xbbb65a8d	-0.0055649937
37	0x3c6ac2c5	0.014328663
38	0xbd564313	-0.05231006
39	0xbdb96622	-0.090526834
40	0x3e07659a	0.13222352
41	0x3db9ad52	0.09066261
42	0x3e5ba533	0.21449737
43	0xbdcb4adc	-0.09926388
44	0x3e73e324	0.23817116
45	0xbda805da	-0.08204241
46	0xbe18520d	-0.1487505
47	0xbea623b3	-0.3244911
48	0x3e7ae51b	0.2450146
49	0x3e11dc5c	0.14244217
50	0xbe8596e5	-0.26091686
51	0xbe95259a	-0.2913025
52	0x3e231569	0.15926136
53	0x3e8483be	0.2588176
54	0x3e68546d	0.22688456
55	0x3e11217e	0.14172933
56	0xbc7db7ab	-0.015485684
57	0xbe647962	-0.22311929
58	0xbd569dab	-0.052396458
59	0x3e6ed489	0.23323263
60	0xbd4bbc4f	-0.049740132
61	0x3e295f48	0.16540253
62	0xbdc86fef	-0.09786975
63	0xbdc4acc1	-0.09603263
64	0xbd558e73	-0.052137803
65	0x3c608550	0.013703659
66	0x3d8dedf7	0.06930154
67	0xbdac0f2a	-0.0840133
68	0x3dc0b1b1	0.09408892
69	0xbda5784f	-0.08079588
70	0xbe0fa4d3	-0.14027719
71	0xbba4cfb5	-0.0050296434
72	0x3c32be18	0.01090958
73	0x3c4d8d9f	0.012545972
74	0xbca75763	-0.020427411
75	0x3d8d1613	0.06888976
76	0xbd190a29	-0.037363205
77	0xbde7df88	-0.11321932
78	0xbe1692fb	-0.14704506
79	0xbd9212ff	-0.071325295
80	0xbd2bde32	-0.04195995
81	0x3db0a7f5	0.08625785
82	0x3d445aec	0.047938272
83	0xbcbe7b50	-0.02325216
84	0xbdc6f2e2	-0.09714295
85	0x3d9dd424	0.07706478
86	0x3e54db31	0.2078674
87	0x3e28c820	0.16482592
88	0xbe3c3b08	-0.18381894
89	0x3e7f668e	0.24941465
90	0xbc8de131	-0.017319294
91	0x3d6fa555	0.058507282
92	0x3de10a05	0.10988239
93	0xbe29764c	-0.16549033
94	0xbe598862	-0.21243432
95	0xbcd4bade	-0.025968011
96	0xbe6d7e70	-0.23192763
97	0x3e17a1f2	0.14807871
98	0x3ef39f69	0.47582558
99	0x3e2ee064	0.17077786
100	0xbd02b6a7	-0.031912472
101	0x3dae7837	0.08519023
102	0x3d9526f8	0.07282823
103	0xbde685c9	-0.11255986
104	0xbe783ce2	-0.24241975
105	0x3e006c49	0.12541308
106	0x3ddbf306	0.107397124
107	0x3d2f765d	0.04283749
108	0x3da047f9	0.07826228
109	0xbc429765	-0.011876916
110	0x3d524692	0.051336832
111	0xbe540abd	-0.20707221
112	0xbf0c7002	-0.5485841
113	0x3ec068ec	0.3758005
114	0x3dfdb665	0.123883046
115	0xbdfffd05	-0.124994315
116	0x3ebcf096	0.36902303
117	0x3d378f9d	0.044814695
118	0xbd02c090	-0.031921923
119	0x3d10438d	0.03522067
120	0x3eadebb9	0.33968905
121	0xbc989908	-0.018627658
122	0xbe513a64	-0.2043243
123	0x3ce52e1a	0.027976085
124	0xbc42f908	-0.011900194
125	0xbc23b9e1	-0.009993047
126	0xbc2c7351	-0.01052554
127	0x3e008158	0.1254934
128	0xbc02b856	-0.007978519
129	0x3b3e2f10	0.002901975
130	0x3df68107	0.12036329
131	0x3de72949	0.112871714
132	0xbe0bc05a	-0.13647595
133	0xbe73eb79	-0.23820294
134	0xbf097ad4	-0.53703046
135	0x3d545aad	0.051844288
136	0x3e00743d	0.12544341
137	0x3e0f5caf	0.140002
138	0x3df72558	0.1206767
139	0xbe5420d2	-0.20715645
140	0xbe155272	-0.14582232
141	0xbe2f9b1b	-0.17149012
142	0xbdc2e012	-0.09515394
143	0xbdbfea2c	-0.093708366
144	0xbd39b81e	-0.045341603
145	0x3b0e3a25	0.0021702137
146	0xbd0bed38	-0.034161776
147	0x3c317a37	0.010832361
148	0xbe0de51c	-0.1385693
149	0x3df9e5c9	0.12202031
150	0x3e5008db	0.20315878
151	0xbcfbecd7	-0.030752582
152	0x3d39a2c7	0.045321252
153	0xbcc5539e	-0.024087723
154	0xbd8899fb	-0.066699944
155	0xbb8a0d74	-0.0042130295
156	0xbb8f1040	-0.004365951
157	0xbda5d627	-0.08097487
158	0x3cd1ddfa	0.025618542
159	0x3c1f01bb	0.009705002
160	0x3c917c16	0.017759364
161	0xbcef9793	-0.02924708
162	0x3dd17f7e	0.10229395
163	0x39a5a37b	0.00031593055
164	0x3e12f99d	0.14353032
165	0x3d21fd9f	0.039548513
166	0xbea402c9	-0.32033375
167	0x3cb309f3	0.02185533
168	0xbe8e83e1	-0.2783499
169	0x3dd5363c	0.10410735
170	0x3e18a71e	0.149075
171	0x3bba737a	0.0056900354
172	0xbe3ab3f7	-0.18232714
173	0x3e95b43c	0.2923907
174	0x3ca02a09	0.019551294
175	0xbe1aa4f1	-0.15101983
176	0x3e23fa34	0.16013414
177	0xbda3634c	-0.07977924
178	0xbdb3f63a	-0.08787198
179	0x3ea6f3fe	0.32608026
180	0x3d1e34fb	0.038624745
181	0x3d14d6ac	0.03633754
182	0xbe782dc6	-0.24236211
183	0x3dd8bcb3	0.105828665
184	0xbedf3969	-0.43598488
185	0x3e527d2c	0.20555562
186	0x3e040c91	0.12895419
187	0xbe3eba12	-0.18625668
188	0xbe2fa3a4	-0.17152268
189	0xbe0151d2	-0.12628868
190	0xbe1f7a49	-0.15573992
191	0xbda34b20	-0.07973313
192	0xbded5c59	-0.115898795
193	0xbd5eaffe	-0.054367058
194	0x3e2ae821	0.16690113
195	0x3ac8c04c	0.0015316098
196	0x3e0105a6	0.12599811
197	0x3e43adfe	0.19109342
198	0xbc6906d7	-0.014222822
199	0x3d05c915	0.03266247
200	0x3d153c14	0.036434248
201	0x3d68b699	0.056814764
202	0xbe92af41	-0.28649333
203	0x3e86d2b3	0.26332626
204	0x3e714070	0.23559737
205	0xbe4302a6	-0.19043979
206	0x3e4646a0	0.19362879
207	0xbd58c10e	-0.052918486
208	0xbf12a5e1	-0.5728436
209	0x3dca5cd7	0.09880989
210	0xbddc5115	-0.10757653
211	0xbd71c022	-0.059021123
212	0x3e9ff41b	0.31240925
213	0x3c608d16	0.0137055125
214	0xbb734972	-0.0037122634
215	0x3e526121	0.20544864
216	0x3e732342	0.23743919
217	0x3e9970fb	0.2996901
218	0x3d76f23a	0.0602896
219	0x3e4f2b8c	0.20231456
220	0xbdd52153	-0.10406747
221	0x3d815338	0.06314701
222	0x3e82c706	0.25542468
223	0x3e7ca90e	0.24673864
224	0x3ea9d0bc	0.33167064
225	0xbddb62f1	-0.10712231
226	0x3cd0a903	0.025471216
227	0x3ee3a716	0.44463414
228	0x3e742a17	0.23844181
229	0xbe1338d7	-0.14377151
230	0xbeb97ef9	-0.36229685
231	0x3ea456c5	0.3209745
232	0xbc494f81	-0.012287022
233	0x3d965714	0.073408276
234	0x3d8c2382	0.0684271
235	0xbdada202	-0.08478166
236	0x3d991bef	0.07476031
237	0xbe08b83b	-0.13351528
238	0xbed96933	-0.42463073
239	0x3e2f4849	0.17117418
240	0x3c12c176	0.0089572575
241	0x3dfc4657	0.12318104
242	0x3e8c8856	0.27447766
243	0xbdb77655	-0.08958117
244	0x3e26ec96	0.16301188
245	0xbde5aba0	-0.112143755
246	0xbbb1bcff	-0.0054241414
247	0xbd0224a8	-0.03177324
248	0x3d8e7714	0.06956306
249	0xbd25d230	-0.040483654
250	0x3d98c53c	0.074594945
251	0x3dce1c7b	0.10064026
252	0xbd3ba8ec	-0.045815393
253	0x3e3b224a	0.18274799
254	0xbccc977a	-0.024974573
255	0x3cbe7596	0.023249429

decoder.decoder.0.dconv.bias f4 [32]
0	0x3d7c26d3	0.061560463
1	0x3e78aad1	0.24283911
2	0x3e169606	0.14705667
3	0x3d3e2cd7	0.04642948
4	0xbdd01799	-0.10160751
5	0x3e0ded68	0.13860095
6	0xbdc5c74b	-0.09657153
7	0xbd87e772	-0.066359416
8	0xbd0a761a	-0.033804037
9	0x3db1f119	0.08688564
10	0x3e7fb555	0.24971516
11	0x3e48465a	0.19558087
12	0xbdff16a6	-0.12455492
13	0xbe98af0c	-0.2982105
14	0x3d699661	0.057028178
15	0x3d3d840c	0.046268508
16	0xbc7ddc8e	-0.015494479
17	0xbef5e216	-0.48024052
18	0x3ea2764f	0.31730887
19	0x3dae95b4	0.08524647
20	0x3e1c1c55	0.15245183
21	0xbd49c9ee	-0.04926484
22	0x3d04abc7	0.032390382
23	0xbd58baf5	-0.05291267
24	0xbe2fce10	-0.1716845
25	0x3dd56139	0.104189344
26	0xbdbf0254	-0.09326616
27	0xbdfa2a9f	-0.122151606
28	0xbd47d0a1	-0.04878295
29	0x3ad382d0	0.0016137008
30	0xbd1ae885	-0.037819404
31	0x3e8e3887	0.27777502

decoder.decoder.1.dconv.weight f4 [32, 32, 3, 3]
0	0xbe8030e1	-0.25037292
1	0x3e0dc4ec	0.13844651
2	0x3d319273	0.043352555
3	0xbe826d38	-0.25473952
4	0xbe292e7f	-0.16521643
5	0x3e3bc6b3	0.18337516
6	0x3dd6185e	0.104538664
7	0x3ed4a96b	0.41535506
8	0x3e8d4b10	0.2759633
9	0xbd06f1dc	-0.0329455
10	0xbda319ff	-0.07963943
11	0xbe569fd8	-0.20959413
12	0xbe6aa659	-0.22915019
13	0xbeb65534	-0.3561188
14	0xbe604c25	-0.21904047
15	0x3df87655	0.12131945
16	0xbf09348e	-0.5359582
17	0x3ed47891	0.41498235
18	0xbe4567e2	-0.1927791
19	0xbe528ffa	-0.20562735
20	0x3cbd1a16	0.023083728
21	0x3dee6de7	0.11642056
22	0xbe8d4dbb	-0.27598366
23	0xbbb638da	-0.0055609765
24	0x3e73f420	0.23823595
25	0x3ddece18	0.10879153
26	0x3da9aa7f	0.08284473
27	0x3e7393ba	0.23786822
28	0xbebb2a48	-0.36555696
29	0xbdd2768d	-0.10276518
30	0xbe601253	-0.2188199
31	0xbec92dcc	-0.39292753
32	0xbe7ee20b	-0.24890916
33	0x3d9bacb2	0.076012984
34	0xbe0d6c1f	-0.13810776
35	0x3d4cd86c	0.050011083
36	0xbe30019b	-0.17188112
37	0xbdb5a9ca	-0.08870275
38	0xbd25ff32	-0.040526576
39	0xbe346a0a	-0.17618576
40	0xbee8f027	-0.45495722
41	0xbe1ab3d6	-0.15107664
42	0xbe570eeb	-0.21001785
43	0x3ec91a6a	0.39277965
44	0x3f3fd5f1	0.74935824
45	0x3eb136c5	0.34612098
46	0xbe49ed69	-0.19719471
47	0xbe023a6a	-0.12717596
48	0xbf346292	-0.70462906
49	0xbe8d7c70	-0.27634
50	0xbc12aa2c	-0.008951705
51	0x3dc25409	0.09488685
52	0x3e7298bb	0.23691075
53	0xbe3b457d	-0.18288226
54	0xbdcd6dc6	-0.10030703
55	0xbf05acb7	-0.52216667
56	0xbd30b41a	-0.04314051
57	0xbe9d9bad	-0.30782834
58	0x3cc63c24	0.0241986
59	0xbdcac410	-0.09900677
60	0x3dbc77a6	0.09202509
61	0x3e5e006b	0.21679847
62	0x3e0ba053	0.13635378
63	0xbe780e67	-0.24224244
64	0xbdbc5ea8	-0.09197742
65	0x3c999097	0.018745704
66	0xbe3cb941	-0.18430044
67	0xbeada803	-0.33917245
68	0xbe1b0aed	-0.15140887
69	0x3bd25604	0.0064189453
70	0xbdcc9666	-0.09989624
71	0x3e07afcf	0.1325066
72	0x3ba133e0	0.004919514
73	0xbeb80b0a	-0.35945922
74	0xbe19da0d	-0.15024586
75	0x3d62a5e6	0.055333994
76	0xbe7424b8	-0.23842132
77	0xbd65f5fc	-0.056142792
78	0xbeb4cce5	-0.35312572
79	0x3e1bf6fa	0.15230933
80	0x3e4c9011	0.19976832
81	0x3e65fe8a	0.2246038
82	0x3d6a6753	0.057227444
83	0xbed2a3f8	-0.41140723
84	0xbeb2672d	-0.34844342
85	0xbd81b251	-0.06332839
86	0x3ed26636	0.41093606
87	0xbf257e49	-0.6464582
88	0xbd05bc6e	-0.032650404
89	0x3e9e3c08	0.30905175
90	0xbc30739c	-0.010769751
91	0xbd0ccee3	-0.03437699
92	0x3ca92cb7	0.020651205
93	0xbf5873b4	-0.8455155
94	0x3ca81ae1	0.02052063
95	0xbeb4548a	-0.35220748
96	0x3eb7caca	0.35896903
97	0xbc2d26d8	-0.010568343
98	0x3d8fd68e	0.07023345
99	0x3e153435	0.14570697
100	0x3dc16971	0.094439395
101	0xbc7bc8a4	-0.015367661
102	0xbebfc867	-0.37457582
103	0xbd6f7a6c	-0.05846636
104	0x3ea579f1	0.32319596
105	0x3efbb532	0.4916168
106	0xbf10980f	-0.56482023
107	0x3e8b1f66	0.27172393
108	0xbec67e7b	-0.38768372
109	0xbf3a4b35	-0.72771007
110	0xbe9bfad3	-0.304648
111	0xbe85c603	-0.26127633
112	0xbefafa6b	-0.4901918
113	0x3cbb8f21	0.022895398
114	0xbe062d91	-0.1310332
115	0xbe591b84	-0.21201903
116	0xbeeb4aa5	-0.45955387
117	0x3e606b6e	0.21915981
118	0xbe95a89c	-0.292302
119	0x3e0c3df8	0.13695514
120	0xbf118f5d	-0.5685938
121	0xbe6e30d1	-0.2326081
122	0xbec01c12	-0.37521416
123	0xbe914220	-0.28370762
124	0x3e88d749	0.2672675
125	0x3d800d5f	0.0625255
126	0x3da122bf	0.078679554
127	0xbe44c5b5	-0.19216044
128	0xbeecb805	-0.46234146
129	0xbf04a17a	-0.51808894
130	0xbd6e7a52	-0.058222122
131	0x3ea3d0c0	0.319952
132	0xbd77ef02	-0.06053067
133	0x3e334665	0.17507322
134	0xbe1ff18d	-0.15619488
135	0xbe75bbff	-0.23997496
136	0xbea3429a	-0.3188675
137	0xbd2d9a4f	-0.04238349
138	0x3c429112	0.011875408
139	0xbf1646ed	-0.58701974
140	0x3e4b3fa9	0.19848503
141	0x3d3a8d91	0.045545164
142	0x3ec0c67e	0.37651438
143	0xbe1be577	-0.15224253
144	0xbf3e9f7f	-0.7446212
145	0xbe4bf5a2	-0.1991792
146	0xbefb0543	-0.49027452
147	0xbe860b28	-0.26180387
148	0x3ecc3ea9	0.39891556
149	0x3d4a8b22	0.049449094
150	0xbf06850b	-0.5254676
151	0x3f312d26	0.69209516
152	0x3ed34bb0	0.41268682
153	0x3d7d016f	0.061768945
154	0xbe36d4e9	-0.17854656
155	0xbef0d13f	-0.47034642
156	0xbf44e463	-0.7691099
157	0xbd786d8f	-0.06065136
158	0xbf0dc4d4	-0.5537846
159	0xbd8ca555	-0.06867472
160	0xbcadd8f3	-0.021221614
161	0xbd213c7a	-0.039364316
162	0x3e091b25	0.13389261
163	0xbe81265b	-0.25224575
164	0xbea97dc5	-0.33103767
165	0xbefc8ddc	-0.4932698
166	0xbe990686	-0.2988779
167	0x3effa554	0.49930823
168	0xbd8845c6	-0.06653933
169	0x3e70944e	0.23494074
170	0xbd9a0f08	-0.07522398
171	0xbdd52242	-0.10406925
172	0xbe051d1f	-0.1299939
173	0xbeebecfd	-0.46079245
174	0xbe63b08a	-0.22235313
175	0xbc5c57d1	-0.013448671
176	0xbe7ab100	-0.24481583
177	0xbc155aaf	-0.009115859
178	0x3db28ba2	0.08718039
179	0x3ea0eb5f	0.31429574
180	0xbc65c6d4	-0.014024455
181	0xbd44c6cc	-0.04804115
182	0xbd19a9be	-0.037515394
183	0xbd2b16c8	-0.041769773
184	0x3c4a4ba2	0.012347134
185	0x3bd16244	0.006389888
186	0x3d518009	0.051147494
187	0xbacf8dfd	-0.0015835162
188	0xbc6aebf0	-0.014338478
189	0xbe6fe4a9	-0.2342707
190	0xbe0cea93	-0.13761358
191	0xbf1fad2f	-0.6237363
192	0xbf2d827f	-0.67777246
193	0xbe49df05	-0.19713981
194	0xbca6d249	-0.020363944
195	0xbebe77f3	-0.3720089
196	0xbf15b0e9	-0.5847307
197	0x3e234121	0.15942813
198	0x3dc4301b	0.09579488
199	0x3da36b55	0.07979456
200	0xbe946e21	-0.28990272
201	0xbe4984b6	-0.19679531
202	0xbef9ec5d	-0.48813143
203	0xbe87d42d	-0.26529065
204	0x3e9b1f54	0.3029734
205	0x3e151657	0.14559303
206	0xbef60662	-0.48051745
207	0xbe8f1d54	-0.27952063
208	0x3e3f66ea	0.18691602
209	0xbd9b47ff	-0.075820915
210	0xbe2620d4	-0.1622346
211	0x3eaba955	0.33527628
212	0x3dece7ca	0.11567648
213	0xbe4d39f1	-0.20041634
214	0xbf04ed75	-0.5192483
215	0x3efad70a	0.48992187
216	0xbe524b5a	-0.20536557
217	0xbdc58941	-0.0964532
218	0xbe845a05	-0.2584993
219	0x3e426dff	0.18987273
220	0xbe2e4612	-0.17018917
221	0xbed4a87d	-0.41534796
222	0x3d5240fd	0.05133151
223	0xbd14eed7	-0.036360588
224	0x3d5fa44f	0.054600056
225	0xbdce3f8f	-0.100707166
226	0xbce1ed4a	-0.027578969
227	0x3e9cdfed	0.30639592
228	0xbe4420a0	-0.1915307
229	0xbeccbf00	-0.3998947
230	0x3ec372e4	0.38173592
231	0x3e2e79c7	0.17038642
232	0xbe1a6743	-0.15078454
233	0xbe40f80d	-0.18844624
234	0xbb7405f0	-0.0037234984
235	0x3e59178b	0.21200387
236	0xbcf9ee8b	-0.030509254
237	0xbcf075b4	-0.029353
238	0xbe7b56ca	-0.24544826
239	0xbd4e33a9	-0.050342236
240	0xbd407ec2	-0.046995886
241	0xbf322540	-0.6958809
242	0xbc9625e6	-0.018328618
243	0xbe1a1e24	-0.1505056
244	0xbe43127c	-0.1905002
245	0x3dc3022a	0.09521897
246	0xbe31c4a4	-0.17360169
247	0xbcc675f1	-0.02422616
248	0x3f22c69b	0.635843
249	0x3e9e401a	0.3090828
250	0x3e8c821b	0.27443013
251	0x3ed9099b	0.4239014
252	0xbf3e675f	-0.7437648
253	0xbc26f6de	-0.010190694
254	0xbd7229c4	-0.059121862
255	0xbefc77f2	-0.4931026

decoder.decoder.1.dconv.bias f4 [32]
0	0x3d78b530	0.06071967
1	0x3e0eadae	0.13933441
2	0x3dc393e0	0.09549689
3	0x3db4809c	0.08813593
4	0xbd404f77	-0.046950784
5	0x3e76882f	0.24075387
6	0x3deaf812	0.11473097
7	0x3d944cd4	0.07241216
8	0x3d3e3ac6	0.04644277
9	0x3d98a600	0.07453537
10	0x3c0356c7	0.008016295
11	0x3db4b62c	0.08823809
12	0x3e084cb8	0.13310516
13	0x3db42728	0.08796531
14	0x3decf9cb	0.11571082
15	0x3d4bb1a8	0.049729973
16	0xbcc1fffb	-0.023681631
17	0x3e032539	0.12807168
18	0x3e0817f2	0.13290384
19	0x3da01874	0.07817164
20	0xbde00fa0	-0.1094048
21	0x3c4be02d	0.012443584
22	0xbcd023f4	-0.025407769
23	0x3e8183b6	0.252958
24	0x3e08f940	0.13376331
25	0x3e14a780	0.14517021
26	0xbdd25b34	-0.10271302
27	0x3df85ded	0.1212729
28	0x3d91e1c8	0.071231425
29	0xbdedb1b7	-0.11606162
30	0x3dc3022a	0.09521897
31	0x3dd80350	0.10547507
