notebooks/saved_model/mnist_model/mnist_cae_1/mnist_cae00004.pth (torch, 541279 bytes, 51 tensors)

encoder.encoder.0.conv.weight f4 [32, 1, 3, 3]
0	0x3d8d5860	0.06901622
1	0xbca9d708	-0.020732418
2	0x3e9aa0e7	0.30200884
3	0xbd9e5476	-0.077309534
4	0xbbd92e8c	-0.0066278633
5	0x3da155dc	0.078777045
6	0xbd996362	-0.07489659
7	0x3ebe6f5d	0.37194338
8	0x3e8efa0b	0.27925143
9	0x3e77b1b7	0.24188887
10	0xbe9011d3	-0.281386
11	0xbefcdea6	-0.49388617
12	0xbdd7d1a8	-0.10538036
13	0xbd696df3	-0.05698962
14	0xbc95b744	-0.018275864
15	0x3ce7578e	0.028239992
16	0x3e72405c	0.23657364
17	0x3ee9acf6	0.4563977
18	0x3e246c61	0.16056968
19	0x3e3d6d05	0.18498619
20	0xbe7df520	-0.24800539
21	0x3ec1010f	0.3769612
22	0xbda5d83b	-0.08097883
23	0x3e7bc575	0.24587043
24	0x3e0834b7	0.13301359
25	0xbd092438	-0.033481807
26	0x3e91fd9e	0.28513807
27	0xbe1efe62	-0.15526727
28	0x3da1cc38	0.0790028
29	0xbe92f309	-0.28701046
30	0x3e7f3f5e	0.24926516
31	0xbcfec3ba	-0.03109919
32	0xbe3cf0eb	-0.18451278
33	0x3e82de96	0.25560445
34	0xba4aa5ac	-0.00077303755
35	0xbec39db3	-0.38206252
36	0xbd2ecbc4	-0.042674795
37	0x3e11d7fa	0.14242545
38	0xbe9f6d94	-0.3113829
39	0xbd282d49	-0.041058812
40	0xbdbf8240	-0.09351015
41	0xbe8d1b5c	-0.27559936
42	0x3dfd4e07	0.12368398
43	0x3df8a26a	0.12140353
44	0xbe596b60	-0.21232367
45	0xbe3dce74	-0.18535787
46	0xbecc5c43	-0.3991414
47	0xbd8025a9	-0.06257183
48	0x3e1574b0	0.14595294
49	0xbd770866	-0.060310744
50	0xbeaf05de	-0.34184164
51	0x3dc6280f	0.09675609
52	0xbe232788	-0.15933049
53	0xbdce7f2a	-0.10082848
54	0x3ebae4d1	0.36502698
55	0xbd4447af	-0.047919925
56	0xbf049c2c	-0.518008
57	0xbdbe20aa	-0.09283574
58	0xbb6910c1	-0.0035562965
59	0xbf217995	-0.63076144
60	0xbefb8f63	-0.49132833
61	0xbe3a3a12	-0.18186215
62	0xbee92135	-0.45533147
63	0x3dc823ba	0.09772439
64	0x3e9d4b2c	0.30721414
65	0x3d8c7f0d	0.068601705
66	0x3ea41cf2	0.32053334
67	0x3e005260	0.12531424
68	0x3d9c6e13	0.076381825
69	0xbda74d6b	-0.08169063
70	0x3e03aea8	0.12859595
71	0xbea55df9	-0.32298258
72	0xbe02436f	-0.12721036
73	0x3eb4ce37	0.3531358
74	0x3e982dea	0.2972253
75	0xbe3d7e67	-0.1850525
76	0x3e74f160	0.23920202
77	0x3ec205a9	0.37894943
78	0xbd1747b3	-0.036933612
79	0xbed92487	-0.4241068
80	0xbe2e90bf	-0.17047404
81	0x3e6d4ab6	0.23173031
82	0xbd78c3f4	-0.06073375
83	0x3d2332da	0.039843418
84	0xbb357c61	-0.0027692544
85	0x3e0c5136	0.13702855
86	0x3f064aad	0.52457696
87	0xbde8fd79	-0.11376471
88	0x3edf647d	0.43631354
89	0x3ebec01b	0.3725594
90	0xbe1ddf4b	-0.15417211
91	0x3ea0b290	0.31386232
92	0x3e889c3b	0.26681694
93	0xbdd56702	-0.10420038
94	0x3e1501d0	0.14551473
95	0x3e5c62cf	0.21522067
96	0xbdc57585	-0.09641556
97	0xbeb172d7	-0.34657928
98	0x3e74cbb3	0.2390583
99	0x3e71bfce	0.23608324
100	0xbea0523c	-0.3131274
101	0xbec83605	-0.39103714
102	0x3c216110	0.009849802
103	0xbe852d63	-0.2601119
104	0x3e45946c	0.192949
105	0xbe25ab0d	-0.16178532
106	0xbe97e5ca	-0.29667503
107	0xbd35968a	-0.04433302
108	0xbd94a47d	-0.07257936
109	0xbd6b8dce	-0.057508282
110	0x3e703172	0.23456362
111	0x3e747c40	0.23875523
112	0x3bce6463	0.006298588
113	0xbd89efac	-0.06735167
114	0xbdd18937	-0.1023125
115	0x3ea1493f	0.31501195
116	0xbea73f5f	-0.32665536
117	0x3e0e55dc	0.1389994
118	0xbe7d125d	-0.24714036
119	0x3dc3cd71	0.09560669
120	0xbe9b6bdf	-0.30355737
121	0x3d611bcf	0.05495816
122	0x3d2a4524	0.041569844
123	0xbebf3ab6	-0.3734948
124	0x3dfa9a0a	0.12236412
125	0x3ecab92d	0.39594403
126	0x3ec7bcf2	0.3901134
127	0xbeb380f4	-0.3505932
128	0xbebc8249	-0.3681815
129	0x3ee0bf0b	0.43895754
130	0xbdac7ede	-0.084226355
131	0x3e540a25	0.20706995
132	0xbea505c3	-0.32230958
133	0x3e405639	0.18782891
134	0x3e422c3d	0.18962188
135	0x3e6188fb	0.2202491
136	0x3e6c4635	0.23073657
137	0xbc89db54	-0.016828217
138	0x3e98cb0c	0.29842412
139	0xbe12460d	-0.14284535
140	0x3e8f7e5f	0.280261
141	0xbe84e5c3	-0.25956544
142	0xbeacec93	-0.33774242
143	0xbe0ff373	-0.14057712
144	0xbeda738d	-0.42666283
145	0x3cf3e39a	0.029771615
146	0x3e93c8a3	0.2886401
147	0x3d232713	0.039832186
148	0x3ea0c5ce	0.31400913
149	0xbde13832	-0.109970465
150	0x3e9298e6	0.28632277
151	0xbe684767	-0.22683488
152	0xbe740209	-0.23828901
153	0xbeae8c5d	-0.34091464
154	0xbd85eca6	-0.06539278
155	0x3ec7b2df	0.39003655
156	0x3e9a03e4	0.30081093
157	0xbe614798	-0.21999967
158	0xbc926b21	-0.017873349
159	0x3e98b107	0.2982256
160	0xbc3588a9	-0.011079946
161	0xbeca5d98	-0.3952453
162	0x3e25f2e2	0.16205934
163	0x3dc3916e	0.09549223
164	0x3e452bf9	0.19255055
165	0x3dfdb613	0.123882435
166	0xbd9aa18f	-0.07550346
167	0x3e781ad1	0.2422898
168	0xbd80fa9e	-0.062978014
169	0x3e4a0063	0.1972671
170	0x3e6750d9	0.22589435
171	0xbe1132c6	-0.14179525
172	0x3e522c2d	0.20524664
173	0xbdccb0da	-0.09994669
174	0x3e802388	0.25027108
175	0x3e2f5717	0.17123066
176	0x3c53b8ad	0.012922448
177	0xbe5b45bb	-0.21413319
178	0xbe234563	-0.15944438
179	0x3e86c1db	0.26319775
180	0xbeb651fc	-0.35609424
181	0xbeb238da	-0.34809
182	0x3d995cde	0.07488416
183	0x3e4e07f6	0.20120224
184	0x3e07e02d	0.1326911
185	0x3e557853	0.20846681
186	0xbdb1fc53	-0.08690705
187	0x3e93d01a	0.28869706
188	0x3cd6bb76	0.026212435
189	0x3f15380e	0.5828866
190	0xbd4696f7	-0.048483815
191	0xbeabf241	-0.33583263
192	0x3d731680	0.05934763
193	0x3e8a10e7	0.2696602
194	0xbeadaac6	-0.33919352
195	0x3f22c5c8	0.6358304
196	0xbe4da462	-0.20082238
197	0xbea54dd1	-0.32285932
198	0xbe6a97c4	-0.22909456
199	0x3d5ff934	0.054681018
200	0xbeb970d9	-0.36218908
201	0xbd46f981	-0.04857779
202	0x3ef7c6e6	0.48393935
203	0xbe34b294	-0.17646247
204	0x3e9abcd3	0.30222186
205	0x3f04fe95	0.5195096
206	0x3f03b4a6	0.5144752
207	0xbb25c5af	-0.002529483
208	0x3e564ce9	0.20927776
209	0x3e3d9cdc	0.18516868
210	0x3df1a7c3	0.11799576
211	0xbe509375	-0.2036875
212	0x3df6908e	0.1203929
213	0x3e2e4b99	0.17021026
214	0x3ea1c209	0.3159335
215	0x3e00bde0	0.12572432
216	0xbe70c8e4	-0.23514134
217	0xb9c0bc92	-0.0003676159
218	0xbe6f79c5	-0.23386295
219	0xbe57a8d3	-0.21060495
220	0xbe140c07	-0.14457713
221	0xbe06983a	-0.13144007
222	0x3dd4cb72	0.103903666
223	0x3d053d8e	0.032529406
224	0x3d13d872	0.03609509
225	0x3e4feec5	0.20305927
226	0x3f01b681	0.50669104
227	0xbdf872a6	-0.121312425
228	0xbe490ea1	-0.19634487
229	0x3d9316b5	0.071820654
230	0xbe835646	-0.2565176
231	0xbf21d0d2	-0.6320926
232	0xbe8ff348	-0.28115296
233	0xbef3a6b1	-0.47588113
234	0x3e0a68ed	0.13516589
235	0xbcb2c426	-0.021822046
236	0xbeb54f5b	-0.35412106
237	0x3e7f1177	0.24909006
238	0xbeb0bb12	-0.34517723
239	0xbdf43f2a	-0.1192611
240	0xbd7f6699	-0.062353704
241	0x3dc10d59	0.09426374
242	0xbeb37252	-0.35048157
243	0xbeaaef14	-0.33385527
244	0xbe133a07	-0.14377604
245	0xbe8ace0a	-0.2711032
246	0x3e1a73d8	0.15083253
247	0xbe3090b3	-0.17242698
248	0xbe4dd42c	-0.20100468
249	0xbda3e2ce	-0.08002244
250	0x3e51052a	0.20412126
251	0x3dcea134	0.10089341
252	0x3eb65254	0.35609686
253	0x3d0c5dd7	0.03426918
254	0xbecc102b	-0.39856085
255	0x382da65c	4.140135e-05

encoder.encoder.0.conv.bias f4 [32]
0	0xbea004cf	-0.3125367
1	0xb9e907a4	-0.00044446916
2	0xbe93c466	-0.28860778
3	0x3e1e5207	0.15460978
4	0xbe7e82ed	-0.24854632
5	0x3e9ea20a	0.30983
6	0x3e85e7c9	0.261534
7	0xbe13e9bd	-0.14444633
8	0x3c2a9211	0.0104108015
9	0x3b8bb887	0.0042639407
10	0x3ea1f543	0.31632432
11	0x3e8cb00e	0.2747807
12	0x3e12d23e	0.14338014
13	0x3d114644	0.0354674
14	0xbe9dc8fd	-0.30817404
15	0x3ea36fe2	0.31921297
16	0x3c56214b	0.013069461
17	0x3d0e7839	0.034782622
18	0xb95b2190	-0.0002089797
19	0x3e4472a2	0.19184354
20	0x3e4ab97f	0.19797324
21	0xbe097d11	-0.13426615
22	0x3d1d118a	0.038346805
23	0x3b135ecf	0.002248693
24	0x3e9b473c	0.30327785
25	0x3db37539	0.08762593
26	0x3e12443a	0.14283839
27	0x3e5b3f0b	0.21410768
28	0xbe112418	-0.14173925
29	0xbd79d129	-0.060990486
30	0xbe93f7e0	-0.2890005
31	0x3d20f5e9	0.03929702

encoder.encoder.1.conv.weight f4 [32, 32, 3, 3]
0	0xbb9b1df7	-0.0047337967
1	0xbb451f72	-0.0030078557
2	0xbcd8dd94	-0.026472844
3	0xbb3d8f90	-0.0028924681
4	0x3c61c0c6	0.013778871
5	0xbcad233e	-0.021134969
6	0x3c691be4	0.014227841
7	0x3d01570a	0.031577148
8	0x3a3d2ed8	0.0007216758
9	0xbcca820b	-0.024720212
10	0x3bb77d0a	0.0055996226
11	0xbbfeab5f	-0.007771894
12	0xbcb41483	-0.021982437
13	0xbcdefb65	-0.027219484
14	0xbc35415d	-0.011062947
15	0xbd030686	-0.031988643
16	0xbd898244	-0.06714299
17	0xbd5ab29e	-0.053393
18	0xbd03748a	-0.032093562
19	0xbc84ebd2	-0.01622573
20	0xbd806ff6	-0.06271355
21	0x3d280410	0.0410195
22	0xbd345ac7	-0.044031885
23	0xba50b74c	-0.00079618837
24	0x3ba9359c	0.0051638614
25	0x3d2c2621	0.04202855
26	0xbbbd1cf8	-0.0057712756
27	0xbd51340a	-0.05107502
28	0xbd8313e9	-0.06400282
29	0xbcb6c070	-0.022308558
30	0x3c18661c	0.0093016885
31	0xbb393a96	-0.002826368
32	0xbd118309	-0.035525355
33	0xbd9722df	-0.07379698
34	0xbd606e5c	-0.054792747
35	0xbd5f1d6d	-0.054471422
36	0xbca5a86c	-0.020221911
37	0x3d477990	0.048699915
38	0xbd712b41	-0.05887914
39	0x3c78607c	0.015159722
40	0xbd8d5e22	-0.0690272
41	0x3d0463db	0.032321792
42	0xbbd2ead8	-0.006436687
43	0xbcf7cc81	-0.030248882
44	0xbd64b19f	-0.055833455
45	0x3d1cdc53	0.038296055
46	0xbceee393	-0.02916125
47	0xbd276135	-0.04086419
48	0xbca69d9a	-0.020338822
49	0xbceee201	-0.029160501
50	0xbb2305b1	-0.0024875219
51	0xbd78fd6d	-0.06078856
52	0xbc2394d0	-0.00998421
53	0x3cb75dd2	0.022383604
54	0xbd13719b	-0.035997014
55	0xbcb158bc	-0.021648757
56	0xbc959fcc	-0.018264674
57	0xbc9e6f7c	-0.01934027
58	0xbd7e0b10	-0.06202227
59	0xbd614b9f	-0.05500376
60	0x3caa6b63	0.02080316
61	0xbc2b7ddd	-0.01046702
62	0x3aedda5c	0.0018146741
63	0x3d0401ff	0.032228466
64	0xbd4935e8	-0.049123675
65	0xbcdd4cbc	-0.027014129
66	0xbd0c9241	-0.034319166
67	0xbba9ba6e	-0.005179695
68	0xbc5a8a81	-0.013338686
69	0xbbeb22dc	-0.0071757864
70	0xbd7a3e30	-0.061094463
71	0x3d0698d8	0.032860607
72	0xbd03a909	-0.032143626
73	0xbd1ee415	-0.038791735
74	0xbd14124c	-0.03615026
75	0x3cbd6372	0.023118708
76	0xbca96302	-0.020677093
77	0xbd2e2d18	-0.042523474
78	0xbd9127b7	-0.07087653
79	0xbc729199	-0.014805221
80	0xbd869430	-0.06571233
81	0x3d1c1663	0.038107287
82	0xbbcac114	-0.0061875675
83	0xbd54c91b	-0.0519496
84	0xbcf02d9d	-0.029318625
85	0xbd3b9951	-0.04580051
86	0xbd83f6dd	-0.0644357
87	0xbd8b049d	-0.06787989
88	0x3c374b3d	0.011187372
89	0x3ce7f332	0.028314207
90	0x3c8f4d60	0.01749295
91	0xbd879031	-0.06619299
92	0xbc879e37	-0.016554935
93	0xbd5e38fc	-0.054253563
94	0xbd604043	-0.054748785
95	0x3af4e605	0.0018684274
96	0x3cac7bea	0.02105518
97	0xbcd241e9	-0.025666194
98	0xbcd5ce7e	-0.02609944
99	0xbd8a7cee	-0.0676211
100	0x3c583f63	0.013198706
101	0x3c921dc6	0.017836463
102	0x3c2e8e4e	0.010654045
103	0xbaf2539c	-0.0018488052
104	0xbd89fec7	-0.06738048
105	0xbd433737	-0.04766008
106	0x3ce828b8	0.028339729
107	0x3c0488a5	0.008089219
108	0x3bd9fabc	0.0066522043
109	0x3d2745e9	0.040838156
110	0xbd3fac27	-0.046795037
111	0xbd17c553	-0.037053417
112	0x3d2108ef	0.03931516
113	0xbd9108d3	-0.07081761
114	0x3d187e01	0.03722954
115	0xbc9d9f8a	-0.019241113
116	0xbd0610fc	-0.03273104
117	0x3d366a95	0.04453524
118	0xbd49583b	-0.04915641
119	0xbd5a5215	-0.053300936
120	0xbd843e48	-0.06457192
121	0xbd2aed2b	-0.041730087
122	0xbd771ad5	-0.060328323
123	0xbbb46e53	-0.0055063157
124	0x3d066379	0.03280971
125	0x3bcfa879	0.006337222
126	0xbd32f2b3	-0.043688487
127	0xbd3c3e82	-0.04595805
128	0xbb3c3303	-0.0028716929
129	0x3bbdda96	0.0057938797
130	0x3ced2109	0.028946416
131	0xbd792506	-0.060826324
132	0x3d310ba2	0.043223985
133	0xbc75a2dc	-0.014992442
134	0x3ba1f370	0.00494235
135	0xbc64ad6f	-0.013957365
136	0xbd9a64f1	-0.07538784
137	0x3d264d4e	0.040601067
138	0x3c35b935	0.01109152
139	0xbd630b45	-0.05543067
140	0xbd8f81a6	-0.0700715
141	0x3d180b68	0.037120253
142	0xbd8131b1	-0.06308306
143	0x3c99917c	0.01874613
144	0x3c110b6f	0.008852824
145	0xbc82943d	-0.015939826
146	0xbd125351	-0.035723988
147	0xbbbacb7f	-0.005700528
148	0xbd378f13	-0.04481418
149	0xbc105669	-0.008809664
150	0x3ae368c2	0.0017349946
151	0x3d2bfbe0	0.041988254
152	0xbd07ae6a	-0.03312532
153	0xbce5d2cd	-0.02805462
154	0x3bc436ee	0.0059879934
155	0x3cf4a81f	0.029865323
156	0x3cff3c78	0.031156763
157	0xbb20c86d	-0.0024533526
158	0xbd6ebcce	-0.058285527
159	0xbcef4a93	-0.029210364
160	0xbd3077ba	-0.04308293
161	0x3d298371	0.041385118
162	0x3cf5f219	0.030022668
163	0x3cf2eb98	0.029653355
164	0x3d1eff78	0.038817853
165	0xbb8f626f	-0.004375748
166	0x3d089cb7	0.03335258
167	0xbd98aefa	-0.07455249
168	0x3ce8e9f3	0.028431868
169	0x3ce36080	0.027755976
170	0xbc9d9d35	-0.019240001
171	0xbd22ff7c	-0.03979443
172	0x3c6bc2ef	0.0143897375
173	0xbbb0e416	-0.0053982837
174	0xbd1f45d6	-0.03888496
175	0xbd85ee3e	-0.06539582
176	0xbd046561	-0.032323245
177	0xbc18f268	-0.009335138
178	0xbc0e812c	-0.008697789
179	0xbd6d467f	-0.05792856
180	0x3cf802d8	0.030274794
181	0x3cb1479f	0.021640597
182	0xbd5b7db1	-0.053586666
183	0x3cc7c53e	0.024386045
184	0xbac0bc91	-0.0014704635
185	0x3c373f3c	0.01118451
186	0xbbf8d44b	-0.0075936667
187	0xbd649e7e	-0.055815212
188	0x3cabd3c4	0.020975001
189	0x395d7b00	0.00021122023
190	0x3cbd22e3	0.023087924
191	0xbd3417b8	-0.043967932
192	0x3d34acbc	0.044110045
193	0xbd18e3dc	-0.03732668
194	0x3d8e9547	0.06962066
195	0x3b06bed5	0.0020560522
196	0xbd2f95d1	-0.042867485
197	0xbb51da77	-0.0032021084
198	0x3bc6f98e	0.0060722297
199	0xbc917726	-0.01775701
200	0x3c90df4d	0.017684603
201	0x3d300a93	0.042978834
202	0x3cb4de33	0.02207861
203	0x3c9bb158	0.019005463
204	0x3cda3103	0.026634699
205	0x3cb3510e	0.021889236
206	0x3c98c008	0.018646255
207	0xbce3389f	-0.02773696
208	0x3cfdf168	0.0309989
209	0xbce29c24	-0.027662344
210	0xbcec32ac	-0.028832756
211	0xbce62e2b	-0.028098186
212	0xbd894931	-0.06703413
213	0xbd19ef75	-0.03758188
214	0xbd8a0d97	-0.06740873
215	0x3bbe8c5f	0.0058150734
216	0x3d025fd7	0.03182968
217	0x3c87dabb	0.016583791
218	0x3cdf78bc	0.02727925
219	0x3b6949a1	0.0035596865
220	0x3c6cd520	0.01445511
221	0xbc09948f	-0.008397236
222	0xbd1eda09	-0.038782153
223	0xbd3a963c	-0.04555343
224	0x3c4b1830	0.0123959035
225	0x3d07b36f	0.033130106
226	0x3bf0d518	0.0073496215
227	0xbd4c4774	-0.04987283
228	0xbd240245	-0.040041227
229	0xbd5bd9a0	-0.05367434
230	0xbcdc477b	-0.026889553
231	0x3c168fc3	0.009189549
232	0xbd2e1ba3	-0.042506825
233	0xbd3934b6	-0.045216285
234	0x3c3ee24d	0.011650634
235	0xbb98a1d7	-0.0046579647
236	0xbd69693a	-0.056985117
237	0xbce70c89	-0.02820422
238	0x3cf7daa0	0.030255616
239	0xba6cfada	-0.00090400653
240	0xbd56a8fb	-0.052407246
241	0xbcef3a81	-0.029202702
242	0xbd8eeae5	-0.06978396
243	0x3d2cfce7	0.042233374
244	0x3d46ab65	0.0485033
245	0xbc1ec72e	-0.009691043
246	0xbd23d1e3	-0.039995085
247	0xbce36dfe	-0.02776241
248	0xbd897c39	-0.06713147
249	0xbd6280f9	-0.05529878
250	0xbd390afe	-0.0451765
251	0xbc55db52	-0.013052778
252	0xbd76bf04	-0.06024076
253	0xbd35e2b5	-0.044405658
254	0xbc9416ad	-0.018077219
255	0xbc6fa301	-0.0146262655

encoder.encoder.1.conv.bias f4 [32]
0	0xba027c8f	-0.0004977667
1	0x3cbd3f1f	0.023101388
2	0xbc335d0e	-0.010947479
3	0xbcdf6a4c	-0.027272366
4	0xbd21ed26	-0.039532803
5	0x3b797b7a	0.0038067983
6	0x3d5ee89a	0.054421045
7	0x3cbc5825	0.02299125
8	0xbb875479	-0.004129943
9	0x3d7f3d12	0.0623141
10	0xbc42c2f9	-0.011887305
11	0xbc6070f3	-0.013698804
12	0x3a9bd043	0.0011887628
13	0xbd5a09cc	-0.053232
14	0xbd5a4188	-0.05328515
15	0x3da4422e	0.08020435
16	0x3d72ae87	0.059248473
17	0x3b77a167	0.0037785412
18	0x3d9b3825	0.07579068
19	0x3c05e12f	0.008171364
20	0xbccaa093	-0.02473477
21	0xbcb88129	-0.022522526
22	0xbd8ac1b0	-0.06775224
23	0xbd55b0e8	-0.052170664
24	0xbd45e413	-0.04831321
25	0x3d798628	0.060918957
26	0x3cb25bc6	0.021772277
27	0xbd3b39fb	-0.04570959
28	0xbc9dc69a	-0.01925974
29	0xbd1d9b18	-0.038477987
30	0x3cec32cd	0.028832817
31	0x3bc8ae36	0.006124283

encoder.encoder.2.conv.weight f4 [32, 32, 3, 3]
0	0xbcc4aa7c	-0.024007075
1	0xbcf7484e	-0.030185845
2	0x3d42018f	0.047364768
3	0xbbbc390a	-0.0057441043
4	0xbbbc2125	-0.005741256
5	0xbc571594	-0.013127703
6	0xbd546d27	-0.05186191
7	0xbd4a3ae8	-0.049372584
8	0x3d84d316	0.06485574
9	0xbcff7725	-0.031184742
10	0xbc492e71	-0.012279139
11	0xbd585ad2	-0.052820988
12	0xbc8ab823	-0.016933506
13	0x3d088613	0.03333099
14	0xbd309fb8	-0.04312107
15	0xbd663869	-0.05620614
16	0xbc1a799f	-0.009428411
17	0xbd396813	-0.04526527
18	0x3b8890e8	0.004167665
19	0xbd5e45c4	-0.054265752
20	0x3d0e345f	0.034717914
21	0x3c9d7f0a	0.019225616
22	0xba731780	-0.0009273216
23	0x3d5e53a1	0.054278973
24	0xbc425bea	-0.011862734
25	0xbd4b0da7	-0.049573567
26	0x3cadaa96	0.021199506
27	0xbd101f43	-0.035186063
28	0xbd82c31b	-0.0638487
29	0xbd609992	-0.054833956
30	0xbc73bede	-0.014877049
31	0xbd981d6d	-0.074274875
32	0x3d261371	0.040545885
33	0xbc938bf4	-0.01801107
34	0xbd8e2eca	-0.06942518
35	0x3d647a06	0.055780433
36	0xbd55e09e	-0.052216165
37	0xbc911cca	-0.017713923
38	0x3cabef3a	0.020988096
39	0xbc5266ec	-0.012841921
40	0x3ceccba8	0.028905705
41	0x3d1e0daf	0.03858727
42	0xbc27b968	-0.010237075
43	0x3c239ed2	0.009986596
44	0xbc9b6904	-0.018970974
45	0xbd3ae384	-0.045627132
46	0xbd93ddda	-0.07220049
47	0xbd1f587e	-0.038902752
48	0x3c5c2089	0.013435491
49	0xbd632ec4	-0.05546452
50	0x3b449810	0.0029997863
51	0x3c94c5af	0.01816067
52	0xbd0e4b31	-0.034739677
53	0x3cd26968	0.025685027
54	0x3c74738e	0.0149201285
55	0xbd561c8a	-0.05227331
56	0x3d1a5465	0.03767814
57	0x3cb114b9	0.021616327
58	0x3d0e4c3b	0.034740668
59	0xbcf2040e	-0.029542949
60	0x3c397817	0.011320136
61	0xbd3496fe	-0.04408931
62	0x3d89135e	0.06693147
63	0x3d120948	0.035653383
64	0x3be93e6e	0.007118038
65	0xbca774e4	-0.02044148
66	0x3c5ab2a2	0.013348253
67	0xbd23a900	-0.039956093
68	0x3c693b32	0.014235305
69	0xbbfcd191	-0.007715412
70	0x3d1a13cb	0.037616532
71	0xbcfacfdb	-0.030616691
72	0xbd2dd1ec	-0.042436525
73	0xbd2bd73c	-0.04195331
74	0xbce83893	-0.02834729
75	0xbc86d945	-0.016461024
76	0xbd9a9ccd	-0.075494386
77	0xbbbdbf94	-0.00579066
78	0xbca9aad4	-0.02071134
79	0xbd07b493	-0.033131193
80	0xbd84f3fa	-0.06491847
81	0xbd8a02b8	-0.067388
82	0xbd856e5d	-0.06515191
83	0xbcafc6e0	-0.021457136
84	0xbcfe7d94	-0.03106574
85	0xbd4e1cd2	-0.050320454
86	0xba89567c	-0.0010478045
87	0x3c125d13	0.008933323
88	0xbccb8faf	-0.024848787
89	0xbd4f4c54	-0.0506099
90	0xbcbb5428	-0.022867277
91	0xbd8982f3	-0.0671443
92	0x3b82b308	0.0039886273
93	0xbd85286b	-0.0650185
94	0x3bfeec6b	0.007779648
95	0xbd92ae05	-0.07162098
96	0xbc9cb064	-0.019127078
97	0x3d4f4ef4	0.050612405
98	0x3caa3653	0.020777857
99	0xbd5b6edb	-0.053572517
100	0xbcfdea30	-0.030995458
101	0xbd32090e	-0.043465666
102	0xbc4d1c86	-0.012519008
103	0xbd0f21f5	-0.034944493
104	0xbd548591	-0.05188519
105	0x3c55aea7	0.013042129
106	0x3c85e40d	0.016344095
107	0xbd8e4207	-0.069461875
108	0xbc06ab3d	-0.008219537
109	0xbd0e0402	-0.03467179
110	0xba6cadf2	-0.00090286054
111	0xbc803679	-0.015650975
112	0xbdba0f04	-0.09084895
113	0x3ad36a9c	0.0016129795
114	0x3d34d0a6	0.044144295
115	0x3a9bb049	0.0011878099
116	0xbd2c61eb	-0.04208557
117	0x3d0d508d	0.034500647
118	0x3ccd43a7	0.025056673
119	0x3cdc40a6	0.026886296
120	0xbcde34ed	-0.027124846
121	0x3c1ec39e	0.009690193
122	0xbc579e0d	-0.013160241
123	0xbc00a3b8	-0.007851534
124	0x3bbd6886	0.0057802824
125	0xbc501a05	-0.012701516
126	0x3d5671bd	0.052354563
127	0x3ce63e0e	0.028105762
128	0x3d020f9f	0.03175318
129	0x3d62f0bd	0.055405367
130	0xbd114d5c	-0.035474166
131	0xbcb82ae0	-0.022481382
132	0x3cf1e632	0.029528711
133	0x3cfb0412	0.03064159
134	0xbd63406a	-0.055481352
135	0x3cc5c611	0.024142297
136	0xbd00f491	-0.031483237
137	0x3c515ce4	0.0127784945
138	0x3cc5d410	0.02414897
139	0xbd663cde	-0.05621039
140	0xbd427d98	-0.047483057
141	0xbcc879a8	-0.024472073
142	0xbd623f26	-0.055236004
143	0xbd56cf8a	-0.05244402
144	0xbd74aee0	-0.059737086
145	0xbd3eb97b	-0.046563607
146	0xbc9f7282	-0.019463781
147	0x3ce5ca64	0.028050609
148	0xbd8b79c8	-0.06810337
149	0xbd962dfb	-0.07332989
150	0xbd6d1314	-0.057879522
151	0x3ba0242c	0.0048871245
152	0xbd576ae5	-0.052592177
153	0xbd570bbd	-0.05250143
154	0xbd36a265	-0.044588465
155	0x3d39953f	0.045308348
156	0xbd7d22db	-0.06180082
157	0x3d290b2d	0.041270424
158	0xbd199860	-0.03749883
159	0xbd56c0a6	-0.052429818
160	0xbd228259	-0.03967509
161	0xbd14aae9	-0.036295805
162	0x3c2d6336	0.010582736
163	0xbd81335f	-0.063086264
164	0xbd6cb5f6	-0.05779072
165	0x3ce6fedf	0.028197704
166	0xbc69d31d	-0.014271525
167	0xbd17402a	-0.036926426
168	0x3cb5b49f	0.022180853
169	0xbc881a87	-0.016614212
170	0xbc358455	-0.011078914
171	0xbd36d7eb	-0.04463951
172	0xbd14ce38	-0.036329478
173	0x3d096c7d	0.033550728
174	0xbc7140cb	-0.0147249205
175	0xbd5cfffa	-0.053955056
176	0x3b7792c0	0.0037776679
177	0xbbddf8be	-0.006774037
178	0x3c045810	0.008077636
179	0x3c4cb6b6	0.012494734
180	0x3cb76880	0.022388697
181	0x3c94fc4d	0.018186713
182	0xbbc0f440	-0.005888492
183	0xbd7c4bfd	-0.061595906
184	0x390d43ff	0.00013472138
185	0x3cd80be6	0.026372861
186	0x3b983efa	0.0046461793
187	0xbcfb9066	-0.030708503
188	0xbd873892	-0.06602587
189	0x3acdfb1b	0.0015715094
190	0xbd8b468b	-0.068005644
191	0xbd45e49a	-0.048313715
192	0xbd63e703	-0.05564023
193	0xbba426a0	-0.0050094873
194	0x3d03368e	0.03203445
195	0xbc9860de	-0.018600877
196	0xbd41a14a	-0.047272958
197	0x3cf166f1	0.029468032
198	0xbc04a1ac	-0.008095186
199	0xbcf04074	-0.029327609
200	0xbcd4b71e	-0.025966223
201	0xbc63b552	-0.013898211
202	0xbd0fbdba	-0.035093047
203	0x3c8cac06	0.01717187
204	0x3d08d5e0	0.033407092
205	0xbd7935bf	-0.060842272
206	0xbcdf843b	-0.027284732
207	0x3c47323d	0.012157974
208	0xbc800b3c	-0.015630357
209	0x3d2dad69	0.042401705
210	0xbd193ae9	-0.037409697
211	0xbd84225f	-0.06451868
212	0x3d3ee2bb	0.046602946
213	0x3d8e59bf	0.069507115
214	0xbd6ceec7	-0.057844903
215	0xbcc6faea	-0.024289567
216	0xbd85b1de	-0.06528066
217	0x3d2847ab	0.041083973
218	0xbcb22ef8	-0.021750912
219	0xbbe9a63b	-0.007130412
220	0xbd8b2805	-0.067947425
221	0x3d0f4503	0.034977924
222	0x3cd2d710	0.025737315
223	0x3ab5a5c0	0.0013858601
224	0x3d6eb19c	0.05827485
225	0xbbb3d17a	-0.005487618
226	0xbbdede9c	-0.0068014394
227	0x3c8eb41e	0.017419871
228	0xbd50b6a9	-0.05095545
229	0x3cf544c9	0.029940026
230	0x3cb386ee	0.021914925
231	0xbd723eb2	-0.059141822
232	0xbc2695c0	-0.010167539
233	0x3d6e63b8	0.058200568
234	0xbd6dcd6a	-0.058057226
235	0x3c4b8670	0.012422189
236	0x3c8ed65e	0.017436203
237	0x3c86c434	0.016450979
238	0xbc80011b	-0.015625527
239	0xbca3c13b	-0.0199896
240	0xbcc57bac	-0.024106823
241	0xbd827403	-0.06369784
242	0x3d4767d8	0.048683017
243	0xbb900e3a	-0.004396227
244	0x3d1dc1b6	0.038514815
245	0xbd12f66a	-0.03587953
246	0xbd76bc47	-0.06023815
247	0x3ce74576	0.028231364
248	0x3d3c8720	0.046027303
249	0xbc35d91c	-0.011099126
250	0xbc3bd9be	-0.011465488
251	0xbd3b33d5	-0.045703728
252	0xbd18e04e	-0.03732329
253	0xba9565c0	-0.0011398122
254	0xbd4b7e80	-0.049681187
255	0xbd25e108	-0.04049781

encoder.encoder.2.conv.bias f4 [32]
0	0xbc274853	-0.0102101145
1	0xbd621a93	-0.055201124
2	0x3c5d0e8e	0.01349224
3	0x3cb35d19	0.021894978
4	0x3c11dc53	0.008902627
5	0xbd03b606	-0.032156013
6	0x3d7532ac	0.059862778
7	0x3ccd52c5	0.025063882
8	0xbcd51e5e	-0.026015457
9	0x3dae584b	0.08512934
10	0xbd3d1a1e	-0.046167485
11	0xbb974221	-0.0046160375
12	0x3b10ada5	0.0022076156
13	0xbca82cfa	-0.020529259
14	0x3c86c526	0.01645143
15	0xbbfdb3be	-0.007742374
16	0x3d992bba	0.07479043
17	0xbd830372	-0.063971415
18	0x3d39f819	0.04540262
19	0xbd228508	-0.03967765
20	0xbd0509e0	-0.03248012
21	0xbd64a3de	-0.05582034
22	0xbd0eafe0	-0.034835696
23	0xbb0c90da	-0.0021448643
24	0xbd88db08	-0.06682402
25	0x3d6f6738	0.058448046
26	0x3d8228d5	0.06355444
27	0xbbb8cc7e	-0.0056396117
28	0x3ceba696	0.028765958
29	0xbcf3d849	-0.029766219
30	0x3cff5b42	0.031171445
31	0x3d9a7eef	0.07543742

encoder.encoder.3.conv.weight f4 [10, 32, 3, 3]
0	0x3c5a0184	0.013306025
1	0xbc9f162c	-0.019419752
2	0x3b88cbc8	0.0041746832
3	0x3bd41248	0.006471906
4	0xbd254576	-0.040349446
5	0x3c412562	0.011788698
6	0xbd5118fe	-0.051049225
7	0xbd519b7e	-0.05117368
8	0x3c685fa8	0.0141829625
9	0xbdf388e3	-0.118913434
10	0x3dcdf7a4	0.10056999
11	0x3cb867f9	0.022510516
12	0xbb779379	-0.003777711
13	0x3b83ad62	0.0040184716
14	0x3c8f507c	0.017494433
15	0xbd872612	-0.06599058
16	0x3d9339b9	0.07188744
17	0x3dc55d77	0.09636968
18	0x3c01a173	0.007912028
19	0xbca60bd1	-0.020269306
20	0xbb26fbf0	-0.0025479756
21	0xbc9485cc	-0.018130206
22	0x3d138736	0.03601762
23	0x3b8124e0	0.0039411634
24	0xbcd927e3	-0.026508277
25	0x3cebb151	0.028771074
26	0x3ddf5dfa	0.109065965
27	0x3cc6c435	0.02426348
28	0x3b3d2abe	0.0028864588
29	0x3c1290d7	0.008945665
30	0x3c0b2abc	0.008494075
31	0x3baf33fd	0.0053467737
32	0x3d04ce56	0.03242334
33	0xbd4acc9c	-0.049511537
34	0x3d9e847f	0.077401154
35	0x3caabeed	0.020842994
36	0x3d8f7dca	0.07006414
37	0x3d960f62	0.07327153
38	0x3d03983a	0.032127596
39	0x3d91f771	0.07127274
40	0xbcb2ea47	-0.021840228
41	0xb7a1b333	-1.9276142e-05
42	0xbc918422	-0.017763201
43	0x3d986d2a	0.074426964
44	0xbc481182	-0.012211205
45	0x3b8ff3da	0.004393083
46	0xbc315aed	-0.010824901
47	0x3bf00a29	0.00732543
48	0xbcd80808	-0.026371017
49	0xbcf0d6f4	-0.029399373
50	0xbd67a2f5	-0.056551892
51	0xbdc6b810	-0.09703076
52	0x3c6e9eef	0.01456426
53	0xbd8bb912	-0.06822409
54	0xbd854c30	-0.06508672
55	0xbd328d59	-0.04359183
56	0x3c43a2a3	0.011940631
57	0x3c841b60	0.016126335
58	0x3d0bafa5	0.034103055
59	0xbc6ef4ee	-0.014584763
60	0x3d9b295e	0.075762495
61	0xbe67a858	-0.22622812
62	0x3db70b72	0.0893773
63	0x3ce26292	0.027634893
64	0x3b45ea90	0.0030199625
65	0xbbc7b320	-0.0060943514
66	0xbce814a5	-0.028330157
67	0x3d1d3093	0.038376402
68	0x3d4ea706	0.050452255
69	0xbd27588e	-0.040855937
70	0x3cc805fe	0.02441692
71	0x3caadff6	0.020858746
72	0xbca8f3fd	-0.020624155
73	0xbd8d87d5	-0.069106735
74	0xbbd65d24	-0.006541865
75	0xbd37c0d2	-0.044861622
76	0x3da9fed0	0.08300555
77	0xbd829933	-0.06376877
78	0xbd036b25	-0.032084603
79	0x3b45299d	0.0030084618
80	0x3e017b3d	0.12644668
81	0xbd19ac9f	-0.03751814
82	0xbd1c110e	-0.038102202
83	0x3d2a71db	0.041612487
84	0xbc357497	-0.0110751605
85	0x3cfa94c5	0.030588517
86	0xbc21af81	-0.009868504
87	0x3d0998cb	0.03359298
88	0x3b53a8bc	0.0032296618
89	0x3c851209	0.016243951
90	0x3c9e0d70	0.019293517
91	0xbd13a6b4	-0.036047652
92	0x3c390fa1	0.01129523
93	0x3d53c97d	0.051705826
94	0x3ab8c5f9	0.0014097086
95	0xbe024a28	-0.12723601
96	0x3d9ead9b	0.07747956
97	0x3e02cc37	0.12773214
98	0xbe11a586	-0.14223298
99	0xbd21ba72	-0.03948445
100	0x3c9c13df	0.019052444
101	0xbbcd8e96	-0.006273101
102	0xbca2a422	-0.019853655
103	0xbd059d20	-0.03262055
104	0x3d0433b9	0.03227589
105	0x3cf5d316	0.03000788
106	0x3dd2b769	0.10288889
107	0xb9878982	-0.00025851658
108	0x3ca8484a	0.020542283
109	0x3d080544	0.033208147
110	0x3d6218a8	0.055199295
111	0x3cd5d891	0.026104243
112	0x3d7350b4	0.059403136
113	0xbca3e02c	-0.020004354
114	0xbd362208	-0.04446605
115	0x3c60e937	0.013727478
116	0x3b2e9699	0.0026640056
117	0xbd2e6e7d	-0.04258584
118	0x3d55811d	0.052125085
119	0x3c9f1d95	0.019423285
120	0x3ccab35e	0.024743732
121	0x3d881b9b	0.0664589
122	0x3d09c43f	0.03363442
123	0xbd1fc80f	-0.03900915
124	0xb9fbb85e	-0.00048011815
125	0x3d68690d	0.05674081
126	0x3c3fd7c7	0.01170916
127	0x3be30281	0.0069277887
128	0xbce84f95	-0.02835826
129	0x3ac6331e	0.0015121435
130	0x3d8222dc	0.06354305
131	0xbcb40153	-0.021973288
132	0xbd139e91	-0.036039893
133	0xbd183e6d	-0.03716891
134	0x3ceff906	0.029293548
135	0xbc233afe	-0.009962795
136	0x3d040b46	0.032237314
137	0xbd1a4e7a	-0.037672497
138	0x3d1a6fa8	0.03770414
139	0x3d8ba4b6	0.068185255
140	0x3bbcfc78	0.0057674013
141	0x3d15e3df	0.036594268
142	0xbd2ad0c2	-0.041702993
143	0xbd6591dd	-0.05604731
144	0x3d40cab2	0.047068305
145	0x3c85088a	0.016239423
146	0x3d78d56c	0.06075041
147	0x3d3e6d9d	0.046491254
148	0x3cb1f1c8	0.021721736
149	0x3cbd1d58	0.023085281
150	0x3afc996a	0.0019271795
151	0x3d775403	0.060382854
152	0xbd38a0c6	-0.0450752
153	0xbc3ca1b4	-0.011513162
154	0x3ce7ac29	0.028280335
155	0xbe0feaef	-0.14054464
156	0xba78cee8	-0.00094912807
157	0x3e09d709	0.13460936
158	0xbe38be6f	-0.18041395
159	0xbddb5b1e	-0.107107386
160	0xbd3522ef	-0.04422277
161	0x3ddeac10	0.10872662
162	0x3d15139a	0.036395647
163	0xbc7ed426	-0.01555351
164	0xbda6ae93	-0.08138766
165	0xbd8e3927	-0.06944495
166	0x3cbadda8	0.022810772
167	0x3d726707	0.059180286
168	0xbd80beae	-0.06286369
169	0xbd7de20f	-0.061983164
170	0xbdbb0c73	-0.09133234
171	0xbbb135b6	-0.005408014
172	0xbd740649	-0.059576306
173	0xbce51f5d	-0.027969057
174	0xbd9c6dbf	-0.0763812
175	0x3d57fc4c	0.052730843
176	0xbdbc7492	-0.092019215
177	0x3c8c3649	0.017115729
178	0x3e7b7af2	0.24558619
179	0x3ddd0156	0.107912704
180	0x3c1e59e5	0.009664987
181	0x3d23b8b6	0.039971076
182	0xbd1fc0a7	-0.039002087
183	0x3d017ce6	0.031613253
184	0xbce96399	-0.028489875
185	0x3cf44943	0.02982009
186	0xbce02592	-0.027361665
187	0xbcccb8f0	-0.024990529
188	0xbd2ee3c0	-0.042697668
189	0xbd05186f	-0.032494005
190	0x3d6a1173	0.057145547
191	0x3d53c5c3	0.051702272
192	0xbd65be34	-0.056089595
193	0xbd280a9d	-0.041025747
194	0x3cc4afea	0.024009664
195	0x3d3f6f73	0.046737146
196	0x3c7827bc	0.015146192
197	0x3d617be5	0.055049796
198	0x3ca72ef6	0.020408135
199	0x3d32b3c4	0.04362847
200	0x3d06ca7f	0.03290796
201	0xbd55be97	-0.052183714
202	0x3c4dd8b1	0.01256387
203	0x3cc0a820	0.023517668
204	0x3d353d7d	0.044248093
205	0x3c2e5e98	0.01064267
206	0xbcdbb0db	-0.02681773
207	0xbd329e05	-0.04360773
208	0x3c526b10	0.0128429085
209	0xbd8c3b33	-0.06847229
210	0x3c81cd29	0.015844898
211	0xbc2a1c72	-0.010382758
212	0x3e5822f6	0.21107087
213	0x3da95733	0.08268585
214	0x3e215a15	0.1575702
215	0x3cccaf5f	0.024985967
216	0x3c8299b6	0.015942436
217	0x3dc15f81	0.09442044
218	0x3dc4aa02	0.09602739
219	0xbcb17455	-0.021661917
220	0x3d8ddb28	0.06926566
221	0x3dad79af	0.08470475
222	0xbc0d5826	-0.008626973
223	0xbdf1b718	-0.118025005
224	0xbda777ff	-0.08177184
225	0xbcd2cbb3	-0.025731897
226	0x3c964354	0.018342651
227	0x3dbe88cd	0.093034364
228	0x3ba958c8	0.0051680543
229	0x3c8511b7	0.016243799
230	0xbd17ebd2	-0.03709013
231	0x3c17198c	0.009222399
232	0xbb12f2ba	-0.0022422508
233	0x3de11811	0.109909184
234	0x3c8b167b	0.016978493
235	0x3c877af6	0.016538125
236	0x3cac3a07	0.021023763
237	0xbccca291	-0.024979861
238	0x3ce10617	0.027468724
239	0x3d855523	0.06510379
240	0xbbe6b900	-0.0070410967
241	0xbc375a5c	-0.011190977
242	0x3bba70c0	0.0056897104
243	0x3cb7f3e6	0.022455167
244	0xbc49132c	-0.012272637
245	0x3d94adcd	0.07259712
246	0xbc05689a	-0.008142615
247	0xbd146560	-0.03622949
248	0x3c949276	0.018136244
249	0xbd311a4a	-0.04323796
250	0xbca70e41	-0.020392539
251	0x3d9ab57f	0.07554149
252	0xba995ca8	-0.0011700587
253	0x3d0d27bf	0.034461733
254	0x3d3c0200	0.045900345
255	0x3cc27817	0.023738904

encoder.encoder.3.conv.bias f4 [10]
0	0x3c06958e	0.008214368
1	0x3be9454a	0.0071188556
2	0xbc01fab4	-0.007933307
3	0x3d028997	0.031869497
4	0xbc5a3be0	-0.013319939
5	0x3d002f00	0.031294823
6	0x3d2c9a97	0.042139616
7	0x3cc73eb1	0.024321886
8	0x3d9d0a14	0.07667938
9	0x3c050166	0.008118009

decoder.decoder.0.dconv.weight f4 [10, 32, 3, 3]
0	0xbc6c4d92	-0.014422791
1	0xbe902c0b	-0.28158602
2	0xbd57d121	-0.052689675
3	0x3e754d7c	0.23955339
4	0xbe41167a	-0.1885623
5	0xbe29e22d	-0.16590185
6	0xbddb8977	-0.10719579
7	0x3c31ddc3	0.010856095
8	0xbe5fa1ad	-0.21839018
9	0x3ca5956d	0.020212853
10	0x3da642ed	0.08118234
11	0xbe9526de	-0.29131216
12	0x3ded3b80	0.11583614
13	0xbda0f93d	-0.078600384
14	0x3d0be8ce	0.034157567
15	0xba507393	-0.0007951792
16	0x3cf78927	0.030216767
17	0xbe0e9ab1	-0.13926198
18	0xbd2d0537	-0.0422413
19	0x3d80b1ed	0.06283937
20	0x3d075dd4	0.033048466
21	0xbdf1e863	-0.118119024
22	0xbd45cada	-0.048289157
23	0xbe09d980	-0.13461876
24	0x3d0dc8f0	0.034615457
25	0xbd061a7a	-0.032740094
26	0xbda815f1	-0.0820731
27	0x3df8a79f	0.12141346
28	0xbe08705a	-0.13324109
29	0x3ce1a290	0.027543336
30	0x3bd675f2	0.006544822
31	0xbd3c0f87	-0.045913246
32	0x3e63dc81	0.22252084
33	0x3a6801b8	0.0008850354
34	0x3ce66378	0.028123602
35	0x3c9d6491	0.019212993
36	0x3e0532f8	0.13007724
37	0xbcbb2b24	-0.02284772
38	0x3c488e0b	0.012240897
39	0xbd4a3d09	-0.049374614
40	0x3adca0c2	0.0016832578
41	0x3e190b60	0.14945745
42	0xbda0f368	-0.07858926
43	0xbe1394fd	-0.14412303
44	0x3e27255a	0.16322842
45	0x3dcc6925	0.09980992
46	0xbd59bf14	-0.053160742
47	0x3ca1edc0	0.019766688
48	0xbe409cf8	-0.18809879
49	0x3ca9fc76	0.020750266
50	0x3d77a900	0.060463905
51	0x3d1d47f1	0.038398687
52	0x3e7e4e7b	0.24834625
53	0x3d0a116e	0.03370803
54	0x3d362e7e	0.044477932
55	0xbcb27b1c	-0.021787219
56	0x3da3fdb0	0.080073714
57	0x3e198a5c	0.14994186
58	0x3ed720d1	0.42017224
59	0x3de00d29	0.1094001
60	0xbdb4029b	-0.087895595
61	0xbde69d1b	-0.11260434
62	0x3e335036	0.17511067
63	0x3ca094ae	0.019602146
64	0x3e818f78	0.2530477
65	0x3e95c524	0.2925197
66	0x3e359784	0.1773358
67	0xbcb93c5c	-0.02261179
68	0x3df8dbb9	0.12151284
69	0x3e47029f	0.19434594
70	0xbcadbe38	-0.021208867
71	0x3e5b4ef3	0.21416835
72	0x3df9661c	0.12177679
73	0xbc81ffd9	-0.015869068
74	0x3dc715ce	0.09720956
75	0x3df8c1d2	0.12146343
76	0x3d4ee6c5	0.050513048
77	0x3e74c2ba	0.23902407
78	0xbc4e9b9b	-0.012610341
79	0xbd9e46e0	-0.07728362
80	0x3d378b74	0.044810727
81	0xbd64cb34	-0.055857852
82	0x3e886042	0.2663594
83	0x3d30d9c1	0.043176416
84	0xbe6cc562	-0.2312217
85	0xbd508b04	-0.050913826
86	0xbe3532ac	-0.17695111
87	0xbe5f3bd3	-0.21800165
88	0x3e6611a3	0.22467665
89	0x3d8ecb2a	0.06972344
90	0x3e2877b6	0.16451916
91	0x3e00d351	0.12580611
92	0x3e1028d0	0.14078069
93	0xbd2c917b	-0.04213093
94	0xbdedbfcb	-0.11608847
95	0xbd2e5599	-0.0425621
96	0x3d1b9b9f	0.03799021
97	0x3c053e32	0.008132504
98	0x3e499f87	0.19689761
99	0x3d1caa77	0.038248505
100	0x3e8057ac	0.25066888
101	0x3e0d94e0	0.13826323
102	0x3e016078	0.12634456
103	0xbd7ad1f8	-0.061235398
104	0xbccb8e5e	-0.02484816
105	0x3dd8e3da	0.10590334
106	0x3ed681a7	0.41895792
107	0x3e2c39c7	0.16818915
108	0x3dad8a25	0.084736146
109	0x3e25d470	0.1619432
110	0x3d9a0a0b	0.07521447
111	0x3e5b7d90	0.21434617
112	0x3c323f5e	0.010879366
113	0xbe04a189	-0.12952246
114	0x3d960cb2	0.0732664
115	0x3db62100	0.08893013
116	0x3e02571d	0.12728544
117	0x3d819dc6	0.06328921
118	0x3e9264ad	0.28592435
119	0x3e0f1db7	0.13976179
120	0x3d1ba67a	0.03800056
121	0xbcf9fc97	-0.030515952
122	0x3e30ec85	0.17277725
123	0x3d054211	0.03253371
124	0x3db5505c	0.08853218
125	0x3cc85051	0.02445236
126	0x3e105dd6	0.14098296
127	0xbd0232f6	-0.03178688
128	0x3c6dcfae	0.014514847
129	0xbd39a00b	-0.045318644
130	0xbcd7fbe2	-0.026365224
131	0x3d9819b4	0.074267775
132	0xbd8dd138	-0.06924671
133	0x3e061149	0.13092531
134	0x3e57278a	0.21011177
135	0x3e202375	0.15638526
136	0xbd24aec0	-0.040205717
137	0x3dd80c5b	0.105492316
138	0x3d04d72d	0.03243177
139	0xbdb10919	-0.08644313
140	0xbce356d4	-0.027751364
141	0xbd0f4adb	-0.034983497
142	0xbd87d778	-0.06632894
143	0xbcd6b8ad	-0.026211107
144	0x3df0ec70	0.11763847
145	0xbdcfcde9	-0.10146696
146	0x3d0ab1da	0.03386102
147	0x3c1cb12d	0.009563726
148	0xbd0f21d6	-0.034944378
149	0xbcc5225d	-0.024064237
150	0xbd85a1f6	-0.06525032
151	0x3d26fcbe	0.040768377
152	0x3dc3dd0c	0.09563646
153	0x3e225e9d	0.15856405
154	0xbd3ccb34	-0.046092227
155	0x3df045c4	0.11732057
156	0x3d0fab92	0.03507573
157	0x3d891951	0.06694282
158	0x3e531f44	0.20617396
159	0x3cf77064	0.03020496
160	0xbb857e3e	-0.004073887
161	0x3dc28290	0.09497559
162	0x3db24ebb	0.08706423
163	0x3d879498	0.06620139
164	0x3ca5402a	0.020172197
165	0xbd923691	-0.07139314
166	0xbd6d7b8c	-0.05797915
167	0x3e3a0443	0.18165688
168	0xbdcd4c93	-0.10024371
169	0x3cc9329b	0.024560263
170	0xbe4431c2	-0.19159606
171	0x3d58cee3	0.052931678
172	0xbd903fe2	-0.07043435
173	0xbdc32a1c	-0.09529516
174	0x3d8cd5b2	0.06876697
175	0x3b3b7685	0.0028604579
176	0x3e0a2126	0.13489208
177	0x3e26ae7e	0.16277501
178	0xbdcd28fb	-0.10017582
179	0x3e5dbee6	0.21654853
180	0x3e014023	0.12622122
181	0x3cd708ca	0.026249308
182	0x3e63115d	0.22174592
183	0x3e0a5172	0.13507631
184	0xbe145163	-0.14484172
185	0x3e9d08fc	0.30670917
186	0xbb0cc43e	-0.0021479274
187	0x3d2fd8b0	0.04293126
188	0x3e8211e0	0.25404263
189	0xbd151c67	-0.03640404
190	0x3e3436f4	0.17599088
191	0xbe80d88a	-0.25165206
192	0x3e0a674f	0.13515972
193	0x3bfb7beb	0.0076746843
194	0x3e2d2ab8	0.16910827
195	0x3e3ff055	0.18744023
196	0x3e6dcfdd	0.23223825
197	0xbe12d2c0	-0.14338207
198	0x3c54c117	0.012985489
199	0xbc2c6311	-0.010521666
200	0x3e23214a	0.15930668
201	0x3d6dc579	0.058049653
202	0xbcdacc40	-0.026708722
203	0x3cf84837	0.030307872
204	0xbcfaa139	-0.030594455
205	0x3dc798e9	0.09745962
206	0x3e0a8274	0.13526326
207	0xbe08f852	-0.13375977
208	0x3e0c6261	0.13709404
209	0x3c84a786	0.016193163
210	0xbc9a89e5	-0.018864581
211	0xbdee8cdf	-0.11647963
212	0xbce63c77	-0.028105004
213	0x3d518fd0	0.05116254
214	0x3c2d7979	0.010588043
215	0xbec59fd8	-0.38598514
216	0xbd5258c8	-0.0513542
217	0x3d1e7e61	0.038694743
218	0xbd2d7620	-0.04234898
219	0x3d995ebe	0.07488774
220	0xbdc6c5c4	-0.097056895
221	0x3bdad654	0.006678382
222	0xbd002832	-0.031288333
223	0x3e83375d	0.25628176
224	0x3ea107aa	0.3145116
225	0xbd51fab5	-0.051264483
226	0xbc9a7689	-0.01885535
227	0xbd370355	-0.044680912
228	0x3e253f5b	0.1613745
229	0x3d2b4956	0.041817985
230	0x3e658322	0.22413304
231	0xbd2857dc	-0.041099414
232	0xbd9a441f	-0.07532524
233	0xbd553698	-0.052054018
234	0x3d1d8e96	0.03846606
235	0x3e178016	0.14794955
236	0xbe31b89b	-0.17355578
237	0x3e0ade68	0.13561404
238	0xbd331531	-0.04372138
239	0x3c00a3de	0.007851569
240	0x3e09894e	0.13431284
241	0x3c16b255	0.009197791
242	0x390b4309	0.00013281046
243	0xbd0e8400	-0.034793854
244	0xbd81d502	-0.06339456
245	0xbe283514	-0.16426498
246	0xbcd49027	-0.025947643
247	0x3d919f69	0.07110483
248	0xbeb258d3	-0.34833393
249	0x3e40fa5d	0.18845506
250	0xbe6709ff	-0.22562407
251	0x3d5fd398	0.05464515
252	0x3d6186f3	0.05506034
253	0xbd589dda	-0.052884914
254	0x3e1a020e	0.15039846
255	0x3c0c0690	0.0085464865

decoder.decoder.0.dconv.bias f4 [32]
0	0x3ddf15d1	0.10892833
1	0x3d84bb08	0.06480986
2	0xbd8adbb2	-0.06780185
3	0x3db8b2cf	0.0901848
4	0x3b605154	0.0034228163
5	0xbc96ee81	-0.018424274
6	0x3d4c9f2f	0.049956497
7	0x3d3a75ad	0.04552238
8	0x3dbd8a2f	0.09254872
9	0x3db3bb9e	0.087760195
10	0xbce32971	-0.027729722
11	0x3d9f9137	0.077913694
12	0x3d6de92a	0.05808369
13	0x3dbe53a7	0.09293299
14	0xbccd5228	-0.02506359
15	0xbc4b4dd2	-0.0124086905
16	0x3b861eb5	0.004093016
17	0x3db1f52a	0.086893395
18	0x3ba1d4c7	0.004938695
19	0x3d70bf88	0.05877641
20	0x3dfa7d5d	0.122309424
21	0x3dec60a8	0.11541873
22	0x3dcf96de	0.101361975
23	0x3e25afeb	0.16180389
24	0xbd0b7622	-0.034048207
25	0x3d087769	0.033317003
26	0x3d04f13b	0.032456618
27	0x3da39bd1	0.07988704
28	0x3e03ed93	0.12883596
29	0x3dac7664	0.08421019
30	0x3d6d36db	0.057913642
31	0xbc1dc9ff	-0.009630679

decoder.decoder.1.dconv.weight f4 [32, 32, 3, 3]
0	0xbe4577cf	-0.19283985
1	0x3e765be8	0.24058497
2	0xbea2bdb4	-0.31785357
3	0xbeade156	-0.3396098
4	0xbe026064	-0.12732083
5	0xbea5944c	-0.32339704
6	0xbde662c1	-0.112493046
7	0x3e2c9245	0.16852672
8	0x3d16c9e7	0.036813643
9	0xbe429a6a	-0.19004217
10	0x3d0e4ef8	0.03474328
11	0x3e5e2e55	0.21697362
12	0xbe833c6f	-0.25632045
13	0xbe912dcb	-0.2835525
14	0xbeac6945	-0.33674064
15	0xbe005139	-0.12530984
16	0xbd0148ad	-0.03156345
17	0xbebdfc3b	-0.371065
18	0xbf1c3c35	-0.6102937
19	0xbe093ec0	-0.13402843
20	0xbd91a5d0	-0.07111704
21	0xbf12d1e9	-0.5735155
22	0x3cd367d3	0.025806343
23	0x3ef2ad28	0.47397733
24	0x3eccee11	0.4002538
25	0x3e8a6a10	0.27034044
26	0xbd02f5c8	-0.031972677
27	0x3e0911b3	0.13385658
28	0xbd9dfeac	-0.077145904
29	0xbe70b24c	-0.23505515
30	0xbd9d80d5	-0.076905884
31	0xbe71f421	-0.23628284
32	0xbe7654bf	-0.24055766
33	0xbe605a1b	-0.21909373
34	0x3cfdb3da	0.030969549
35	0xbde6576c	-0.11247143
36	0x3db0fcbc	0.08641955
37	0x3cecf39b	0.028924754
38	0x3ce79736	0.028270345
39	0xbcfcb4e7	-0.03084798
40	0xbe29a02b	-0.16565005
41	0xbeb96f42	-0.36217695
42	0xbdff701e	-0.124725565
43	0x3e1f2209	0.15540327
44	0x3e2ad6a6	0.16683444
45	0x3e0f63ff	0.14002989
46	0xbe3b3b5e	-0.18284366
47	0xbe12375f	-0.14278935
48	0xbe0e8067	-0.13916169
49	0xbe796cd9	-0.24357928
50	0xbebc6bc3	-0.36800966
51	0xbeba5110	-0.3638997
52	0xbd31e5d4	-0.04343207
53	0xbee200c7	-0.44141218
54	0xbe35826e	-0.17725536
55	0x3e3e39cc	0.18576735
56	0xbe16b168	-0.14716113
57	0xbe0c129a	-0.13678971
58	0xbe437ba7	-0.19090138
59	0xbea267c1	-0.31719783
60	0xbdd53a60	-0.10411525
61	0xbe06508b	-0.13116662
62	0xbe321e76	-0.17394432
63	0x3dc67fd3	0.09692349
64	0xbd9059dd	-0.0704839
65	0x3dc032bc	0.09384677
66	0xbdc874a5	-0.09787873
67	0xbe1b40f5	-0.15161498
68	0xbe12bdeb	-0.1433026
69	0xbe709a1b	-0.23496287
70	0x3cb51e8a	0.022109289
71	0x3e329b04	0.17441946
72	0x3cc80779	0.024417626
73	0xbe4394c3	-0.19099717
74	0x3d8b33e6	0.06797008
75	0xbd880558	-0.06641644
76	0xbe80a7ec	-0.25128114
77	0xbd9b7f40	-0.075926304
78	0xbe24057a	-0.16017714
79	0x3cb8c439	0.022554504
80	0xbe860779	-0.26177576
81	0xbe03d987	-0.12875949
82	0xbd96331f	-0.07333969
83	0xbd5cec1f	-0.05393612
84	0xbd05afe9	-0.032638464
85	0xbea0a4bd	-0.31375685
86	0xbee9452a	-0.4556058
87	0xbe302ba7	-0.17204152
88	0x3d092cb7	0.03348991
89	0x3c02f863	0.00799379
90	0x3e484b49	0.19559969
91	0xbf120a00	-0.5704651
92	0xbe92d1a4	-0.28675568
93	0x3e15b65c	0.14620346
94	0xbdf7f947	-0.12108093
95	0xbeb80790	-0.3594327
96	0x3d0c1838	0.034202784
97	0x3ea18248	0.3154471
98	0x3e135900	0.1438942
99	0xbed4e70b	-0.41582522
100	0xbe7398f3	-0.23788814
101	0xbe8f23f7	-0.27957126
102	0xb9163868	-0.00014326128
103	0xbe82a6cc	-0.2551788
104	0xbed1595b	-0.40888485
105	0xbe25ed41	-0.16203786
106	0x3cd769b3	0.026295519
107	0x3d8bd008	0.06826788
108	0xbd979fd7	-0.07403534
109	0xbd69b6c9	-0.057059083
110	0x3d7d6310	0.06186205
111	0x3e269e17	0.16271244
112	0x3e4520ac	0.19250745
113	0xbd289d38	-0.04116556
114	0x3e114f91	0.14190508
115	0xbb9bd60f	-0.0047557424
116	0xbe157313	-0.14594679
117	0x3ddf0e58	0.10891408
118	0xbb968b31	-0.0045942296
119	0xbd950895	-0.072770275
120	0x3dd89ea6	0.10577135
121	0xbe8c5bd6	-0.27413815
122	0xbdee4113	-0.11633506
123	0x3af2af25	0.0018515332
124	0x3dceacd0	0.10091555
125	0x3e892460	0.26785564
126	0x3c576511	0.013146655
127	0x3e16220b	0.14661424
128	0x3e986f6a	0.29772502
129	0xbd763d07	-0.060116794
130	0x3e6b912a	0.23004594
131	0x3da6aee2	0.08138825
132	0x3db88c1f	0.09011101
133	0x3e45cd46	0.19316587
134	0x3e85adbf	0.2610912
135	0x3ec7d3c8	0.39028764
136	0xbd938d6a	-0.07204707
137	0xbe6b2a21	-0.2296529
138	0xbe99f58a	-0.30070144
139	0xbe712d9b	-0.23552553
140	0xbd4c2260	-0.04983747
141	0xbe844f83	-0.25841913
142	0xbda5a922	-0.080889
143	0xba309719	-0.00067363825
144	0xbe60198e	-0.21884748
145	0xbc25b862	-0.010114761
146	0x3d354d74	0.04426332
147	0x3cd079ff	0.025448797
148	0xbd900eb1	-0.07034052
149	0x3f190f99	0.59789425
150	0xbd8ed9f6	-0.069751665
151	0xbe8fc4e3	-0.280799
152	0x3e851d2b	0.25998816
153	0x3d59c168	0.053162962
154	0xbcf0ce23	-0.029395169
155	0xbe30e770	-0.17275786
156	0x3d639a63	0.055567157
157	0xbe304c6d	-0.17216654
158	0xbe93f117	-0.28894874
159	0xbd825cbe	-0.063653454
160	0x3cadb998	0.021206662
161	0x3e51c648	0.20485795
162	0x3dbebc9f	0.0931332
163	0x3da4c2d5	0.08044974
164	0xbe3eba2f	-0.18625711
165	0x3d63d12f	0.055619415
166	0xbe50ccfa	-0.20390692
167	0xbe99902c	-0.29992807
168	0xbc4b7440	-0.012417853
169	0xbe785990	-0.24252915
170	0xbe537a83	-0.20652203
171	0xbe0b66d0	-0.13613439
172	0xbdc00212	-0.09375395
173	0x3e7eab3b	0.24870007
174	0xbe91f8a4	-0.2851001
175	0x3dccbb94	0.09996715
176	0xbe42e193	-0.19031362
177	0x3e00bbb7	0.12571608
178	0xbd229c15	-0.039699633
179	0x3dbb605c	0.091492385
180	0xbd935095	-0.07193104
181	0x3ced730e	0.028985526
182	0x3dfff1f9	0.124973245
183	0xbe9ebebc	-0.31004894
184	0xbe8c939a	-0.2745636
185	0xbdf42eaa	-0.11922963
186	0xbe369669	-0.17830814
187	0xbdeec28e	-0.11658202
188	0x3ea39bb9	0.31954744
189	0x3e43fdba	0.19139758
190	0xbdbc29e8	-0.091876805
191	0xbe85a855	-0.2610499
192	0x3e7a7326	0.24457988
193	0xbd73888c	-0.059456393
194	0xbdfece99	-0.12441749
195	0x3ed153aa	0.40884143
196	0x3db6c636	0.089245245
197	0x3e17f328	0.1483885
198	0xbc5c9516	-0.013463279
199	0xbd8b2556	-0.06794231
200	0xbee13d95	-0.43992296
201	0xbe9d6e9a	-0.30748445
202	0xbe91b599	-0.2845886
203	0xbe3b5017	-0.1829227
204	0xbe0b2944	-0.1358996
205	0xbd2c8105	-0.04211523
206	0x3d9b1f2b	0.07574304
207	0xbe9e54bf	-0.3092403
208	0xbd52e0ce	-0.05148392
209	0xbe108103	-0.14111714
210	0xbe57f419	-0.2108921
211	0xbe34cf8f	-0.17657302
212	0xbde452f8	-0.111486375
213	0xbe1989cf	-0.14993976
214	0xbd63dfc2	-0.055633314
215	0xbe0990f3	-0.134342
216	0x3bcfec54	0.006345311
217	0xbd28bc9b	-0.041195493
218	0x3e2816cb	0.16414945
219	0xbcfbb09d	-0.030723864
220	0x3e0d33cf	0.13789295
221	0x3eee678f	0.46563384
222	0x3e60548d	0.21907254
223	0x3e153ee4	0.14574772
224	0x3e968dce	0.29405063
225	0x3e525a61	0.2054229
226	0xbde5fecd	-0.1123024
227	0x3e64adfb	0.22331993
228	0xbdb78104	-0.08960155
229	0xbe7341ab	-0.23755519
230	0xbe1401f6	-0.14453873
231	0xbe1cb210	-0.153023
232	0xbdfeae4b	-0.124355875
233	0x3e87eb97	0.26546928
234	0xbe706d5e	-0.2347922
235	0xbd5f2888	-0.054482013
236	0xbe9b3d27	-0.30320093
237	0x3d80f48d	0.06296644
238	0xbe8cec52	-0.27524048
239	0xbef7f554	-0.48429358
240	0xbb960c4f	-0.004579104
241	0xbe04f1c7	-0.12982856
242	0xbe05587c	-0.13022035
243	0xbe2bdf67	-0.1678444
244	0xbe2437c2	-0.16036895
245	0xbe9b403f	-0.30322453
246	0xbd5f65a3	-0.054540288
247	0xbe43d03d	-0.19122405
248	0xbe8541c3	-0.26026735
249	0xbe516b97	-0.20451199
250	0x3e2e817b	0.1704158
251	0x3de53c96	0.111931965
252	0x3d6d0757	0.057868328
253	0xbe2d4952	-0.169225
254	0xbd140a28	-0.0361425
255	0xbdfaea59	-0.122517295

decoder.decoder.1.dconv.bias f4 [32]
0	0x3d63c1e3	0.055604827
1	0x3d8528ad	0.06501899
2	0x3e63fe6d	0.22265024
3	0x3df45122	0.11929537
4	0x3de47b8c	0.11156377
5	0x3d75e4ed	0.060032774
6	0x3d4cff74	0.050048307
7	0x3d9fde44	0.07806066
8	0x3d853d44	0.06505826
9	0x3d672277	0.056429353
10	0x3e7519cf	0.23935626
11	0x3d9d1c4e	0.07671414
12	0xbcf5da03	-0.030011183
13	0x3d97459e	0.07386325
14	0x3e638f1c	0.2222256
15	0x3dc9f3bf	0.09860944
16	0x3d93f535	0.07224504
17	0x3dbbd940	0.091722965
18	0x3dad2fe4	0.084564
19	0x3d02ae27	0.031904366
20	0x3ddf1de7	0.10894375
21	0x3d9a4f7d	0.075346924
22	0x3db0d811	0.086349614
23	0x3d11a74f	0.03555995
24	0x3d6d0f24	0.057875767
25	0x3dc23a2e	0.09483753
26	0x3d870fb8	0.06594795
27	0x3db5e35d	0.08881257
28	0x3db018d1	0.08598483
29	0x3d8b57fd	0.06803892
30	0x3dbb54fa	0.09147067
31	0xbd56fd15	-0.05248745
