notebooks/saved_model/mnist_model/mnist_cae_1/mnist_cae00040.pth (torch, 541279 bytes, 51 tensors)

encoder.encoder.0.conv.weight f4 [32, 1, 3, 3]
-0.31488353 -0.64372 0.25095066 -0.0007951011 -0.13970612 -0.5633006 0.50478446 0.21207178
-0.4379086 -0.07927931 0.05301241 -0.1731363 0.0848891 0.20719825 0.017466178 -0.1381946
-0.23743422 0.07439719 0.0065452075 0.31223693 0.6267486 -0.36593154 -0.22580016 0.04560873
-0.09037083 -0.32447982 -0.035896324 -0.031763308 0.705102 0.3236075 -0.609822 -1.0481026
-0.7298609 0.4709457 0.43302232 0.24527276 -0.46958265 -0.5432455 -0.70101196 -0.33856845
-0.2581244 -0.7422096 -0.6106327 -0.33603314 -0.8754736 -0.18038884 -0.40945375 0.39775962
0.3397294 -0.5137122 0.29006922 0.3184619 0.06651252 -0.40805182 -0.26232153 -0.31767124
-0.058556587 -0.10577452 0.11465356 -0.09548685 0.009524733 -0.29747853 -0.0673227 -0.013092356
-0.09077582 -0.3024263 -0.0924361 0.1782019 -0.12683906 -0.10195419 -0.1798659 0.1005426
0.033487774 -0.5998303 -0.49636748 -0.28812099 0.20283847 0.34316334 0.28695062 0.26416165
0.23752648 -0.20296393 -0.22849284 0.071590774 -0.28945944 0.4394057 0.2437425 0.06335641
0.34249106 -0.5850819 0.3420206 -0.122057736 0.17070304 0.07017022 0.381497 0.094026245
0.123787254 -0.22019684 -0.27007 0.43676192 -0.021588843 0.034262758 0.082374215 -0.732089
-0.08947484 -0.14942326 -0.018176798 0.50159013 0.026170995 0.2329527 -0.2513501 -0.3731991
0.23625185 -0.7319457 -0.64846796 -0.9201763 -0.62982297 0.30116385 0.46364754 -0.23864011
0.35475016 0.34657785 -0.6382642 -0.18972449 -0.5795462 -0.41864213 0.49744904 -0.025800252
-0.43595213 -0.2416027 -0.018869778 0.13262723 -0.3161258 -0.0013064042 0.40797693 -0.18933292
-0.13177407 -0.1962915 0.2286018 0.27814648 0.4537254 -0.30260855 -0.3327052 -0.26407447
-0.022584993 0.23182456 -0.018994754 -0.16766983 0.040711943 -0.492605 0.07138239 0.5309416
-0.11391651 0.046570975 -0.1614346 -0.349451 0.0017191222 0.1529784 -0.09389615 -0.15752839
0.2494852 -0.10699588 0.0063104015 -0.039518524 0.03745916 -0.45591047 0.0033078555 -0.05489559
0.19580556 0.09618839 -0.0027164407 -0.07289456 0.17947803 -0.2642477 -0.4464355 0.22629957
-0.0006888617 -0.010029179 0.34940973 -0.28136435 -0.13268626 -0.37483904 0.24557203 0.10278511
-0.272419 0.35532677 -0.35278967 -0.65515107 0.1409735 -0.2845468 -0.37794372 -0.077915385
0.4020901 0.27597725 0.14381313 0.1892322 -0.15502386 0.18705542 -0.006049355 0.22131923
-0.13107996 0.09244014 0.091517605 0.0116659915 0.11602935 0.3940194 -0.0040193065 -0.35041955
0.100749634 0.38416713 -0.36342147 -0.013029867 0.11970893 -0.30716455 0.038087297 0.5436506
0.016873833 -0.019788966 0.2982765 0.28871047 0.58759993 0.10973248 -0.33182275 -0.6556471
-0.3583475 -0.1780969 0.13914712 0.25421005 -0.34496304 0.29549494 -0.36772552 0.20258856
-0.039971985 -0.23191419 0.095754445 -0.46326947 -0.070316166 -0.44069928 -0.2227598 0.27571043
-0.3138992 -0.082163416 0.47050732 -0.30592683 -0.28988132 0.0630821 -0.044894602 -0.1209549
0.23028392 0.24985409 -0.068893455 0.34683618 0.16158402 -0.4313639 0.005582136 0.18362623
00000000: 6a38 a1be d5ca 24bf 9b7c 803e 556e 50ba
00000010: 1f0f 0fbe 7834 10bf 8e39 013f 5829 593e
00000020: 8e35 e0be 315d a2bd 8a23 593d a44a 31be
00000030: 56da ad3d c72b 543e 3b15 8f3c e382 0dbe
00000040: f521 73be 8e5d 983d 2e79 d63b 85dd 9f3e
00000050: 9972 203f 615b bbbe 2838 67be 38d0 3a3d
00000060: 5714 b9bd 3822 a6be 0608 13bd 3e1a 02bd
00000070: 9181 343f e2af a53e 4b1d 1cbf 3a28 86bf
00000080: 2ad8 3abf cb1f f13e 1ab5 dd3e c828 7b3e
00000090: 236d f0be 2312 0bbf 8575 33bf d858 adbe
000000a0: e228 84be 7301 3ebf 6d52 1cbf 890c acbe
000000b0: 0a1f 60bf dab7 38be eca3 d1be 26a7 cb3e
000000c0: 03f1 ad3e a582 03bf f483 943e 700d a33e
000000d0: b737 883d 2bec d0be 024f 86be cea5 a2be
000000e0: 08d9 6fbd 50a0 d8bd 7ccf ea3d 9c8e c3bd
000000f0: a00d 1c3c 1b4f 98be 7ce0 89bd 5281 56bc
00000100: ace8 b9bd 9fd7 9abe 234f bdbd 8f7a 363e
00000110: 19e2 01be 5ccd d0bd c42e 38be 47e9 cd3d
00000120: 7a2a 093d 7b8e 19bf e123 febe 9884 93be
00000130: e3b4 4f3e 1bb3 af3e 31eb 923e 3240 873e
00000140: 243a 733e c7d5 4fbe 07fa 69be 2f9e 923d
00000150: 0734 94be c9f9 e03e a297 793e 01c1 813d
00000160: fd5a af3e edc7 15bf 531d af3e 68f9 f9bd
00000170: c7cc 2e3e 68b5 8f3d 9353 c33e d590 c03d
00000180: 2c84 fd3d 487b 61be 9d46 8abe 429f df3e
00000190: 16db b0bc 1b57 0c3d d0b3 a83d 2f6a 3bbf
000001a0: 963e b7bd 6902 19be 82e7 94bc 3668 003f
000001b0: 8e64 d63c 278b 6e3e f6b0 80be f413 bfbe
000001c0: 01ec 713e cb60 3bbf ff01 26bf ad90 6bbf
000001d0: 143c 21bf 2632 9a3e 3663 ed3e 135e 74be
000001e0: d0a1 b53e a772 b13e 4865 23bf 2347 42be
000001f0: 245d 14bf 4358 d6be a4b1 fe3e 0d5b d3bc
00000200: 1e35 dfbe b366 77be cb94 9abc 6fcf 073e
00000210: 3edb a1be a73b abba 5ae2 d03e 7de0 41be
00000220: c8ef 06be a400 49be 9716 6a3e 3769 8e3e
00000230: b24e e83e 82ef 9abe 5658 aabe c534 87be
00000240: 2a04 b9bc 6b63 6d3e e39a 9bbc a4b1 2bbe
00000250: 91c1 263d b936 fcbe ee30 923d caeb 073f
00000260: 0f4d e9bd 35c1 3e3d 1d4f 25be 3eeb b2be
00000270: 2b54 e13a 5fa6 1c3e a04c c0bd 1f4f 21be
00000280: 0c79 7f3e a820 dbbd 7cc7 ce3b 2dde 21bd
00000290: c76e 193d 196d e9be 9bc8 583b 33da 60bd
000002a0: 4181 483e 6bfe c43d 5006 32bb be49 95bd
000002b0: 17c9 373e 794b 87be 3293 e4be 13bb 673e
000002c0: ba94 34ba 6d51 24bc d5e5 b23e fd0e 90be
000002d0: e8de 07be e7ea bfbe 3c77 7b3e 0081 d23d
000002e0: 817a 8bbe 64ed b53e d9a0 b4be fbb7 27bf
000002f0: 5b5b 103e 1eb0 91be d781 c1be 1a92 9fbd
00000300: c1de cd3e e44c 8d3e c043 133e 16c6 413e
00000310: 93be 1ebe 758b 3f3e ab39 c6bb 82a1 623e
00000320: d339 06be 4251 bd3d 956d bb3d b722 3f3c
00000330: cca0 ed3d e9bc c93e 63b4 83bb 316a b3be
00000340: d355 ce3d 8eb1 c43e 6112 babe 397b 55bc
00000350: f529 f53d ac44 9dbe 6d01 1c3d b02c 0b3f
00000360: fe3a 8a3c 781c a2bc b3b7 983e dcd1 933e
00000370: f36c 163f 6cbb e03d ace4 a9be 7dd8 27bf
00000380: 5379 b7be 095f 36be 957c 0e3e d227 823e
00000390: ff9e b0be 1d4b 973e 8546 bcbe 6073 4f3e
000003a0: aab9 23bd ea7a 6dbe e81a c43d a831 edbe
000003b0: ec01 90bd 56a3 e1be 251b 64be eb29 8d3e
000003c0: 65b7 a0be 4b45 a8bd 56e6 f03e 71a2 9cbe
000003d0: 536b 94be 3031 813d 67e3 37bd 34b7 f7bd
000003e0: 8ccf 6b3e c0d9 7f3e 0318 8dbd 8394 b13e
000003f0: 4876 253e bbdb dcbe 5aea b63b 8408 3c3e

encoder.encoder.0.conv.bias f4 [32]
0.07185692 -0.021898964 -0.0057413764 0.042187344 0.12378102 0.030896481 -0.2694177 0.015960399
0.014830561 -0.059130117 -0.0036349648 -0.027120188 0.19356366 0.020970589 -0.049472615 0.08265233
-0.068787396 0.07692465 -0.010040432 -0.010017661 0.015022253 -0.15963876 -0.00823962 -0.0035593563
-0.02747017 -0.014570766 0.0014637529 -0.20866759 0.15675618 -0.20386872 -0.0050872867 -0.21400595
00000000: b929 933d 7565 b3bc 2822 bcbb a3cc 2c3d
00000010: e780 fd3d 9e1a fd3c 1ef1 89be 62bf 823c
00000020: e2fb 723c 6c32 72bd 9738 6ebb 282b debc
00000030: 8d35 463e 83ca ab3c cca3 4abd a045 a93d
00000040: 68e0 8cbd ac8a 9d3d a080 24bc 1e21 24bc
00000050: e51f 763c 5878 23be 79ff 06bc 1744 69bb
00000060: 1f09 e1bc 39ba 6ebc 66db bf3a f5ac 55be
00000070: b184 203e f6c2 50be 41b3 a6bb 6024 5bbe

encoder.encoder.1.conv.weight f4 [32, 32, 3, 3]
0.12572041 0.19390082 0.20528345 -0.037409294 0.1338144 0.05388658 -0.15283418 -0.099186
0.13269453 -0.032437958 -0.036264427 -0.037166942 0.035808034 0.015449573 -0.023810918 0.05826685
0.04589316 0.012433998 -0.09391763 -0.27023396 -0.5596808 -0.20532243 -0.60997707 -0.61226904
-0.3549665 -0.62017995 -0.41696146 -0.10490922 -0.025073227 -0.1688135 -0.24827202 -0.1561583
-0.14120953 -0.26235855 -0.16249377 -0.0746245 -0.16159517 -0.005892336 0.07955129 -0.093889825
0.0023040008 0.05439276 -0.14591137 0.04544115 0.15759337 0.0011072364 0.11685711 0.07381064
-0.046502054 0.019885242 0.0076625645 -0.04093297 0.011540886 0.07759257 0.0037981533 0.031697717
0.047911976 0.01253343 -0.01389531 0.01308101 0.008708712 -0.0085358955 -0.022376288 -0.017623827
0.002950521 0.054100446 -0.03359179 -0.008465667 0.018131182 -0.020033322 0.074671365 -0.0074615884
-0.09104046 -0.05777732 -0.27572423 -0.20778796 -0.4131522 -0.5809222 -0.12088133 -0.30032626
-0.36937493 0.04193566 -0.11288589 -0.090739265 0.08332297 -0.059735525 -0.26891777 0.17462125
0.17154981 -0.24154742 0.13602586 0.080772676 -0.23560892 0.14886738 0.087984286 -0.08945312
0.23850779 0.10296342 -0.19611031 -0.09628662 -0.15423787 -0.026681045 -0.009200713 -0.062822215
0.025936376 0.14962974 0.06482674 0.022965845 -0.11185044 -0.027024122 0.069346584 0.020563679
0.10930087 0.13663071 -0.043250162 0.12364557 0.11537869 -0.105758436 -0.134687 -0.045278706
-0.08312447 -0.04583071 0.05901197 0.14915866 0.25057265 0.2455707 -0.025897253 -0.1423151
-0.07614553 -0.008405622 -0.07051953 -0.03656574 -0.040960442 0.00838703 -0.011236936 0.014943423
0.121851705 0.11721028 0.047647953 0.057921484 0.06325069 0.018615942 0.07197665 0.22519515
-0.07767454 -0.042612143 0.031618778 0.062368583 -0.07045704 0.046888366 0.0730308 0.07789699
0.016843844 0.086391166 0.09634792 0.053877335 0.08692224 0.06573284 0.005878512 0.048656505
0.04381858 0.044834573 -0.067160204 -0.018875923 -0.015279822 0.08775582 0.05948478 0.0118768355
0.011628137 0.01995307 0.040750965 0.10431769 0.047835745 0.097173005 0.1476814 0.028843712
0.013736506 0.09186537 0.07648552 0.008436229 -0.0180499 0.17975938 0.1363948 0.03997726
0.11061114 0.08456552 0.2092215 0.021807281 0.1299047 -0.0022268752 -0.021971146 -0.14530818
-0.18063505 -0.11672382 -0.31515083 -0.154235 -0.21892165 -0.11576532 0.18997888 0.057179052
-0.23005077 0.18833858 0.107985996 -0.19274898 0.14918327 0.016923016 -0.32399136 0.15254162
0.1568642 0.1248613 0.29255837 0.33653328 0.51996636 0.036830507 0.104416706 0.27519077
-0.2847067 -0.4331632 -0.5533537 -0.29208523 -0.46027562 -0.60991806 -0.13649926 -0.22725879
-0.27772996 -0.026608752 -0.06584722 -0.06239766 -0.03333177 0.0385654 -0.018073136 0.04023715
-0.04921443 -0.06523878 0.0812348 0.166833 0.13041474 0.23860765 0.4368962 0.0039131413
0.2422818 0.303448 -0.11422313 -0.14437431 -0.12073564 -0.034711584 0.026059773 0.0779577
0.042057656 -0.098032594 0.06625104 0.088699676 0.004178672 0.061739035 0.1185707 0.19940616
00000000: dabc 003e f08d 463e d335 523e 7d3a 19bd
00000010: a406 093e 2db8 5c3d 9080 1cbe 0822 cbbd
00000020: 13e1 073e aadd 04bd 028a 14bd 5d3c 18bd
00000030: 72ab 123d 3520 7d3c 1d0f c3bc 38a9 6e3d
00000040: 77fa 3b3d f8b7 4b3c e357 c0bd 1b5c 8abe
00000050: 3e47 0fbf 0b40 52be 7527 1cbf aabd 1cbf
00000060: 2bbe b5be 1dc4 1ebf f97b d5be a5da d6bd
00000070: 5e66 cdbc 72dd 2cbe 053b 7ebe f6e7 1fbe
00000080: 3b99 10be dc53 86be c464 26be bbd4 98bd
00000090: 3479 25be 7f14 c1bb c9eb a23d 4f49 c0bd
000000a0: b8fe 163b f1ca 5e3d ca69 15be 8020 3a3d
000000b0: 2860 213e b020 913a c852 ef3d 082a 973d
000000c0: f078 3ebd 60e6 a23c 4016 fb3b 54a9 27bd
000000d0: fc15 3d3c dae8 9e3d 70ea 783b 77d5 013d
000000e0: 593f 443d 0459 4d3c 28a9 63bc bc51 563c
000000f0: fcae 0e3c 24da 0bbc 7a4e b7bc d85f 90bc
00000100: 875d 413b 6e98 5d3d 8b97 09bd 95b3 0abc
00000110: d887 943c ec1c a4bc 4ded 983d 5780 f4bb
00000120: 6c73 babd e9a7 6cbd ba2b 8dbe 5ec6 54be
00000130: af88 d3be 51b7 14bf a190 f7bd 5dc4 99be
00000140: b61e bdbe bac4 2b3d b830 e7bd 82d5 b9bd
00000150: 3ca5 aa3d 3dad 74bd 97af 89be eacf 323e
00000160: c1aa 2f3e 3558 77be 5d4a 0b3e 256c a53d
00000170: 7743 71be b170 183e 1b31 b43d 3333 b7bd
00000180: 633b 743e 7cde d23d 24d1 48be eb31 c5bd
00000190: 88f0 1dbe 3592 dabc 96be 16bc efa8 80bd
000001a0: 8678 d43c 8a38 193e e2c3 843d de22 bc3c
000001b0: d811 e5bd b161 ddbc 9505 8e3d 2975 a83c
000001c0: 22d9 df3d ece8 0b3e 1527 31bd e339 fd3d
000001d0: aa4b ec3d e197 d8bd 64eb 09be 2a76 39bd
000001e0: 2a3d aabd fcb8 3bbd 89b6 713d 0cbd 183e
000001f0: 0f4b 803e e376 7b3e 7a26 d4bc 0dbb 11be
00000200: 30f2 9bbd bcb7 09bc 8b6c 90bd f5c5 15bd
00000210: 23c6 27bd c169 093c 201b 38bc 42d5 743c
00000220: 638d f93d f10b f03d 802a 433d 143f 6d3d
00000230: 9489 813d 7680 983c 7e68 933d 8f99 663e
00000240: d413 9fbd 128a 2ebd b182 013d 3376 7f3d
00000250: c84b 90bd 040e 403d 2c91 953d 7588 9f3d
00000260: 1afc 893c daed b03d 0f52 c53d 7bae 5c3d
00000270: 4a04 b23d f09e 863d 88a0 c03b 0b4c 473d
00000280: 1d7b 333d 75a4 373d 4a8b 89bd aea1 9abc
00000290: 3858 7abc 53b9 b33d 50a6 733d 0f97 423c
000002a0: f183 3e3c 9f74 a33c 7cea 263d 83a4 d53d
000002b0: 6aef 433d a402 c73d cb39 173e a649 ec3c
000002c0: 150f 613c e923 bc3d 71a4 9c3d 1c38 0a3c
000002d0: 62dd 93bc d812 383e 14ab 0b3e 32bf 233d
000002e0: 1888 e23d b030 ad3d 293e 563e 2fa5 b23c
000002f0: bd05 053e c4f0 11bb d5fc b3bc abcb 14be
00000300: 65f8 38be e60c efbd 735b a1be c8ef 1dbe
00000310: ff2c 60be 5e16 edbd d389 423e 9534 6a3d
00000320: 6e92 6bbe d4db 403e c327 dd3d fd5f 45be
00000330: 80c3 183e 23a2 8a3c 32e2 a5be df33 1c3e
00000340: 02a1 203e 48b7 ff3d 36ca 953e 174e ac3e
00000350: 841c 053f 96db 163d 6dd8 d53d cee5 8c3e
00000360: 14c5 91be 91c7 ddbe 97a8 0dbf 328c 95be
00000370: 3fa9 ebbe 9723 1cbf 76c6 0bbe 87b6 68be
00000380: 9f32 8ebe 99fa d9bc e8da 86bd b094 7fbd
00000390: e586 08bd c1f6 1d3d 1d0e 94bc b6cf 243d
000003a0: 1295 49bd e99b 85bd 6e5e a63d 45d6 2a3e
000003b0: 718b 053e 9055 743e dcb0 df3e cf39 803b
000003c0: b818 783e 895d 9b3e d1ed e9bd dcd6 13be
000003d0: 3f44 f7bd bc2d 0ebd 4e7b d53c 49a8 9f3d
000003e0: a644 2c3d 50c5 c8bd a0ae 873d 2da8 b53d
000003f0: 3eed 883b 12e2 7c3d 32d5 f23d 2131 4c3e

encoder.encoder.1.conv.bias f4 [32]
0.0761973 0.06113522 -0.057400446 0.016832752 0.07786813 0.1428594 -0.03021585 -0.008621441
0.04316026 0.011731817 0.029014295 0.00565043 0.110145144 -0.00020998037 0.07230526 0.07254074
-0.005952315 -0.018567603 -0.025858944 -0.043042246 0.13192147 0.0032692673 0.04011111 -0.10224205
0.02226493 0.018018909 0.100664616 -0.037070017 0.019931598 0.09581338 -0.06374255 -0.012711233
00000000: 540d 9c3d ed68 7a3d bb1c 6bbd d7e4 893c
00000010: 5379 9f3d bc49 123e 3b87 f7bc f240 0dbc
00000020: d0c8 303d cf36 403c 63af ed3c 3e27 b93b
00000030: c793 e13d 2d2e 5cb9 c814 943d 3d90 943d
00000040: a30b c3bb 161b 98bc 23d6 d3bc 114d 30bd
00000050: 6c16 073e 3441 563b 8c4b 243d 4864 d1bd
00000060: f164 b63c 649c 933c 4029 ce3d bbd6 17bd
00000070: 9747 a33c ce39 c43d 748b 82bd c742 50bc

encoder.encoder.2.conv.weight f4 [32, 32, 3, 3]
0.024447784 -0.17562382 0.11172265 0.006269079 -0.024159875 0.2043482 -0.09403476 -0.10185728
-0.011182562 0.03834426 -0.08126995 0.21128301 -0.12500772 -0.18818308 -0.16019964 -0.20095459
-0.11776406 0.037785955 0.032185428 -0.098980874 -0.058064755 0.0034388045 0.15518436 0.11032637
0.0768108 0.2010015 0.11722237 -0.015985733 -0.056187324 0.054802295 -0.008920253 -0.03660827
-0.02868327 0.019348508 -0.012538591 -0.0026258188 0.12723807 0.16452819 0.06579513 -0.1102809
0.027416304 0.058318127 -0.042261347 -0.012407464 -0.026006568 0.20291871 -0.024180146 0.09807719
0.0383122 -0.2518256 -0.018007 0.004694302 -0.2540344 -0.15121482 0.028630309 -0.019916791
0.055415846 0.00806584 0.021021528 0.038951695 0.0067338063 -0.07742336 0.004170276 -0.03156213
-0.00015855311 -0.072002985 -0.018425621 -0.022102032 -0.02399763 -0.014201509 -0.0074671744 -0.068601884
-0.00233749 -0.040566877 0.021876637 0.044452917 -0.034057904 0.041071877 0.025476329 -0.020876661
-0.04850176 -0.044543315 0.024743997 0.0012063025 -0.024088252 -0.026842324 -0.0676165 0.016264284
-0.012206847 -0.020223755 -0.037250616 0.08988973 0.121324 -0.13544996 0.07733508 -0.09221335
-0.049011577 0.0959682 0.03932273 -0.03698036 -0.14552088 -0.40317178 0.039083797 -0.1893026
-0.25526565 0.002842563 -0.42707452 -0.014349504 0.22128847 0.07229348 0.14705762 -0.15714172
-0.124773026 -0.15689482 -0.05822711 -0.10639565 0.08235978 0.1002441 -0.021265827 0.18765864
0.014808885 -0.041599963 -0.02737964 0.013592953 0.17580944 -0.092026554 -0.035866804 -0.24307214
0.045396615 -0.0050432757 -0.22504923 0.15547925 -0.0051986272 -0.094952494 0.14636636 0.06664387
0.16212898 0.14376651 -0.23229706 -0.23783326 0.021533515 0.14140458 0.035387307 0.083385006
-0.04791193 -0.06719113 -0.065159425 0.045841165 -0.052041337 -0.019408396 0.027528344 0.03488146
-0.03950096 -0.11822658 -0.07255647 -0.05769534 -0.07289772 -0.0790268 -0.003551355 0.028722152
0.010596081 -0.10564798 0.12529741 -0.005987877 0.026220579 0.06992042 0.2223908 0.25154215
-0.19665448 0.22653952 0.2918837 -0.11003083 0.011753817 -0.10408357 -0.12292218 -0.033569716
-0.07592511 -0.081453286 0.044182505 -0.012556048 0.007563789 0.07558966 0.13457105 -0.06912839
-0.0692868 0.15587668 -0.049287215 0.13313375 0.07933592 -0.030669745 -0.059377123 0.035564397
0.038088072 -0.053394206 0.027656877 -0.03385022 0.026391307 0.017848067 0.2167899 0.23936293
0.20043157 0.09909605 -0.04820142 -0.027892053 0.17516698 -0.07904572 -0.00039314377 -0.051851746
-0.071628764 -0.011534942 -0.03956133 -0.004192008 -0.010702568 -0.06391556 -0.120272666 0.010676291
-0.03563479 -0.06157766 0.035085276 0.015346684 -0.017229369 -0.03718118 -0.0826679 -0.008268791
-0.002822375 0.056510106 0.04703515 0.1438839 0.08074262 0.2426343 0.25284138 0.00035607218
0.27800405 0.041503362 0.06703426 0.1071333 0.1242659 -0.09618553 0.07883024 0.06930879
0.008174937 0.05465807 0.19455451 -0.0071587865 0.037294623 -0.25124046 -0.07933308 -0.38890848
-0.0180261 -0.19166002 0.103762366 -0.044092286 0.088209756 -0.047219183 -0.038914435 -0.29671052
00000000: b846 c83c bbd6 33be d8ce e43d d96c cd3b
00000010: eeea c5bc a840 513e 4c95 c0bd 8d9a d0bd
00000020: 1137 37bc df0e 1d3d dc70 a6bd 935a 583e
00000030: 0602 00be 11b3 40be 600b 24be 0ac7 4dbe
00000040: 492e f1bd 72c5 1a3d ded4 033d 7cb6 cabd
00000050: 4fd5 6dbd 915d 613b a6e8 1e3e cbf2 e13d
00000060: fb4e 9d3d 56d3 4d3e 4812 f03d 83f4 82bc
00000070: ae24 66bd 5f78 603d 4126 12bc 8ef2 15bd
00000080: 2df9 eabc c380 9e3c aa6e 4dbc ee15 2cbb
00000090: b24a 023e 147a 283e 99bf 863d f4da e1bd
000000a0: 2898 e03c fdde 6e3d 3c1a 2dbd ad48 4bbc
000000b0: ba0b d5bc ecc9 4f3e 7115 c6bc b2dc c83d
000000c0: 41ed 1c3d 49ef 80be 6b83 93bc a9d2 993b
000000d0: cc10 82be 0fd8 1abe 1c8a ea3c 8a28 a3bc
000000e0: bafb 623d 9626 043c 5735 ac3c d08b 1f3d
000000f0: 43a7 dc3b 2390 9ebd d0a6 883b 4b47 01bd
00000100: 4741 26b9 4d76 93bd 54f1 96bc 520f b5bc
00000110: ae96 c4bc 72ad 68bc 33af f4bb 257f 8cbd
00000120: 9330 19bb 7429 26bd a236 b33c 4314 363d
00000130: 4d80 0bbd fc3a 283d bcb3 d03c 8805 abbc
00000140: c8a9 46bd 0d73 36bd ecb3 ca3c cc1c 9e3a
00000150: ba54 c5bc 6fe4 dbbc 857a 8abd ad3c 853c
00000160: 3aff 47bc 4aac a5bc 1a94 18bd 1b18 b83d
00000170: b878 f83d 65b3 0abe db61 9e3d 5ada bcbd
00000180: 5dc0 48bd fa8a c43d df10 213d b878 17bd
00000190: 6d03 15be 886c cebe 5516 203d 8ad8 41be
000001a0: 2eb2 82be 4b4a 3a3b 83a9 dabe 2f1a 6bbc
000001b0: 7299 623e 9b0e 943d 4696 163e c2e9 20be
000001c0: 0089 ffbd 09a9 20be 8d7f 6ebd f6e5 d9bd
000001d0: 3fac a83d c74c cd3d ac35 aebc 9629 403e
000001e0: f7a0 723c b964 2abd 444b e0bc fab4 5e3c
000001f0: 6407 343e 6b78 bcbd 12e9 12bd e7e7 78be
00000200: cdf1 393d 1042 a5bb 4e73 66be f435 1f3e
00000210: 3f59 aabb 7476 c2bd 10e1 153e 957c 883d
00000220: 2405 263e 8737 133e 48df 6dbe 908a 73be
00000230: 0e67 b03c 5dcc 103e 48f2 103d c2c5 aa3d
00000240: 4d3f 44bd 819b 89bd 4e72 85bd f2c3 3b3d
00000250: 4c29 55bd 5bfe 9ebc 1f83 e13c dddf 0e3d
00000260: c2cb 21bd c720 f2bd 7d98 94bd f351 6cbd
00000270: 664b 95bd ced8 a1bd dabd 68bb b84a eb3c
00000280: 2f9b 2d3c f85d d8bd f74d 003e f435 c4bb
00000290: 8acc d63c 7032 8f3d 6aba 633e 22ca 803e
000002a0: cb5f 49be faf9 673e c871 953e d857 e1bd
000002b0: 1593 403c c429 d5bd a0be fbbd 6680 09bd
000002c0: a07e 9bbd fbd0 a6bd b7f8 343d e2b7 4dbc
000002d0: a9d9 f73b c0ce 9a3d fecc 093e 2f93 8dbd
000002e0: 3de6 8dbd 239e 1f3e 64e1 49bd 3754 083e
000002f0: df7a a23d 1e3f fbbc 6d35 73bd f9ab 113d
00000300: 3d02 1c3d e2b3 5abd ad90 e23c 87a6 0abd
00000310: 9532 d83c 1c36 923c 2cfe 5d3e 8e1b 753e
00000320: ef3d 4d3e dff2 ca3d da6e 45bd e07d e4bc
00000330: f95e 333e b9e2 a1bd dd1e ceb9 7f62 54bd
00000340: 1ab2 92bd 0efd 3cbc 100b 22bd 1d5d 89bb
00000350: d359 2fbc 29e6 82bd 8451 f6bd 9ceb 2e3c
00000360: c9f5 11bd db38 7cbd 94b5 0f3d a870 7b3c
00000370: 9b24 8dbc 4b4b 18bd ca4d a9bd d379 07bc
00000380: 98f7 38bb 2477 673d eea7 403d 4d56 133e
00000390: 635c a53d 2075 783e 6d74 813e 33af ba39
000003a0: 8c56 8e3e 6eff 293d 4249 893d b468 db3d
000003b0: 1f7f fe3d ebfc c4bd c071 a13d c4f1 8d3d
000003c0: 2cf0 053c 24e1 5f3d 4c39 473e 4194 eabb
000003d0: 3fc2 183d 97a2 80be 6279 a2bd 031f c7be
000003e0: 79ab 93bc 8642 44be 5d81 d43d 1d9a 34bd
000003f0: 51a7 b43d e768 41bd be64 1fbd 71ea 97be

encoder.encoder.2.conv.bias f4 [32]
-0.18159257 0.030700712 -0.20538321 -0.058794975 -0.04307007 0.06410715 -0.05872644 0.027195618
-0.11088849 0.25250193 -0.01653168 -0.32933423 0.10104882 0.03627067 -0.27071032 0.01475221
0.024292147 0.052667923 -0.013275146 -0.10024358 -0.27420327 0.0023094495 -0.08207376 0.14057815
0.030620666 -0.19045123 -0.012419454 -0.14384179 0.13017745 -0.003847672 0.076914094 0.1099113
00000000: 67f3 39be 0f80 fb3c fa4f 52be 00d3 70bd
00000010: 3e6a 30bd 9c4a 833d 238b 70bd 58c9 de3c
00000020: 8119 e3bd ef47 813e 726d 87bc 7f9e a8be
00000030: aff2 ce3d 8e90 143d 8b9a 8abe 41b3 713c
00000040: 5300 c73c 52ba 573d ff7f 59bc 824c cdbd
00000050: 5f64 8cbe 225a 173b 4a16 a8bd b8f3 0f3e
00000060: 31d8 fa3c a605 43be f77a 4bbc 434b 13be
00000070: 3d4d 053e 3929 7cbb 2385 9d3d 2d19 e13d

encoder.encoder.3.conv.weight f4 [10, 32, 3, 3]
-0.008629751 0.21218719 -0.09336876 0.08292404 -0.1028701 -0.14835419 -0.09845078 -0.08858282
-0.079253554 0.037577856 0.01993296 0.027295012 0.06596826 -0.031428963 0.06588038 -0.044094674
0.020803565 -0.0021363432 -0.1376217 0.07785745 -0.26864824 -0.03312025 -0.15520677 -0.03873245
0.111582376 -0.010239987 -0.13926052 0.031014042 -0.032415155 -0.0420637 0.011573058 -0.08163893
-0.024025846 -0.0064808377 -0.021274745 -0.0034294666 0.0070390664 0.085703395 0.07138732 0.0072668185
-0.056879297 -0.02045419 0.02619719 0.0068540187 0.06463603 -0.0005095641 0.017139556 0.03175351
-0.06709833 -0.042600073 -0.004944392 -0.047185592 0.012912829 0.20769621 0.035521936 0.014664609
0.018031124 0.009865385 0.055778366 -0.014471051 -0.04512745 0.05136859 0.0017141253 -0.07966513
-0.30547822 0.17695959 0.054386206 -0.20250784 -0.022247992 -0.057036825 0.34382626 -0.10938175
0.06546102 -0.020418867 0.13926533 0.01664737 -0.012141042 -0.10502623 0.025963493 0.20360173
0.2245625 0.002671057 0.048565682 -0.005524555 -0.010517618 0.12553212 0.17202301 0.0007075336
0.02044674 -0.051421408 -0.06063015 0.032253392 0.23147964 0.24654898 0.21125741 -0.11323714
0.1969907 -0.010389393 -0.21909215 -0.02409133 0.15327448 0.00012403016 -0.07260528 -0.08835822
0.014375795 0.12990248 0.10691477 0.059693787 -0.005930542 0.12808044 0.17953444 -0.013729472
0.025441969 0.07561182 -0.06295301 -0.012192894 0.03237379 0.04868588 -0.017453521 -0.024253476
0.034226567 0.01287541 -0.007899729 0.06235019 0.038492456 0.001932103 -0.20120117 -0.18709138
0.11688158 -0.04659664 -0.16046262 0.16624437 0.010404786 0.39602855 -0.07182823 0.0043713115
-0.0423435 0.05275874 0.0004655294 0.04313115 0.072460435 -0.013406937 0.009933108 0.0140669625
-0.00084836705 -0.090755954 0.054675125 0.13262059 -0.06593272 0.007843822 0.09054804 -0.21775056
0.07291772 -0.014934836 0.03777024 0.04274393 -0.16493748 0.27943677 -0.087278 0.19772701
0.050377507 0.30749762 0.038408194 0.021552201 0.12390646 0.046664987 -0.15369745 -0.13773437
0.18855298 0.095392376 -0.19217189 0.027910417 -0.025465025 0.0127863325 -0.04036649 -0.043544013
-0.0148828495 -0.07941129 0.038207218 0.00022529515 -0.22015446 -0.38555634 0.3691502 -0.074073404
0.15716448 -0.08607448 -0.022537244 0.25533512 -0.43679163 -0.010707316 0.0773716 0.060723186
0.07653056 0.080821745 0.026951106 0.08279916 0.08960987 -0.08968356 -0.08904796 -0.061571762
-0.08230586 0.016174046 -0.04503525 -0.006996681 0.07835275 0.0593712 -0.12049492 -0.050310448
-0.017549764 0.09847857 -0.16084193 0.00076223526 0.02807661 -0.030282864 -0.0060403943 -0.1712851
0.04686902 -0.089417264 -0.16377918 -0.1764678 -0.089974076 -0.23068798 0.15548192 0.069300994
0.087966934 0.031021789 0.015290358 -0.10018361 -0.0631203 0.03720874 0.038896315 -0.15515566
0.04050612 0.03369964 0.016317563 0.07077755 0.0629252 0.017982438 0.022675836 -0.023932522
-0.032692827 0.03638444 0.057676125 0.02255811 -0.012791179 0.0025385038 -0.014002708 0.100063734
0.0024944765 -0.014497586 0.0040577166 0.1851561 -0.032643486 0.081154816 -0.09403129 -0.07696973
00000000: cd63 0dbc 9947 593e 1f38 bfbd 14d4 a93d
00000010: 8fad d2bd 29ea 17be 90a0 c9bd e96a b5bd
00000020: b04f a2bd 3deb 193d 724a a33c ca99 df3c
00000030: 5e1a 873d a8bb 00bd 4bec 863d 9e9c 34bd
00000040: 3d6c aa3c e401 0cbb b4ec 0cbe ba73 9f3d
00000050: 438c 89be 19a9 07bd 86ee 1ebe eba5 1ebd
00000060: 4d85 e43d 9ec5 27bc 4f9a 0ebe 2911 fe3c
00000070: c1c5 04bd fc4a 2cbd ec9c 3d3c 5032 a7bd
00000080: dad1 c4bc 355d d4bb 6048 aebc e7c0 60bb
00000090: f8a7 e63b 4385 af3d 8433 923d 7e1e ee3b
000000a0: 44fa 68bd 8c8f a7bc 7d9b d63c ad97 e03b
000000b0: e55f 843d 4594 05ba 4168 8c3c f80f 023d
000000c0: d96a 89bd 6a7d 2ebd 9104 a2bb ae45 41bd
000000d0: 5590 533c 51ae 543e 737f 113d d443 703c
000000e0: 02b6 933c 6ca2 213c db77 643d fd17 6dbc
000000f0: 90d7 38bd df67 523d 80ac e03a 7927 a3bd
00000100: a467 9cbe e534 353e 12c4 5e3d 375e 4fbe
00000110: 6c41 b6bc 729f 69bd ff09 b03e 8a03 e0bd
00000120: 6d10 863d 7845 a7bc 929b 0e3e 1160 883c
00000130: 39eb 46bc fe17 d7bd 64b1 d43c f97c 503e
00000140: b6f3 653e e60c 2f3b cfec 463d 5407 b5bb
00000150: 1652 2cbc 7e8b 003e cd26 303e c779 393a
00000160: ec7f a73c 419f 52bd 5257 78bd 221c 043d
00000170: 0009 6d3e 5677 7c3e dd53 583e e0e8 e7bd
00000180: eeb7 493e 4638 2abc b159 60be 2e5b c5bc
00000190: fcf3 1c3e 180e 0239 14b2 94bd 28f5 b4bd
000001a0: 7488 6b3c 2805 053e 22f6 da3d 7981 743d
000001b0: fe54 c2bb 8527 033e e0d7 373e 94f1 60bc
000001c0: ad6b d03c 5fda 9a3d 82ed 80bd b4c4 47bc
000001d0: 619a 043d d86a 473d b0fa 8ebc 3aaf c6bc
000001e0: 2831 0c3d 62f3 523c dd6d 01bc ea62 7f3d
000001f0: 44aa 1d3d 9e3e fd3a ae07 4ebe e294 3fbe
00000200: 9c5f ef3d 1edc 3ebd 5050 24be f73b 2a3e
00000210: d678 2a3c 41c4 ca3e ae1a 93bd 383d 8f3b
00000220: 6170 2dbd 8c19 583d 4c12 f439 4aaa 303d
00000230: 2366 943d c5a8 5bbc 7abe 223c 1e79 663c
00000240: f364 5eba 42de b9bd 06f3 5f3d b1cd 073e
00000250: bc07 87bd 6083 003c 4071 b93d 01fa 5ebe
00000260: e355 953d 3eb1 74bc f8b4 1a3d 4214 2f3d
00000270: 5fe5 28be 5612 8f3e cfbe b2bd f378 4a3e
00000280: a558 4e3d 5470 9d3e e951 1d3d 3e8e b03c
00000290: acc2 fd3d c923 3f3d dd62 1dbe 3d0a 0dbe
000002a0: 0814 413e 145d c33d b5c8 44be 63a4 e43c
000002b0: 079c d0bc c47d 513c 5557 25bd 355b 32bd
000002c0: 32d7 73bc 63a2 a2bd 2c7f 1c3d 353d 6c39
000002d0: 2c70 61be a467 c5be 4101 bd3e ccb3 97bd
000002e0: baef 203e d147 b0bd 07a0 b8bc 49bb 823e
000002f0: 27a3 dfbe bd6d 2fbc 0075 9e3d e0b8 783d
00000300: 0ebc 9c3d df85 a53d 91c8 dc3c 9b92 a93d
00000310: 6185 b73d 04ac b7bd c75e b6bd ac32 7cbd
00000320: fa8f a8bd 6f7f 843c e276 38bd 6a44 e5bb
00000330: 6877 a03d 372f 733d 0ac6 f6bd 5412 4ebd
00000340: 86c4 8fbc 22af c93d bfb3 24be bed0 473a
00000350: eb00 e63c c513 f8bc 80ee c5bb 5c65 2fbe
00000360: bbf9 3f3d 6620 b7bd bbb5 27be fab3 34be
00000370: 5444 b8bd 7839 6cbe a736 1f3e aeed 8d3d
00000380: 0228 b43d 6821 fe3c 6984 7a3c 112d cdbd
00000390: 3745 81bd 3168 183d be51 1f3d 20e1 1ebe
000003a0: bfe9 253d a208 0a3d 69ac 853c d2f3 903d
000003b0: edde 803d e84f 933c adc2 b93c 230e c4bc
000003c0: eae8 05bd da07 153d cd3d 6c3d c9cb b83c
000003d0: 1892 51bc 075d 263b 9d6b 65bc 37ee cc3d
000003e0: 5f7a 233b 4887 6dbc 98f6 843b 9099 3d3e
000003f0: 2db5 05bd 7f34 a63d 7a93 c0bd 4ea2 9dbd

encoder.encoder.3.conv.bias f4 [10]
0.18435647 0.23400027 0.24984096 0.2727439 0.21067587 0.22560209 0.21489371 0.2710529
0.14580943 0.16955975
00000000: f1c7 3c3e c49d 6f3e 4fd6 7f3e 17a5 8b3e
00000010: 6abb 573e 3c04 673e 190d 5c3e 72c7 8a3e
00000020: 114f 153e 12a1 2d3e

decoder.decoder.0.dconv.weight f4 [10, 32, 3, 3]
0.12723665 -0.23546979 -0.24275158 -0.079371065 -0.19010822 0.3566754 0.088257514 -0.45751157
0.46904084 0.000970662 -0.011037069 0.16364585 -0.18098564 -0.163387 -0.3057329 0.1820247
0.53393465 -0.23686054 -0.29332808 -0.06163959 0.15827297 -0.21235254 0.07822296 0.48883748
-0.0037107887 -0.15483657 -0.14765477 0.057128683 -0.017162284 0.09953735 -0.21088736 0.09874775
0.19473885 -0.039941095 0.14227688 -0.14206038 0.04546881 0.014328663 -0.035752404 0.029243005
0.22884564 0.05959044 0.31388044 -0.09926388 0.39546493 -0.08204241 -0.13150701 -0.3244911
0.2180398 0.026471784 -0.24663934 -0.31291187 0.18746807 0.24577743 0.13308805 0.1230174
-0.029464567 -0.26222938 -0.052396458 0.23683688 -0.13245882 0.25067613 -0.13071541 -0.07439848
-0.12888865 0.040855955 0.012381941 -0.0840133 0.095834345 -0.17143333 -0.2920933 0.11063284
-0.02009194 0.012545972 -0.061549034 0.013274059 -0.037363205 -0.13787328 -0.3774618 -0.071325295
0.018390005 0.04645848 0.06049123 0.21618706 -0.103614256 0.08303337 0.38268524 0.11653676
-0.1310052 0.2815887 0.05735976 0.083374456 0.063696675 -0.14141874 -0.29606327 -0.260394
-0.16373166 0.085256636 0.57058245 0.25150502 -0.138342 0.122890785 0.054523304 -0.094945416
-0.27180064 0.006687513 0.14704317 -0.073367454 0.08353748 -0.0986008 0.062095623 -0.20707221
-1.0967715 0.3736045 0.021126382 -0.019187795 0.5582118 0.044814695 -0.031921923 0.03522067
0.20939426 -0.018627658 -0.44447896 0.027976085 -0.011900194 -0.009993047 0.031750377 0.19163585
-0.060043175 0.10546811 0.08591022 0.07356852 -0.13822591 -0.33137032 -0.56947815 0.09821277
0.25234494 0.108592466 0.16330914 -0.15627924 -0.0035147134 -0.10708986 -0.12709677 -0.2469428
0.028455602 -0.1217037 0.025659047 -0.07313527 -0.1385693 0.16194426 0.33218062 0.022121174
0.030705608 -0.12651783 -0.066699944 2.366808e-05 -0.004365951 -0.08097487 0.025618542 0.027063578
0.017759364 -0.1286121 0.10229395 -0.024811728 0.06907373 -0.072146975 -0.38861477 -0.049287397
-0.28424472 0.22847722 0.16057548 -0.069321066 -0.18722622 0.43203756 -0.015541157 -0.15172249
0.17095141 -0.11970723 -0.094772674 0.38349053 0.058608383 0.096804395 -0.3265975 0.05110871
-0.43836072 0.3025269 0.035789147 -0.19690463 -0.36179516 -0.17182676 -0.13846906 -0.20834307
-0.18550825 -0.054367058 0.11631879 -0.024695644 0.249015 0.27575353 -0.07640179 -0.026093187
-0.0096764 0.075186685 -0.27279952 0.21273434 0.1961653 -0.30229592 0.27110666 -0.07780207
-0.5491381 0.20213646 -0.0582125 -0.059021123 0.43579662 -0.048062112 -0.09265863 0.27936128
0.34818092 0.2950175 0.011185576 0.08061144 -0.021755798 0.06846816 0.1829925 0.2839369
0.39115775 -0.02361861 0.025471216 0.49797386 0.26963723 -0.501749 -0.37909558 0.39676994
-0.01685666 0.13550295 0.044060554 -0.015081402 0.052835044 -0.058557343 -0.52967554 0.20940001
0.05522683 0.09324567 0.3368448 -0.040397532 0.10352485 -0.18910393 -0.06823511 -0.03177324
0.17799582 0.02341216 0.039861012 0.028798081 -0.045815393 0.16951485 -0.024974573 -0.018066565
00000000: 534a 023e fe1e 71be df93 78be 4c8d a2bd
00000010: bbab 42be 289e b63e 5bc0 b43d f53e eabe
00000020: 1f26 f03e 0674 7e3a d3d4 34bc c792 273e
00000030: 4d54 39be ec4e 27be 0689 9cbe af64 3a3e
00000040: f1af 083f 928b 72be 192f 96be cb79 7cbd
00000050: 4f12 223e f272 59be 5c33 a03d e848 fa3e
00000060: b430 73bb 7a8d 1ebe d032 17be c4ff 693d
00000070: eb97 8cbc 3dda cb3d dbf2 57be 433c ca3d
00000080: 9f69 473e 4699 23bd 08b1 113e 4778 11be
00000090: 813d 3a3d c5c2 6a3c 1d71 12bd 078f ef3c
000000a0: 8356 6a3e 1b15 743d f0b4 a03e dc4a cbbd
000000b0: 617a ca3e da05 a8bd c6a9 06be b323 a6be
000000c0: d345 5f3e 5bdb d83c 068f 7cbe fc35 a0be
000000d0: a1f7 3f3e 14ad 7b3e 3c48 083e 8cf0 fb3d
000000e0: ad5f f1bc ee42 86be ab9d 56bd 5e85 723e
000000f0: 49a3 07be 9f58 803e 43da 05be 3b5e 98bd
00000100: 63fb 03be 9358 273d a0dd 4a3c 2a0f acbd
00000110: cc44 c43d 388c 2fbe 418d 95be 7893 e23d
00000120: da97 a4bc 9f8d 4d3c d71a 7cbd 707b 593c
00000130: 290a 19bd a72e 0dbe ac42 c1be ff12 92bd
00000140: a3a6 963c 3f4b 3e3d a7c5 773d 2460 5d3e
00000150: b633 d4bd 660d aa3d 52ef c33e d3aa ee3d
00000160: 3a26 06be 652c 903e 11f2 6a3d 3ac0 aa3d
00000170: 6773 823d 13d0 10be 9b95 97be 5d52 85be
00000180: 46a9 27be 089b ae3d b111 123f 44c5 803e
00000190: 86a9 0dbe 2aae fb3d d453 5f3d be72 c2bd
000001a0: 7429 8bbe ed22 db3b 7c92 163e ad41 96bd
000001b0: b315 ab3d 37ef c9bd fb57 7e3d bd0a 54be
000001c0: 0263 8cbf 1749 bf3e 3c11 ad3c b92f 9dbc
000001d0: f8e6 0e3f 9d8f 373d 90c0 02bd 8d43 103d
000001e0: 736b 563e 0899 98bc bf92 e3be 1a2e e53c
000001f0: 08f9 42bc e1b9 23bc af0c 023d 303c 443e
00000200: d5ef 75bd aaff d73d b3f1 af3d 18ab 963d
00000210: 188b 0dbe 5fa9 a9be 52c9 11bf c723 c93d
00000220: 5b33 813e ba65 de3d 833a 273e aa07 20be
00000230: 1b57 66bb ee51 dbbd a825 02be 93de 7cbe
00000240: b91b e93c ca3f f9bd ec32 d23c f2c7 95bd
00000250: 1ce5 0dbe b7d4 253e 9413 aa3e 7737 b53c
00000260: 548a fb3c e48d 01be fb99 88bd d18a c637
00000270: 4010 8fbb 27d6 a5bd fadd d13c 70b4 dd3c
00000280: 167c 913c e4b2 03be 7e7f d13d f741 cbbc
00000290: 8776 8d3d cbc1 93bd 84f8 c6be 95e1 49bd
000002a0: 8688 91be eff5 693e e66d 243e 34f8 8dbd
000002b0: 3bb8 3fbe 0734 dd3e 56a0 7ebc 245d 1bbe
000002c0: e30d 2f3e 1029 f5bd 2d18 c2bd df58 c43e
000002d0: 580f 703d 6241 c63d ca37 a7be 5e57 513d
000002e0: d170 e0be cee4 9a3e a497 123d 5ea1 49be
000002f0: 373d b9be 5bf3 2fbe d5ca 0dbe e357 55be
00000300: e0f5 3dbe feaf 5ebd 8c38 ee3d 854e cabc
00000310: cafd 7e3e 912f 8d3e 8b78 9cbd 61c1 d5bc
00000320: c389 1ebc 7afb 993d 61ac 8bbe 08d7 593e
00000330: 8edf 483e 88c6 9abe 7ece 8a3e b156 9fbd
00000340: 5194 0cbf dcfc 4e3e 3b70 6ebd 22c0 71bd
00000350: bc20 df3e c7dc 44bd cfc3 bdbd 7108 8f3e
00000360: c544 b23e 890c 973e b543 373c 9c17 a53d
00000370: 3739 b2bc 0939 8c3d 6362 3b3e 2d60 913e
00000380: d445 c83e d17b c1bc 03a9 d03c 6ef6 fe3e
00000390: e40d 8a3e 9f72 00bf d118 c2be 6e25 cb3e
000003a0: fa16 8abc 49c1 0a3e d778 343d fc17 77bc
000003b0: 8f69 583d d3d9 6fbd d198 07bf f56c 563e
000003c0: 8735 623d 96f7 be3d ec76 ac3e e277 25bd
000003d0: d604 d43d 76a4 41be d9be 8bbd a824 02bd
000003e0: 8944 363e dcca bf3c 4d45 233d f4e9 eb3c
000003f0: eca8 3bbd 4d95 2d3e 7a97 ccbc 5500 94bc

decoder.decoder.0.dconv.bias f4 [32]
-0.0003294556 0.39390242 0.22865725 0.022726102 -0.16551399 0.120765515 -0.090777375 -0.0069769397
-0.0021365734 0.10370904 0.3576757 0.2783419 -0.1907268 -0.40720627 0.11954687 0.076303974
0.020505415 -0.6819593 0.34825578 0.16978855 0.17992748 -0.1557778 0.02287375 -0.05390695
-0.11570929 0.12015737 -0.19292377 -0.20838699 0.03273629 0.025359448 0.024951518 0.30087107
00000000: c8ba acb9 94ad c93e 2025 6a3e 172c ba3c
00000010: 807c 29be e953 f73d 7de9 b9bd d09e e4bb
00000020: c105 0cbb 6865 d43d 4521 b73e d482 8e3e
00000030: e34d 43be 577d d0be fdd4 f43d 4245 9c3d
00000040: f9fa a73c e294 2ebf 954e b23e 0ddd 2d3e
00000050: e93e 383e 3784 1fbe bb61 bb3c 89cd 5cbd
00000060: fef8 ecbd 1115 f63d cf8d 45be 6663 55be
00000070: 7d16 063d 9ebe cf3c 2067 cc3c c60b 9a3e

decoder.decoder.1.dconv.weight f4 [32, 32, 3, 3]
-0.22138926 0.18058686 0.088110104 -0.4632783 -0.39814457 0.29122803 0.20549662 0.4062673
0.25482154 -0.23916988 -0.18263306 -0.12955801 -0.36080012 -0.44024563 -0.66489667 0.12548533
-0.14017038 0.1671614 -0.2135997 -0.07663079 -0.054067083 0.23061453 -0.47188905 -0.034341592
0.5131765 0.1833718 -0.01454064 0.18902263 -0.24276474 -0.22402519 0.19187541 -0.37107512
0.023838967 -0.04530061 -0.1355562 -0.115455456 -0.3255038 -0.10672379 0.14268957 -0.119768225
-0.48385283 -0.23468725 -0.37892535 0.33852622 0.522753 0.18641889 -0.19024087 -0.077449255
-0.20830622 -0.2770081 -0.098275825 0.05440704 0.21859962 -0.24941278 -0.14117636 -0.5000958
-0.16917954 -0.41233864 -0.14637637 -0.05283838 0.02129286 0.28885686 0.2630131 -0.34572786
-0.12945385 0.09442237 -0.1623443 -0.29783615 -0.13910335 -0.16638422 -0.23475301 -0.1787969
0.09878836 -0.38847566 -0.32103047 0.27297616 -0.22400862 -0.13274068 -0.036332123 0.029123228
0.16351292 0.39662388 0.09401782 -0.3867223 -0.4036483 0.088217005 0.5826012 -0.9353291
0.23297416 0.6468049 -0.046732232 -0.60186195 0.027261002 -0.65633565 -0.3843033 -1.2071688
0.23486514 -0.023336478 0.12929066 0.20099296 0.27868444 0.079061694 -0.3260129 -0.008963195
0.39848962 0.60782117 -1.0463346 0.2922669 -0.3146485 -0.9449229 -0.15205577 -0.06887248
-0.4544932 -0.20437323 -0.26167396 -0.4323933 -0.3253334 0.24007356 -0.34232834 0.29443
-0.5240393 -0.30527377 -0.3880559 -0.17298424 0.45671502 0.44723186 -0.05828974 -0.15410183
-0.49229017 -0.7243689 -0.12060814 0.49441847 -0.2287196 0.08281435 -0.09091425 -0.3580653
-0.21797644 0.021004058 -0.01469288 -0.6428777 -0.1060075 -0.4541059 0.5055067 -0.30838004
-0.60833144 -0.27784032 -0.37406042 -0.32002145 0.44419417 -0.008994375 -0.8479755 0.81167936
0.21322885 0.13422786 -0.31952113 -0.40849027 -0.8845043 -0.06918497 -0.59552133 -0.1266242
-0.21479642 0.4833199 0.03644567 -0.287701 -0.3702806 -0.876588 -0.4061286 0.6197353
-0.169713 0.37229842 -0.5680509 -0.353057 -0.028272761 -0.3507666 -0.121412106 0.1105626
-0.061343275 0.021120613 -0.3052231 0.35273698 -0.014024455 -0.04804115 -0.037515394 -0.041769773
0.012347134 0.006389888 0.051147494 -0.0015835162 -0.014338478 -0.5135152 -0.14180712 -0.20573153
-0.61616 -0.22091614 0.03342134 -0.015943488 -0.65491813 0.05146177 0.49467462 0.24804382
-0.27365 -0.11800304 -0.37759197 -0.1274307 0.23709066 0.25414214 -0.67068624 -0.06696435
0.16295405 0.36385313 -0.14514093 0.26558104 0.1615247 -0.2030031 -0.5373587 0.087797344
-0.2007388 0.20831525 -0.45787683 0.30401996 -0.16679287 -0.614905 0.152958 -0.11472094
0.05632832 0.089231424 -0.049773745 0.19849674 -0.16114224 -0.5231485 0.4819031 0.096848935
-0.16188441 -0.3402751 -0.0037234984 0.1669412 -0.030509254 -0.029353 -0.4173414 -0.050342236
-0.046995886 -0.42387432 -0.018328618 -0.12145099 -0.21681021 0.14367522 -0.21621136 0.03226286
0.8650659 0.27049595 0.38508973 0.7334484 -0.45418262 0.033386752 -0.32364857 -0.31505954
00000000: deb3 62be c3eb 383e 1273 b43d d032 edbe
00000010: 9bd9 cbbe d71b 953e b56d 523e 4402 d03e
00000020: f877 823e f3e8 74be 2904 3bbe dbaa 04be
00000030: cbba b8be e067 e1be ab36 2abf 3a7f 003e
00000040: d388 0fbe 5c2c 2b3e e1b9 5abe 9bf0 9cbd
00000050: 7275 5dbd 3726 6c3e 719b f1be c5a9 0cbd
00000060: 895f 033f d1c5 3b3e dd3b 6ebc 268f 413e
00000070: 5297 78be dc66 65be fd7a 443e 8ffd bdbe
00000080: f049 c33c 228d 39bd 3fcf 0abe e973 ecbd
00000090: 6fa8 a6be 0192 dabd 371d 123e 0b49 f5bd
000000a0: 8fbb f7be db51 70be 8102 c2be 4f53 ad3e
000000b0: 24d3 053f 98e4 3e3e 81ce 42be b79d 9ebd
000000c0: 3a4e 55be 01d4 8dbe d644 c9bd ebd9 5e3d
000000d0: 94d8 5f3e 1066 7fbe 8990 10be 4706 00bf
000000e0: 673d 2dbe 0d1e d3be b0e3 15be 0f6d 58bd
000000f0: 5d6e ae3c 0ce5 933e a7a9 863e 3e03 b1be
00000100: 8d8f 04be 8460 c13d 963d 26be fb7d 98be
00000110: 1c71 0ebe a060 2abe 1863 70be 8916 37be
00000120: 8d51 ca3d 48e6 c6be 1b5e a4be 88c3 8b3e
00000130: 8462 65be 2ced 07be fed0 14bd d693 ee3c
00000140: ee6f 273e 4912 cb3e 6a8c c03d 7700 c6be
00000150: fdaa cebe 1eab b43d 5a25 153f ba71 6fbf
00000160: c790 6e3e 0295 253f 4c6a 3fbd a013 1abf
00000170: 7752 df3c 9d05 28bf 67c3 c4be 8284 9abf
00000180: 7d80 703e 242c bfbc c564 043e 19d1 4d3e
00000190: baaf 8e3e 19eb a13d 2aeb a6be 5dda 12bc
000001a0: d506 cc3e 2b9a 1b3f 4bee 85bf 02a4 953e
000001b0: 9c19 a1be 78e6 71bf 82b4 1bbe 040d 8dbd
000001c0: 55b3 e8be 3747 51be 21fa 85be a862 ddbe
000001d0: 1992 a6be d8d5 753e a945 afbe 87bf 963e
000001e0: 7127 06bf d84c 9cbe 43af c6be c822 31be
000001f0: 8dd6 e93e 93fb e43e 39c1 6ebd dfcc 1dbe
00000200: 750d fcbe 3d70 39bf 6701 f7bd 6b24 fd3e
00000210: 7935 6abe 929a a93d 4031 babd 5654 b7be
00000220: 3735 5fbe b410 ac3c 68ba 70bc a293 24bf
00000230: 761a d9bd 9280 e8be e368 013f fde3 9dbe
00000240: 9cbb 1bbf 1641 8ebe d984 bfbe dad9 a3be
00000250: 6b6d e33e 255d 13bc ec14 59bf 38ca 4f3f
00000260: aa58 5a3e 0773 093e 4698 a3be a325 d1be
00000270: e06e 62bf d9b0 8dbd 1674 18bf c6a9 01be
00000280: 98f3 5bbe b575 f73e 0e48 153d 8c4d 93be
00000290: 6b95 bdbe 1268 60bf 16f0 cfbe f9a6 1e3f
000002a0: 3fc9 2dbe e69d be3e c96b 11bf e3c3 b4be
000002b0: 479c e7bc ae97 b3be e9a6 f8bd a56e e23d
000002c0: 1643 7bbd 2305 ad3c 3446 9cbe f199 b43e
000002d0: d4c6 65bc ccc6 44bd bea9 19bd c816 2bbd
000002e0: a24b 4a3c 4462 d13b 0980 513d fd8d cfba
000002f0: f0eb 6abc bb75 03bf e335 11be 49ab 52be
00000300: a9bc 1dbf d737 62be d1e4 083d eb9b 82bc
00000310: b7a8 27bf 94c9 523d fe45 fd3e 33ff 7d3e
00000320: da1b 8cbe 94ab f1bd bc53 c1be 327d 02be
00000330: e5c7 723e eb1e 823e 18b2 2bbf 9b24 89bd
00000340: 6ddd 263e f54a ba3e d39f 14be 3dfa 873e
00000350: bb66 253e 0be0 4fbe 5790 09bf 18cf b33d
00000360: 798e 4dbe 9850 553e d56e eabe 81a8 9b3e
00000370: c0cb 2abe 6a6a 1dbf 06a1 1c3e d0f2 eabd
00000380: 86b8 663d f7be b63d 8edf 4bbd bb42 4b3e
00000390: 7902 25be 0fed 05bf 01bc f63e bc58 c63d
000003a0: 07c5 25be 8a38 aebe f005 74bb a2f2 2a3e
000003b0: 8bee f9bc b475 f0bc c6ad d5be a933 4ebd
000003c0: c27e 40bd 0e06 d9be e625 96bc 4cbb f8bd
000003d0: 7f03 5ebe 991f 133e 8366 5dbe 1026 043d
000003e0: f574 5d3f 727e 8a3e 7b2a c53e 46c3 3b3f
000003f0: a08a e8be 8cc0 083d 44b5 a5be 7c4f a1be

decoder.decoder.1.dconv.bias f4 [32]
0.06584277 0.15933324 0.092504285 0.099258505 -0.07814865 0.28908166 0.14052697 0.032487985
0.0455156 0.09964549 0.109238066 0.13457337 0.1738229 0.12084427 0.1199735 0.07992136
-0.072749294 0.20170306 0.15753983 0.10612341 -0.1094048 -0.03218096 -0.048758026 0.26201433
0.1655691 0.12172322 -0.08983327 0.12515971 0.09863377 -0.11362733 0.07854949 0.13269065
00000000: 93d8 863d 4128 233e e372 bd3d 0b48 cb3d
00000010: 660c a0bd 8302 943e 4de6 0f3e 1f12 053d
00000020: 916e 3a3d ef12 cc3d 35b8 df3d 9acd 093e
00000030: a1fe 313e 337d f73d abb4 f53d cfad a33d
00000040: 95fd 94bd 3f8b 4e3e 1f52 213e 3b57 d93d
00000050: a00f e0bd 2fd0 03bd 7fb6 47bd be26 863e
00000060: f28a 293e 064a f93d 81fa b7bd de29 003e
00000070: 8100 ca3d 72b5 e8bd 8ede a03d 0fe0 073e

decoder.decoder.2.dconv.weight f4 [32, 32, 3, 3]
0.23773608 -0.44647396 -0.27479833 -0.12518765 0.67962277 -0.3536668 0.031943124 -0.07728681
0.5241034 -0.0075376392 0.0044636973 -0.0040221624 -0.038188715 -0.015739143 0.026376411 -0.041283652
-0.040557437 -0.046501134 0.15637763 -0.28462332 -0.20379493 -0.16156651 -0.36509445 -0.76183075
0.4553663 -0.5427279 -0.30714425 0.10004231 0.33770788 -0.07530173 -0.22936535 0.39330238
-0.12242526 0.3672469 0.8807997 0.09788825 -0.13985547 -0.32564393 -0.2933475 -0.21498236
-0.049208097 0.2689195 -0.3160835 0.12049341 -0.1730722 0.013456952 0.1382141 0.31209713
0.25184473 0.5720329 -0.03401111 0.21419649 0.8357657 0.0031069024 -0.18662073 -0.11419752
-0.042203724 -0.06106302 -0.026716745 -0.27597877 -0.18089382 0.12114295 0.025621887 0.14102463
-0.30941516 -0.29909945 -0.14985614 0.06996038 -0.0013282632 -0.6672373 -0.21260703 -0.08928244
-0.24867134 -0.45216405 -0.19943735 -0.1526564 -0.17925085 -0.36613336 0.086272575 0.13579856
0.44585866 0.024218291 0.033468325 -0.14164256 0.23573327 0.099631034 -0.10695121 0.35402974
0.117969185 0.34247157 -0.15283088 -0.17541909 0.12006951 -0.319851 -0.5564568 -0.2753948
-0.27939668 -0.36360955 -0.3535446 -0.103837304 -0.21328793 -0.4105576 -0.1269413 -0.11992728
-0.35172948 -0.10046869 -0.19251487 -0.40608868 -0.0018352901 0.17244944 0.291743 -0.105079815
-0.5763488 0.06903306 0.50358224 -0.36519942 -0.07226532 -0.355492 -0.38598627 -0.061034553
-0.15250045 -0.19219202 -0.34091878 -0.09543832 0.4467035 0.09747313 0.12812126 -0.14673574
0.07306842 0.056477085 -0.26689702 -0.09442062 -0.5527431 0.018580649 0.23783576 -0.32480967
-0.32117492 -0.17776607 -0.1982373 -0.19269122 0.020248612 -0.14649437 0.036823794 0.21918176
-0.011537388 0.026489962 -0.06381929 0.049753238 0.4144375 -0.03465121 0.029961895 0.024435246
0.037527796 -0.058301874 -0.09225342 -0.28228733 -0.25585213 0.39953998 0.0033483305 0.028693393
-0.64008516 0.10310052 0.28716117 -0.28070527 -0.6943382 0.5461057 0.17048514 0.29922795
-0.501963 -0.07094486 -0.40565977 -0.029469237 -0.036312714 -0.0715358 -0.06638279 0.5157884
-0.0035343631 -0.034642953 -0.01763888 0.05079887 -0.49058625 0.07972507 -0.057567634 -0.34295997
-0.42744523 -0.052075922 0.07139852 -0.7294198 -0.028963495 0.097297646 -0.08292661 -0.29764634
0.013451062 -0.17415881 -0.28699383 -0.31145027 -0.15778127 -0.15864038 -0.6593645 -0.51671785
-0.60187876 -0.038521018 -0.25099143 0.20571628 0.41362637 -0.19411337 0.7542675 0.56212145
-0.28915468 -0.8384107 -0.46743262 -0.56443447 -0.18428904 0.054019693 0.39406964 0.49472627
0.4017237 0.3155672 0.25017235 -0.0059674415 -0.54148567 -0.004401024 0.23415433 -0.85622054
-0.28850025 -0.021270663 0.048269738 0.18883501 0.29055485 -0.0845863 0.17290981 0.56885403
0.38410345 0.23568688 -0.013014714 -0.044628363 0.097684175 -0.33217517 -0.39070898 0.17544739
0.46347147 0.054874487 0.08530481 -0.17091003 -0.33581203 -0.21809249 -0.3384842 -0.35836202
-0.33274454 0.08566891 0.16549484 0.46786204 -0.032150928 -0.23707864 -0.07713688 -0.06611997
00000000: 1671 733e 3c98 e4be 5eb2 8cbe 3131 00be
00000010: c2fb 2d3f d113 b5be cbd6 023d 8c48 9ebd
00000020: a42b 063f 4dfe f6bb 3544 923b 58cc 83bb
00000030: c56b 1cbd 60ef 80bc 5813 d83c 0c19 29bd
00000040: 8e1f 26bd f977 3ebd 7521 203e 26ba 91be
00000050: 9eaf 50be b171 25be a9ed babe 5707 43bf
00000060: c625 e93e 37f0 0abf 0342 9dbe fce2 cc3d
00000070: 0ce8 ac3e cb37 9abd c0de 6abe ee5e c93e
00000080: 18ba fabd c907 bc3e 177c 613f a379 c83d
00000090: 4636 0fbe cdba a6be a531 96be 5624 5cbe
000000a0: 6e8e 49bd d1af 893e b2d5 a1be 40c5 f63d
000000b0: d739 31be 8c7a 5c3c ff87 0d3e 32cb 9f3e
000000c0: cbf1 803e c070 123f 3c4f 0bbd 5356 5b3e
000000d0: bef4 553f 2c9d 4b3b 8119 3fbe 64e0 e9bd
000000e0: d0dd 2cbd 381d 7abd 13dd dabc 174d 8dbe
000000f0: 3b3c 39be cc19 f83d fee4 d13c c368 103e
00000100: aa6b 9ebe 9023 99be e373 19be 6347 8f3d
00000110: 1e19 aeba 10d0 2abf a8b5 59be b6d9 b6bd
00000120: b3a3 7ebe 0c82 e7be 4e39 4cbe f651 1cbe
00000130: 898d 37be d575 bbbe adaf b03d c70e 0b3e
00000140: 9647 e43e 7065 c63c 1516 093d bf0a 11be
00000150: 1064 713e 5b0b cc3d 3c09 dbbd 6343 b53e
00000160: d499 f13d 6f58 af3e b37f 1cbe 10a1 33be
00000170: 01e7 f53d 83c3 a3be f473 0ebf 8c00 8dbe
00000180: 150d 8fbe 082b babe cc03 b5be a7a8 d4bd
00000190: 2768 5abe 9b34 d2be e6fc 01be 6f9c f5bd
000001a0: e315 b4be 87c2 cdbd 9e22 45be dbea cfbe
000001b0: 1e8e f0ba 9696 303e 575f 953e 1634 d7bd
000001c0: 988b 13bf 3461 8d3d c4ea 003f 6bfb babe
000001d0: d7ff 93bd 0c03 b6be fe9f c5be 5eff 79bd
000001e0: 1429 1cbe fccd 44be e88c aebe 2a75 c3bd
000001f0: 52b6 e43e fe9f c73d 3832 033e e541 16be
00000200: e5a4 953d 8454 673d baa6 88be 995f c1bd
00000210: 9280 0dbf 7236 983c 388b 733e 744d a6be
00000220: 0a71 a4be 4f08 36be b8fe 4abe d950 45be
00000230: 6be0 a53c 9f02 16be 8cd4 163d 2f71 603e
00000240: 5007 3dbc 7a01 d93c b0b3 82bd 0dca 4b3d
00000250: 2731 d43e 6dee 0dbd a672 f53c 6d2c c83c
00000260: bfb6 193d f2cd 6ebd 5cef bcbd f787 90be
00000270: 0dff 82be 8190 cc3e aa6f 5b3b 680e eb3c
00000280: 9fdc 23bf 5e26 d33d ca06 933e 9ab8 8fbe
00000290: 26c0 31bf 95cd 0b3f a893 2e3e 6834 993e
000002a0: a680 00bf 8a4b 91bd a3b2 cfbe 7869 f1bc
000002b0: a4bc 14bd 5d81 92bd b3f3 87bd b50a 043f
000002c0: c6a0 67bb c5e5 0dbd 6a7f 90bc 7a12 503d
000002d0: 1f2e fbbe e646 a33d 0acc 6bbd 7398 afbe
000002e0: 1ada dabe 904d 55bd 6339 923d 42bb 3abf
000002f0: da44 edbc fd43 c73d 6dd5 a9bd 1a65 98be
00000300: d861 5c3c b056 32be dbf0 92be 6976 9fbe
00000310: 6a91 21be a072 22be 1dcc 28bf 9f47 04bf
00000320: ba14 1abf 37c8 1dbd f381 80be 4aa7 523e
00000330: d6c6 d33e a8c5 46be ad17 413f 31e7 0f3f
00000340: 150c 94be 15a2 56bf 5453 efbe c77e 10bf
00000350: 44b6 3cbe c143 5d3d 7fc3 c93e c34c fd3e
00000360: bbae cd3e 0692 a13e 9716 803e 878a c3bb
00000370: ce9e 0abf 7736 90bb 27c6 6f3e 4531 5bbf
00000380: 4eb6 93be d03f aebc 7db6 453d f75d 413e
00000390: 9bc3 943e 953b adbd 450f 313e 6ba0 113f
000003a0: 35a9 c43e e757 713e ab3b 55bc 3bcc 36bd
000003b0: a40e c83d dd12 aabe 020b c8be 7ba8 333e
000003c0: 224c ed3e 12c4 603d 4ab4 ae3d 0a03 2fbe
000003d0: 8eef abbe a353 5fbe cd4d adbe 3a7b b7be
000003e0: 7e5d aabe 2e73 af3d 7b77 293e 9d8b ef3e
000003f0: b1b0 03bd bec4 72be f1f9 9dbd e869 87bd

decoder.decoder.2.dconv.bias f4 [32]
0.0013526124 -0.08788147 0.0007315408 0.014538444 0.22259691 0.0721672 0.036081668 0.038473237
0.09910241 0.26230672 0.058329225 0.067608185 0.0269357 0.08671802 0.17348488 0.19311403
-0.48391306 0.07433732 -0.024009263 -0.023836369 0.090023175 0.08236501 0.07600113 0.067460544
-0.004056108 0.13515916 0.11114407 0.03537649 -0.13898809 0.07939463 -0.011095681 0.066617966
00000000: 244a b13a 33fb b3bd dfc4 3f3a a732 6e3c
00000010: 72f0 633e 66cc 933d 5fca 133d 1d96 1d3d
00000020: 34f6 ca3d 114d 863e a0ea 6e3d 2976 8a3d
00000030: 42a8 dc3c 3899 b13d 05a6 313e afbf 453e
00000040: 74c3 f7be 2a3e 983d 13af c4bc 7d44 c3bc
00000050: 125e b83d fdae a83d 7ba6 9b3d c128 8a3d
00000060: 1ae9 84bb 2a67 0a3e 819f e33d f0e6 103d
00000070: e552 0ebe a799 a23d a9ca 35bc 006f 883d
