notebooks/saved_model/mnist_model/mnist_cae_1/mnist_cae00035.pth (torch, 541279 bytes, 51 tensors)

encoder.encoder.0.conv.weight f4 [32, 1, 3, 3]
0	0xbe94deb2	-0.29076153
1	0xbf21ebcf	-0.6325044
2	0x3e8233e5	0.25430217
3	0xbc0281cd	-0.007965517
4	0xbe218e54	-0.1577695
5	0xbf09478b	-0.5362479
6	0x3eff35a5	0.49845615
7	0x3e417d7e	0.18895528
8	0xbed92579	-0.42411402
9	0xbd0a6c74	-0.033794835
10	0x3d91e5da	0.07123919
11	0xbe0b5b1b	-0.13608973
12	0x3de2c9f4	0.11073676
13	0x3e54008a	0.2070333
14	0x3d01e91d	0.031716455
15	0xbdee806b	-0.116455875
16	0xbe637fed	-0.22216769
17	0x3d9aaaa2	0.07552077
18	0xbaf0e898	-0.0018379865
19	0x3e9f8742	0.3115788
20	0x3f256857	0.64612335
21	0xbec438e3	-0.3832465
22	0xbe7b9592	-0.24568775
23	0x3d44e165	0.048066515
24	0xbdf345a1	-0.11878515
25	0xbeae4d49	-0.3404334
26	0xbcd79980	-0.026318312
27	0xbd9abe20	-0.07555795
28	0x3f3b177a	0.730827
29	0x3eb0bcca	0.34519035
30	0xbf272edd	-0.6530588
31	0xbf8753c3	-1.0572437
32	0xbf3e011d	-0.7422045
33	0x3efa53df	0.48892114
34	0x3ed85b9e	0.42257398
35	0x3e582e94	0.21111518
36	0xbed40106	-0.4140703
37	0xbeeede27	-0.46653864
38	0xbf0281d9	-0.5097938
39	0xbe938091	-0.28809026
40	0xbe83ac64	-0.2571746
41	0xbf0e84ec	-0.5567157
42	0xbf00939f	-0.5022525
43	0xbe9a390f	-0.30121657
44	0xbf35ab68	-0.7096467
45	0xbe3c1ef2	-0.1837118
46	0xbecc472c	-0.3989805
47	0x3ec1ab9b	0.37826237
48	0x3ea931c6	0.33045787
49	0xbf01cb0a	-0.5070044
50	0x3e8da36d	0.27663746
51	0x3ea846a7	0.32866403
52	0x3d441e9f	0.047880765
53	0xbedbd58e	-0.42936367
54	0xbe864f02	-0.26232153
55	0xbea2a5ce	-0.31767124
56	0xbd6fd908	-0.058556587
57	0xbdd8a050	-0.10577452
58	0x3deacf7c	0.11465356
59	0xbdc38e9c	-0.09548685
60	0x3c1c0da0	0.009524733
61	0xbe984f1b	-0.29747853
62	0xbd89e07c	-0.0673227
63	0x3c831a59	0.016003774
64	0xbdb85724	-0.09000996
65	0xbe98e661	-0.29863265
66	0xbd9cb7ed	-0.076522686
67	0x3e389aef	0.18027852
68	0xbde0c6ec	-0.10975441
69	0xbdb46cc7	-0.0880981
70	0xbe330cd6	-0.17485365
71	0x3dccb35d	0.09995148
72	0x3d2c0211	0.04199416
73	0xbf22d3e7	-0.6360459
74	0xbf04c004	-0.5185549
75	0xbe91630a	-0.28395873
76	0x3e469c26	0.19395503
77	0x3eb038ba	0.3441828
78	0x3e9dff36	0.30858773
79	0x3e87967f	0.26482007
80	0x3e7c7e6f	0.24657606
81	0xbe5d0ab6	-0.21586117
82	0xbe5d064e	-0.21584436
83	0x3da9cad0	0.082906365
84	0xbe90dc09	-0.28292874
85	0x3edb4be8	0.4283135
86	0x3e625914	0.22104293
87	0x3dbfba4b	0.093617044
88	0x3ea95f2d	0.33080426
89	0xbf0c1f3c	-0.5473516
90	0x3eafecd1	0.34360364
91	0xbde77763	-0.11302068
92	0x3e339075	0.17535575
93	0x3dbc47e3	0.09193399
94	0x3ec5a4dc	0.3860234
95	0x3d9607d8	0.07325715
96	0x3e28f9bd	0.16501518
97	0xbe650293	-0.22364263
98	0xbe970e1b	-0.2950295
99	0x3eda4198	0.4262817
100	0xbd2a343b	-0.041553717
101	0x3be1f9a8	0.0068962164
102	0x3dba92ca	0.09110029
103	0xbf31d6bb	-0.6946828
104	0xbd9efabf	-0.0776267
105	0xbe265971	-0.16245057
106	0xbc614f3c	-0.013751801
107	0x3f00b15c	0.5027063
108	0x3d06c937	0.032906737
109	0x3e628873	0.22122364
110	0xbe732b46	-0.23746976
111	0xbeb6a812	-0.35675102
112	0x3e64641b	0.22303812
113	0xbf2dac3c	-0.67840934
114	0xbf0b6bfe	-0.5446166
115	0xbf5c3f2d	-0.860339
116	0xbf0f3a14	-0.55947995
117	0x3ea5f1ac	0.32410944
118	0x3ef08ed6	0.46983975
119	0xbe5c73b0	-0.21528506
120	0x3ebe49fc	0.3716582
121	0x3eb130b5	0.34607473
122	0xbf2a4401	-0.66510016
123	0xbe2fc91a	-0.17166558
124	0xbf1e7e04	-0.61911035
125	0xbeddf939	-0.43354204
126	0x3ef89d5e	0.48557562
127	0xbcbeb031	-0.023277374
128	0xbed1a78d	-0.40948144
129	0xbe5de37a	-0.21668807
130	0xbc8c35b4	-0.017115451
131	0x3dfbfa37	0.12303584
132	0xbeacd38d	-0.3375515
133	0xbc1b1877	-0.009466282
134	0x3ed7eab0	0.4217124
135	0xbe44cd95	-0.19219048
136	0xbe319891	-0.17343356
137	0xbe4018b9	-0.18759431
138	0x3e823c15	0.25436464
139	0x3e89ab16	0.2688834
140	0x3eea1962	0.4572249
141	0xbe82b3a0	-0.25527668
142	0xbe8faf35	-0.2806336
143	0xbe71bb4d	-0.23606606
144	0x3c7321a9	0.014839568
145	0x3e5ac0d5	0.21362622
146	0xbd4e7104	-0.05040075
147	0xbe01a295	-0.12659676
148	0x3ca467f7	0.020069106
149	0xbeefe03a	-0.4685076
150	0x3dd7bbfa	0.105339006
151	0x3f0413d6	0.5159277
152	0xbdcb9dae	-0.099421844
153	0xbc228c11	-0.00992109
154	0xbe632684	-0.22182661
155	0xbeb26ee0	-0.34850216
156	0xbca04955	-0.019566217
157	0x3dfee6a8	0.12446338
158	0xbddb3f82	-0.107054725
159	0xbe1c7ba3	-0.15281539
160	0x3e681c08	0.22666943
161	0xbdc93647	-0.09824806
162	0x3c541b54	0.012945969
163	0xbceca5ca	-0.028887648
164	0x3d86753b	0.06565329
165	0xbeea1b41	-0.45723918
166	0xbd0e1b71	-0.03469414
167	0xbd80b0ff	-0.06283759
168	0x3e3b904e	0.18316767
169	0x3db6dac1	0.08928443
170	0x3a3f922d	0.00073078537
171	0xbd970695	-0.07374302
172	0x3e0f0315	0.1396602
173	0xbe7cc921	-0.246861
174	0xbed17e02	-0.4091645
175	0x3e3a09ba	0.18167773
176	0x3c8645a1	0.016390624
177	0x3cf201d1	0.029541882
178	0x3ea35530	0.3190093
179	0xbe734755	-0.2375768
180	0xbe4e1327	-0.20124494
181	0xbeb84c97	-0.35995933
182	0x3e741e53	0.23839693
183	0x3d39f6bc	0.04540132
184	0xbe6f9983	-0.23398404
185	0x3eb84b04	0.35994732
186	0xbecf4982	-0.4048577
187	0xbf1cc18d	-0.61232835
188	0x3e229254	0.15876132
189	0xbe88897b	-0.2666739
190	0xbec21897	-0.37909386
191	0xbd9a33d4	-0.07529417
192	0x3ed04b5b	0.40682492
193	0x3e8b1aa9	0.27168778
194	0x3e1a755d	0.15083833
195	0x3e519fba	0.20471087
196	0xbe21c889	-0.15799154
197	0x3e47b15e	0.19501254
198	0x3ce986da	0.028506685
199	0x3e77070f	0.24123786
200	0xbdf6072b	-0.12013086
201	0x3dc6dba3	0.09709861
202	0x3de404b2	0.11133708
203	0x3c9fbdef	0.019499747
204	0x3dea686b	0.114456974
205	0x3ed929e4	0.42414773
206	0xbbc9d7f2	-0.006159776
207	0xbeb75145	-0.3580419
208	0x3de4464c	0.111462206
209	0x3ece29cc	0.40266263
210	0xbec3aa5f	-0.3821592
211	0xbc988861	-0.018619718
212	0x3e0436fc	0.129116
213	0xbe9eeb1a	-0.31038743
214	0x3d1d4f44	0.03840567
215	0x3f0d4aac	0.55192065
216	0x3d19a7cf	0.03751355
217	0x3bb84547	0.005623493
218	0x3ea379a2	0.31928736
219	0x3e97cd86	0.2964899
220	0x3f161a04	0.58633447
221	0x3dd0d88e	0.101975545
222	0xbea9f391	-0.3319364
223	0xbf2cd273	-0.6750862
224	0xbebf392a	-0.373483
225	0xbe283973	-0.16428165
226	0x3df1e6c1	0.11811591
227	0x3e6e150d	0.23250218
228	0xbeb744ff	-0.35794827
229	0x3e8bac42	0.2727986
230	0xbea8152f	-0.32828662
231	0x3e622e3f	0.22087954
232	0xbd3ea434	-0.046543315
233	0xbe562109	-0.2091104
234	0x3dd346e5	0.103162564
235	0xbefdc795	-0.49566332
236	0xbdbd9d7c	-0.092585534
237	0xbee689ca	-0.45027
238	0xbe713702	-0.2355614
239	0x3e985c01	0.29757693
240	0xbe9e8433	-0.30960235
241	0xbd774f26	-0.060378216
242	0x3ef8bf7c	0.4858359
243	0xbe8feb8c	-0.28109396
244	0xbe99d398	-0.30044246
245	0x3d96424b	0.07336863
246	0xbd84bdc1	-0.06481505
247	0xbe0d0491	-0.13771273
248	0x3e71a9d8	0.23599946
249	0x3e6857ef	0.22689794
250	0xbd8d3c71	-0.06896294
251	0x3eb03479	0.34415033
252	0x3e27cf9e	0.16387793
253	0xbecbf31d	-0.39833918
254	0xba7df6e8	-0.0009687976
255	0x3e1f8547	0.15578185

encoder.encoder.0.conv.bias f4 [32]
0	0x3da06262	0.07831265
1	0xbc49db13	-0.012320298
2	0xbc3a328b	-0.011364589
3	0x3d59739d	0.053088773
4	0x3df620af	0.12017953
5	0x3d6c78ad	0.057732273
6	0xbe89f11e	-0.2694177
7	0x3ca6cbc8	0.020360842
8	0x3c66b46f	0.014081105
9	0xbd9547f0	-0.072891116
10	0xbc1b5adf	-0.009482115
11	0xbcbef582	-0.023310427
12	0x3e5c8c41	0.21537878
13	0x3d2ef194	0.042710856
14	0xbd12b07b	-0.035812836
15	0x3df94808	0.12171942
16	0xbd9ed4ba	-0.07755418
17	0x3dca01f2	0.09863652
18	0x3b443073	0.0029936105
19	0xbbb2cc9b	-0.00545652
20	0x3cb5962f	0.02216634
21	0xbe16755b	-0.14693205
22	0xbbc19161	-0.005907223
23	0xbb4eafd8	-0.0031537917
24	0xbcbcab13	-0.023030793
25	0xba02f1d3	-0.0004995141
26	0xbc124dd0	-0.008929685
27	0xbe3b2c87	-0.18278705
28	0x3e396cce	0.18107912
29	0xbe5a7d13	-0.21336775
30	0xbba9eebe	-0.005185931
31	0xbe53de86	-0.20690355

encoder.encoder.1.conv.weight f4 [32, 32, 3, 3]
0	0x3e043906	0.12912378
1	0x3e61ef28	0.22063887
2	0x3e4857c9	0.19564737
3	0xbad90fdc	-0.0016560513
4	0x3e2f9a6e	0.17148754
5	0x3dc61323	0.09671619
6	0xbe1695ca	-0.14705577
7	0xbd976534	-0.0739235
8	0x3e01984c	0.12655753
9	0xbcb32b76	-0.02187131
10	0xbd14a74f	-0.03629237
11	0xbd2b3401	-0.04179764
12	0x3d408e48	0.04701069
13	0x3cbc1643	0.022959834
14	0xbcac6fc4	-0.021049388
15	0x3d8cb523	0.068704866
16	0x3d868a3a	0.065693334
17	0x3c95a601	0.018267633
18	0xbddcba5d	-0.107777335
19	0xbea7832f	-0.32717273
20	0xbf04ff0f	-0.5195169
21	0xbe18c115	-0.14917405
22	0xbf160fed	-0.5861805
23	0xbf1abeb1	-0.6044722
24	0xbeae6003	-0.34057626
25	0xbf0ff607	-0.5623478
26	0xbec9c70f	-0.39409682
27	0xbdc09656	-0.09403674
28	0xbc5f9753	-0.013646918
29	0xbe01affa	-0.12664786
30	0xbe829298	-0.25502467
31	0xbdfbfe54	-0.123043686
32	0xbe1de74e	-0.15420267
33	0xbe7f8a1f	-0.24955033
34	0xbe2ddd45	-0.16978939
35	0xbd988328	-0.07446891
36	0xbe105bc2	-0.14097503
37	0x3c17ba0b	0.009260665
38	0x3db1cc8e	0.08681594
39	0xbd83447e	-0.06409548
40	0x3c0750ef	0.008259042
41	0x3d5a5942	0.05330778
42	0xbdfd3116	-0.12362878
43	0x3d1d41ac	0.038392708
44	0x3df4ff3b	0.11962744
45	0xbc232ff8	-0.009960167
46	0x3dc8f1a5	0.09811715
47	0x3d764705	0.060126323
48	0xbca3485a	-0.01993196
49	0x3d41a5a6	0.047277115
50	0x3ccb649a	0.024828244
51	0xbc8ea290	-0.0174115
52	0x3d65a16b	0.056062143
53	0x3d956414	0.07294479
54	0x3b78ea70	0.0037981533
55	0x3d01d577	0.031697717
56	0x3d443f59	0.047911976
57	0x3c4d5904	0.01253343
58	0xbc63a928	-0.01389531
59	0x3c5651bc	0.01308101
60	0x3c0eaefc	0.008708712
61	0xbc0bda24	-0.0085358955
62	0xbcb74e7a	-0.022376288
63	0xbbcdaaca	-0.006276463
64	0x3c619e50	0.013770655
65	0x3d7ac5f9	0.061223958
66	0xbce9b635	-0.028529266
67	0xbbc6228d	-0.0060465992
68	0x3cbf0fd2	0.023322973
69	0xbcaa1719	-0.020762967
70	0x3d956def	0.07296359
71	0xbab851ea	-0.0014062498
72	0xbda14b2a	-0.078756645
73	0xbd94d854	-0.07267824
74	0xbeac0e79	-0.33604792
75	0xbe508d1b	-0.20366327
76	0xbec3e06f	-0.38257167
77	0xbf1b52dd	-0.60673314
78	0xbe1aa7d6	-0.15103087
79	0xbe9d5042	-0.30725294
80	0xbed6d7c3	-0.41961488
81	0x3d84095f	0.064471
82	0xbdf07f93	-0.11743083
83	0xbdcfa63e	-0.1013913
84	0x3dac9d70	0.08428466
85	0xbca4c4b5	-0.020113328
86	0xbe4e1bd1	-0.20127799
87	0x3e3c2c5b	0.18376295
88	0x3e2abcd3	0.16673593
89	0xbe85de25	-0.26146045
90	0x3df3f4e6	0.11911945
91	0x3d89b1a9	0.06723339
92	0xbe717ae7	-0.2358204
93	0x3e00ac05	0.1256562
94	0x3dae7856	0.08519046
95	0xbdad96aa	-0.084760025
96	0x3e645dc5	0.22301395
97	0x3df5b202	0.11996843
98	0xbe364146	-0.17798337
99	0xbd8bc3e3	-0.06824472
100	0xbe0af77f	-0.13570975
101	0xbcfea558	-0.031084701
102	0x3d2db806	0.042411827
103	0xbd460407	-0.048343685
104	0xbd1eb29d	-0.038744558
105	0x3de16ab3	0.110066794
106	0x3d838861	0.064224966
107	0x3c30fe56	0.010802826
108	0xbdaeccd9	-0.08535165
109	0xb8a086eb	-7.654525e-05
110	0x3dbd33ce	0.092383966
111	0x3d09119f	0.03346407
112	0x3dda32d6	0.106542274
113	0x3e0acc09	0.13554396
114	0xbceba5c7	-0.028765572
115	0x3de9b75c	0.11411926
116	0x3db69c9d	0.0891659
117	0xbd84d536	-0.06485979
118	0xbde869cb	-0.113483034
119	0xbd6e0d04	-0.05811788
120	0xbde57e14	-0.11205688
121	0xbc871636	-0.016490083
122	0x3d6432c2	0.05571247
123	0x3dee72f2	0.11643018
124	0x3e89d19c	0.26917732
125	0x3e82c290	0.25539064
126	0xbbfd8d13	-0.0077377646
127	0xbdc431ae	-0.09579788
128	0xbd6d0c43	-0.05787302
129	0x3d8a893d	0.067644574
130	0xbd37f649	-0.04491261
131	0xbd4fa3bf	-0.05069327
132	0xbbe46036	-0.006969477
133	0x3d0d0c48	0.03443554
134	0xbcf6e840	-0.030140042
135	0x3cd78c04	0.026311882
136	0x3df999ed	0.12187562
137	0x3df70e9f	0.120633356
138	0x3d99800a	0.07495125
139	0x3d7fa35f	0.062411662
140	0x3d94324d	0.072361566
141	0x3d5a206f	0.053253587
142	0x3dab1124	0.08352879
143	0x3e61a511	0.22035624
144	0xbd52c074	-0.05145307
145	0xbc913be5	-0.017728755
146	0x3d7112c0	0.058855772
147	0x3d82ae0a	0.063808516
148	0xbd898364	-0.06714514
149	0x3cf7965d	0.030223066
150	0x3d4be219	0.04977617
151	0x3d49c1a5	0.04925694
152	0xbcb70943	-0.022343284
153	0x3da9e663	0.08295896
154	0x3de521c5	0.11188082
155	0x3d73f552	0.059560128
156	0x3dbe0787	0.092787795
157	0x3da55a63	0.080738805
158	0x3c821373	0.015878415
159	0x3d80b8ce	0.06285249
160	0x3d2ff313	0.042956423
161	0x3d4a5af6	0.049403153
162	0xbd9a4074	-0.07531825
163	0xbbe7ec21	-0.0070777093
164	0xbcfca24a	-0.030839104
165	0x3d87fd3a	0.06640096
166	0x3d85bd29	0.0653022
167	0x3c341f2d	0.010993761
168	0x3b52df7d	0.0032176666
169	0xb96ab4e7	-0.0002238337
170	0x3c9739d8	0.0184602
171	0x3d0630a4	0.03276123
172	0xbbad6680	-0.00529176
173	0x3da414e0	0.08011794
174	0x3dd55667	0.104168706
175	0x3d11e99f	0.03562319
176	0x3caeab63	0.021321958
177	0x3d902393	0.07038035
178	0x3d64a83e	0.05582451
179	0x3cae70fe	0.021294113
180	0x3bcbbe46	0.0062177507
181	0x3e098c67	0.13432465
182	0x3e0b91e1	0.13629867
183	0x3d9af666	0.07566528
184	0x3dbb8129	0.09155495
185	0x3d4b0f9d	0.049575437
186	0x3e6c6729	0.23086227
187	0x3cc49d36	0.024000745
188	0x3e1e8806	0.15481576
189	0xbab72996	-0.0013974186
190	0xbd8a3eae	-0.067502365
191	0xbe35d071	-0.17755295
192	0xbe182be2	-0.1486049
193	0xbd9cb0f7	-0.07650941
194	0xbe919f19	-0.28441694
195	0xbe1fe490	-0.15614533
196	0xbe2c1bff	-0.16807555
197	0xbdda9501	-0.106729515
198	0x3e30a810	0.17251611
199	0x3d4be60a	0.04977993
200	0xbe65a314	-0.2242549
201	0x3e3506ee	0.17678425
202	0x3de0d578	0.10978216
203	0xbe33fe75	-0.17577536
204	0x3e09088a	0.13382164
205	0x3c8fce0b	0.017554304
206	0xbea65008	-0.32482934
207	0x3e35b8e6	0.17746314
208	0x3e363f4f	0.17797588
209	0x3e19dc44	0.15025431
210	0x3ea503e2	0.32229525
211	0x3ec2313e	0.37928194
212	0x3f067fea	0.5253893
213	0x3d81ee87	0.063443236
214	0x3e11065f	0.14162587
215	0x3e8f8552	0.28031403
216	0xbe8862db	-0.2663792
217	0xbef9b21a	-0.48768693
218	0xbf1815b6	-0.5940813
219	0xbea013bf	-0.31265065
220	0xbee6a894	-0.4505049
221	0xbf2212a2	-0.6330968
222	0xbdc340eb	-0.095338665
223	0xbe4003b9	-0.1875142
224	0xbe9827e2	-0.29717928
225	0x3c4fb2cd	0.012676907
226	0xbd15b318	-0.03654775
227	0xbd4c4b6b	-0.04987661
228	0xbcf56c05	-0.029958734
229	0x3d1b2851	0.037880246
230	0x3cab7eb2	0.020934436
231	0x3da859db	0.082202636
232	0xbd8e1068	-0.06936723
233	0xbd79f25a	-0.06102214
234	0x3dc864e9	0.09784872
235	0x3e4889d2	0.19583824
236	0x3e0fcbab	0.14042537
237	0x3e896107	0.26831838
238	0x3ece5361	0.40297988
239	0xbc69c265	-0.014267539
240	0x3e824932	0.2544647
241	0x3e907b71	0.28219178
242	0xbde9a791	-0.11408914
243	0xbdf68a8a	-0.12038143
244	0xbdfd9b94	-0.1238319
245	0xbc9f0ff5	-0.019416789
246	0x3ce1755c	0.027521782
247	0x3d8141f8	0.06311411
248	0x3bf517d4	0.007479647
249	0xbd80db0c	-0.0629178
250	0x3da425d0	0.08015025
251	0x3d832365	0.06403235
252	0xbbb44449	-0.0055013043
253	0x3d7a8037	0.06115743
254	0x3def9a24	0.11699322
255	0x3e38ba48	0.1803981

encoder.encoder.1.conv.bias f4 [32]
0	0x3d8e7dbb	0.06957575
1	0x3d55f9e3	0.052240264
2	0xbd5e41d2	-0.05426199
3	0x3c89e4d7	0.016832752
4	0x3daf23f9	0.08551783
5	0x3e06f899	0.1318077
6	0xbcf7873b	-0.03021585
7	0xbc0d40f2	-0.008621441
8	0x3d31737d	0.04332303
9	0x3c4036cf	0.011731817
10	0x3cfffa0c	0.031247161
11	0x3bd8fe05	0.0066220784
12	0x3dda43e1	0.10657478
13	0x3a8a81c6	0.001056724
14	0x3d6d7d48	0.057980806
15	0x3d787806	0.06066134
16	0xbbc30ba3	-0.005952315
17	0xbc9af133	-0.01891384
18	0xbd0d9665	-0.034567256
19	0xbd56d47f	-0.052448746
20	0x3dfc09fe	0.12306593
21	0x3b564134	0.0032692673
22	0x3d0f0c33	0.034923743
23	0xbdd16448	-0.10224205
24	0x3cae7fc8	0.021301165
25	0x3c9074c2	0.0176338
26	0x3db71465	0.08939437
27	0xbd2232ed	-0.039599348
28	0x3c8b6eb7	0.017020566
29	0x3db541a5	0.08850411
30	0xbd828b74	-0.06374255
31	0xbc5042c7	-0.012711233

encoder.encoder.2.conv.weight f4 [32, 32, 3, 3]
0	0x3ce3fc50	0.027830273
1	0xbe1e02b7	-0.15430723
2	0x3dfdf745	0.124006785
3	0x3ae8ecb4	0.0017770738
4	0xbcd11fa8	-0.02552779
5	0x3e370ba4	0.17875534
6	0xbdebf13a	-0.1152062
7	0xbd9a0dbe	-0.07522152
8	0x3c6e27fa	0.014535898
9	0x3d16ed93	0.036847662
10	0xbd99bed6	-0.07507102
11	0x3e6208cc	0.22073668
12	0xbdd3b5d0	-0.10337412
13	0xbe3a02e8	-0.18165171
14	0xbdf4c042	-0.11950733
15	0xbe49ac63	-0.19694667
16	0xbdba2ab8	-0.09090179
17	0x3cd1a79f	0.025592623
18	0x3d081ef2	0.033232637
19	0xbdaebefd	-0.08532522
20	0xbd63ab8c	-0.05558352
21	0xbb4cdbc0	-0.003125891
22	0x3e170591	0.14748217
23	0x3dc05e52	0.0939299
24	0x3cc970fa	0.024590004
25	0x3e57af14	0.21062881
26	0x3db6b33c	0.08920905
27	0xbc82f483	-0.015985733
28	0xbd6624ae	-0.056187324
29	0x3d60785f	0.054802295
30	0xbc122641	-0.008920253
31	0xbd15f28e	-0.03660827
32	0xbceaf92d	-0.02868327
33	0x3c9e80c3	0.019348508
34	0xbc4d6eaa	-0.012538591
35	0xbb2c15ee	-0.0026258188
36	0x3d8ee4a6	0.06977205
37	0x3e159baa	0.14610162
38	0x3dc56b3e	0.096395954
39	0xbddb5e89	-0.107113905
40	0x3badff5c	0.005309982
41	0x3d38247b	0.044956665
42	0xbd4758c0	-0.048668623
43	0xbd0066d3	-0.03134806
44	0xbcda53b7	-0.026651246
45	0x3e1f7aea	0.15574232
46	0xbcbaf188	-0.02282025
47	0x3dab50ad	0.08364997
48	0x3ca2a41f	0.01985365
49	0xbe4f3c75	-0.20237906
50	0xbd1d6cf9	-0.038434003
51	0x3d7f94ab	0.06239764
52	0xbe54548e	-0.2073538
53	0xbdb0caef	-0.086324565
54	0x3cea8a1c	0.028630309
55	0xbca3288a	-0.019916791
56	0x3d62fbba	0.055415846
57	0x3c042696	0.00806584
58	0x3cac3557	0.021021528
59	0x3d1f8bd0	0.038951695
60	0x3bdca743	0.0067338063
61	0xbd9e9023	-0.07742336
62	0x3b88a6d0	0.004170276
63	0xbd01474b	-0.03156213
64	0xb9264147	-0.00015855311
65	0xbd93764d	-0.072002985
66	0xbc96f154	-0.018425621
67	0xbcb50f52	-0.022102032
68	0xbcc496ae	-0.02399763
69	0xbc68ad72	-0.014201509
70	0xbbf4af33	-0.0074671744
71	0xbd8c7f25	-0.068601884
72	0xbb193093	-0.00233749
73	0xbd262974	-0.040566877
74	0x3cb336a2	0.021876637
75	0x3d361443	0.044452917
76	0xbd0b2529	-0.033970986
77	0x3d283afc	0.041071877
78	0x3cd0b3bc	0.025476329
79	0xbcab0588	-0.020876661
80	0xbd46a9c8	-0.04850176
81	0xbd36730d	-0.044543315
82	0x3ccab3ec	0.024743997
83	0x3a9e1ccc	0.0012063025
84	0xbcc554ba	-0.024088252
85	0xbcdbe46f	-0.026842324
86	0xbd8a7a85	-0.0676165
87	0x3c853cad	0.016264284
88	0xbc47ff3a	-0.012206847
89	0xbca5ac4a	-0.020223755
90	0xbd3f2172	-0.046662755
91	0x3d8f70db	0.07003947
92	0x3dd6a189	0.10480029
93	0xbdb842c1	-0.08997107
94	0x3da04ef4	0.07827559
95	0xbdae2a40	-0.08504152
96	0xbdb18c29	-0.086693116
97	0x3dbfdb63	0.093680166
98	0x3cb275ec	0.021784745
99	0xbd8097d0	-0.06278956
100	0xbe6bb855	-0.23019536
101	0xbeb8d351	-0.36098722
102	0x3c4f1e68	0.012641527
103	0xbe17b235	-0.14814074
104	0xbe431757	-0.19051872
105	0x3d58b4ee	0.052906923
106	0xbeb5ce63	-0.35509023
107	0xbd14e837	-0.03635427
108	0x3e5f0c11	0.21781947
109	0x3db6bd67	0.089228444
110	0x3e30ca19	0.17264594
111	0xbe313f63	-0.17309336
112	0xbe19cc56	-0.15019354
113	0xbded6058	-0.11590642
114	0xbdb9182b	-0.09037813
115	0xbdd0c467	-0.10193711
116	0x3d52676e	0.05136817
117	0x3df659e3	0.12028863
118	0xbc0a4835	-0.008440067
119	0x3e3e5503	0.18587117
120	0x3ce11a47	0.02747835
121	0xbd8fa208	-0.07013327
122	0xbcf86d62	-0.030325595
123	0xbd059ccc	-0.032620236
124	0x3e14fffe	0.14550778
125	0xbd5f7cdf	-0.054562446
126	0xbcc541cd	-0.024079228
127	0xbe66e481	-0.22548105
128	0x3d348497	0.04407176
129	0x3a64d319	0.0008728966
130	0xbe5bfabb	-0.21482365
131	0x3e134ffb	0.14385979
132	0xbb97c7d4	-0.0046319757
133	0xbd96a5fe	-0.07355879
134	0x3e096104	0.13415915
135	0x3d7a7cd6	0.06115421
136	0x3e4cc2d0	0.1999619
137	0x3da4e388	0.08051211
138	0xbe712f62	-0.23553231
139	0xbe88cf52	-0.26720673
140	0x3d0c0587	0.03418496
141	0x3de60626	0.112316415
142	0x3ca2b985	0.019863853
143	0x3dead545	0.11466459
144	0xbd443f4d	-0.04791193
145	0xbd899b81	-0.06719113
146	0xbd85724e	-0.065159425
147	0x3d3bc3f2	0.045841165
148	0xbd55294c	-0.052041337
149	0xbc9efe5b	-0.019408396
150	0x3ce1831f	0.027528344
151	0x3d0edfdd	0.03488146
152	0xbd21cbc2	-0.03950096
153	0xbdf220c7	-0.11822658
154	0xbd94987d	-0.07255647
155	0xbd6c51f3	-0.05769534
156	0xbd9528eb	-0.07283195
157	0xbda1d8ce	-0.0790268
158	0xbb68bdda	-0.003551355
159	0x3ceb4ab8	0.028722152
160	0x3c2d9b2f	0.010596081
161	0xbdd85df8	-0.10564798
162	0x3d8688d5	0.065690674
163	0x3cde639a	0.027147103
164	0x3c936c5b	0.017996004
165	0x3d5608c9	0.052254472
166	0x3e7712e2	0.24128297
167	0x3e579986	0.21054658
168	0xbe3165a8	-0.17323935
169	0x3e3c9917	0.18417774
170	0x3e949cbe	0.29025835
171	0xbdd6f922	-0.10496737
172	0x3cb00a66	0.021489333
173	0xbdb4620e	-0.08807765
174	0xbdca1fe7	-0.09869366
175	0xbd7e3a6f	-0.062067445
176	0xbd848cd6	-0.06472175
177	0xbd26f64b	-0.040762227
178	0x3d828a49	0.06374032
179	0x3c36fa07	0.01116801
180	0xb9442af9	-0.00018708025
181	0x3d9d2915	0.076738514
182	0x3dbd6aaa	0.0924886
183	0xbdcb0ed4	-0.099149376
184	0xbd7ab0bf	-0.061203714
185	0x3e0d71dd	0.13812967
186	0xbd965c43	-0.07341816
187	0x3e000385	0.12501343
188	0x3da9bd3c	0.08288047
189	0xbcfb3f1e	-0.030669745
190	0xbd73356d	-0.059377123
191	0x3d11abf9	0.035564397
192	0x3d1c023d	0.038088072
193	0xbd5ab3e2	-0.053394206
194	0x3ce290ad	0.027656877
195	0xbd0aa687	-0.03385022
196	0x3cd83295	0.026391307
197	0x3c92361c	0.017848067
198	0x3e3f8414	0.18702728
199	0x3e7bf647	0.24605666
200	0x3e4f524a	0.20246235
201	0x3d7dd0b2	0.061966605
202	0xbd59491f	-0.05304825
203	0xbcb0dcc7	-0.02158965
204	0x3e243ced	0.16038866
205	0xbdc22353	-0.09479394
206	0xbcb17d64	-0.021666236
207	0xbd54627f	-0.051851746
208	0xbd92b21a	-0.071628764
209	0xbc3cfd0e	-0.011534942
210	0xbd220b10	-0.03956133
211	0xbb895d1d	-0.004192008
212	0xbc2f59d3	-0.010702568
213	0xbd82e629	-0.06391556
214	0xbdf65184	-0.120272666
215	0x3c2eeb9c	0.010676291
216	0xbd11f5c9	-0.03563479
217	0xbd823cab	-0.06359228
218	0x3d0fb594	0.035085276
219	0x3d03f323	0.032214295
220	0x3ba3e5c5	0.005001756
221	0xbc9641de	-0.018341955
222	0xbda94dca	-0.0826679
223	0xbc156143	-0.009117427
224	0xbb38f798	-0.002822375
225	0x3d5a2336	0.053256236
226	0x3d017d1a	0.031613447
227	0x3e27f155	0.16400655
228	0x3d289540	0.04115796
229	0x3e7506e4	0.2392841
230	0x3e4aa003	0.19787602
231	0xbd03c8a9	-0.032173786
232	0x3e8d30d9	0.2757633
233	0x3d2bc9ad	0.04194038
234	0x3cc8fae1	0.02453369
235	0x3d9ae62c	0.07563433
236	0x3ddc2eb6	0.10751097
237	0xbdd33a4f	-0.10313856
238	0x3dbb62d4	0.09149709
239	0x3da0ffc8	0.078612864
240	0xbb0dd3a6	-0.0021641045
241	0x3d742c33	0.059612464
242	0x3e28edb9	0.16496934
243	0x39edfe78	0.00045393757
244	0xbc1dbc85	-0.009627466
245	0xbe863772	-0.26214176
246	0xbd700287	-0.05859616
247	0xbee74261	-0.4516783
248	0x3b51a922	0.003199168
249	0xbe525edc	-0.20543998
250	0x3e038dc1	0.12847044
251	0xbda824b2	-0.08210124
252	0x3d1fb5a6	0.038991593
253	0xbd1b8ebb	-0.037977915
254	0x3da0bb58	0.07848233
255	0xbe85f52f	-0.26163623

encoder.encoder.2.conv.bias f4 [32]
0	0xbe285e09	-0.16442122
1	0x3cfb800f	0.030700712
2	0xbe3fb091	-0.18719698
3	0xbd70d300	-0.058794975
4	0xbd306a3e	-0.04307007
5	0x3d8198fc	0.063280076
6	0xbd708b23	-0.05872644
7	0x3d17d037	0.037063804
8	0xbdc400c1	-0.09570456
9	0x3e71034d	0.23536415
10	0xbc6f77a9	-0.014615932
11	0xbe9e7e30	-0.30955648
12	0x3dab48bd	0.08363483
13	0x3d14b0b1	0.03630132
14	0xbe883a7e	-0.26607126
15	0x3c71b341	0.01475221
16	0x3cadc965	0.021214196
17	0x3d5c7395	0.053821165
18	0xbbb0a84e	-0.005391157
19	0xbdcd4c82	-0.10024358
20	0xbe7d68b0	-0.24746966
21	0x3ba38a55	0.0049908557
22	0xbd91db31	-0.071218856
23	0x3e06e8be	0.13174722
24	0x3cfe04bf	0.031008122
25	0xbe2d48f4	-0.1692236
26	0xbc4b7af7	-0.012419454
27	0xbe09e11f	-0.13464783
28	0x3dfd94a4	0.123818666
29	0x3bfdd138	0.007745888
30	0x3d8d4da6	0.06899576
31	0x3de19b7b	0.11015984

encoder.encoder.3.conv.weight f4 [10, 32, 3, 3]
0	0xbcc86ce4	-0.024465986
1	0x3e3e733a	0.18598643
2	0xbd2660bb	-0.040619593
3	0x3dd9082d	0.105972625
4	0xbdef3fc1	-0.11682082
5	0xbe180145	-0.14844234
6	0xbdc82b69	-0.09773905
7	0xbdab39dc	-0.08360645
8	0xbd939368	-0.0720585
9	0x3d19eb3d	0.037577856
10	0x3ca34a72	0.01993296
11	0x3cdf99ca	0.027295012
12	0x3d871a5e	0.06596826
13	0xbd00bba8	-0.031428963
14	0x3d86ec4b	0.06588038
15	0xbd349c9e	-0.044094674
16	0x3caa6c3d	0.020803565
17	0xbb0c01e4	-0.0021363432
18	0xbe0ee990	-0.13956285
19	0x3d0a22e0	0.033724666
20	0xbe820153	-0.25391635
21	0xbcb387b1	-0.021915289
22	0xbe31c31e	-0.17359588
23	0xbb8ad366	-0.0042366264
24	0x3e02779e	0.12740943
25	0x3b995e56	0.004680435
26	0xbdd8ae6c	-0.10580143
27	0x3cfe1129	0.031014042
28	0xbd04c5c1	-0.032415155
29	0xbd2c4afc	-0.0420637
30	0x3c3d9cec	0.011573058
31	0xbda73250	-0.08163893
32	0xbcc4d1da	-0.024025846
33	0xbbd45d35	-0.0064808377
34	0xbcae4860	-0.021274745
35	0xbb60c0e7	-0.0034294666
36	0x3be6a7f8	0.0070390664
37	0x3daf8543	0.085703395
38	0x3d923384	0.07138732
39	0x3bee1e7e	0.0072668185
40	0xbd68fa44	-0.056879297
41	0xbca78f8c	-0.02045419
42	0x3cd69b7d	0.02619719
43	0x3be097ad	0.0068540187
44	0x3d845fe5	0.06463603
45	0xbbdebc28	-0.0067973323
46	0x3d643f3b	0.055724364
47	0x3c9f2b30	0.019429773
48	0xbd67b2c3	-0.056566965
49	0xbc8012f9	-0.015634047
50	0xba98498b	-0.0011618597
51	0xbd17e920	-0.03708756
52	0x3c8bf63f	0.017085193
53	0x3e33ef32	0.17571715
54	0x3d117f73	0.035521936
55	0x3c7043d4	0.014664609
56	0x3c93b602	0.018031124
57	0x3c21a26c	0.009865385
58	0x3d6477db	0.055778366
59	0xbc6d17fd	-0.014471051
60	0xbd38d790	-0.04512745
61	0x3d5267df	0.05136859
62	0x3ae0ac80	0.0017141253
63	0xbd9104ea	-0.070810154
64	0xbe841ba4	-0.25802338
65	0x3e34a021	0.1763921
66	0x3d6f1e9d	0.058378804
67	0xbe2d1a96	-0.16904673
68	0xbd09e86e	-0.033668928
69	0xbd348ec5	-0.044081468
70	0x3ea81f88	0.32836556
71	0xbdb65ebd	-0.08904789
72	0x3d8a0863	0.06739881
73	0xbc6107ee	-0.013734801
74	0x3e1c6c81	0.15275766
75	0xbc356e5d	-0.011073676
76	0xbc8325dd	-0.016009266
77	0xbdb4ebea	-0.088340595
78	0x3cf05949	0.02933945
79	0x3e32cf21	0.17461826
80	0x3e534944	0.20633417
81	0xbb1b8ea2	-0.0023736139
82	0x3d07b8d0	0.033135235
83	0xbc0cf080	-0.008602262
84	0xbc9d0e78	-0.019171938
85	0x3ddf9157	0.10916393
86	0x3e286bd6	0.16447386
87	0x3b9d9e56	0.004810135
88	0x3cb6e4b3	0.02232585
89	0xbd2da560	-0.042394042
90	0xbd881327	-0.06644278
91	0x3d18ca2d	0.037302185
92	0x3e49f714	0.19723159
93	0x3e611c1b	0.21983378
94	0x3e2a8fbf	0.16656397
95	0xbd9c2c95	-0.07625691
96	0x3e4aab0c	0.19791812
97	0xbc8cab59	-0.017171549
98	0xbe805fe2	-0.25073153
99	0xbca8df1d	-0.020614201
100	0x3e22e7ce	0.15908739
101	0xbb98d5cb	-0.004664158
102	0xbda1d0fd	-0.079011895
103	0xbd988e08	-0.07448965
104	0x3ca99a9b	0.020703604
105	0x3dd1cfd1	0.10244716
106	0x3dd38b8c	0.10329351
107	0x3da295cc	0.07938728
108	0x3c6df565	0.014523839
109	0x3df47948	0.11937195
110	0x3e3132bf	0.17304514
111	0xbcf8da52	-0.03037754
112	0x3c8d020b	0.017212888
113	0x3d720ead	0.059096027
114	0xbd98d4d8	-0.07462472
115	0xbbca3a6f	-0.0061715166
116	0x3d07e2bb	0.03317521
117	0x3d476ad8	0.04868588
118	0xbc8efab0	-0.017453521
119	0xbcc6af3a	-0.024253476
120	0x3d0c3128	0.034226567
121	0x3c52f362	0.01287541
122	0xbc016ddd	-0.007899729
123	0x3d7f62ea	0.06235019
124	0x3d1da89d	0.03849088
125	0x3afd3e9e	0.001932103
126	0xbe347920	-0.1762433
127	0xbe362dbf	-0.17790888
128	0x3df65e83	0.120297454
129	0xbd6d8b40	-0.057994127
130	0xbda17a7b	-0.078846894
131	0x3e44ecaf	0.19230913
132	0xba8a692a	-0.0010559906
133	0x3ed3997e	0.41328043
134	0xbd9d635c	-0.07684967
135	0x3b8f3d38	0.0043713115
136	0xbd2d7061	-0.0423435
137	0x3d58198c	0.05275874
138	0x39f4124c	0.0004655294
139	0x3d30aa4a	0.04313115
140	0x3d946623	0.072460435
141	0xbc5ba8c5	-0.013406937
142	0x3c22be7a	0.009933108
143	0x3c66791e	0.0140669625
144	0x3bc45fe0	0.0059928745
145	0xbd86e594	-0.06586757
146	0x3d497204	0.049181
147	0x3dd35596	0.103190586
148	0xbd5acdde	-0.053418986
149	0xbbab8bfe	-0.005235194
150	0x3db35865	0.08757094
151	0xbe39b4a3	-0.18135314
152	0x3d9c56c3	0.07633736
153	0xbd171e2f	-0.03689402
154	0x3d5b3c1c	0.05352412
155	0x3ce7682f	0.02824792
156	0xbddc5a92	-0.107594624
157	0x3e812e47	0.2523062
158	0xbda0261a	-0.07819767
159	0x3e5375e4	0.2065044
160	0x3cc675cf	0.024226097
161	0x3e919429	0.2843335
162	0x3d0c2439	0.034214232
163	0x3cb031c7	0.02150811
164	0x3e0a359c	0.13497013
165	0x3d637281	0.05552912
166	0xbe17acd8	-0.14812028
167	0xbe0c5836	-0.13705525
168	0x3e53e58e	0.20693037
169	0x3dd8dd48	0.10589081
170	0xbe359933	-0.17734222
171	0x3ce4a463	0.027910417
172	0xbcd09c07	-0.025465025
173	0x3c517dc4	0.0127863325
174	0xbd255755	-0.04036649
175	0xbd325b35	-0.043544013
176	0xbc73d732	-0.0148828495
177	0xbda2a263	-0.07941129
178	0x3d1c7f2c	0.038207218
179	0x396c3d35	0.00022529515
180	0xbe651865	-0.22372587
181	0xbeb3102e	-0.34973282
182	0x3eb31560	0.34977245
183	0xbe039aca	-0.12852016
184	0x3dd8de57	0.10589283
185	0xbd979f9d	-0.07403491
186	0xbc97eac1	-0.018544557
187	0x3e8a5b0d	0.2702259
188	0xbecd512c	-0.40100992
189	0xbb3e2fa0	-0.0029020086
190	0x3d749205	0.059709568
191	0x3d10c128	0.03534046
192	0x3d786cf1	0.06065077
193	0x3d8f2470	0.06989372
194	0x3cb60509	0.022219198
195	0x3d8bb9ae	0.06822525
196	0x3d95ca39	0.073139615
197	0xbd7f98fe	-0.062401764
198	0xbdb92623	-0.09040477
199	0xbd1194e5	-0.035542388
200	0xbd6010c8	-0.054703504
201	0xbc0541ad	-0.008133334
202	0xbd1fed22	-0.039044507
203	0xbbc4cd84	-0.0060059447
204	0x3d9351f3	0.07193365
205	0x3d08f4a6	0.03343644
206	0xbd9001c0	-0.07031584
207	0xbd17e49d	-0.037083257
208	0xbceabfe1	-0.028655948
209	0x3d8d9df4	0.06914893
210	0xbe2f2038	-0.17102134
211	0xbbb8f58a	-0.005644505
212	0x3c9762b0	0.018479675
213	0xbd27a40f	-0.040927943
214	0xbc65e54d	-0.01403172
215	0xbe2113a3	-0.15730147
216	0x3d1de933	0.038552474
217	0xbdc380c2	-0.09546043
218	0xbe286e2f	-0.16448282
219	0xbe709637	-0.23494802
220	0xbd6def05	-0.058089275
221	0xbe6a242a	-0.22865358
222	0x3e1d2015	0.1534427
223	0x3d7d794f	0.061883267
224	0x3dcafe21	0.099117525
225	0x3d0e4bdf	0.034740325
226	0x3b43aa29	0.0029856062
227	0xbde1d0b1	-0.11026133
228	0xbd58ee24	-0.052961484
229	0x3ceedba4	0.029157467
230	0x3d2dbff3	0.042419385
231	0xbe298152	-0.16553238
232	0x3d8d3b3c	0.06896064
233	0x3d3d7ca5	0.04626145
234	0x3c85ac69	0.016317563
235	0x3d90f3d2	0.07077755
236	0x3d80deed	0.0629252
237	0x3c934fe8	0.017982438
238	0x3cb9c2ad	0.022675836
239	0xbcc40e23	-0.023932522
240	0xbd05e8ea	-0.032692827
241	0x3d1507da	0.03638444
242	0x3d6c3dcd	0.057676125
243	0x3d33bd59	0.043881748
244	0xbbd7b1e3	-0.006582485
245	0x3c0f28fd	0.0087378
246	0xbd293842	-0.041313417
247	0x3da53a45	0.08067755
248	0xbd1e2e90	-0.038618624
249	0x3b9388e5	0.004502403
250	0xbc6df9ee	-0.01452492
251	0x3e476d4d	0.19475289
252	0xbcca7093	-0.024711883
253	0x3db58e6d	0.08865056
254	0xbdb57c32	-0.08861579
255	0xbda30850	-0.0796057

encoder.encoder.3.conv.bias f4 [10]
0	0x3e28691c	0.16446346
1	0x3e42bbde	0.19016978
2	0x3e5b739f	0.21430825
3	0x3e5e5fe4	0.21716267
4	0x3e2e8347	0.17042266
5	0x3e3986b4	0.18117791
6	0x3e38ad34	0.18034822
7	0x3e65f03e	0.22454926
8	0x3df9b331	0.12192381
9	0x3e064e83	0.13115887

decoder.decoder.0.dconv.weight f4 [10, 32, 3, 3]
0	0x3e024a53	0.12723665
1	0xbe49d470	-0.19709945
2	0xbe7893df	-0.24275158
3	0xbda5d147	-0.08096557
4	0xbe42abbb	-0.19010822
5	0x3eb0ee4a	0.345568
6	0x3dc96d27	0.09835272
7	0xbee0f1d5	-0.43934503
8	0x3ef3fd67	0.47654268
9	0x3d1af7bb	0.03783391
10	0x3c14c8aa	0.009081045
11	0x3e3a77d3	0.18209772
12	0xbe3978a7	-0.18112431
13	0xbe2e438c	-0.17017955
14	0xbe9ea8c4	-0.30988133
15	0x3e07e91e	0.13272521
16	0x3f00f564	0.50374436
17	0xbe5d5c60	-0.2161727
18	0xbe99a0ef	-0.30005595
19	0xbd7c79cb	-0.06163959
20	0x3df7fb99	0.12108535
21	0xbe34d404	-0.17659003
22	0x3de1a12a	0.11017068
23	0x3eecfd47	0.46286985
24	0x3b8405c6	0.0040290086
25	0xbe1e8d7a	-0.15483657
26	0xbdfbe738	-0.12299961
27	0x3d901912	0.07036032
28	0xbc8c97eb	-0.017162284
29	0x3dfd055e	0.12354539
30	0xbe57f2db	-0.21088736
31	0x3dab2c69	0.0835808
32	0x3e4a60d3	0.19763498
33	0xbd4d0310	-0.05005175
34	0x3df833fc	0.1211929
35	0xbe05fc16	-0.13084444
36	0x3ce124b4	0.027483322
37	0x3c6ac2c5	0.014328663
38	0xbd6de506	-0.058079742
39	0x3cc9e8ff	0.024647234
40	0x3e63d649	0.22249712
41	0x3d9b3d50	0.07580054
42	0x3e9e5ef1	0.3093181
43	0xbdcb4adc	-0.09926388
44	0x3ebe320b	0.37147555
45	0xbda805da	-0.08204241
46	0xbe0742a2	-0.13209012
47	0xbea623b3	-0.3244911
48	0x3e7227f0	0.23648047
49	0x3d28ed22	0.041241772
50	0xbe841787	-0.257992
51	0xbe925281	-0.2857857
52	0x3e483d57	0.1955465
53	0x3e738efa	0.2378501
54	0x3e1a2279	0.15052213
55	0x3dba8d04	0.09108928
56	0xbd46ff57	-0.048583355
57	0xbe7e159c	-0.24812931
58	0xbd569dab	-0.052396458
59	0x3e60f1a8	0.21967185
60	0xbddc016b	-0.10742458
61	0x3e6bcf1f	0.23028229
62	0xbdf347e5	-0.11878947
63	0xbd914da6	-0.070948884
64	0xbe026389	-0.12733282
65	0x3c6347a8	0.013872065
66	0x3ce3b830	0.027797788
67	0xbdac0f2a	-0.0840133
68	0x3dc14a61	0.09438015
69	0xbe08e94b	-0.13370244
70	0xbe9463e7	-0.2898247
71	0x3da76da9	0.08175213
72	0x3b6d6095	0.0036220897
73	0x3c4d8d9f	0.012545972
74	0xbd642677	-0.055700745
75	0x3d10436e	0.035220556
76	0xbd190a29	-0.037363205
77	0xbe19276f	-0.14956449
78	0xbea2983e	-0.31756777
79	0xbd9212ff	-0.071325295
80	0xba74907f	-0.0009329393
81	0x3d38e111	0.045136515
82	0x3d3223cf	0.04349118
83	0x3e1b599c	0.15170902
84	0xbdd88bae	-0.10573517
85	0x3dd8e4ed	0.10590539
86	0x3eabe87a	0.33575803
87	0x3dee06f5	0.11622421
88	0xbe06529a	-0.13117447
89	0x3e8df115	0.27722993
90	0x3d431118	0.047623724
91	0x3db4b772	0.08824052
92	0x3d77fce5	0.060543913
93	0xbe29764c	-0.16549033
94	0xbe86cccf	-0.26328132
95	0xbe667bc5	-0.22508152
96	0xbe43d3a3	-0.19123702
97	0x3dcc355a	0.099711135
98	0x3f0bb3b1	0.5457106
99	0x3e6beea4	0.23040253
100	0xbe122dc9	-0.14275278
101	0x3dfd3ad2	0.12364735
102	0x3d7b6f80	0.06138563
103	0xbdc272be	-0.094945416
104	0xbe85f094	-0.2616011
105	0x3d326017	0.04354867
106	0x3e12af8e	0.14324781
107	0xbd0112b0	-0.031511962
108	0x3d768ccf	0.06019288
109	0xbda4ac77	-0.080407076
110	0x3d3aa47d	0.045567024
111	0xbe540abd	-0.20707221
112	0xbf79238a	-0.97319853
113	0x3ebef481	0.37295917
114	0x3cbabc99	0.022795008
115	0xbccdb7de	-0.025112089
116	0x3f02f28e	0.5115136
117	0x3d378f9d	0.044814695
118	0xbd02c090	-0.031921923
119	0x3d10438d	0.03522067
120	0x3e6d5c58	0.23179758
121	0xbc989908	-0.018627658
122	0xbec9e86b	-0.39435133
123	0x3ce52e1a	0.027976085
124	0xbc42f908	-0.011900194
125	0xbc23b9e1	-0.009993047
126	0x3c94290a	0.018085975
127	0x3e4f222f	0.20227884
128	0xbd9fc03e	-0.07800339
129	0x3df07fd0	0.11743128
130	0x3dbb2e96	0.09139745
131	0x3dd02895	0.101639904
132	0xbe2dbbeb	-0.16966216
133	0xbeaf5457	-0.34244034
134	0xbf102be3	-0.56316966
135	0x3dc4e2a1	0.096135385
136	0x3e66bd94	0.22533256
137	0x3dfc7058	0.12326115
138	0x3e118a97	0.14213024
139	0xbe3a1cd1	-0.18175055
140	0xbd2234f5	-0.039601285
141	0xbdd60584	-0.10450271
142	0xbde41c0c	-0.11138162
143	0xbe66d5e2	-0.22542527
144	0x3c4a5155	0.012348493
145	0xbdd21043	-0.10257008
146	0x3cba1792	0.022716317
147	0xbd62012c	-0.0551769
148	0xbe0de51c	-0.1385693
149	0x3e19def9	0.15026464
150	0x3ea07639	0.31340197
151	0x3c90099e	0.01758271
152	0x3d0d9353	0.034564327
153	0xbdc84190	-0.0977813
154	0xbd8899fb	-0.066699944
155	0xbb8ec015	-0.004356394
156	0xbb8f1040	-0.004365951
157	0xbda5d627	-0.08097487
158	0x3cd1ddfa	0.025618542
159	0x3cfbad8a	0.030722398
160	0x3c917c16	0.017759364
161	0xbdbcdc08	-0.09221655
162	0x3dd17f7e	0.10229395
163	0x3ab7e5b4	0.0014030249
164	0x3d9e2a7c	0.07722947
165	0xbd65ad23	-0.05607332
166	0xbebec965	-0.37263027
167	0xbc99da3b	-0.018780818
168	0xbe903403	-0.28164682
169	0x3e4d83fa	0.20069876
170	0x3e1ebe53	0.1550229
171	0xbd3d71c5	-0.046251077
172	0xbe3fb83b	-0.18722622
173	0x3ecb80ee	0.39746803
174	0xbc282067	-0.010261632
175	0xbe1acd80	-0.15117455
176	0x3e2a96c0	0.16659069
177	0xbdcfa1d1	-0.10138286
178	0xbdac4b3d	-0.08412788
179	0x3eb9be9c	0.36278236
180	0x3d8fdeb9	0.07024903
181	0x3da8ccdb	0.08242198
182	0xbea3d7d5	-0.32000604
183	0x3d89df5d	0.06732056
184	0xbee0cb39	-0.43905047
185	0x3e84b39c	0.2591828
186	0x3d3f0eb9	0.0466449
187	0xbe3c0b65	-0.18363722
188	0xbe98328e	-0.2972607
189	0xbe281455	-0.16414006
190	0xbdff2a54	-0.12459245
191	0xbe3ca68f	-0.18422912
192	0xbe170ed6	-0.14751753
193	0xbd5eaffe	-0.054367058
194	0x3dfefbd7	0.124503784
195	0xbd0c2922	-0.034218915
196	0x3e6098c7	0.2193328
197	0x3e894602	0.26811224
198	0xbd91bb6f	-0.07115828
199	0xbcba7925	-0.022762844
200	0x3cc035e3	0.023463195
201	0x3db071c0	0.08615446
202	0xbe807d71	-0.25095704
203	0x3e67a3a6	0.2262102
204	0x3e629f58	0.22131097
205	0xbe8eaa17	-0.27864143
206	0x3e8ea363	0.2785903
207	0xbd9e8104	-0.077394515
208	0xbf0ecc75	-0.55780727
209	0x3e38c9c4	0.18045717
210	0xbcfe39dc	-0.031033449
211	0xbd71c022	-0.059021123
212	0x3ec2e641	0.38066295
213	0xbd0a7d74	-0.033811048
214	0xbd8ee7f7	-0.069778375
215	0x3e890620	0.26762486
216	0x3ea54863	0.3228179
217	0x3e979df8	0.29612708
218	0x3ca84fbe	0.020545837
219	0x3da84ae3	0.082174085
220	0xbd23b994	-0.039971903
221	0x3d90bde1	0.070674665
222	0x3e40f84f	0.18844722
223	0x3e897d4c	0.26853406
224	0x3ebaf197	0.36512443
225	0xbc98c53b	-0.018648734
226	0x3cd0a903	0.025471216
227	0x3efb5f04	0.4909593
228	0x3e860b8b	0.26180682
229	0xbec74057	-0.38916275
230	0xbebc5b00	-0.36788177
231	0x3ec48189	0.38380077
232	0xbc8a16fa	-0.01685666
233	0x3dfe04d5	0.124032654
234	0x3d5d6bf4	0.05405803
235	0xbd1b41f1	-0.037904684
236	0x3d6286ce	0.05530434
237	0xbcca4927	-0.024693085
238	0xbf08218d	-0.53176194
239	0x3e52d943	0.20590691
240	0x3cf10917	0.02942328
241	0x3dc488e7	0.095964245
242	0x3e98b8a9	0.29828385
243	0xbd508e63	-0.05091704
244	0x3db58d86	0.08864884
245	0xbe3cd4e6	-0.1844059
246	0xbcdd5c29	-0.027021484
247	0xbd0224a8	-0.03177324
248	0x3e0e4dd0	0.1389687
249	0x3ca86c38	0.020559415
250	0x3d14f553	0.036366772
251	0x3d00e48d	0.031467963
252	0xbd3ba8ec	-0.045815393
253	0x3e32e3d6	0.17469725
254	0xbccc977a	-0.024974573
255	0xbb698f6a	-0.003563846

decoder.decoder.0.dconv.bias f4 [32]
0	0x3b9cf159	0.004789513
1	0x3ebe62b1	0.3718467
2	0x3e5f7372	0.21821383
3	0x3cd1d0ea	0.025612313
4	0xbe181f2c	-0.14855641
5	0x3e09a455	0.13441594
6	0xbdbb279a	-0.09138413
7	0xbcdbc541	-0.026827456
8	0xbc502d21	-0.012706072
9	0x3dcf6a93	0.10127749
10	0x3eab31fd	0.33436576
11	0x3e81d94c	0.25361097
12	0xbe38065f	-0.1797118
13	0xbec03ff8	-0.37548804
14	0x3de7f00c	0.11325082
15	0x3d983f51	0.07433952
16	0x3bc403a6	0.0059818802
17	0xbf23178f	-0.6370782
18	0x3eaf2568	0.34208226
19	0x3e0d8ea8	0.1382395
20	0x3e34af78	0.17645061
21	0xbe092282	-0.1339207
22	0x3ceae0aa	0.028671581
23	0xbd217e90	-0.03942734
24	0xbdf44db8	-0.11928886
25	0x3de62b0f	0.112386815
26	0xbe2e803b	-0.17041104
27	0xbe3efa70	-0.18650222
28	0x3cad1d5f	0.02113217
29	0x3cbb8201	0.02288914
30	0x3c8a49f1	0.016880961
31	0x3e979172	0.29603153

decoder.decoder.1.dconv.weight f4 [32, 32, 3, 3]
0	0xbe6c472b	-0.23074023
1	0x3e1fa19f	0.15588997
2	0x3e0474ad	0.12935133
3	0xbedc05a0	-0.42973042
4	0xbeaf73b6	-0.34267968
5	0x3e7c8fb7	0.24664198
6	0x3e243feb	0.16040008
7	0x3eda1c0f	0.42599532
8	0x3e864a26	0.26228446
9	0xbe4ee8e9	-0.20206036
10	0xbe1f5f50	-0.15563703
11	0xbdfa9e63	-0.12237241
12	0xbea9d03b	-0.3316668
13	0xbedc1cba	-0.42990667
14	0xbf1eac3e	-0.6198157
15	0x3e242d60	0.16032934
16	0xbe27df67	-0.16393815
17	0x3e6a83ad	0.22901793
18	0xbe6c12dd	-0.23054071
19	0xbdbed35b	-0.093176566
20	0xbd41a292	-0.04727418
21	0x3e1faab4	0.15592462
22	0xbedb5aae	-0.4284262
23	0xbd1a986c	-0.037743017
24	0x3efdc335	0.49562994
25	0x3e183d84	0.14867216
26	0xbd032c23	-0.032024514
27	0x3e53bb8a	0.20677009
28	0xbe93e459	-0.28885153
29	0xbe5c6657	-0.21523415
30	0x3ec403b8	0.38284087
31	0xbec5d5f3	-0.38639793
32	0xbcefb1bc	-0.029259555
33	0xbd46f939	-0.04857752
34	0xbe683b80	-0.22678947
35	0xbdbfc866	-0.09364395
36	0xbe97013d	-0.29493132
37	0xbda61e05	-0.081111945
38	0x3dd97fef	0.106201045
39	0xbe027f9f	-0.12743996
40	0xbedf020f	-0.43556258
41	0xbe6d0cee	-0.23149464
42	0xbea4b788	-0.32171273
43	0x3eb3bedc	0.35106552
44	0x3f1321eb	0.5747363
45	0x3e5b4cc6	0.21416005
46	0xbe3b4ac5	-0.18290241
47	0xbdf48e4f	-0.11941206
48	0xbe9961b6	-0.2995736
49	0xbe88a2db	-0.2668675
50	0x3b80e067	0.003933001
51	0x3d8cf511	0.0688268
52	0x3e324d60	0.17412329
53	0xbea08ad3	-0.31355914
54	0xbdde6f95	-0.10861126
55	0xbf067cd8	-0.52534246
56	0xbe241623	-0.1602407
57	0xbecc3e98	-0.39891505
58	0xbdd323e0	-0.10309577
59	0xbd598f0f	-0.053114947
60	0x3d4a851c	0.04944335
61	0x3e8d0170	0.2754016
62	0x3e67f503	0.22652058
63	0xbe8f5368	-0.2799332
64	0xbe1baa5e	-0.15201709
65	0x3da3458a	0.07972248
66	0xbe19c472	-0.15016344
67	0xbe656357	-0.22401176
68	0xbe0f2236	-0.13977894
69	0xbe0367cf	-0.12832569
70	0xbe467c94	-0.1938346
71	0xbd9f8b65	-0.07790259
72	0x3d8fa931	0.070146926
73	0xbeb0393c	-0.34418666
74	0xbea03f7e	-0.3129844
75	0x3e8cbe8a	0.2748912
76	0xbe4c1e94	-0.1993354
77	0xbdc8ff11	-0.09814275
78	0xbdc7b865	-0.09751967
79	0x3d648527	0.055791046
80	0x3e07e358	0.13270319
81	0x3eaa2945	0.3323461
82	0x3d80209d	0.062562205
83	0xbecafdb6	-0.3964669
84	0xbec2b281	-0.38026813
85	0x3db68a88	0.089131415
86	0x3f0ba896	0.54554117
87	0xbf3ff039	-0.74975926
88	0x3e1efbcf	0.15525745
89	0x3f23049d	0.63678914
90	0xbc87b097	-0.016563697
91	0xbeb57486	-0.35440463
92	0x3aaa83d8	0.0013009263
93	0xbf359bf9	-0.7094112
94	0xbe7bb436	-0.24580464
95	0xbf7265b7	-0.94686455
96	0x3eae6099	0.34058073
97	0xbdc731f4	-0.09726325
98	0x3e05e965	0.13077314
99	0x3e395d27	0.18101941
100	0x3e81564e	0.25261158
101	0x3d89ba3c	0.067249745
102	0xbea94c9e	-0.33066267
103	0x3d5bfb3a	0.053706385
104	0x3ece9cbe	0.4035396
105	0x3f139524	0.57649446
106	0xbf6bc818	-0.92102194
107	0x3ea55f24	0.3229915
108	0xbeae8637	-0.34086773
109	0xbf6e3857	-0.9305472
110	0xbe73122a	-0.23737398
111	0xbddfa5c6	-0.10920291
112	0xbeeae476	-0.45877427
113	0xbe236e95	-0.15960152
114	0xbe6ee82d	-0.23330756
115	0xbec72b4b	-0.38900217
116	0xbecdfee8	-0.4023354
117	0x3e5f1ea5	0.21789034
118	0xbebada8b	-0.3649486
119	0x3e7e0f28	0.24810469
120	0xbf0b1f46	-0.54344594
121	0xbe8c889c	-0.27447975
122	0xbed23a27	-0.41059992
123	0xbe3fbf95	-0.18725426
124	0x3ece69c0	0.40315056
125	0x3edefc28	0.43551755
126	0xbd12975c	-0.03578888
127	0xbe244c9a	-0.16044846
128	0xbef3e9a7	-0.476392
129	0xbf39166e	-0.7229985
130	0xbdb32624	-0.08747509
131	0x3ef8eb1d	0.48616877
132	0xbe6da0be	-0.2320585
133	0x3e174ba3	0.14774947
134	0xbe180732	-0.14846495
135	0xbea0f3f8	-0.31436133
136	0xbe9a737d	-0.30166236
137	0xbbd17746	-0.0063923923
138	0x3ba8ba4c	0.0051491614
139	0xbf3022ed	-0.6880329
140	0xbcb8ab4b	-0.022542616
141	0xbe90303e	-0.28161806
142	0x3ee99ca7	0.4562733
143	0xbe71c6a8	-0.23610938
144	0xbf2b7bc9	-0.66985756
145	0xbeaeb24b	-0.34120402
146	0xbec5a7b3	-0.38604507
147	0xbe8c73d7	-0.2743213
148	0x3ee3cdd1	0.44492963
149	0xbd241e28	-0.04006782
150	0xbf1654b5	-0.58723
151	0x3f482dd6	0.7819494
152	0x3e87a681	0.2649422
153	0x3dca52f3	0.098791026
154	0xbe7744ba	-0.24147311
155	0xbeed92d4	-0.46401083
156	0xbf6b9b2d	-0.92033654
157	0xbdda1207	-0.1064797
158	0xbf1152a9	-0.56766754
159	0xbe780ac2	-0.24222854
160	0xbe642ea8	-0.22283423
161	0x3ee203c8	0.4414351
162	0x3d9e65b2	0.077342406
163	0xbe9de8fe	-0.3084182
164	0xbedc27fd	-0.4299926
165	0xbf6708d4	-0.90247846
166	0xbec2cf2d	-0.38048688
167	0x3f1b7825	0.607302
168	0xbe44ca13	-0.1921771
169	0x3eb8e13b	0.36109337
170	0xbf10ac72	-0.5651313
171	0xbe8ba6a3	-0.2727557
172	0xbd92396b	-0.07139858
173	0xbedb694a	-0.42853767
174	0xbe023a67	-0.12717591
175	0x3d903656	0.07041614
176	0xbdbd4dd6	-0.09243362
177	0x3cbfc14e	0.023407605
178	0xbe804e43	-0.2505971
179	0x3ead05bc	0.33793437
180	0xbc65c6d4	-0.014024455
181	0xbd44c6cc	-0.04804115
182	0xbd19a9be	-0.037515394
183	0xbd2b16c8	-0.041769773
184	0x3c4a4ba2	0.012347134
185	0x3bd16244	0.006389888
186	0x3d518009	0.051147494
187	0xbacf8dfd	-0.0015835162
188	0xbc6aebf0	-0.014338478
189	0xbef0efc9	-0.47057942
190	0xbe12a86b	-0.14322059
191	0xbe503d23	-0.20335822
192	0xbf1eb871	-0.62000185
193	0xbe7ee314	-0.24891311
194	0xbaadc2d2	-0.0013256914
195	0xbd9152a9	-0.07095844
196	0xbf222589	-0.63338524
197	0xbcf595e0	-0.029978693
198	0x3ef159ac	0.47138727
199	0x3e45c1f2	0.19312266
200	0xbe9b373e	-0.30315584
201	0xbe44be4b	-0.19213216
202	0xbee26fd8	-0.44225955
203	0xbdaedda7	-0.085383706
204	0x3e773470	0.24141097
205	0x3e722a08	0.23648846
206	0xbf2b54d0	-0.6692629
207	0xbdce0a67	-0.10060578
208	0x3e2156c4	0.15755755
209	0x3eb51ba9	0.35372666
210	0xbde2ced0	-0.110746026
211	0x3e811af3	0.25215873
212	0x3e105567	0.14095078
213	0xbe023bdb	-0.12718146
214	0xbf03c5f6	-0.5147394
215	0x3e3b149d	0.18269582
216	0xbe483856	-0.1955274
217	0x3dfc7371	0.12326706
218	0xbede4fee	-0.43420357
219	0x3e7ebe26	0.24877223
220	0xbe1c1f7d	-0.15246387
221	0xbf116fb4	-0.5681107
222	0x3e337fc7	0.17529212
223	0xbe05d65a	-0.1307005
224	0x3d671a2b	0.05642144
225	0x3d851aed	0.06499276
226	0xbd1d3e5d	-0.038389552
227	0x3e840630	0.2578597
228	0xbe26c87a	-0.16287413
229	0xbef476fc	-0.47747028
230	0x3ef6b9cd	0.4818863
231	0x3df2373b	0.118269406
232	0xbe1396e3	-0.14413027
233	0xbea3b207	-0.31971762
234	0xbb7405f0	-0.0037234984
235	0x3e17d6aa	0.14827982
236	0xbcf9ee8b	-0.030509254
237	0xbcf075b4	-0.029353
238	0xbea48c84	-0.32138455
239	0xbd4e33a9	-0.050342236
240	0xbd407ec2	-0.046995886
241	0xbef489d9	-0.4776142
242	0xbc9625e6	-0.018328618
243	0xbe0e56f3	-0.13900356
244	0xbe609fbe	-0.21935937
245	0x3dceef5f	0.1010425
246	0xbe54b30c	-0.20771426
247	0x3d5259c7	0.05135515
248	0x3f55bb9f	0.8348941
249	0x3ea0ffaa	0.31445056
250	0x3eade3d3	0.3396288
251	0x3f3608c4	0.71107125
252	0xbf0522fe	-0.5200652
253	0x3d15a482	0.03653384
254	0xbe807fd1	-0.25097516
255	0xbeb1e52f	-0.34745166

decoder.decoder.1.dconv.bias f4 [32]
0	0x3d66e5bb	0.05637143
1	0x3e27905e	0.16363665
2	0x3dbfc185	0.09363083
3	0x3dba8fd3	0.091094635
4	0xbd94b7b0	-0.07261598
5	0x3e87007d	0.2636756
6	0x3e040445	0.12892254
7	0x3d3e32ea	0.046435274
8	0x3d47bb50	0.04876262
9	0x3dc13e48	0.09435707
10	0x3db9eb5f	0.090780966
11	0x3def8f84	0.11697295
12	0x3e283e7f	0.1643009
13	0x3df8bdf5	0.121456064
14	0x3de771ff	0.1130104
15	0x3d99b0bb	0.07504412
16	0xbd8aca5c	-0.06776878
17	0x3e3adfd6	0.18249449
18	0x3e17766a	0.14791265
19	0x3dd684ef	0.10474574
20	0xbde00fa0	-0.1094048
21	0xbcf671fb	-0.030083647
22	0xbd3f341e	-0.046680562
23	0x3e833808	0.25628686
24	0x3e23c627	0.15993558
25	0x3e06cf42	0.13165
26	0xbdc5006b	-0.0961922
27	0x3ded7071	0.11593712
28	0x3dc022f9	0.093816705
29	0xbdf235ae	-0.11826645
30	0x3da37855	0.07981936
31	0x3e0379b6	0.12839398
