notebooks/saved_model/mnist_model/mnist_cae_1/mnist_cae00050.pth (torch, 539651 bytes, 51 tensors)

encoder.encoder.0.conv.weight f4 [32, 1, 3, 3]
0	0x3da4d073	0.08047571
1	0x3e7eeb9c	0.24894565
2	0xbede8fdf	-0.4346914
3	0xbc87ec26	-0.016592097
4	0x3eaae389	0.3337672
5	0xbe6cabf9	-0.23112477
6	0xbe579d40	-0.2105608
7	0x3defdc68	0.11711961
8	0x3e81017b	0.25196442
9	0xbed47975	-0.41498914
10	0x3ddd2301	0.10797692
11	0x3e52c155	0.20581563
12	0xbdc301ce	-0.095218286
13	0x3ee7e3d2	0.45291
14	0xbebe5b53	-0.3717905
15	0x3db8895c	0.09010574
16	0x3d8d3950	0.06895697
17	0xbea6fc25	-0.32614246
18	0x3e955436	0.2916581
19	0x3e89b550	0.26896143
20	0xbeb54fd7	-0.35412475
21	0x3e1938c9	0.14963068
22	0x3db41461	0.087929495
23	0xbebfb26a	-0.37440807
24	0x3ddf9fb4	0.10919133
25	0xbe810a1b	-0.25203022
26	0xbe3cfdb5	-0.18456157
27	0xbf21decd	-0.6323059
28	0x3e9042af	0.28175876
29	0x3f0471f7	0.51736397
30	0xbf050237	-0.51956505
31	0xbef1b120	-0.47205448
32	0xbdb26646	-0.08710913
33	0x3e32f007	0.17474376
34	0xbe3d4a28	-0.1848532
35	0xbeef23cf	-0.46707007
36	0xbe8e9d81	-0.2785454
37	0xbb513f24	-0.0031928504
38	0x3e14b81c	0.14523357
39	0xbeae7cea	-0.34079677
40	0xbf17b9ee	-0.5926808
41	0xbf242894	-0.6412442
42	0x3eaa050e	0.3320698
43	0x3ee71589	0.45133618
44	0xbefcfdb1	-0.494123
45	0xbe3d7f83	-0.18505673
46	0x3e8500d8	0.25977206
47	0xbb868ac4	-0.0041058976
48	0x3e6b6c08	0.2299043
49	0x3e299864	0.16562039
50	0x3e271e3d	0.16320129
51	0xbe4eb1b4	-0.20184976
52	0x3e877543	0.2645665
53	0xbda3dfcf	-0.080016725
54	0x3d6f3cb2	0.058407493
55	0xbeafdf0a	-0.34349853
56	0xbe90f3c3	-0.28310975
57	0xbed5596a	-0.4166978
58	0x3d9803a7	0.07422572
59	0x3d1c8e35	0.038221557
60	0xbe873ccf	-0.2641358
61	0x3e1b1b77	0.15147196
62	0x3e5986a4	0.21242768
63	0x3cbc37ef	0.02297589
64	0xbe8ab762	-0.27093035
65	0xbf0c43e9	-0.5479112
66	0x3d267fa8	0.040649086
67	0x3ee32bbd	0.44369307
68	0x3ecab4c7	0.39591047
69	0xbe2fc059	-0.17163219
70	0xbe5c2755	-0.21499379
71	0xbd75d079	-0.06001327
72	0xbf1a2741	-0.60216147
73	0xbe9fc2eb	-0.31203398
74	0x3da923b6	0.082587644
75	0xbea3a494	-0.319615
76	0x3eb027bf	0.34405324
77	0x3eccae13	0.39976558
78	0xbef15c43	-0.47140703
79	0x3e056dcf	0.1303017
80	0xbee86e55	-0.45396677
81	0x3e4d8c3b	0.20073025
82	0x3e77c753	0.2419713
83	0xbf0ab643	-0.5418436
84	0x3e9a23d9	0.30105475
85	0xbf406b05	-0.751633
86	0xbe36f99c	-0.17868656
87	0xbf101d67	-0.56294864
88	0xbe88ff51	-0.2675729
89	0x3eeaed69	0.45884255
90	0x3e0e6a2a	0.13907686
91	0xbe8e0f77	-0.27746174
92	0x3e4f5799	0.2024826
93	0xbe331b24	-0.17490822
94	0xbeb16153	-0.34644565
95	0x3e81e554	0.25370276
96	0x3e8bac8c	0.2728008
97	0x3e66c3f9	0.22535695
98	0xbeafdadf	-0.34346673
99	0xbe6be3a6	-0.2303606
100	0xbd6ee3a7	-0.058322575
101	0x3e818634	0.252977
102	0x3e98d574	0.29850352
103	0x3e53d24c	0.2068569
104	0x3ec48d84	0.38389218
105	0x3d972940	0.07380915
106	0xbea8b952	-0.32953888
107	0xbf12c652	-0.5733386
108	0x3dfb2ff9	0.122650094
109	0xbd4539e7	-0.048150923
110	0xbe265c53	-0.16246156
111	0x3ddc0326	0.10742788
112	0x3ed529eb	0.41633543
113	0x3ea713ce	0.32632297
114	0xbeb1e5a2	-0.34745508
115	0xbe77c549	-0.24196352
116	0xbdeaeef0	-0.11471355
117	0x3cabb763	0.020961469
118	0xbed97345	-0.42470756
119	0x3bb19e72	0.0054204995
120	0x3dc086b3	0.09400692
121	0x3da19e6d	0.078915454
122	0xbd02b72e	-0.031912975
123	0xbe7d8e9e	-0.24761435
124	0x3e4a699f	0.19766854
125	0xbe54b9c7	-0.20773993
126	0x3eb950ac	0.3619436
127	0xbef780be	-0.4834041
128	0xbd93a5e1	-0.07209373
129	0xbe0ec51b	-0.13942377
130	0xbe347bc3	-0.17625336
131	0x3e9f7301	0.3114243
132	0xbeb068c1	-0.3445492
133	0xbdf3543b	-0.118813
134	0xbce57da3	-0.02801401
135	0xbc8e4171	-0.01736519
136	0x3dfaca2d	0.12245593
137	0xbd2f3c3f	-0.042782065
138	0x3da5c23a	0.080936864
139	0x3d97c600	0.074108124
140	0x3c8b65ed	0.017016375
141	0x3e1b864f	0.15187953
142	0x3e187aca	0.1489059
143	0xbea6d248	-0.32582307
144	0x3e4544e5	0.19264562
145	0x3e8bf150	0.27332544
146	0xbefeb701	-0.49748996
147	0xbe165911	-0.14682414
148	0x3e27807c	0.16357607
149	0x3e86a406	0.26297015
150	0xbea213cf	-0.31655738
151	0xbe61c6da	-0.22048512
152	0x3e34474f	0.17605327
153	0x3dd50af0	0.10402477
154	0xbdec2b30	-0.11531675
155	0x3d504011	0.05084235
156	0x3d510245	0.051027555
157	0xbdc75999	-0.09733886
158	0x3db899b1	0.09013689
159	0x3e11663d	0.14199157
160	0xbe2b0b03	-0.1670342
161	0x3e755b26	0.23960552
162	0xbee72bab	-0.45150504
163	0xbf16b124	-0.58864045
164	0xbee1ce54	-0.44102728
165	0x3e6d9c41	0.23204137
166	0x3efcb3d7	0.49355957
167	0xbf40d5bd	-0.7532614
168	0x3e347949	0.17624392
169	0x3e974f94	0.295529
170	0xbe3c9d07	-0.18419276
171	0xbe192746	-0.14956388
172	0xbdc582ba	-0.09644075
173	0x3e291e1c	0.16515392
174	0xbcd962df	-0.026536403
175	0xbe53088f	-0.20608734
176	0x3e759257	0.23981605
177	0x3be2f174	0.006925756
178	0xbea601eb	-0.32423338
179	0x3e8ce99b	0.27521977
180	0x3c9c4fe7	0.01908107
181	0x3dcecb03	0.10097315
182	0xbe29a0dd	-0.1656527
183	0xbef46d1d	-0.47739497
184	0x3ec31cc1	0.38107875
185	0xbe7b74c5	-0.24556263
186	0xbeb8c968	-0.3609116
187	0x3e81501c	0.2525643
188	0xbd5310ee	-0.051529817
189	0x3e857b46	0.26070613
190	0xbeda9860	-0.42694378
191	0xbe9fc5e7	-0.31205675
192	0x3e8724a8	0.26395154
193	0x3ea22db2	0.31675488
194	0xbf144d6e	-0.5793065
195	0xbdaa1270	-0.08304298
196	0xbf1a4315	-0.6025861
197	0xc00ce5ab	-2.2015178
198	0x3dd37405	0.10324863
199	0x3e048807	0.12942515
200	0x3ebfa196	0.37427968
201	0xbee31e37	-0.4435899
202	0xbe72b993	-0.23703603
203	0xbee841ca	-0.45362693
204	0x3e3329ba	0.17496386
205	0x3df89377	0.12137502
206	0x3dd4db9f	0.10393452
207	0xbeb9ac75	-0.36264387
208	0xbde089d8	-0.109637916
209	0xbe8d6cf4	-0.27622187
210	0xbdcd9b1c	-0.100393504
211	0xbd2e5066	-0.042557143
212	0xbdafa8dc	-0.08577129
213	0x3e910ba3	0.2832919
214	0x3e38b4e0	0.18037748
215	0x3e50ee80	0.2040348
216	0xbe703476	-0.23457512
217	0xbf04609a	-0.517099
218	0x3dc50120	0.09619355
219	0x3ec02baa	0.37533313
220	0xbed635ae	-0.4183783
221	0x3e467071	0.1937883
222	0x3d9e4da2	0.07729651
223	0xbebc6550	-0.36796045
224	0xbe4bb318	-0.19892538
225	0x3e2a735f	0.16645573
226	0xbea7f146	-0.32801265
227	0x3d9bc234	0.07605401
228	0x3ea0ac42	0.31381422
229	0xbf0ed722	-0.55797017
230	0xbca9f574	-0.020746924
231	0x3ed90137	0.4238374
232	0xbe49343a	-0.19648829
233	0x3de4b2ac	0.111668915
234	0x3e57998d	0.21054669
235	0x3e926f02	0.28600317
236	0x3e80e067	0.25171205
237	0xbde9eba3	-0.11421897
238	0x3d6d7621	0.057973985
239	0xbece59df	-0.4030294
240	0xbe8bf6ed	-0.27336827
241	0xbe4f9cef	-0.20274709
242	0xbdec52c7	-0.11539226
243	0xbd1c690e	-0.038186125
244	0x3ed9c1a6	0.42530555
245	0x3e0f98d0	0.14023137
246	0xbf071f7b	-0.5278241
247	0xbdbadda4	-0.09124306
248	0x3ece3568	0.4027512
249	0x3d40f909	0.0471125
250	0xbecd3fe3	-0.40087804
251	0xbe4fe097	-0.20300518
252	0x3e5b5d1c	0.21422237
253	0x3e2560da	0.16150227
254	0xbe7a888f	-0.24466155
255	0x3d9b4abe	0.07582615

encoder.encoder.0.conv.bias f4 [32]
0	0xbe2ed069	-0.1707169
1	0xbd22f6ab	-0.039786022
2	0x3b4397a5	0.0029845026
3	0x3cde66cf	0.027148632
4	0x3de85a9b	0.113454066
5	0xbedba2eb	-0.42897734
6	0xbb320804	-0.0027165422
7	0xbcc31be2	-0.023817006
8	0xbc293d91	-0.01032962
9	0xbc377d21	-0.011199267
10	0xbda2a33f	-0.07941293
11	0xbdabe646	-0.083935305
12	0xbe0e4ea9	-0.13897194
13	0xbdd89d7e	-0.10576914
14	0xbc62f651	-0.013852672
15	0xbdf3d26b	-0.119053684
16	0xbe581de5	-0.21105154
17	0xbdc464e4	-0.09589556
18	0x3d1c5c06	0.038173698
19	0xbcd0d137	-0.025490386
20	0xbcb5bee4	-0.02218575
21	0x3d4a4acd	0.04938774
22	0xbde5cc38	-0.11220592
23	0xbd14e415	-0.03635033
24	0x3dd9e636	0.106396124
25	0xbd235dfe	-0.03988456
26	0xbbd37724	-0.0064534117
27	0x3b6f3685	0.0036501002
28	0xbe2a21b3	-0.16614418
29	0x3e4ebac8	0.20188439
30	0xbd707218	-0.05870256
31	0xbe391430	-0.18074107

encoder.encoder.1.conv.weight f4 [32, 32, 3, 3]
0	0xbf600303	-0.87504596
1	0xbf85d36d	-1.0455147
2	0xbf0c5632	-0.54819024
3	0xbebceaed	-0.36897984
4	0xbda38369	-0.07984049
5	0x3e072f7e	0.1320171
6	0xbd350713	-0.0441962
7	0x3e9f74cb	0.31143793
8	0x3e9e8ea6	0.30968207
9	0xbe61c908	-0.22049344
10	0xbe6bfff4	-0.23046857
11	0x3e394773	0.18093662
12	0x3c7eadcf	0.015544369
13	0xbec9abf9	-0.39389017
14	0xbe8c111b	-0.273568
15	0x3db8bde0	0.09020591
16	0xbd171f3a	-0.036895014
17	0xbc836dbd	-0.016043538
18	0xbf35215c	-0.7075403
19	0xbe9d1527	-0.306802
20	0xbc24f70d	-0.010068667
21	0xbed5aa34	-0.41731417
22	0xbf617ac3	-0.88077945
23	0xbef985b8	-0.48734832
24	0xbb662917	-0.0035119706
25	0xbe3fd994	-0.18735343
26	0xbebf3efd	-0.37352744
27	0x3ea9b47b	0.33145508
28	0x3d83cbc7	0.06435352
29	0x3e849802	0.25897223
30	0xbe4d6cfa	-0.20061103
31	0x3df9da23	0.121998094
32	0x3e9ded05	0.30844894
33	0xbdda5767	-0.10661202
34	0xbc662bd8	-0.014048539
35	0x3dcc8145	0.09985594
36	0xbd770488	-0.060307056
37	0x3d807da8	0.06273967
38	0x3ea2b621	0.31779578
39	0x3d8bfb65	0.06835059
40	0x3e4b6b3b	0.19865124
41	0x3dbd281a	0.092361644
42	0x3ccec42a	0.025240023
43	0x3d677543	0.056508314
44	0xbe6349ae	-0.22196075
45	0xbf292905	-0.66078216
46	0xbd2b16cf	-0.0417698
47	0xbd89767f	-0.067120545
48	0x3e312d02	0.17302325
49	0x3e30c9a0	0.17264414
50	0xbe6c919c	-0.2310242
51	0xbd4ed7e5	-0.05049886
52	0x3d59b3d3	0.05315001
53	0x3dd0da8c	0.101979345
54	0x3cadda4b	0.021222254
55	0xbdc5eb3a	-0.096640065
56	0xbe98bf17	-0.2983329
57	0x3e0ef081	0.13958932
58	0xbc4ffd4a	-0.012694666
59	0x3dda27c0	0.10652113
60	0xbbee83ca	-0.007278894
61	0xbe668bc0	-0.22514248
62	0x3b35aefa	0.0027722702
63	0x3e259ffd	0.16174312
64	0x3d0ae3d6	0.033908688
65	0xbe9f77b4	-0.31146014
66	0x3dfda2e3	0.12384584
67	0x3e6be589	0.2303678
68	0x3e13201f	0.14367722
69	0x3e1935f3	0.14961986
70	0x3e8e95d4	0.27848685
71	0x3e00c3d0	0.12574697
72	0x3e1c73eb	0.15278594
73	0x3f18e190	0.5971918
74	0x3f1b74d9	0.6072517
75	0x3efa8c00	0.48934937
76	0x3dac6d0d	0.08419237
77	0x3e8b203e	0.27173036
78	0x3e72ddd4	0.23717433
79	0x3d9ff4ef	0.07810389
80	0x3e4e2231	0.2013023
81	0x3c461e95	0.012092252
82	0x3e540635	0.20705493
83	0x3e74097f	0.23831747
84	0xbda4fb0f	-0.08055698
85	0xbe355b1b	-0.17710535
86	0xbdfa762d	-0.122295715
87	0x3e485bcc	0.19566268
88	0xbedcfbee	-0.43160957
89	0xbeab591c	-0.33466423
90	0xbd23eed9	-0.040022705
91	0x3d241612	0.04006011
92	0x3d795388	0.060870677
93	0xbd9a1213	-0.07522979
94	0xbe1eb161	-0.15497352
95	0x3e4a5eeb	0.19762771
96	0x3d2303ac	0.039798424
97	0xbd81a529	-0.0633033
98	0x3e0f4d27	0.13994275
99	0xbda0f400	-0.07859039
100	0x3d621b78	0.055201977
101	0x3d2b86e9	0.041876707
102	0x3e18c7f2	0.14920023
103	0xbe0c3de0	-0.13695478
104	0xbd6a12d1	-0.05714685
105	0x3e0a01da	0.13477269
106	0xbd897d3e	-0.06713341
107	0xbdb69789	-0.08915622
108	0xbe8411df	-0.25794885
109	0x3e1e0666	0.15432128
110	0x3da115e6	0.07865505
111	0xbe1abde5	-0.15111502
112	0x3d05c643	0.03265978
113	0x3e9e72f2	0.3094707
114	0xbe37bc28	-0.1794287
115	0xbcbf712b	-0.023369392
116	0x3dccfc4a	0.10009058
117	0xbecc515c	-0.39905822
118	0xbe9e89f7	-0.30964634
119	0xbf4b4593	-0.79403037
120	0x3c0e0f07	0.008670575
121	0x3da82919	0.08210964
122	0x3d8f0ebb	0.069852315
123	0x3cf7efbe	0.030265685
124	0x3deeff79	0.11669821
125	0x3dde34f7	0.10849946
126	0xbdf90dc4	-0.12160829
127	0x3ec744d7	0.38919708
128	0x3eb4054f	0.351603
129	0x3d377e90	0.044798434
130	0x3d9d80e9	0.07690603
131	0xbd811d07	-0.06304365
132	0x3daadcb1	0.08342875
133	0x3edb9cbe	0.42893022
134	0xbf013b85	-0.50481445
135	0xbf51e1cf	-0.8198518
136	0xbf2e86bd	-0.68174344
137	0xbec3d16f	-0.38245723
138	0xbe303a0f	-0.17209648
139	0xbe06ac40	-0.13151646
140	0xbefd4d47	-0.4947302
141	0x3d5bde80	0.05367899
142	0x3c1b24bc	0.009469207
143	0xbea67147	-0.325083
144	0xbf0f27b9	-0.55919987
145	0xbe0d8c3f	-0.13823031
146	0xbd76f687	-0.0602937
147	0xbeae5158	-0.34046435
148	0x3e2c56b5	0.16829951
149	0x3e20cbe3	0.15702777
150	0x3e528af8	0.20560825
151	0x3dd3d6aa	0.10343678
152	0x3e5c3669	0.21505131
153	0xbefeb6ff	-0.4974899
154	0xbf21322f	-0.629672
155	0xbf5cab89	-0.8619924
156	0x3e8cd7b3	0.27508315
157	0x3d3802fe	0.04492473
158	0x3d8085b8	0.06275505
159	0x3e513063	0.20428614
160	0x3e0cf2c1	0.13764478
161	0x3e9c251d	0.30497065
162	0xbdae1ae3	-0.08501222
163	0x3c020928	0.007936753
164	0x3eba71da	0.36414987
165	0xbd1bbc32	-0.038021274
166	0x3e64bda8	0.22337973
167	0x3e7b751e	0.24556395
168	0x3d810500	0.06299782
169	0x3e17e08e	0.14831755
170	0xbcc99238	-0.024605855
171	0xbe131c4e	-0.14366266
172	0xbdc658ce	-0.09684907
173	0xbdfbce76	-0.12295239
174	0xbe9b8a16	-0.3037879
175	0xbeef88a1	-0.46783927
176	0xbed45e8e	-0.4147839
177	0x3de12660	0.109936476
178	0x3d6d231c	0.05789481
179	0x3e07579b	0.13217013
180	0x3e192eda	0.14959279
181	0xbcee8fd8	-0.029121324
182	0xbe37a378	-0.17933452
183	0xbc952a7b	-0.018208733
184	0xbd59d82e	-0.05318468
185	0xbe8cc071	-0.2749057
186	0x3d813ca0	0.063103914
187	0xbddd331c	-0.10800764
188	0x3e190ad1	0.14945532
189	0x3d043d11	0.0322848
190	0x3c649c8e	0.013953341
191	0x3e35e827	0.1776434
192	0xbd26efd7	-0.040756073
193	0xbe8554ff	-0.2604141
194	0xbe0c04e2	-0.13673738
195	0xbc79537b	-0.015217657
196	0xbec7eec1	-0.39049342
197	0xbf27884d	-0.65442353
198	0x3dcc23b0	0.09967744
199	0xbdbdd6bb	-0.09269472
200	0xbd2c6655	-0.04208978
201	0xbd493909	-0.04912666
202	0xbd73ac5e	-0.059490554
203	0x3e58715c	0.21136993
204	0xbd7cf16f	-0.061753687
205	0x3d7a5f41	0.061125997
206	0xbd6ac69f	-0.057318326
207	0x3eb72b31	0.3577514
208	0x3e7b7c9b	0.24559252
209	0x3e4b0b48	0.19828522
210	0x3e7ddd9c	0.24791569
211	0x3e5b1219	0.21393622
212	0x3e8042b6	0.25050896
213	0x3e1a46bd	0.15066047
214	0xbdae43eb	-0.08509048
215	0x3e91df46	0.28490657
216	0x3ca817c5	0.020519147
217	0x3da5e339	0.0809998
218	0xbd93b731	-0.07212675
219	0xbdf9660a	-0.121776655
220	0x3c9291dc	0.017891817
221	0xbd814ccf	-0.06313478
222	0xbf15401d	-0.58300954
223	0xbdffc687	-0.12489038
224	0xbec91c18	-0.39279246
225	0xbee458d8	-0.44599032
226	0xbeb947b5	-0.3618752
227	0xbe1eb8ea	-0.15500227
228	0xbeb443be	-0.35207933
229	0xbd84cd2f	-0.06484448
230	0x3e05526c	0.13019723
231	0x3c18a85f	0.009317487
232	0x3e5991a1	0.2124696
233	0x3e5842ab	0.21119182
234	0xbe9c9992	-0.30585915
235	0x3e0b8819	0.13626136
236	0x3de72434	0.11286202
237	0xbd7506ae	-0.059820823
238	0x3e130ea0	0.14361048
239	0xbc6a1132	-0.014286326
240	0x3e1ddbdc	0.15415901
241	0xbe7cf57f	-0.24703024
242	0x3d8d588f	0.06901657
243	0x3dc1c6e7	0.09461766
244	0x3e1de623	0.15419821
245	0x3c8fca1e	0.017552432
246	0xbe84f8ed	-0.25971165
247	0x3e1c891b	0.15286677
248	0x3e9040cc	0.28174436
249	0xbde866b7	-0.11347716
250	0x3e758dd4	0.23979884
251	0x3e81b50c	0.2533344
252	0x3e001f96	0.12512049
253	0xbe39405e	-0.1809096
254	0xbe993791	-0.29925206
255	0x3d4947f1	0.049140874

encoder.encoder.1.conv.bias f4 [32]
0	0xbb546e24	-0.0032414282
1	0xbd5ee4fd	-0.0544176
2	0xbca64d6e	-0.020300593
3	0x3c9af866	0.018917274
4	0x3cc4684e	0.023975518
5	0x3e1e1be0	0.15440321
6	0xbc7b878b	-0.01535214
7	0xbde97257	-0.11398762
8	0x3dffde84	0.12493613
9	0x3e71df2f	0.23620294
10	0x3df10924	0.117693216
11	0x3e9148ac	0.28375757
12	0x3cb0b7c2	0.021571998
13	0x3df9264a	0.12165506
14	0x3e842d91	0.25816014
15	0xbdd6d7b1	-0.104903586
16	0x3e144b68	0.1448189
17	0xbc0e61a6	-0.008690273
18	0xbd47d251	-0.048784558
19	0x3e70834d	0.23487587
20	0x3df2fd36	0.118647024
21	0xbd123164	-0.035691634
22	0xbd81bfde	-0.06335424
23	0xbd70fd09	-0.058835063
24	0x3e2d9862	0.1695266
25	0x3e4274ea	0.18989912
26	0x3e08d164	0.13361126
27	0xbd5687f4	-0.05237575
28	0x3e25c662	0.16188958
29	0xbda706da	-0.08155604
30	0x3d5b4f9c	0.05354272
31	0xbb9de1cc	-0.004818177

encoder.encoder.2.conv.weight f4 [32, 32, 3, 3]
0	0xbf0b5c90	-0.54438114
1	0xbf120805	-0.57043487
2	0xbf315116	-0.6926435
3	0xbd8a6dde	-0.06759237
4	0x3dce09d5	0.10060469
5	0x3e57b31f	0.21064423
6	0x3e54a02f	0.2076423
7	0xbe2852e7	-0.16437875
8	0xbc77086e	-0.015077693
9	0xbd02e8df	-0.031960364
10	0x3d366aa1	0.044535283
11	0x3d7a2505	0.06107046
12	0xbbe4d5a7	-0.006983477
13	0x3cd80e02	0.026373867
14	0x3d61c663	0.055120837
15	0xbd186b2e	-0.03721159
16	0x3ba59bbb	0.005053965
17	0x3b80462f	0.0039146165
18	0xbdaeb504	-0.0853062
19	0xbe16c8cb	-0.14725034
20	0x3d548ff2	0.05189509
21	0x3e4383f8	0.19093311
22	0xbdefafd6	-0.1170346
23	0x3d4ca11c	0.049958333
24	0x3e938071	0.2880893
25	0xbe8d78c9	-0.27631214
26	0xbe41e428	-0.18934691
27	0xbe9514a1	-0.291173
28	0xbdd309e0	-0.10304618
29	0x3f0f3c4f	0.559514
30	0x3b56e695	0.0032791246
31	0xbebe45e3	-0.37162694
32	0x3ea73f40	0.32665443
33	0x3d071df6	0.032987557
34	0xbea98407	-0.3310854
35	0x3d81fd5b	0.06347152
36	0xbcdd96b6	-0.027049404
37	0x3dad1e9e	0.084531054
38	0xbe2f2904	-0.1710549
39	0xbdcdba9d	-0.10045359
40	0x3e072ef2	0.13201502
41	0xbe95031a	-0.2910393
42	0x3a545d26	0.00081010384
43	0xbeb1b7db	-0.34710583
44	0xbf0d1b7d	-0.5512007
45	0x3ccb91d7	0.024849815
46	0x3e7180d8	0.23584306
47	0xbd7048da	-0.058663227
48	0x3d89246f	0.06696402
49	0xbd62fb56	-0.055415474
50	0xbeab4f75	-0.33459058
51	0xbe4ff4ee	-0.20308277
52	0x3e059463	0.13044886
53	0xbefaa5e5	-0.48954692
54	0x3c44fbd4	0.012022931
55	0xbd64cee4	-0.05586137
56	0x3d326e5f	0.04356229
57	0xbc919f8e	-0.017776277
58	0x3d1d1129	0.038346443
59	0xbc630414	-0.013855953
60	0xbd23a735	-0.039954383
61	0x3d4d7895	0.050163824
62	0xbc98066c	-0.01855775
63	0xbd1e09fc	-0.03858374
64	0x3cdc1bd7	0.026868744
65	0xbcff0726	-0.031131338
66	0x3d8c7a05	0.06859211
67	0xbd2e5675	-0.04256292
68	0x3d0d31d5	0.03447135
69	0xbb58a3c3	-0.0033056594
70	0x3d382c74	0.04496427
71	0x3db1f077	0.08688443
72	0xbe271a25	-0.16318567
73	0xbe9d4e5c	-0.30723846
74	0xbf20ca50	-0.62808704
75	0x3e4d2bc8	0.20036232
76	0x3e69181f	0.22763108
77	0xbdbae664	-0.09125975
78	0xbcbc3cb2	-0.02297816
79	0xbe6ed0bc	-0.23321813
80	0xbe3d41e9	-0.18482174
81	0xbd1c3d54	-0.038144425
82	0xbea84089	-0.32861736
83	0xbef9c3bb	-0.48782143
84	0xbe76dd8a	-0.24107948
85	0xbf6c41c8	-0.92287874
86	0xbf04cda9	-0.5187631
87	0xbe4ac80c	-0.19802874
88	0xbef13b6c	-0.47115648
89	0xbe946aee	-0.2898783
90	0x3d9ac5c5	0.07557253
91	0x3d6d16f0	0.057883203
92	0x3e3504cf	0.17677616
93	0xbaae986e	-0.0013320574
94	0xbde69bfc	-0.112602204
95	0x3d15ddfe	0.03658866
96	0x3d7ed2e0	0.062212825
97	0x3ee87694	0.45402968
98	0x3e890cc1	0.26767543
99	0x3d48639d	0.048923124
100	0xbde9efdf	-0.11422705
101	0xbd31e808	-0.043434173
102	0xbdc7bfb0	-0.09753358
103	0x3d91903a	0.07107587
104	0xbc5f3a87	-0.013624794
105	0xbc85204e	-0.016250756
106	0xbefe288b	-0.49640307
107	0x3ec3b398	0.38222957
108	0x3c12c7c5	0.008958762
109	0xbe361c4a	-0.17784229
110	0xbe1cd220	-0.15314531
111	0xbd8b508d	-0.06802473
112	0x3e30e60a	0.17275253
113	0xbc101888	-0.008794911
114	0x3e63abde	0.22233531
115	0x3e9061cc	0.28199613
116	0x3d13ff65	0.036132235
117	0xbe4a29df	-0.19742535
118	0xbecf3e5a	-0.40477258
119	0x3d6d91c7	0.058000352
120	0xbf371851	-0.7152148
121	0xbe8ce790	-0.27520418
122	0xbe0a64ba	-0.13514987
123	0x3d1e3255	0.03862222
124	0xbdc6c16b	-0.0970486
125	0x3dfef648	0.12449318
126	0x3e7eb53d	0.24873824
127	0x3bf36f19	0.0074290154
128	0xbdb2c269	-0.08728487
129	0x3d86602e	0.065613136
130	0x3d4a355d	0.049367297
131	0xbea544b0	-0.32278967
132	0x3e2a209e	0.16614005
133	0xbe4504a4	-0.19240052
134	0xbd90055a	-0.07032271
135	0xbbed3749	-0.0072392565
136	0x3dfed0a8	0.12442142
137	0xbb75c2e3	-0.0037500195
138	0x3d5c5a29	0.05379692
139	0x3d1d5f56	0.038420998
140	0xbc7534c2	-0.014966192
141	0x3c93571e	0.017985877
142	0xbcfdc99b	-0.030979922
143	0xbce63517	-0.028101487
144	0x3d439aab	0.047754925
145	0x3dfea460	0.12433696
146	0x3e66c613	0.22536497
147	0xbdefcea8	-0.117093384
148	0x3eb2db06	0.34932727
149	0x3d44ffb9	0.04809544
150	0x3e973794	0.2953459
151	0x3e5c9746	0.21542081
152	0x3e5f7310	0.21821237
153	0x3e49b287	0.19697009
154	0x3e46b34b	0.19404332
155	0x3ec273f0	0.37979078
156	0x3d63c0e3	0.055603873
157	0xbea23d85	-0.3168756
158	0xbe0b350f	-0.13594459
159	0xbd87c75a	-0.0662982
160	0xbf539286	-0.8264545
161	0xbf6e5b0d	-0.9310768
162	0x3c856f47	0.016288413
163	0xbbadb94a	-0.005301629
164	0x3d39e816	0.04538735
165	0xbce5dabe	-0.028058406
166	0xbb2f84e5	-0.0026782092
167	0x3d14dafc	0.036341652
168	0x3c0a4c1c	0.008440997
169	0xbcfb3f06	-0.0306697
170	0xbcc6d56c	-0.02427169
171	0xbd3da854	-0.04630311
172	0x3e26d7ea	0.16293302
173	0xbe5fc641	-0.21852972
174	0xbe520969	-0.20511402
175	0xbd5929dd	-0.05301844
176	0xbf39425e	-0.72366893
177	0xbd1d792b	-0.038445633
178	0xbe90205b	-0.28149685
179	0xbfa51017	-1.2895535
180	0xbd416bb9	-0.047221873
181	0xbe5463f4	-0.20741254
182	0xbdf7b3cb	-0.1209484
183	0xbcf6d7c9	-0.030132191
184	0xbca1ae5e	-0.019736465
185	0x3e9b7fff	0.3037109
186	0xbd5985e6	-0.05310621
187	0x3d840359	0.06445951
188	0xba59a54c	-0.0008302524
189	0x3d50e3b7	0.050998416
190	0x3d0659b6	0.0328004
191	0x3abf900d	0.0014615074
192	0xbd06c1e6	-0.03289976
193	0xbcf47b77	-0.029844029
194	0x3d95e777	0.07319539
195	0x3d758fbe	0.059951536
196	0xbd258fac	-0.04042022
197	0x3cfbc77d	0.030734772
198	0xbd40f3a5	-0.047107358
199	0x3d4e9770	0.05043739
200	0xbd394380	-0.04523039
201	0x3c6cd81d	0.014455822
202	0x3c292559	0.010323846
203	0x3c4c578a	0.012472043
204	0x3d52a6a9	0.05142847
205	0x3cdf7581	0.02727771
206	0x3d4978ad	0.04918735
207	0xbd5611fb	-0.05226324
208	0xbd85fe2d	-0.06542621
209	0x3c09fdc2	0.008422317
210	0x3b7d0759	0.0038609116
211	0x3ce36398	0.027757451
212	0xbd8b0dd2	-0.067897454
213	0xbcea7853	-0.028621828
214	0x3bf4eae4	0.00747429
215	0xbd0241a1	-0.03180087
216	0x3e9fe356	0.3122813
217	0xbd98440b	-0.07434853
218	0xbe0f7ac1	-0.1401167
219	0x3d8dfe1a	0.06933232
220	0x3e0a36a2	0.13497403
221	0x3d945707	0.07243162
222	0x3e816de8	0.25279164
223	0x3e5b7d29	0.21434464
224	0x3e8fd01f	0.2808847
225	0x3e64b631	0.22335126
226	0x3e082b80	0.13297844
227	0xbdb5ab8e	-0.08870612
228	0x3b0c4d03	0.0021408207
229	0x3d8cb778	0.068709314
230	0x3e09dcbf	0.13463114
231	0x3e30f1b6	0.17279705
232	0x3c4b1da6	0.012397205
233	0xbdabaca5	-0.08382539
234	0x3d0f86cd	0.035040665
235	0x3c505a25	0.012716805
236	0xbee37463	-0.44424734
237	0x3ce1c51f	0.027559815
238	0x3e0ae36d	0.13563319
239	0xbd1ee978	-0.038796872
240	0xbdc2a26f	-0.09503638
241	0xbd2254da	-0.039631702
242	0x3d4f73b0	0.050647438
243	0xbcd064e5	-0.025438735
244	0x3d827fbe	0.06372021
245	0xbc74c3be	-0.014939247
246	0x3d593f06	0.05303862
247	0xbd1656ed	-0.036703993
248	0x3c1f914d	0.009739232
249	0x3c9f6d25	0.019461224
250	0x3d42e6f8	0.04758355
251	0x3c3be305	0.0114677
252	0x3dfd84ed	0.12378869
253	0x3e80164a	0.25017005
254	0x3dc40984	0.095721275
255	0xbd2050c4	-0.039139524

encoder.encoder.2.conv.bias f4 [32]
0	0xbd9e5411	-0.07730878
1	0xbdc9344a	-0.098244265
2	0xbdc2c217	-0.09509676
3	0xbdde7c80	-0.1086359
4	0x3d0230a7	0.03178468
5	0xbd9be7ac	-0.07612547
6	0x3e843f78	0.25829673
7	0xbdb2bb37	-0.08727115
8	0xbdd701cd	-0.1049839
9	0xbe3152b6	-0.17316708
10	0x3d30a315	0.043124277
11	0xbdea7cf6	-0.11449616
12	0xbd9f7a7c	-0.07787034
13	0xbe1db2e7	-0.15400277
14	0xbd22f3e2	-0.039783366
15	0xbe33478b	-0.1750776
16	0x3af97b65	0.0019033967
17	0xbe0af107	-0.13568507
18	0x3d6ba681	0.057531837
19	0xbd66faa8	-0.05639139
20	0x3c83a2fb	0.016068926
21	0xbcccf3ff	-0.02501869
22	0xbe77cd39	-0.2419938
23	0xbbfbf04b	-0.0076885573
24	0xbd81df48	-0.06341416
25	0xbe68258a	-0.2267057
26	0xbd5cf375	-0.053943116
27	0xbe017e22	-0.12645772
28	0xbc5bd347	-0.013417072
29	0xbba0c79d	-0.0049066083
30	0x3d239a95	0.039942343
31	0x3d7857c1	0.060630564

encoder.encoder.3.conv.weight f4 [10, 32, 3, 3]
0	0x3d1280ad	0.035767246
1	0xbe21db9a	-0.15806428
2	0xbd13a63e	-0.036047213
3	0xbcfb3dcb	-0.030669114
4	0xbdc29348	-0.09500748
5	0xbe517c21	-0.20457508
6	0xbea30ae4	-0.31844246
7	0xbdc41532	-0.09574355
8	0xbd099e74	-0.03359838
9	0xbc94307c	-0.018089525
10	0x3d856b27	0.06514578
11	0x3dc17c97	0.09447592
12	0x3cf5ad69	0.029989915
13	0xbe981bd8	-0.29708743
14	0x3d412b32	0.047160335
15	0xbda42b3c	-0.08016059
16	0x3dea9a19	0.11455173
17	0x3e072311	0.1319697
18	0xbd117ca5	-0.03551926
19	0x3d013598	0.03154525
20	0x3d02c07c	0.03192185
21	0xbbb2b81d	-0.005454077
22	0x3ccd1c6f	0.025037972
23	0x3e112662	0.14174798
24	0x3dc840fd	0.097780205
25	0xbc4d8ef9	-0.012546294
26	0xbd227b1c	-0.039668187
27	0x3ed95ab7	0.42452022
28	0xbd2c9d53	-0.042142224
29	0xbee5c441	-0.44876292
30	0x3e1dd295	0.15412362
31	0xbc5ef41b	-0.013608004
32	0x3d27b4e1	0.040943984
33	0xbe281413	-0.16413908
34	0xbdad9798	-0.0847618
35	0xbf163e30	-0.5868864
36	0x3d563cdc	0.052304134
37	0x3c91d438	0.01780139
38	0xbe10fdee	-0.14159366
39	0x3ceda12b	0.029007515
40	0x3e2f3d93	0.17113332
41	0xbd89226c	-0.066960186
42	0xbd5f4b24	-0.05451502
43	0x3e2c94b2	0.16853598
44	0x3bcd088e	0.0062571233
45	0xbcd0f392	-0.025506768
46	0x3c206798	0.009790324
47	0x3d044ef8	0.032301873
48	0x3c9bc2f4	0.01901386
49	0xbbe558bc	-0.0069991034
50	0x3d92d771	0.071699984
51	0x3d3c0613	0.04590423
52	0xbdafa34c	-0.08576068
53	0x3c4835a1	0.012219817
54	0xbe1746b6	-0.14773068
55	0xbd1c13bd	-0.03810476
56	0xbe230c4a	-0.15922657
57	0x3d30f119	0.04319868
58	0x3de3de22	0.11126353
59	0x3dca5a44	0.09880498
60	0x3d94bea7	0.072629265
61	0x3d9cafae	0.07650696
62	0xbe0a4729	-0.13503708
63	0xbc48372d	-0.012220186
64	0x3d584266	0.052797697
65	0x3d1b25e1	0.03787792
66	0x3d4a32e1	0.04936493
67	0xbe6abd8a	-0.22923866
68	0x3d43ec79	0.04783294
69	0xbd5e8c37	-0.054332938
70	0xbc5d3bcf	-0.013503029
71	0x3e39b58c	0.18135661
72	0xbd12bf2a	-0.03582684
73	0x3dcfcc8b	0.10146435
74	0xbd162f2b	-0.036666077
75	0xbdb0ee04	-0.08639148
76	0xbdefa6d4	-0.11701742
77	0x3de10294	0.1098682
78	0xbddc7610	-0.10764706
79	0x3cd31a7f	0.02576947
80	0xbc9c0ea8	-0.019049957
81	0xbe00b950	-0.12570691
82	0xbdbf91b0	-0.093539596
83	0x3d545666	0.05184021
84	0xbdeb28f4	-0.114824206
85	0x3dc6c801	0.097061165
86	0x3cb7734d	0.022393847
87	0xbd6c96fd	-0.05776118
88	0xbdcc1835	-0.099655546
89	0xbd69bf2c	-0.05706708
90	0x3d4f6029	0.050628815
91	0xbd80acef	-0.062829845
92	0x3e79b9d1	0.2438729
93	0x3ca94736	0.020663839
94	0xbe88a9af	-0.26691958
95	0x3de22e19	0.11043949
96	0xbdedc5f1	-0.1161002
97	0x3d0a848e	0.03381782
98	0x3ebf58b6	0.3737237
99	0x3dd4aaa2	0.10384108
100	0xbb86275e	-0.0040940484
101	0x3da3bb79	0.07994742
102	0xbc49c1b8	-0.012314253
103	0x3e054652	0.13015106
104	0xbd576e4d	-0.052595425
105	0xbe010e78	-0.12603176
106	0xbdd807d3	-0.10548367
107	0x3dcd1357	0.100134544
108	0x3c7ef260	0.015560716
109	0x3d6fac7e	0.05851411
110	0x3c86f384	0.01647354
111	0xbd8133d7	-0.06308716
112	0xbd77f89a	-0.06053982
113	0xbe443bcc	-0.19163436
114	0xbb49b912	-0.0030780477
115	0x3d63830c	0.055544898
116	0x3e2a3127	0.16620313
117	0xbb75b0c2	-0.003748939
118	0x3d505005	0.050857563
119	0x3d708db0	0.058728874
120	0xbe1d4b0d	-0.15360661
121	0x3e030c50	0.12797666
122	0xbc706dd1	-0.01467462
123	0xbc7dff1d	-0.015502718
124	0xbd971087	-0.07376199
125	0x3d85beb4	0.06530514
126	0xbcf3b58d	-0.029749656
127	0xbc0104cd	-0.00787468
128	0x3e517577	0.20454966
129	0x3d294761	0.041327838
130	0x3d1d0171	0.038331453
131	0xbf07b5ce	-0.53011787
132	0xbe105539	-0.1409501
133	0xbe48a2e7	-0.19593392
134	0x3cc894fa	0.0244851
135	0x3dbf8bac	0.09352812
136	0xbc06cc49	-0.008227416
137	0xbddab86a	-0.106797054
138	0x3d017532	0.031605907
139	0x3d952ab2	0.07283534
140	0x3d8b0a06	0.06789021
141	0xbdeffb72	-0.11717881
142	0x3e00cfdf	0.12579297
143	0xbec5ea85	-0.38655487
144	0x3daa9a5f	0.08330225
145	0x3d371aed	0.044703413
146	0x3e8ad12c	0.2711271
147	0xbcc4bd2e	-0.02401599
148	0x3dab87cc	0.083755106
149	0xbc46fd6f	-0.012145384
150	0xbdd430bd	-0.103608586
151	0x3d10cea2	0.03535331
152	0x3e08097b	0.13284867
153	0xbd423e43	-0.04742266
154	0x3e066bb4	0.13127023
155	0xbbfec55d	-0.0077749924
156	0xbe45e74a	-0.19326511
157	0x3d0bf0f0	0.034165323
158	0xbe2807be	-0.16409203
159	0x3e01aabe	0.12662789
160	0x3e0240bb	0.12720005
161	0xbdfd60c2	-0.12371971
162	0xbdc513dc	-0.096229285
163	0x3d471b85	0.04861023
164	0xbe83065e	-0.25590795
165	0xbbc4fb6e	-0.006011418
166	0x3e3e0be1	0.18559219
167	0x3d68bbaa	0.056819595
168	0x3dd62997	0.104571514
169	0x3ca7cbbb	0.020482888
170	0xbce09401	-0.027414324
171	0xbd687893	-0.056755614
172	0xbcba2f3b	-0.0227276
173	0xba119f86	-0.0005555082
174	0x3d9987b4	0.074965864
175	0x3e43bd65	0.19115217
176	0xbe225a33	-0.15854721
177	0xbd06d59f	-0.03291857
178	0x3e076fbd	0.13226219
179	0x3d3223fa	0.04349134
180	0xbe5fbdc2	-0.2184973
181	0xbd98cff7	-0.07461541
182	0xbd318168	-0.043336302
183	0xbd968d66	-0.07351188
184	0x3df79796	0.120894596
185	0xbcb337aa	-0.021877129
186	0x3ea30b63	0.31844625
187	0x3de25a8d	0.110524274
188	0x3f00b009	0.5026861
189	0xbcd11d5c	-0.025526695
190	0xbd42b3a8	-0.047534615
191	0x3db11db8	0.086482465
192	0x3d5214ea	0.051289476
193	0xbd99d079	-0.07510466
194	0x3dac482f	0.084122054
195	0xbe84a9e2	-0.2591086
196	0x3dc2c002	0.09509279
197	0x3dfbd043	0.12295582
198	0xbca0bf96	-0.019622605
199	0x3de7d53a	0.113199666
200	0xbe9fb6db	-0.31194195
201	0xbc694fa0	-0.0142401755
202	0xbdc688ba	-0.09694047
203	0x3e1e4784	0.15456969
204	0x3e8252b7	0.2545373
205	0xbdd70389	-0.10498721
206	0xbdbc6a83	-0.09200003
207	0x3d027cd2	0.03185732
208	0x3b957a98	0.0045617335
209	0xbe61823f	-0.22022341
210	0xbdd012a0	-0.101598024
211	0xbcdca880	-0.026935816
212	0xbe2cb85a	-0.168672
213	0x3c8f7ff2	0.017517064
214	0xbddc44fe	-0.10755347
215	0x3cdf3e20	0.027251303
216	0xbc418bea	-0.011813143
217	0x3dab68b5	0.08369581
218	0xbd3579d6	-0.044305645
219	0xbcb3ee50	-0.021964222
220	0x3af6f292	0.0018840602
221	0x3c0883b5	0.008332183
222	0x3d350c02	0.044200905
223	0xbe26b713	-0.16280775
224	0xbcb580db	-0.02215617
225	0xbe27b8ac	-0.1637904
226	0xbdee6df0	-0.11642063
227	0x3e7d4915	0.2473491
228	0x3ceda39b	0.029008677
229	0xbdfa3f20	-0.122190714
230	0xbcfb104c	-0.03064742
231	0xbe449f4e	-0.19201395
232	0xbce9ce66	-0.028540801
233	0x3e429c11	0.19004847
234	0xbd2fdb20	-0.042933583
235	0x3d2861ef	0.04110902
236	0xbe721043	-0.23639016
237	0xbd9e82dc	-0.07739803
238	0x3dc9d440	0.098549366
239	0x3df7be24	0.12096813
240	0x3eacafc7	0.33727857
241	0xbd87bbe9	-0.06627638
242	0xbe15ed06	-0.14641199
243	0x3e98f818	0.2987678
244	0xbdc09c93	-0.09404864
245	0xbce56299	-0.028001117
246	0x3d5f9782	0.05458785
247	0xbb45f934	-0.003020835
248	0x3e446033	0.19177322
249	0x3ec4e075	0.38452497
250	0xbe9fbd73	-0.31199226
251	0x3e20e808	0.15713513
252	0xbd4cd6f5	-0.050009686
253	0xbd3fed32	-0.046857066
254	0xbc5d78e8	-0.013517596
255	0xbce57612	-0.028010402

encoder.encoder.3.conv.bias f4 [10]
0	0x3ed0875f	0.4072828
1	0x3ed78ef6	0.42101258
2	0x3efea605	0.49736038
3	0x3ee1d1ac	0.4410528
4	0x3ec4159a	0.3829773
5	0x3ef34d18	0.47519755
6	0x3ed808da	0.42194253
7	0x3ea93f98	0.3305633
8	0x3ee236c1	0.441824
9	0x3ec94235	0.39308324

decoder.decoder.0.dconv.weight f4 [10, 32, 3, 3]
0	0xbe42266f	-0.18959974
1	0x3db80f36	0.08987276
2	0x3c159130	0.009128854
3	0xbe41daa5	-0.18931063
4	0xbed1a980	-0.4094963
5	0xbea9b1b6	-0.33143395
6	0x3d6ce6ff	0.057837483
7	0x3ac710c4	0.0015187492
8	0x3f1960d7	0.5991339
9	0xbe8e021e	-0.2773599
10	0xbf001f3d	-0.50047666
11	0x3db8e650	0.090283036
12	0xbd81f262	-0.06345059
13	0xbd8ec9e7	-0.069721036
14	0xbf0190a4	-0.5061133
15	0x3ee77956	0.4520976
16	0x3e97434f	0.2954354
17	0x3e9f2f3e	0.3109073
18	0xbe755307	-0.23957454
19	0xbe12cac0	-0.14335155
20	0x3e9b7457	0.30362198
21	0xbe53d496	-0.20686564
22	0xbea379b3	-0.31928787
23	0x3e15dd14	0.14635116
24	0xbe35b684	-0.17745405
25	0xbef9b99a	-0.48774415
26	0xbf21957f	-0.6311874
27	0x3ed7cd9b	0.42149052
28	0x3dc422ef	0.095769756
29	0xbe93c033	-0.28857574
30	0x3d3faaa7	0.046793606
31	0x3e3162b4	0.17322809
32	0xbe6c08bc	-0.23050207
33	0x3ec047bf	0.37554738
34	0x3e397843	0.18112282
35	0xbe6ce495	-0.23134072
36	0x3da6fff8	0.08154291
37	0xbe082fa1	-0.13299419
38	0x3ed43bde	0.41451925
39	0x3dfbf513	0.123026036
40	0xbdf48d57	-0.11941021
41	0xbef3c221	-0.47609046
42	0x3cd704be	0.026247378
43	0x3ea293a1	0.31753257
44	0x3ddae4c2	0.10688163
45	0xbd6cab87	-0.05778077
46	0xbe2fd99e	-0.17172858
47	0x3dfc5d34	0.123224646
48	0xbe23e8aa	-0.16006723
49	0xbde725ae	-0.11286484
50	0x3d4ff4d1	0.050770584
51	0xbed0aad8	-0.40755343
52	0x3e8a68a8	0.2703297
53	0x3f59816e	0.8496312
54	0x3cbf3dcc	0.023344897
55	0x3e3f6591	0.18691088
56	0x3d5105f5	0.05103107
57	0x3e4b8586	0.19875154
58	0x3dee8598	0.11646575
59	0x3c1a3558	0.009412132
60	0x3ed1b9b8	0.40962005
61	0xbf622a82	-0.8834611
62	0x3ed30e2f	0.4122176
63	0x3efab0b3	0.48962936
64	0x3e04bd73	0.12962894
65	0xbe8111f8	-0.25209022
66	0xbdd1ed89	-0.10250384
67	0xbe9f6200	-0.31129456
68	0xbeb46e25	-0.35240284
69	0xbdc85a07	-0.09782796
70	0xbe9dc71c	-0.3081597
71	0xbddb06f0	-0.106946826
72	0xbe2c0dc5	-0.16802128
73	0x3c85fd49	0.016356127
74	0xbce5d5ca	-0.028056044
75	0x3df5cf70	0.12002456
76	0xbdabe0ec	-0.0839251
77	0x3ea72bec	0.32650697
78	0x3e63448d	0.22194119
79	0x3dfac862	0.12245251
80	0xbe542cdc	-0.20720237
81	0xbde7f6a7	-0.11326342
82	0xbcbe1792	-0.023204599
83	0xbf0bdccb	-0.5463378
84	0x3e583c79	0.21116818
85	0x3f2b5e04	0.6694033
86	0x3e76a604	0.24086767
87	0xbebf9ec9	-0.3742583
88	0xbe27443c	-0.16334623
89	0xbf5ba653	-0.85800666
90	0xbd4b625b	-0.049654346
91	0x3de5d377	0.11221974
92	0xbc1c191e	-0.009527473
93	0xbd6ba239	-0.057527754
94	0x3eb58aea	0.35457546
95	0xbda24688	-0.07923609
96	0x3d6c98ae	0.057762794
97	0x3ee13475	0.43985334
98	0x3dc05b06	0.09392361
99	0x3f0b8c83	0.5451128
100	0xbebd29df	-0.36946008
101	0xbedd59ba	-0.43232518
102	0x3ef06c04	0.4695741
103	0x3ecc04b2	0.39847332
104	0x3f122a57	0.57095855
105	0x3d41e348	0.047335893
106	0xbea46d73	-0.32114753
107	0x3eb256f8	0.34831977
108	0x3e1465dc	0.14491981
109	0x3db00625	0.08594922
110	0x3e611c3d	0.21983428
111	0xbeb7390d	-0.35785714
112	0xbe7b5b74	-0.24546605
113	0x3f413e12	0.75485337
114	0xbdf523b0	-0.119696975
115	0x3e56525b	0.20929854
116	0x3e2990ce	0.16559145
117	0xbe197b37	-0.14988409
118	0x3d845ed4	0.064633995
119	0x3e3fc629	0.18727936
120	0x3e0d937c	0.13825792
121	0x3e88e22e	0.2673506
122	0x3e80c754	0.25152075
123	0x3dbb1d4c	0.09136447
124	0xbe7850d2	-0.2424958
125	0x3f1c5ac7	0.61076015
126	0xbdd78820	-0.10524011
127	0xbc003cbe	-0.007826982
128	0x3e9baa3f	0.30403325
129	0x3cc7ceba	0.024390567
130	0xbd433e90	-0.047667086
131	0x3ed5995c	0.41718566
132	0x3e1e6ba0	0.15470743
133	0xbcf8270a	-0.030292053
134	0xbe84fea0	-0.25975513
135	0xbe2e3175	-0.17011054
136	0xbdfcfc20	-0.123527765
137	0x3e81090a	0.2520221
138	0x3c36bb14	0.011153001
139	0x3da0f477	0.07859128
140	0xbc991752	-0.018687878
141	0xbdfeddb1	-0.12444628
142	0xbdf320bf	-0.1187148
143	0xbe4e78fd	-0.20163341
144	0x3e270264	0.16309506
145	0xbd60ac20	-0.05485165
146	0xbe862c8a	-0.26205856
147	0x3ea85501	0.32877353
148	0x3d65f949	0.05614594
149	0x3c9b95b4	0.018992282
150	0x3e2fff0d	0.17187138
151	0x3dd17a0c	0.10228357
152	0x3f7efc31	0.99603564
153	0xbeb97a6e	-0.3622622
154	0xbc99ae64	-0.018759914
155	0x3dcef868	0.101059735
156	0x3e8a06d1	0.26958326
157	0x3e3cc240	0.18433475
158	0xbeaafe8f	-0.33397338
159	0x3e885bfa	0.26632673
160	0xbe0005d8	-0.12502229
161	0xbdb222ec	-0.08698067
162	0x3e001ec5	0.12511738
163	0x3e8d098d	0.2754635
164	0x3e19f05d	0.15033098
165	0x3e6165a4	0.22011429
166	0x3ec8aae5	0.39192882
167	0x3e32b211	0.1745074
168	0xbdcec718	-0.10096568
169	0x3e5a5c76	0.21324334
170	0x3ea39e13	0.3195654
171	0xbe16a9c5	-0.147132
172	0xbe0ea934	-0.13931733
173	0xbe06a2ac	-0.13147992
174	0xbf28fde3	-0.660124
175	0x3f00cf86	0.50316656
176	0xbed43b82	-0.4145165
177	0xbee7a851	-0.45245603
178	0xbe387a93	-0.18015508
179	0xbd0b88f3	-0.03406615
180	0xbea0637d	-0.31325904
181	0xbdce7927	-0.10081702
182	0x3d27d1ba	0.040971495
183	0xbdb784d7	-0.08960884
184	0x3c2be81c	0.010492351
185	0xbeb7c91a	-0.35895616
186	0xbf00f546	-0.5037426
187	0xbcfb9236	-0.030709367
188	0x3f0fa397	0.56108993
189	0x3e9eaac7	0.30989668
190	0xbe5f9aa4	-0.21836334
191	0xbd0e9e48	-0.034818918
192	0xbc9215a2	-0.017832581
193	0x3cc605cc	0.024172686
194	0xbe7824ca	-0.24232784
195	0x3e511db1	0.20421483
196	0x3e820cbb	0.25400338
197	0x3da7c5ee	0.08192049
198	0x3d579394	0.052630976
199	0x3d4bb301	0.04973126
200	0x3e9dbcf3	0.3080822
201	0x3de80d13	0.11330619
202	0xbd95df18	-0.073179424
203	0xbe5e3d5c	-0.21703094
204	0xbdc48b23	-0.09596851
205	0x3ce87f71	0.028381081
206	0x3f1bd8fd	0.6087797
207	0xbeaa1c93	-0.33224925
208	0xbeaba8e5	-0.33527294
209	0x3e45d47f	0.19319342
210	0x3caec8e2	0.021336023
211	0xbd3f1521	-0.04665101
212	0x3e39abac	0.18131894
213	0x3f08dc16	0.53460824
214	0xbe75c7b7	-0.24001966
215	0x3d247df5	0.040159184
216	0xbe85e106	-0.26148242
217	0x3ddb8be1	0.10720039
218	0xbe6bfe73	-0.23046283
219	0xbe66c302	-0.22535327
220	0xbd459c59	-0.048244808
221	0xbee07b57	-0.438441
222	0x3eca22d9	0.39479712
223	0xbefd17e5	-0.49432293
224	0x3e033a0a	0.12815109
225	0x3c89cf17	0.016822381
226	0xbce18071	-0.027527066
227	0x3eca53d6	0.39517087
228	0xbdcc89d9	-0.0998723
229	0xbde681be	-0.11255215
230	0x3e8eda2a	0.2790082
231	0x3e50a046	0.2037364
232	0xbf0262a1	-0.50931746
233	0xbe889cbe	-0.26682085
234	0x3e289f93	0.16467123
235	0x3e18f085	0.14935501
236	0x3dab5c01	0.08367158
237	0xbcaf213c	-0.021378152
238	0x3b083460	0.002078317
239	0xbd329daa	-0.04360739
240	0xbd45a9c4	-0.048257604
241	0x3e705ae9	0.2347218
242	0xbf0ac9e2	-0.542143
243	0x3e1645c6	0.14675054
244	0x3baf10a4	0.00534256
245	0xbec1fe0f	-0.37889144
246	0x3ca167da	0.01970284
247	0xbb580009	-0.0032959005
248	0xbd397172	-0.045274206
249	0x3e1b6ba9	0.15177788
250	0xbe5cb6a9	-0.21554054
251	0x3b9668ab	0.004590114
252	0x3e27be33	0.16381149
253	0x3e8c6d49	0.27427128
254	0x3d92e07f	0.071717255
255	0xbc98f53d	-0.018671626

decoder.decoder.0.dconv.bias f4 [32]
0	0x3f13762e	0.576022
1	0x3c9b8359	0.01898353
2	0x3ef64144	0.4809667
3	0x3e826e00	0.25474548
4	0x3e5eaab2	0.21744803
5	0x3f00d926	0.5033134
6	0xbe221596	-0.15828547
7	0x3f297195	0.6618894
8	0x3dabdc11	0.08391584
9	0x3e219fed	0.15783663
10	0xbed434f6	-0.41446656
11	0xbc103f0b	-0.008804093
12	0x3e95e2b7	0.29274532
13	0xbe639a73	-0.22226886
14	0xbe615a24	-0.22007042
15	0xbe9b229f	-0.3029985
16	0xbef75bf5	-0.48312345
17	0x3e8a852d	0.2705473
18	0xbe6c1931	-0.23056485
19	0xbc16f2ad	-0.009213132
20	0x3e81146f	0.25210902
21	0x3daf45ff	0.085582726
22	0xbedac178	-0.4272573
23	0xbda5fc55	-0.08104769
24	0x3cab1bfe	0.020887371
25	0x3f0ea3c9	0.55718666
26	0xbe269d19	-0.16270865
27	0xbda85d85	-0.082209624
28	0xbee421ec	-0.4455713
29	0xbf2a7456	-0.66583765
30	0xbe9fb5ee	-0.3119349
31	0xbe0cdb54	-0.13755542

decoder.decoder.1.dconv.weight f4 [32, 32, 3, 3]
0	0xbe3985f4	-0.18117505
1	0xbc18568a	-0.009297976
2	0xbeb90cb8	-0.36142516
3	0xbea2e423	-0.3181468
4	0xbf06a76e	-0.5259923
5	0xbdcb3e81	-0.09924031
6	0x3ec24bc2	0.37948424
7	0x3ee8417d	0.45362464
8	0x3ef9fc07	0.48825094
9	0xbe739fd4	-0.23791438
10	0xbba6894d	-0.0050822855
11	0xbed39c00	-0.41329956
12	0x3d2d2d96	0.042279802
13	0xbe969d80	-0.29417038
14	0xbe124fed	-0.14288302
15	0x3f15b029	0.58471924
16	0xbedd0792	-0.43169838
17	0xbdaebf25	-0.08532552
18	0x3e88432d	0.2661375
19	0xbe709b48	-0.23496735
20	0x3ccdbacd	0.025113488
21	0xbe0fb391	-0.14033343
22	0x3eb63237	0.35585186
23	0xbe7771e7	-0.24164544
24	0x3f0e9123	0.5569021
25	0xbdf96f39	-0.12179417
26	0x3c669245	0.014072959
27	0xb9c5d852	-0.0003773594
28	0x3e4fdf56	0.2030004
29	0x3a0c96d6	0.00053630525
30	0xbcc01233	-0.023446178
31	0x3edc934d	0.43081132
32	0x3d930a4b	0.071796976
33	0xbc726b1c	-0.014796045
34	0xbd2cbf75	-0.042174775
35	0xbc1e9b6f	-0.009680613
36	0x3e31ac63	0.17350917
37	0x3dfe9ad6	0.12431876
38	0x3de4d0e0	0.11172652
39	0xbcaf6d0e	-0.021414306
40	0xbe4f7f55	-0.20263417
41	0xbf151074	-0.5822823
42	0xbf1e4ef4	-0.6183922
43	0xbdd394f1	-0.10331143
44	0xbedb9e40	-0.42894173
45	0xbe4576de	-0.19283625
46	0xbebac6c7	-0.3647978
47	0x3e2cc386	0.16871461
48	0xbec83172	-0.39100224
49	0xbe446ef5	-0.19182952
50	0xbe38e839	-0.18057336
51	0xbcf3170d	-0.029674077
52	0xbe9c156e	-0.304851
53	0x3d917384	0.07102111
54	0x3e8b0b30	0.27156973
55	0xbdbe0063	-0.092774175
56	0x3d6df8d7	0.05809864
57	0xbe782458	-0.24232614
58	0x3da9e4b6	0.08295576
59	0xbf54f456	-0.8318533
60	0xbeee6b07	-0.4656603
61	0x3ec5dae1	0.38643554
62	0xbecc6ec6	-0.39928263
63	0x3e20f3f3	0.15718059
64	0x3e721964	0.23642498
65	0xbe81f7ca	-0.2538436
66	0x3e4abccd	0.19798584
67	0xbeb466eb	-0.3523477
68	0xbe1b3180	-0.15155602
69	0x3bd6a528	0.00655045
70	0xbec2bda5	-0.38035312
71	0x3d2ff6ad	0.042959858
72	0xbee63789	-0.44964245
73	0xbf3f47be	-0.74718845
74	0xbf251cfa	-0.6449734
75	0xbe8aa549	-0.27079228
76	0x3e28c907	0.16482936
77	0xbe6bfd97	-0.23045956
78	0xbf1b1dc0	-0.6059227
79	0xbf4e62bc	-0.80619407
80	0xbebb6998	-0.36604
81	0x3f1e1a0b	0.6175849
82	0x3da8f2ff	0.08249473
83	0x3cb5152f	0.022104828
84	0x3e870819	0.26373366
85	0x3e9f5b39	0.31124285
86	0xbe7ec916	-0.24881396
87	0xbf5da35c	-0.8657739
88	0xbec8b60b	-0.39201388
89	0xbdf20907	-0.11818128
90	0x3dfba929	0.12288124
91	0x3e184405	0.14869697
92	0x3ef88a99	0.48543242
93	0xbe13b55b	-0.1442465
94	0xbf373ab3	-0.7157394
95	0xbf09fcdb	-0.5390145
96	0x3edb6cca	0.42856437
97	0xbed2df43	-0.4118596
98	0xbf517ce6	-0.81831205
99	0xbd443f0a	-0.04791168
100	0x3b4ea6ce	0.0031532529
101	0x3ef2fef4	0.4746014
102	0xbdc169ed	-0.09444032
103	0x3d68f470	0.05687374
104	0xbef07784	-0.46966183
105	0x3c0f7a04	0.008757118
106	0xbe2c0127	-0.16797315
107	0xbebcdd5d	-0.36887637
108	0x3d6762ee	0.05649083
109	0xbebfcbb6	-0.37460107
110	0x3e23cc3b	0.15995876
111	0xbe264832	-0.16238478
112	0x3f44ea87	0.7692036
113	0xbea8eb6f	-0.32992122
114	0xbdbab0f7	-0.091157846
115	0x3e9af3f3	0.30264243
116	0x3f8004cd	1.0001465
117	0x3e7a17c2	0.24423125
118	0x3eb83d35	0.35984197
119	0x3ee6a981	0.45051196
120	0x3eb9fe41	0.36326793
121	0xbedd00f3	-0.43164787
122	0xbea41997	-0.32050774
123	0x3e3e7fb6	0.18603405
124	0xbe0ba4fa	-0.13637152
125	0xbf2112a5	-0.62919074
126	0xbd504df0	-0.050855577
127	0xbf54a1ef	-0.8305959
128	0xbeec09ba	-0.4610117
129	0x3e8fe8f3	0.28107414
130	0xbee281b2	-0.44239575
131	0xbe2f6ec3	-0.17132096
132	0xbeb33c05	-0.3500673
133	0xbeb279d6	-0.34858578
134	0xbdaeb0aa	-0.0852979
135	0x3e0af2ee	0.13569233
136	0x3e30cf00	0.17266464
137	0xbe39f819	-0.18161048
138	0x3f0f835a	0.560598
139	0xbec663d9	-0.38748053
140	0xbf024c81	-0.50897986
141	0xbd4ecffc	-0.050491318
142	0x3ec72470	0.38894987
143	0x3e63d851	0.22250487
144	0xbdd0d51f	-0.101968996
145	0x3e0ddfda	0.13854924
146	0xbd0c45ba	-0.034246184
147	0xbca6fc30	-0.020383924
148	0x3d1addac	0.03780906
149	0x3f147a52	0.57999146
150	0x3d54118a	0.05177454
151	0x3f281df7	0.6567072
152	0x3dea62ba	0.11444612
153	0x3ebcf9a8	0.36909223
154	0x3ceb9e2d	0.028761948
155	0xbe49377f	-0.19650076
156	0x3e0f367a	0.13985625
157	0xbea1d0b8	-0.31604552
158	0xbc2c990a	-0.010534534
159	0xbeb81d6b	-0.35959944
160	0x3d3318ee	0.043724947
161	0xbe71b7d3	-0.2360528
162	0xbef05682	-0.46941
163	0xbea361cc	-0.3191055
164	0x3f1fab8c	0.62371135
165	0x3e04a62a	0.12954012
166	0xbf29b9d6	-0.6629919
167	0x3ee1d750	0.44109583
168	0xbd5675eb	-0.05235855
169	0xbe5a98c6	-0.21347341
170	0xbef9c97d	-0.48786536
171	0xbe390ecf	-0.18072055
172	0xbf6e92f4	-0.9319298
173	0xbe261766	-0.16219863
174	0xbf3054da	-0.68879473
175	0xbe97c5b7	-0.29643032
176	0xbcdfbb1f	-0.027310906
177	0x3d41b0a9	0.047287617
178	0x3d7e92e9	0.062151823
179	0xbd76cbb2	-0.060252853
180	0xbf1f0093	-0.6211025
181	0xbf491ed8	-0.7856269
182	0x3db95889	0.0905009
183	0x3e7d121d	0.24713941
184	0xbdfec8df	-0.12440657
185	0x3d325fa4	0.04354824
186	0x3eceb6d1	0.40373853
187	0x3cb9fa21	0.022702279
188	0x3e4b7957	0.19870506
189	0x3ec41b68	0.3830216
190	0x3ddce004	0.10784915
191	0x3e24aafe	0.16080853
192	0xbcf75c90	-0.030195504
193	0xbe9c3afa	-0.30513746
194	0xbeb5fc77	-0.35544178
195	0x3f05d5f4	0.5227959
196	0xbf000001	-0.50000006
197	0xbebbc0a1	-0.36670402
198	0xbe1cc2c5	-0.15308674
199	0x3d642f32	0.05570907
200	0x3a944810	0.001131298
201	0xbf6149ef	-0.8800344
202	0x3de923a3	0.1138375
203	0xbc9e924c	-0.01935687
204	0x3ca69acf	0.02033749
205	0xbf1cbcae	-0.612254
206	0xbf0c9731	-0.549182
207	0xbdf42831	-0.119217284
208	0xbf123b03	-0.57121295
209	0x3f24e07e	0.6440505
210	0x3e190030	0.14941478
211	0xbe129ece	-0.14318392
212	0xbddaf4d5	-0.10691229
213	0x3cf65e28	0.030074194
214	0x3e87b0e1	0.26502135
215	0x3eb5f7bd	0.35540572
216	0xbec9da86	-0.39424533
217	0x3ead4d25	0.3384792
218	0x3e86a5f1	0.26298478
219	0x3e5d8dde	0.2163615
220	0x3ea3f640	0.3202381
221	0x3e49b24a	0.19696918
222	0x3c7ac9e1	0.015306921
223	0xbe8a60ab	-0.27026877
224	0x3e58d0bd	0.21173377
225	0xbe024fd8	-0.1272577
226	0xbee9ab7d	-0.45638648
227	0x3d6c2b0e	0.057658248
228	0xbde75b89	-0.11296756
229	0xbeca9d2b	-0.39573035
230	0x3d92c7e8	0.07167035
231	0x3d48700e	0.04893499
232	0xbe4b4477	-0.19850336
233	0x3d35c94e	0.044381432
234	0x3ea41e27	0.32054254
235	0x3e0431ff	0.12909697
236	0xbef64367	-0.480983
237	0x3c4a0272	0.012329685
238	0x3ed19912	0.40937096
239	0xbeaf8c46	-0.34286708
240	0x3d760cbe	0.060070746
241	0xbe5c08e6	-0.2148777
242	0xbe11b239	-0.14228143
243	0xbf123f4d	-0.5712784
244	0x3efd7037	0.49499676
245	0x3bd53f17	0.006507765
246	0x3d6d31ed	0.05790894
247	0x3c1fa4fe	0.009743927
248	0xbef654ec	-0.48111665
249	0x3c181276	0.009281745
250	0x3dbc1fc8	0.09185749
251	0x3ea51644	0.3224355
252	0xbf371f57	-0.71532196
253	0xbc93f3d0	-0.018060595
254	0x3eb1e599	0.34745482
255	0xbe5810d5	-0.21100171

decoder.decoder.1.dconv.bias f4 [32]
0	0x3a3be8f3	0.0007168196
1	0x3e15ba16	0.14621767
2	0xbdd355d0	-0.10319102
3	0xbe93cb39	-0.28865984
4	0x3e327dcf	0.17430805
5	0x3c1c37ed	0.009534818
6	0x3e55a780	0.20864677
7	0xbd4f3a42	-0.05059267
8	0x3da1f28a	0.07907589
9	0x3da986f6	0.08277695
10	0x3e897fbc	0.26855266
11	0x3dd4a9ee	0.10383974
12	0x3e15f556	0.1464437
13	0x3e81f859	0.25384787
14	0x3e8f4cca	0.27988273
15	0x3d08566f	0.033285554
16	0x3ea952a7	0.3307087
17	0x3eb48a0e	0.35261577
18	0x3e8b2193	0.27174053
19	0x3ebecce0	0.37265682
20	0x3e4eef61	0.20208503
21	0x3e135c74	0.14390737
22	0x3e4a481f	0.19754075
23	0xbd729ea2	-0.059233315
24	0xbdf8ab80	-0.12142086
25	0xbc509ffb	-0.012733455
26	0x3e645308	0.22297299
27	0xbd6b881c	-0.05750285
28	0x3e264f75	0.16241248
29	0x3e451083	0.1924458
30	0x3e5b217b	0.2139949
31	0x3daa05f6	0.08301918
