notebooks/saved_model/mnist_model/mnist_cae_1/mnist_cae00100.pth (torch, 539651 bytes, 51 tensors)

encoder.encoder.0.conv.weight f4 [32, 1, 3, 3]
0	0x3e167ee5	0.14696844
1	0x3e2c87d9	0.16848697
2	0xbed4fb0a	-0.41597778
3	0x3d18f723	0.037345063
4	0x3eaaf9fb	0.33393845
5	0xbe7c4a6c	-0.24637765
6	0xbe709efb	-0.23498146
7	0x3e14992a	0.14511552
8	0x3e77d0d7	0.2420076
9	0xbed2a12b	-0.41138586
10	0x3db926ae	0.09040581
11	0x3e23cd53	0.15996294
12	0xbdf05bae	-0.117362365
13	0x3eea94e8	0.4581673
14	0xbea63eb8	-0.32469726
15	0x3dfe82d2	0.12427296
16	0x3d46333c	0.048388705
17	0xbe898e87	-0.26866552
18	0x3e56b697	0.2096809
19	0x3e8bdd11	0.27317098
20	0xbeb13a71	-0.346149
21	0x3e027602	0.12740329
22	0x3d95750d	0.07297716
23	0xbe9e30cd	-0.30896607
24	0x3de05b0a	0.10954864
25	0xbe5e5cb5	-0.21715052
26	0xbe0b8665	-0.13625486
27	0xbf27e778	-0.6558757
28	0x3e564b88	0.2092725
29	0x3edf86d0	0.4365754
30	0xbf02931b	-0.51005715
31	0xbe9854ae	-0.29752105
32	0xbcda7aee	-0.026669946
33	0x3d1b8071	0.03796429
34	0xbe83cf8d	-0.25744286
35	0xbed788f6	-0.4209668
36	0xbe049a93	-0.1294959
37	0x3c9adb54	0.018903412
38	0x3c28aeda	0.010295594
39	0xbeb9e480	-0.36307144
40	0xbf0e917d	-0.5569075
41	0xbf23d8ed	-0.6400288
42	0x3e7acb6e	0.24491665
43	0x3ee2e32a	0.44313937
44	0xbedbd0f3	-0.42932853
45	0xbe2339b8	-0.15939987
46	0x3e8a0fb6	0.26965111
47	0x3c92d72f	0.017924873
48	0x3e501448	0.20320237
49	0x3e5257d1	0.20541312
50	0x3e2e151e	0.17000243
51	0xbe632a07	-0.22184001
52	0x3e8511ec	0.25990236
53	0xbd8344fb	-0.06409641
54	0x3df2a563	0.11847951
55	0xbe790746	-0.24319181
56	0xbe91ed36	-0.2850129
57	0xbed47c90	-0.41501284
58	0xbd85cabb	-0.065328084
59	0x3d8e53f9	0.0694961
60	0xbe964f46	-0.29357356
61	0x3e29a940	0.1656847
62	0x3e53010e	0.20605871
63	0xbd63ec86	-0.05564549
64	0xbe5e65df	-0.21718548
65	0xbef77d54	-0.48337805
66	0x3dcccf21	0.10000444
67	0x3ec90b0d	0.39266244
68	0x3eaacd71	0.33359864
69	0xbe3da3c6	-0.18519506
70	0xbe5b5bfd	-0.2142181
71	0xbd50d6b2	-0.050986
72	0xbeef0478	-0.46683097
73	0xbeae5f0c	-0.3405689
74	0x3d4f322d	0.05058496
75	0xbe9720aa	-0.29517108
76	0x3eb9af03	0.36266336
77	0x3ecf339b	0.4046906
78	0xbef12a0a	-0.47102386
79	0x3d66e4b7	0.056370463
80	0xbed87352	-0.42275482
81	0x3e1a04fd	0.15040965
82	0x3e6f1702	0.2334862
83	0xbecab960	-0.39594555
84	0x3eaebfc0	0.3413067
85	0xbf28f2e2	-0.6599561
86	0xbe2b9003	-0.16754155
87	0xbedc451a	-0.4302147
88	0xbe875d75	-0.2643849
89	0x3eda2891	0.42609075
90	0x3e54d590	0.20784593
91	0xbea3b650	-0.3197503
92	0x3e137cc2	0.1440306
93	0xbe3d17c2	-0.18466094
94	0xbe811fb3	-0.25219497
95	0x3ebe4e3b	0.3716906
96	0x3e64c2a0	0.22339869
97	0x3e8a72ad	0.27040616
98	0xbec4c252	-0.38429505
99	0xbe5e037d	-0.21681018
100	0xbd0ce134	-0.034394458
101	0x3e4c23a3	0.1993547
102	0x3e925897	0.28583214
103	0x3e63e544	0.22255427
104	0x3eba6918	0.36408305
105	0x3d15c516	0.03656491
106	0xbea13070	-0.31482267
107	0xbf064b79	-0.5245891
108	0x3e193a04	0.14963537
109	0xbdb76df3	-0.08956518
110	0xbe29a040	-0.16565037
111	0x3e16e940	0.14737415
112	0x3ecb3f97	0.39696953
113	0x3ea90ce8	0.3301766
114	0xbeb1a0ee	-0.34693092
115	0xbe35ac87	-0.17741595
116	0xbe0ae39b	-0.13563387
117	0xbc95e5c8	-0.018298045
118	0xbf19842c	-0.59967303
119	0x3da7ad60	0.081873655
120	0x3e181fc4	0.14855868
121	0x3df43556	0.119242355
122	0x3d42d199	0.04756317
123	0xbe890da2	-0.26768214
124	0x3e61723c	0.22016233
125	0xbe93f761	-0.28899673
126	0x3ecc83c6	0.39944285
127	0xbef08ca7	-0.4698231
128	0xbdc41f7f	-0.0957632
129	0xbe31c093	-0.17358617
130	0xbe600735	-0.2187775
131	0x3ea50ef8	0.32237983
132	0xbf15ace2	-0.58466923
133	0xbe8f6ba6	-0.28011817
134	0xbd16ffd4	-0.03686507
135	0x3c359dee	0.011085017
136	0x3e2cfd10	0.1689341
137	0xbde74f8c	-0.11294469
138	0x3d7e426b	0.06207506
139	0x3df4f1b0	0.11960161
140	0xbd3674ba	-0.044544913
141	0x3de80773	0.11329546
142	0x3e31531c	0.1731686
143	0xbea18bd2	-0.31551987
144	0x3e265adb	0.16245596
145	0x3ea4857f	0.321331
146	0xbf07df2a	-0.53074896
147	0xbe5d21c5	-0.21594913
148	0x3e6e9bfb	0.2330169
149	0x3e9a144a	0.30093604
150	0xbe70a2bc	-0.23499578
151	0xbe8720c9	-0.263922
152	0x3e2b2256	0.16712317
153	0x3d8ef501	0.069803245
154	0xbdbd3722	-0.092390314
155	0x3d9836ec	0.074323505
156	0x3d8c6d2e	0.06856762
157	0xbdbe0c9c	-0.09279749
158	0x3df0ad31	0.11751784
159	0x3e3e0ece	0.18560335
160	0xbe3798d5	-0.17929395
161	0x3e66dbfe	0.22544858
162	0xbec59e2d	-0.3859724
163	0xbf136dd3	-0.57589453
164	0xbeba0bc6	-0.36337107
165	0x3e6db12e	0.2321212
166	0x3ee46c71	0.44613984
167	0xbf252ade	-0.64518535
168	0x3e22d400	0.15901184
169	0x3e8374d4	0.2567507
170	0xbe305662	-0.17220452
171	0xbdf7d174	-0.12100497
172	0xbe1c1e13	-0.15245847
173	0x3e0b1b6d	0.13584681
174	0xbd10e21f	-0.035371896
175	0xbdf2ad52	-0.118494645
176	0x3e5b49e0	0.214149
177	0xbd212c3e	-0.039348833
178	0xbe96a1cf	-0.29420325
179	0x3e8dcbc9	0.27694538
180	0xbc81d6f0	-0.01584956
181	0x3e03de7a	0.12877837
182	0xbe0c2468	-0.13685763
183	0xbee214cf	-0.441565
184	0x3ec3491e	0.3814172
185	0xbe8a7ad8	-0.27046847
186	0xbea082a7	-0.3134968
187	0x3e919122	0.2843104
188	0xbd0fcab3	-0.03510542
189	0x3e4c1dd4	0.19933254
190	0xbede19b7	-0.43378994
191	0xbe921776	-0.28533524
192	0x3e36aae6	0.1783863
193	0x3e38b5dc	0.18038124
194	0xbef7ecfb	-0.4842299
195	0xbd9ce03a	-0.07659955
196	0xbf1175ab	-0.5682017
197	0xc02f1b0c	-2.7360258
198	0x3ce310f8	0.027718052
199	0x3e2a9627	0.16658841
200	0x3ed1e852	0.4099756
201	0xbecede14	-0.40403807
202	0xbe8d3682	-0.2758065
203	0xbed6b743	-0.41936693
204	0x3e5fdd90	0.21861863
205	0x3ddb5541	0.1070962
206	0x3d7ff0fc	0.06248568
207	0xbe8e38b6	-0.27777642
208	0xbe0709bf	-0.13187312
209	0xbe97f9a3	-0.29682645
210	0xbd6df7c5	-0.05809762
211	0xbb98527d	-0.0046485052
212	0xbda254cb	-0.07926329
213	0x3e63c30b	0.22242372
214	0x3e0e9a2e	0.13926002
215	0x3e553675	0.20821555
216	0xbe79942f	-0.24372934
217	0xbedfa044	-0.4367696
218	0x3db69db4	0.08916798
219	0x3e82dd11	0.25559285
220	0xbee5d311	-0.44887593
221	0x3e1701a0	0.14746714
222	0x3d958d5f	0.07302355
223	0xbe8a89eb	-0.27058348
224	0xbe6d02c0	-0.2314558
225	0x3de92d9e	0.11385654
226	0xbe7982c1	-0.24366285
227	0x3dfdb38c	0.123877615
228	0x3e9455b8	0.28971648
229	0xbf06e07f	-0.52686304
230	0xbd1e976e	-0.038718633
231	0x3ebec17a	0.37256986
232	0xbe0ee3b8	-0.13954055
233	0x3df02dea	0.117275074
234	0x3e61f312	0.2206538
235	0x3e58f828	0.21188414
236	0x3e640c56	0.22270331
237	0xbe291262	-0.16510919
238	0x3ce86292	0.028367314
239	0xbec17a37	-0.37788555
240	0xbe655976	-0.22397408
241	0xbe4a9e65	-0.19786985
242	0xbdcde855	-0.100540794
243	0xbcb5b99b	-0.02218323
244	0x3ebdffa9	0.37109116
245	0x3db57a79	0.088612504
246	0xbf0c4dcc	-0.5480621
247	0xbddee048	-0.10882622
248	0x3eb09ae8	0.34493184
249	0x3dc674a0	0.09690213
250	0xbeb8e74a	-0.3611396
251	0xbe2184c3	-0.15773301
252	0x3e9580eb	0.2919992
253	0x3e1cb2ab	0.15302531
254	0xbe12786f	-0.14303754
255	0x3d174e86	0.03694012

encoder.encoder.0.conv.bias f4 [32]
0	0xbe477504	-0.19478232
1	0xbd67b713	-0.056571078
2	0xbb8c14c5	-0.004274937
3	0x3cc33813	0.02383045
4	0x3dcfc488	0.10144907
5	0xbef2f84e	-0.47455066
6	0xbd37696f	-0.044778284
7	0xbc8a26ca	-0.0168642
8	0xbc0b5e0e	-0.008506311
9	0xbb426375	-0.0029661332
10	0xbe0e9ce8	-0.13927042
11	0xbddde361	-0.10834385
12	0xbe0a20d5	-0.13489087
13	0xbde73f68	-0.11291391
14	0xbc97ea35	-0.018544296
15	0xbe4924e8	-0.19642985
16	0xbe68b778	-0.22726238
17	0xbe25d574	-0.16194707
18	0x3c9750ad	0.018471086
19	0xbd21938e	-0.03944736
20	0xbd0f168d	-0.034933615
21	0x3d323131	0.043503944
22	0xbe4a14a6	-0.19734439
23	0xbd3c198f	-0.045922812
24	0x3dd207e7	0.102554135
25	0xbd93a938	-0.0721001
26	0xbb9c648e	-0.0047727292
27	0xbc29e463	-0.010369393
28	0xbe74ddf3	-0.23912792
29	0x3e39f74b	0.18160741
30	0xbd8b746c	-0.06809315
31	0xbe4331ef	-0.19062017

encoder.encoder.1.conv.weight f4 [32, 32, 3, 3]
0	0xbf4be58d	-0.7964714
1	0xbf6eb3ae	-0.9324292
2	0xbf09ca70	-0.5382452
3	0xbe90738a	-0.2821315
4	0xbe3c4808	-0.18386853
5	0x3e02484a	0.12722889
6	0xbd0b3cd1	-0.033993546
7	0x3e96f6d9	0.29485205
8	0x3ed2752c	0.4110502
9	0xbdd333e2	-0.1031263
10	0xbe774092	-0.24145725
11	0x3e078f14	0.13238174
12	0xbe045937	-0.12924658
13	0xbe9f5ba5	-0.31124607
14	0xbe8b2682	-0.27177817
15	0x3dc6bfcc	0.09704551
16	0xbe804049	-0.25049046
17	0x3d0fe054	0.035126045
18	0xbf253f42	-0.6454965
19	0xbdb2a3af	-0.087226264
20	0x3dbec3a6	0.09314661
21	0xbf03dc5c	-0.51508117
22	0xbf7a58fa	-0.9779202
23	0xbf24b2c7	-0.6433529
24	0x3d2e1927	0.042504456
25	0xbe83d784	-0.25750363
26	0xbefd92cb	-0.49526057
27	0x3ec98736	0.3936097
28	0x3e898989	0.26862743
29	0x3e8dce5b	0.276965
30	0xbebd8e5c	-0.37022674
31	0x3dc8886b	0.09791645
32	0x3ee4ad07	0.4466326
33	0x3d30712d	0.043076683
34	0x3dc00207	0.09375387
35	0x3df6f79c	0.120589465
36	0x3c2c6a6d	0.010523421
37	0x3e3fb2d1	0.18720557
38	0x3ee4cb4b	0.4468635
39	0x3de22d99	0.11043853
40	0x3e5dd1d9	0.21662082
41	0x3e16fd06	0.14744958
42	0x3de6ac07	0.1126328
43	0x3dd6cff6	0.10488884
44	0xbe02dd0d	-0.12779637
45	0xbf288a49	-0.65836006
46	0xbd3b79a9	-0.04577032
47	0xbe065979	-0.13120069
48	0x3e283aca	0.16428676
49	0x3e1c23b1	0.1524799
50	0xbe3cd5f6	-0.18440995
51	0x3d24ae46	0.040205263
52	0x3cd44bac	0.02591499
53	0x3db3a1fd	0.08771131
54	0x3b760cbf	0.0037544218
55	0xbe673996	-0.22580561
56	0xbe5b8162	-0.21436074
57	0x3e841ca4	0.258031
58	0xbd0c9698	-0.034323305
59	0xbd438d6c	-0.047742292
60	0x3b913788	0.0044316687
61	0xbe647399	-0.22309722
62	0xbc781e4e	-0.015143944
63	0x3e5e6c62	0.21721032
64	0xbdae19d9	-0.08501024
65	0xbe8a84db	-0.27054486
66	0x3e2a9b03	0.16660695
67	0x3e8257f2	0.25457722
68	0x3e2d7324	0.16938454
69	0x3e041e89	0.12902273
70	0x3e85122d	0.2599043
71	0x3e3cb8b1	0.18429829
72	0x3eb1c227	0.3471844
73	0x3f190d8f	0.59786314
74	0x3f4ee19f	0.8081302
75	0x3ebb6037	0.36596844
76	0x3da53bae	0.080680236
77	0x3e4b9b2b	0.1988341
78	0x3c552458	0.013009153
79	0x3e4c6925	0.19961984
80	0xba5505f3	-0.00081261917
81	0x3d2cebe5	0.042217154
82	0x3e49317c	0.19647783
83	0x3e230847	0.15921126
84	0x3e08e950	0.13370252
85	0xbdfdc810	-0.123916745
86	0xbdb8cc23	-0.09023311
87	0x3dbc9fa0	0.092101336
88	0xbe95caa0	-0.29256153
89	0xbee6ee74	-0.451038
90	0x3d691b56	0.056910835
91	0xbd12abfe	-0.035808556
92	0xbb4df4af	-0.003142636
93	0x3d1c90e9	0.038224135
94	0xbead45f5	-0.33842435
95	0x3d64978e	0.055808596
96	0x3d8d22a5	0.068913735
97	0xbc2b69bf	-0.010462224
98	0x3e0f2031	0.13977124
99	0xbe302970	-0.17203307
100	0x3da49241	0.08035708
101	0x3e0c5aa1	0.13706447
102	0x3e53ecf4	0.20695859
103	0xbe1604cb	-0.14650266
104	0xbdc134f9	-0.09433932
105	0x3dee6ea6	0.11642198
106	0xbd92ca39	-0.07167477
107	0xbe4dd379	-0.20100202
108	0xbdc09536	-0.0940346
109	0x3e712efb	0.23553078
110	0x3ded3878	0.11583036
111	0xbe40a899	-0.18814315
112	0x3cd6dd62	0.02622861
113	0x3ee003ae	0.43752807
114	0xbe5b1ca9	-0.21397652
115	0xbda2d64b	-0.079510294
116	0x3e3fba7c	0.18723482
117	0xbec13a77	-0.37739918
118	0xbec2fd76	-0.38084
119	0xbf59994d	-0.84999543
120	0x3a5ad71a	0.00083480927
121	0x3dd98116	0.10620324
122	0xbe1a9716	-0.15096697
123	0x3cc83e95	0.024443904
124	0x3e16fca7	0.14744817
125	0x3cbe6639	0.023242103
126	0xbdb965ba	-0.09052606
127	0x3eda1488	0.4259379
128	0x3f15d95f	0.58534807
129	0x3db0ac5a	0.086266235
130	0x3d837c11	0.06420148
131	0xbda3f2de	-0.080053076
132	0x3d37433b	0.04474185
133	0x3e439a89	0.19101919
134	0xbf2e8026	-0.6816429
135	0xbf625794	-0.88414884
136	0xbf72daef	-0.94865316
137	0xbf32cc7d	-0.69843274
138	0xbeb3cdf3	-0.35118064
139	0xbe8fb747	-0.28069517
140	0xbf0a0703	-0.5391695
141	0x3e1a0180	0.15039635
142	0xbca010e2	-0.0195393
143	0xbea9e0e8	-0.33179402
144	0xbebac223	-0.3647624
145	0xbedc4938	-0.4302461
146	0xbd4cde80	-0.05001688
147	0xbe8bd07f	-0.27307507
148	0x3e0d4a78	0.13797939
149	0x3c7ffe12	0.01562454
150	0x3e5a2db6	0.213065
151	0x3e0e6d7f	0.13908957
152	0x3e89890c	0.2686237
153	0xbeb4e3cd	-0.35330048
154	0xbf16ec5f	-0.58954424
155	0xbf4772bc	-0.77909446
156	0x3eaba56e	0.3352465
157	0x3d8b8809	0.06813056
158	0x3d92892d	0.071550705
159	0x3daf6327	0.08563834
160	0xb9470963	-0.00018981616
161	0x3e8a0e5f	0.2696409
162	0xbe490a1e	-0.19632766
163	0x3d89d031	0.067291625
164	0x3ec7acf1	0.3899913
165	0xbd68ec5f	-0.056866046
166	0x3d18cdbf	0.03730559
167	0x3e80a60b	0.2512668
168	0xbc298427	-0.010346449
169	0x3dee89a8	0.116473496
170	0x3d279b0e	0.040919356
171	0xbe7710c8	-0.24127495
172	0xbe8b9481	-0.27261737
173	0xbc3f0844	-0.0116596855
174	0xbe754de0	-0.23955488
175	0xbf405454	-0.75128675
176	0xbf085e5d	-0.53268987
177	0xbbf63871	-0.0075140526
178	0xbd52cf87	-0.051467445
179	0x3e465a25	0.19370325
180	0x3ece5dce	0.40305942
181	0x3cd40412	0.025880847
182	0x3d50559a	0.050862886
183	0xbda9a5a8	-0.082835495
184	0xbebc4cac	-0.36777246
185	0xbe86cb62	-0.26327044
186	0xbc2c3f2a	-0.010513106
187	0x3d858fa9	0.065215416
188	0xbd1bf0f9	-0.038071606
189	0x3d25b646	0.040457033
190	0x3de112ba	0.109899
191	0x3e14d608	0.14534771
192	0xbda18ab7	-0.07887786
193	0xbe4345d4	-0.19069606
194	0xbe0b1a9a	-0.13584366
195	0x3cb9d953	0.022686636
196	0xbf0ec07d	-0.55762464
197	0xbf24f53d	-0.64436704
198	0x3e098519	0.13429679
199	0xbdf4f562	-0.119608656
200	0xbe31c0b4	-0.17358667
201	0xbd878f63	-0.06619146
202	0x3e711b56	0.23545584
203	0x3ef23f98	0.47314143
204	0xbe275e0e	-0.16344473
205	0xbd399489	-0.04530767
206	0x3e0e9827	0.13925229
207	0x3e8343b3	0.25637588
208	0x3e892e7f	0.26793286
209	0x3e6c143f	0.23054598
210	0x3e7ad173	0.24493961
211	0x3e743b65	0.23850782
212	0x3e628c57	0.22123848
213	0x3e15c969	0.14627613
214	0xbd851b9c	-0.06499407
215	0x3e80720c	0.2508701
216	0x3e3920e8	0.18078959
217	0x3e0a4952	0.13504532
218	0x3d071b09	0.032984767
219	0xbe4b39ad	-0.1984622
220	0x3c58044e	0.01318462
221	0xbd8d2b3c	-0.06893012
222	0xbf23a5d2	-0.63924897
223	0xbd165ed6	-0.036711536
224	0xbed42777	-0.4143636
225	0xbed865e3	-0.42265233
226	0xbeabe8bd	-0.33576003
227	0xbe9209db	-0.28523144
228	0xbecc8f7f	-0.3995323
229	0xbdee06e9	-0.11622412
230	0x3e45e24d	0.19324608
231	0xbe4535f7	-0.19258867
232	0x3e4cdfd8	0.20007265
233	0x3ea78b29	0.32723358
234	0xbeea680b	-0.45782503
235	0xbd11ea6a	-0.035623945
236	0x3e1e9b88	0.15489018
237	0x3e2f066d	0.17092295
238	0x3e7cb1f2	0.24677256
239	0xbd082fa0	-0.033248544
240	0x3e57e83e	0.21084687
241	0xbe7d7099	-0.24749984
242	0xbd203cec	-0.0391206
243	0x3e2705f5	0.16310866
244	0x3de49853	0.11161866
245	0x3dd8caef	0.105855815
246	0xbe9f4618	-0.31108165
247	0x3e3cb942	0.18430045
248	0x3ed60da3	0.4180728
249	0xbe5ffb0f	-0.21873115
250	0x3e47e900	0.19522476
251	0x3eb31a6d	0.349811
252	0xbcbf3a4c	-0.023343228
253	0xbe707c69	-0.23484959
254	0xbe63cd55	-0.22246297
255	0x3e3943a6	0.18092212

encoder.encoder.1.conv.bias f4 [32]
0	0xbcca67c3	-0.02470768
1	0xbde2838e	-0.11060248
2	0x3c094515	0.008378287
3	0x3ca4d084	0.02011896
4	0x3d87548e	0.066079244
5	0x3e37888a	0.1792318
6	0xbd9dc51d	-0.07703612
7	0xbde97257	-0.11398762
8	0x3e02a325	0.12757547
9	0x3e8493b5	0.25893942
10	0x3e167d95	0.14696343
11	0x3e948ac9	0.29012135
12	0xbc18a16a	-0.009315828
13	0x3e189843	0.14901833
14	0x3eafb740	0.34319496
15	0xbdd6d7b1	-0.104903586
16	0x3e22123b	0.15827267
17	0xba943526	-0.0011307343
18	0xbd47d251	-0.048784558
19	0x3e7cb695	0.24679025
20	0x3dc1403e	0.09436081
21	0xbdfd4590	-0.123667836
22	0xbe01e577	-0.1268519
23	0xbd70fd09	-0.058835063
24	0x3e41f23b	0.1894006
25	0x3e726962	0.23673013
26	0x3e109f0a	0.14123169
27	0xbd5687f4	-0.05237575
28	0x3e427baa	0.18992487
29	0xbdbf14db	-0.0933015
30	0x3dafc9e1	0.08583427
31	0xbb9de1cc	-0.004818177

encoder.encoder.2.conv.weight f4 [32, 32, 3, 3]
0	0xbee251ec	-0.44203126
1	0xbf2416f2	-0.6409751
2	0xbf0e82be	-0.55668247
3	0xbd9968e0	-0.074907064
4	0x3dd32a50	0.10310805
5	0x3e2dc0c7	0.1696807
6	0x3e5b0adb	0.2139086
7	0xbe4aef9a	-0.19817963
8	0xbda2b206	-0.079441115
9	0x3d630a6a	0.055429853
10	0x3de5f5ab	0.11228498
11	0x3e20fb4d	0.15720864
12	0x3d2bb439	0.04191992
13	0x3d86c4e1	0.065805204
14	0x3def6972	0.11690034
15	0xbdd1be36	-0.10241358
16	0xbc525f81	-0.012840153
17	0x3d999f81	0.07501126
18	0xbdc8272b	-0.09773096
19	0xbe0b512d	-0.13605185
20	0x3d8cd2a6	0.068761155
21	0x3e0dbdf7	0.13841997
22	0xbe1fab33	-0.15592651
23	0x3da64198	0.0811798
24	0x3e5ce861	0.2157302
25	0xbe93cca0	-0.28867054
26	0xbebf39bc	-0.37348735
27	0xbec496af	-0.38396212
28	0x3bcb2d53	0.0062004714
29	0x3f3d9f16	0.7407087
30	0xbc8dd1a1	-0.017311873
31	0xbefc04b8	-0.4922235
32	0x3e807ea7	0.25096628
33	0x3d2797e3	0.040916335
34	0xbde6177d	-0.11234949
35	0x3db24451	0.087044366
36	0xbe8727e2	-0.26397616
37	0x3e054321	0.13013889
38	0xbebdfee8	-0.3710854
39	0xbe0c3783	-0.13693051
40	0xbc9a2266	-0.01881523
41	0xbf152be7	-0.58270115
42	0x3caac824	0.020847388
43	0xbef06938	-0.46955276
44	0xbf350609	-0.70712334
45	0xbddc9c1c	-0.10771963
46	0x3e66b81e	0.22531173
47	0xbd65ddab	-0.056119602
48	0x3e0a0465	0.13478239
49	0xbe169b29	-0.14707626
50	0xbea18cba	-0.31552678
51	0xbe818602	-0.25297552
52	0x3e18bd2f	0.14915918
53	0xbec8fd3b	-0.392557
54	0x3c44fbd4	0.012022931
55	0xbd64cee4	-0.05586137
56	0x3d326e5f	0.04356229
57	0xbc919f8e	-0.017776277
58	0x3d1d1129	0.038346443
59	0xbc630414	-0.013855953
60	0xbd23a735	-0.039954383
61	0x3d4d7895	0.050163824
62	0xbc98066c	-0.01855775
63	0xbd1e09fc	-0.03858374
64	0x3cdc1bd7	0.026868744
65	0xbcff0726	-0.031131338
66	0x3d8c7a05	0.06859211
67	0xbd2e5675	-0.04256292
68	0x3d0d31d5	0.03447135
69	0xbb58a3c3	-0.0033056594
70	0x3d382c74	0.04496427
71	0x3db1f077	0.08688443
72	0xbdcabf5a	-0.09899779
73	0xbf2bdd46	-0.6713451
74	0xbf1ab022	-0.6042501
75	0x3d8deed5	0.06930319
76	0x3e1aebce	0.15129015
77	0xbe860df9	-0.26182535
78	0xbd1e535e	-0.038653724
79	0xbe66d2e4	-0.22541386
80	0xbd2c520c	-0.042070433
81	0xbc089548	-0.008336373
82	0xbe79caf6	-0.2439383
83	0xbedd57fe	-0.43231195
84	0xbe84d65a	-0.25944787
85	0xbf684b5c	-0.9073999
86	0xbf2cc1de	-0.6748332
87	0xbdb7870f	-0.08961307
88	0xbebe55e5	-0.37174907
89	0xbece7653	-0.4032465
90	0x3e71552c	0.23567647
91	0x3e65eb12	0.22452953
92	0x3d424b7c	0.04743527
93	0x3dc9fe41	0.09862948
94	0xbc2adb6e	-0.010428293
95	0xbc159cef	-0.009131654
96	0x3e0ba4b8	0.13637054
97	0x3ed620e0	0.41821957
98	0x3ead7547	0.33878538
99	0x3d20dc45	0.039272565
100	0xbe5edfe2	-0.21765092
101	0xbdfcdf92	-0.1234733
102	0x3c9f3dde	0.01943868
103	0xbc0a84e1	-0.008454532
104	0xbba1dbf8	-0.0049395524
105	0xbd61cece	-0.055128865
106	0xbf05673f	-0.52110666
107	0x3da95a0a	0.08269127
108	0x3dc3c88f	0.09559738
109	0xbdbceeff	-0.092252724
110	0xbd9b961f	-0.07596993
111	0xbd314749	-0.043280873
112	0x3e19af99	0.15008391
113	0xbdea4fd5	-0.11441008
114	0x3e44d375	0.1922129
115	0x3e84c031	0.2592788
116	0xbd096d47	-0.03355148
117	0xbe55264d	-0.20815392
118	0xbf070535	-0.5274232
119	0x3da3bd40	0.07995081
120	0xbf18fb27	-0.5975823
121	0xbea483d6	-0.32131833
122	0xbe0ce12f	-0.13757776
123	0x3d85322d	0.06503711
124	0xbe2ee947	-0.17081176
125	0xbc9459be	-0.018109199
126	0x3e8f1d2a	0.27951938
127	0x3d60fec3	0.05493046
128	0xbd37d8b2	-0.04488439
129	0x3d884e67	0.06655579
130	0x3d4c2dc7	0.049848344
131	0xbe9210fc	-0.28528583
132	0x3df54cbf	0.11977529
133	0xbe490bf0	-0.1963346
134	0xbe5b0b9b	-0.21391146
135	0xbbed3749	-0.0072392565
136	0x3dfed0a8	0.12442142
137	0xbb75c2e3	-0.0037500195
138	0x3d5c5a29	0.05379692
139	0x3d1d5f56	0.038420998
140	0xbc7534c2	-0.014966192
141	0x3c93571e	0.017985877
142	0xbcfdc99b	-0.030979922
143	0xbce63517	-0.028101487
144	0xbe101d07	-0.14073573
145	0x3d8f9f2e	0.07012783
146	0x3ea80aa2	0.32820612
147	0xbe0bdd83	-0.13658719
148	0x3ee86a0c	0.45393407
149	0x3e622c54	0.22087222
150	0x3e93df41	0.28881267
151	0x3db4b614	0.08823791
152	0x3e4ea68f	0.20180725
153	0x3e2e8057	0.17041145
154	0x3dc95c5b	0.098320685
155	0x3ea5b0a9	0.32361344
156	0xbcd1831e	-0.025575217
157	0xbf346ff9	-0.70483357
158	0xbf0cbb93	-0.54973716
159	0xbc46829d	-0.012116102
160	0xbf763262	-0.9617063
161	0xbf85d8f4	-1.0456834
162	0x3c856f47	0.016288413
163	0xbbadb94a	-0.005301629
164	0x3d39e816	0.04538735
165	0xbce5dabe	-0.028058406
166	0xbb2f84e5	-0.0026782092
167	0x3d14dafc	0.036341652
168	0x3c0a4c1c	0.008440997
169	0xbcfb3f06	-0.0306697
170	0xbcc6d56c	-0.02427169
171	0xbc2c51f1	-0.010517583
172	0x3e02d1d7	0.1277536
173	0xbe6c249b	-0.23060839
174	0xbe6fe9a9	-0.23428978
175	0x3c8d84fe	0.01727533
176	0xbf63a91d	-0.8892992
177	0x3dfe7441	0.124245174
178	0xbe903116	-0.2816245
179	0xbf8ceab2	-1.1009123
180	0xbe6d5b59	-0.23179378
181	0xbe61eb71	-0.2206247
182	0xbd177130	-0.03697318
183	0xbd112e08	-0.03544429
184	0x3d63849b	0.055546384
185	0x3e8f0956	0.2793681
186	0xbde7a586	-0.11310868
187	0x3d4cf8ba	0.05004189
188	0x3c70597e	0.014669774
189	0x3d50e3b7	0.050998416
190	0x3d0659b6	0.0328004
191	0x3abf900d	0.0014615074
192	0xbd06c1e6	-0.03289976
193	0xbcf47b77	-0.029844029
194	0x3d95e777	0.07319539
195	0x3d758fbe	0.059951536
196	0xbd258fac	-0.04042022
197	0x3b551eda	0.003251961
198	0xbd40f3a5	-0.047107358
199	0x3d4e9770	0.05043739
200	0xbd394380	-0.04523039
201	0x3c6cd81d	0.014455822
202	0x3c292559	0.010323846
203	0x3c4c578a	0.012472043
204	0x3d52a6a9	0.05142847
205	0x3cdf7581	0.02727771
206	0x3d4978ad	0.04918735
207	0xbd5611fb	-0.05226324
208	0xbd85fe2d	-0.06542621
209	0x3c09fdc2	0.008422317
210	0x3b7d0759	0.0038609116
211	0x3ce36398	0.027757451
212	0xbd8b0dd2	-0.067897454
213	0xbcea7853	-0.028621828
214	0x3bf4eae4	0.00747429
215	0xbd0241a1	-0.03180087
216	0x3dc9f2ba	0.098607495
217	0xbe1c1976	-0.15244088
218	0xbd27d755	-0.04097684
219	0x3d99b4f3	0.075052164
220	0x3e29abba	0.16569415
221	0x3e35ff79	0.17773236
222	0x3e71c717	0.23611103
223	0x3e0e4d5f	0.13896702
224	0x3e8935d0	0.26798868
225	0x3e0a9e79	0.13537015
226	0x3e266672	0.16250017
227	0x3d7f1a44	0.06228091
228	0xbd9c48f8	-0.07631105
229	0x3d5f98fa	0.05458925
230	0x3e49a7ee	0.19692966
231	0x3e5d0155	0.2158254
232	0xbb0ed80a	-0.002179625
233	0xbe08cbd9	-0.13359012
234	0x3e3a08f4	0.18167478
235	0x3d95b42a	0.07309754
236	0xbe2d10f7	-0.16901003
237	0xbd0d792d	-0.03453939
238	0x3b891884	0.0041838307
239	0xbe173441	-0.14766027
240	0xbe5d24ed	-0.21596117
241	0x3dc2d1ec	0.09512696
242	0x3bfaad5f	0.007650062
243	0xbcd064e5	-0.025438735
244	0x3d827fbe	0.06372021
245	0xbc74c3be	-0.014939247
246	0x3d593f06	0.05303862
247	0xbd1656ed	-0.036703993
248	0x3c1f914d	0.009739232
249	0x3c9f6d25	0.019461224
250	0x3d42e6f8	0.04758355
251	0x3c3be305	0.0114677
252	0x3e24078f	0.16018508
253	0x3eb66e5c	0.35631073
254	0x3e7d2c13	0.24723844
255	0x3c83ed36	0.016104322

encoder.encoder.2.conv.bias f4 [32]
0	0xbd5a4843	-0.05329157
1	0xbe32fc24	-0.17478997
2	0xbe18f290	-0.1493628
3	0xbe3bcb2c	-0.18339223
4	0x3d9a8b03	0.07546046
5	0xbd9be7ac	-0.07612547
6	0x3e7ab7b6	0.24484143
7	0xbdc95471	-0.09830559
8	0xbdd701cd	-0.1049839
9	0xbe3152b6	-0.17316708
10	0xbd8399bd	-0.064258076
11	0xbe0b1234	-0.13581163
12	0xbe17776f	-0.14791654
13	0xbe3a13d8	-0.18171632
14	0x3c9663de	0.018358167
15	0xbe7701eb	-0.24121825
16	0x3ca017fa	0.019542683
17	0xbe01d9a0	-0.12680674
18	0x3d8f5c36	0.0700001
19	0xbd9f3aab	-0.07774862
20	0xbc2e8de0	-0.010653943
21	0xbdb4a2c2	-0.08820106
22	0xbe98aa7f	-0.29817578
23	0x3ba75a21	0.0051071797
24	0xbd81df48	-0.06341416
25	0xbea58c31	-0.3233352
26	0xbd6e62d5	-0.058199722
27	0xbe0bfce3	-0.13670687
28	0xbd9cf71d	-0.076643206
29	0x3c17f01c	0.009273555
30	0x3bc75d63	0.0060841306
31	0x3dd432f3	0.1036128

encoder.encoder.3.conv.weight f4 [10, 32, 3, 3]
0	0x3db4f7bd	0.08836315
1	0xbdbebd35	-0.09313432
2	0xbe087f42	-0.13329795
3	0xbce7ff03	-0.028319841
4	0xbd95761e	-0.0729792
5	0xbde14714	-0.10999885
6	0xbe709173	-0.23492984
7	0xbca988c8	-0.020695105
8	0xbdb47407	-0.08811193
9	0x3dc196c1	0.09452582
10	0x3e2a53dd	0.16633554
11	0x3e4c9dc0	0.19982052
12	0x3d8c5c9d	0.06853602
13	0xbea83d17	-0.32859108
14	0xbe058a0b	-0.1304094
15	0xbda08d5b	-0.078394614
16	0x3e0600d7	0.13086258
17	0x3e1ea33a	0.15491953
18	0xbdc9f565	-0.098612584
19	0x3d013598	0.03154525
20	0x3d5937b5	0.053031642
21	0xbba5cb5b	-0.0050596423
22	0x3ccd1c6f	0.025037972
23	0x3e117593	0.14205007
24	0x3d6e5f0b	0.05819611
25	0xbca8b84e	-0.020595696
26	0xbd05ac43	-0.032634985
27	0x3ef5d027	0.4801037
28	0xbd373c51	-0.044735257
29	0xbf025a52	-0.5091907
30	0x3dddbc06	0.10826878
31	0x3d1fd34c	0.039019868
32	0x3e26d54c	0.16292304
33	0xbe390555	-0.1806844
34	0xbd565ea0	-0.052336335
35	0xbf38f5b9	-0.72249943
36	0xbbaffb9c	-0.0053705703
37	0x3aaa0c9b	0.0012973727
38	0xbdb07196	-0.08615415
39	0x3c79456e	0.015214307
40	0x3e33fb7e	0.17576405
41	0xbc3feef1	-0.011714683
42	0xbdcaf69a	-0.09910317
43	0x3e54b6dd	0.20772882
44	0x3aa247a7	0.0012380973
45	0xbcd0f392	-0.025506768
46	0x3c206798	0.009790324
47	0x3d044ef8	0.032301873
48	0x3c9bc2f4	0.01901386
49	0xbbe558bc	-0.0069991034
50	0x3d92d771	0.071699984
51	0x3d3c0613	0.04590423
52	0xbdafa34c	-0.08576068
53	0x3c4835a1	0.012219817
54	0xbdc45f99	-0.09588546
55	0xbc1d96b4	-0.00961845
56	0xbe6265dc	-0.22109169
57	0x3bb2a058	0.0054512434
58	0x3b492ef0	0.0030698143
59	0x3cde0eb8	0.027106628
60	0xbdac711f	-0.08420014
61	0xbdbfa8f9	-0.09358401
62	0xbe39ea71	-0.18155839
63	0xbd404b88	-0.046947032
64	0x3db14053	0.08654847
65	0xbba0ac59	-0.004903358
66	0x3d684301	0.056704525
67	0xbe695fd3	-0.2279046
68	0x3d3c319c	0.04594575
69	0xbdea1ea5	-0.11431626
70	0xbcb01d8f	-0.02149847
71	0x3e2b3206	0.16718301
72	0xbd12bf2a	-0.03582684
73	0x3dcfcc8b	0.10146435
74	0xbd162f2b	-0.036666077
75	0xbdb0ee04	-0.08639148
76	0xbdefa6d4	-0.11701742
77	0x3de10294	0.1098682
78	0xbddc7610	-0.10764706
79	0x3cd31a7f	0.02576947
80	0xbc9c0ea8	-0.019049957
81	0xbe00b950	-0.12570691
82	0xbdbf91b0	-0.093539596
83	0x3d545666	0.05184021
84	0xbdeb28f4	-0.114824206
85	0x3dc6c801	0.097061165
86	0x3cb7734d	0.022393847
87	0xbd6c96fd	-0.05776118
88	0xbdcc1835	-0.099655546
89	0xbd69bf2c	-0.05706708
90	0x3ced13fa	0.02894019
91	0xbd74c29b	-0.059755903
92	0x3e66074a	0.22463718
93	0xba6fa464	-0.00091416226
94	0xbeae7504	-0.3407365
95	0x3dfd18c1	0.12358237
96	0xbe01fc42	-0.12693885
97	0x3c34d0cc	0.011036109
98	0x3e9b82e1	0.3037329
99	0x3dec2930	0.115312934
100	0xbda1d2cd	-0.07901535
101	0x3b46da36	0.0030342466
102	0xbd27948f	-0.04091316
103	0x3dd0dc47	0.101982646
104	0xbd2c226e	-0.042025022
105	0xbd9216d4	-0.0713326
106	0xbe3f163c	-0.18660825
107	0x3ddc295e	0.10750078
108	0x3c26e442	0.010186257
109	0x3ddf938b	0.109168135
110	0x3c83742e	0.01604661
111	0xbd9ffd8f	-0.07812034
112	0xbcb656bb	-0.022258153
113	0xbde66db2	-0.112513915
114	0xbd8a63dc	-0.06757328
115	0xbcfe8ce0	-0.031073034
116	0x3dda42a7	0.10657244
117	0xbc9ddaa1	-0.01926929
118	0x3d3baafd	0.045817364
119	0x3c903e35	0.017607788
120	0xbe00f2c9	-0.12592615
121	0x3e1156f1	0.14193322
122	0xbd8c5bed	-0.06853471
123	0xbb13582c	-0.0022482974
124	0xbddf766e	-0.109112605
125	0x3d3d7712	0.046256132
126	0xbd1b13a3	-0.037860524
127	0x3cd753bf	0.02628505
128	0x3e7381fa	0.23780051
129	0x3ce16f85	0.027518997
130	0x3c850866	0.016239356
131	0xbee81986	-0.45331973
132	0xbddc4688	-0.1075564
133	0xbe6a9bc6	-0.22910985
134	0x3d85de3c	0.065365285
135	0x3da06be9	0.07833082
136	0xbca61349	-0.020272868
137	0xbe9b51d0	-0.30335855
138	0x3c7b2cd1	0.015330509
139	0x3c014092	0.00788893
140	0xbd65445d	-0.0559734
141	0xbdf95a3f	-0.12175416
142	0x3e13d296	0.14435801
143	0xbf1e83b1	-0.61919695
144	0x3d975c5f	0.07390665
145	0x3d004b9d	0.03132211
146	0x3e9923d9	0.29910162
147	0xbcf3fe41	-0.029784324
148	0x3ba19acf	0.0049317847
149	0x3c1c8e0c	0.009555351
150	0xbe1a7eb2	-0.15087393
151	0xbd92e61c	-0.07172796
152	0x3daf4f7c	0.08560082
153	0xbbbf4ff6	-0.0058383895
154	0x3e30ba21	0.17258503
155	0xbd94310f	-0.0723592
156	0xbe449880	-0.19198799
157	0x3ccb974a	0.024852414
158	0xbdd3ca17	-0.1034128
159	0x3d8b036b	0.06787761
160	0x3dc52d8e	0.096278295
161	0xbd0bc700	-0.034125328
162	0xbdb921ef	-0.090396754
163	0x3e0f1dc9	0.13976206
164	0xbea28043	-0.3173848
165	0xbd64931c	-0.055804357
166	0x3e3a4d78	0.18193614
167	0x3dbd81cf	0.09253275
168	0x3db8108a	0.089875296
169	0x3c5d3412	0.013501184
170	0x3be116d3	0.006869176
171	0xbd8a4153	-0.06750741
172	0xbd7e9df1	-0.062162343
173	0xbd5ba6d4	-0.053625897
174	0x3d61b1d1	0.05510122
175	0x3e488cf2	0.19585016
176	0xbdef062d	-0.116711
177	0xbd898f65	-0.067168035
178	0x3dd0fa59	0.10204
179	0xbc3001ac	-0.010742586
180	0xbea6e28a	-0.3259471
181	0xbd1f44ee	-0.038884096
182	0xbd92ee76	-0.07174389
183	0xbdc8c67c	-0.09803483
184	0x3d4ee476	0.050510846
185	0xbd826393	-0.063666485
186	0x3ec57cc9	0.38571766
187	0x3da24fa6	0.07925348
188	0x3f000140	0.5000191
189	0xbd9db3b6	-0.07700293
190	0x3bc77256	0.006086628
191	0x3d75ef4a	0.060042657
192	0x3d7440e8	0.059632212
193	0x3d13ff5c	0.0361322
194	0x3d7a42cf	0.06109887
195	0xbe61092b	-0.21976154
196	0xbc2b4a44	-0.010454718
197	0x3e16b656	0.14717993
198	0xbd8e4ace	-0.069478616
199	0x3b01af8c	0.0019788472
200	0xbeb0b2c6	-0.34511393
201	0x3c19dbdb	0.009390797
202	0xbd957e20	-0.07299447
203	0x3e2665fd	0.16249843
204	0x3e62c0e9	0.22143902
205	0xbd420d14	-0.047375754
206	0xbdee2fe7	-0.116302304
207	0xbc6d9850	-0.014501646
208	0xbd728939	-0.059212897
209	0xbe8f42a3	-0.27980527
210	0xbdf03557	-0.11728924
211	0xbd641d92	-0.055692263
212	0xbe168611	-0.1469958
213	0xbd2bd7ad	-0.04195373
214	0xbdbbc281	-0.09167958
215	0xbd8583d6	-0.06519286
216	0xbc418bea	-0.011813143
217	0x3dab68b5	0.08369581
218	0xbd3579d6	-0.044305645
219	0xbcb3ee50	-0.021964222
220	0x3af6f292	0.0018840602
221	0x3c0883b5	0.008332183
222	0x3d350c02	0.044200905
223	0xbe26b713	-0.16280775
224	0xbcb580db	-0.02215617
225	0xbe2e3829	-0.17013611
226	0xbe7417d3	-0.23837213
227	0x3e8701c7	0.26368544
228	0x3d9029d3	0.07039227
229	0xbe5b5b0f	-0.21421455
230	0x3c0fcb96	0.008776566
231	0xbe4da71e	-0.20083281
232	0xbecfa5ef	-0.40556285
233	0x3e504fc8	0.20342934
234	0xbc58fc15	-0.013243695
235	0x3c041410	0.008061424
236	0xbea5884d	-0.32330552
237	0xbdb462ed	-0.08807931
238	0x3e04fd1b	0.12987177
239	0x3d99e43b	0.07514235
240	0x3ec2f432	0.3807693
241	0x3d08f9d7	0.03344139
242	0xbdbbbde2	-0.09167077
243	0x3e251e1f	0.16124772
244	0x3e9588f4	0.2920605
245	0xbd44d5b1	-0.048055355
246	0x3d40eb40	0.047099352
247	0x3c023073	0.0079461215
248	0x3d9826ae	0.074292526
249	0x3ee1bdb2	0.4409004
250	0xbe0bb313	-0.1364253
251	0x3edb53d6	0.428374
252	0xbd4cd6f5	-0.050009686
253	0xbde0bb8f	-0.10973274
254	0xbc5d78e8	-0.013517596
255	0xbce57612	-0.028010402

encoder.encoder.3.conv.bias f4 [10]
0	0x3f17abba	0.5924641
1	0x3f043396	0.51641214
2	0x3efe95eb	0.49723753
3	0x3ef23050	0.47302485
4	0x3eeda066	0.46411437
5	0x3f12122f	0.57058996
6	0x3ef633ee	0.48086494
7	0x3ec231ac	0.37928522
8	0x3f027fc4	0.50976205
9	0x3ef9a5a4	0.48759186

decoder.decoder.0.dconv.weight f4 [10, 32, 3, 3]
0	0xbed33401	-0.41250613
1	0x3e465cd2	0.19371346
2	0x3d71f77c	0.05907391
3	0xbe8c786b	-0.27435622
4	0xbeb2c5ce	-0.34916538
5	0xbe97b643	-0.29631242
6	0x3e1c0d34	0.15239412
7	0x3dedfed8	0.11620873
8	0x3f1d48c2	0.61439145
9	0xbee0df73	-0.43920478
10	0xbf001f3d	-0.50047666
11	0x3de73180	0.11288738
12	0xbd891cd6	-0.06694953
13	0xbd8ec9e7	-0.069721036
14	0xbf0dbfca	-0.5537077
15	0x3efea401	0.497345
16	0x3eafa214	0.34303343
17	0x3eadab96	0.33919972
18	0xbe80f98a	-0.25190383
19	0xbe12df0c	-0.14342898
20	0x3ee5f141	0.44910625
21	0x3c2c40d4	0.010513503
22	0xbedad696	-0.4274184
23	0x3e7a38ba	0.24435702
24	0xbecd0621	-0.40043738
25	0xbf01fd5d	-0.50777227
26	0xbf65b56c	-0.8972995
27	0x3ed84b3e	0.42244905
28	0x3e3b5949	0.18295778
29	0xbe4ff461	-0.20308067
30	0x3cf31be8	0.029676393
31	0x3dc12ced	0.09432397
32	0xbe758f2e	-0.239804
33	0x3efbf322	0.49208933
34	0x3e2a21f6	0.16614518
35	0xbe609993	-0.21933584
36	0x3e5cea40	0.21573734
37	0xbd583d1e	-0.05279266
38	0x3eeb27b2	0.45928723
39	0x3dc67767	0.09690743
40	0xbdb72cf7	-0.08944123
41	0xbf066cf5	-0.52510005
42	0xbd42577a	-0.047446705
43	0x3eaee370	0.34157896
44	0x3de75365	0.11295203
45	0xbd6cab87	-0.05778077
46	0xbe5659f0	-0.20932746
47	0x3e1c58ef	0.152683
48	0xbd685899	-0.05672512
49	0xbe2acec3	-0.16680436
50	0xbc7e1832	-0.015508698
51	0xbedec08b	-0.43506274
52	0x3eb499d4	0.35273612
53	0x3f55a994	0.8346188
54	0x3c5ba9ba	0.013407165
55	0x3e83521d	0.25648585
56	0x3e2edf5e	0.17077395
57	0x3edc4dcc	0.43028104
58	0x3e1c7cdd	0.15282007
59	0x3c1c9034	0.009555865
60	0x3ef82d2f	0.48471972
61	0xbf895832	-1.073004
62	0x3e9c2e5c	0.3050412
63	0x3ee0f2d7	0.43935272
64	0x3e603d17	0.21898304
65	0xbe9ef814	-0.31048644
66	0xbdecff46	-0.11572127
67	0xbea749fd	-0.32673636
68	0xbebefead	-0.37303677
69	0xbe715c74	-0.23570424
70	0xbecd72ba	-0.40126592
71	0xbe851bec	-0.25997865
72	0x3d1535e3	0.036428344
73	0x3d067e2d	0.032835174
74	0x3e0630de	0.13104579
75	0x3e118632	0.14211348
76	0xbdabe0ec	-0.0839251
77	0x3ed13d7c	0.4086722
78	0x3e766167	0.24060594
79	0x3e419ee2	0.18908265
80	0x3d1dc947	0.03852203
81	0xbde7f6ae	-0.11326347
82	0x3da9c352	0.082892075
83	0xbf0bdccb	-0.5463378
84	0x3e5665c1	0.20937254
85	0x3f794550	0.9737139
86	0x3e98aa61	0.2981749
87	0xbf030fe5	-0.5119613
88	0xbe8086f1	-0.25102952
89	0xbf8fed72	-1.1244338
90	0x3e15e1bc	0.14636892
91	0x3dbb5fcd	0.09149132
92	0x3ca65d87	0.02030827
93	0xbd6ba239	-0.057527754
94	0x3f010c19	0.50409085
95	0xbda24688	-0.07923609
96	0x3dcbc049	0.09948785
97	0x3f1b8f01	0.6076508
98	0x3e8f616a	0.2800401
99	0x3f12a638	0.5728488
100	0xbb34c64e	-0.002758402
101	0xbec57f7a	-0.3857382
102	0x3f1cf016	0.6130384
103	0x3eb49c1f	0.3527536
104	0x3f361322	0.71122944
105	0x3cc7108e	0.024299886
106	0xbebe4ab4	-0.3716637
107	0x3e786979	0.24258985
108	0x3d9ab96e	0.07554899
109	0x3dcfd789	0.10148532
110	0x3e9553c1	0.29165462
111	0xbed99904	-0.42499554
112	0xbf095973	-0.53652114
113	0x3f41a2c6	0.75639
114	0xbe78439e	-0.24244544
115	0x3e648bd2	0.22318962
116	0x3e78cf3a	0.242978
117	0xbc4151e0	-0.011799306
118	0x3c2d972d	0.010595125
119	0x3d8d6dcb	0.06905707
120	0x3d38772a	0.04503552
121	0x3e9152cd	0.28383484
122	0x3e94b8b6	0.29047173
123	0x3d6f819c	0.058473215
124	0xbe5f2b02	-0.2179375
125	0x3f45efc7	0.77318996
126	0xbdab9f17	-0.08379953
127	0xbc003cbe	-0.007826982
128	0x3ecafeaa	0.39647418
129	0xbda55f63	-0.08074834
130	0xbd433e90	-0.047667086
131	0x3ead4866	0.33844298
132	0x3e0f23b1	0.13978459
133	0xbcf8270a	-0.030292053
134	0xbe7e1c1f	-0.24815415
135	0xbd76bc94	-0.060238436
136	0xbe756358	-0.23963678
137	0x3e544707	0.2073022
138	0x3c36bb14	0.011153001
139	0x3e80296b	0.250316
140	0xbc991752	-0.018687878
141	0xbdf7113e	-0.120638356
142	0xbda3d6cb	-0.07999953
143	0xbda64d51	-0.08120216
144	0x3e900e59	0.28135946
145	0xbd0d5963	-0.034509074
146	0xbed47415	-0.41494814
147	0x3e6a03f4	0.2285307
148	0x3dd4a07f	0.10382175
149	0xbc7443a4	-0.014908705
150	0x3e9843a7	0.29739115
151	0x3cab4e55	0.020911375
152	0x3f9bc782	1.217026
153	0xbf2a2c89	-0.66474205
154	0x3e174b30	0.14774776
155	0x3e1b9419	0.15193214
156	0x3e70b851	0.23507811
157	0x3e9101dd	0.28321734
158	0xbea33901	-0.31879428
159	0x3e75ab14	0.23991042
160	0xbd5b824a	-0.05359105
161	0xbe4b6c71	-0.19865586
162	0x3d9d4e37	0.07680934
163	0x3e3a4549	0.18190493
164	0x3e133188	0.14374363
165	0x3e613b8c	0.21995372
166	0x3f02deab	0.51121014
167	0x3e039966	0.12851486
168	0xbc735d25	-0.01485375
169	0x3e8cf525	0.2753078
170	0x3f069c23	0.52581996
171	0xbe16a9c5	-0.147132
172	0xbe37c991	-0.17947985
173	0xbe858161	-0.2607527
174	0xbf38cf81	-0.72191626
175	0x3f0c3b5c	0.54778075
176	0xbeb7e142	-0.35914046
177	0xbf12f167	-0.573996
178	0xbe28c2cc	-0.16480559
179	0xbe2ec3ef	-0.1706693
180	0xbebc3675	-0.36760297
181	0xbd8ed78e	-0.069747075
182	0xbdbdde60	-0.0927093
183	0x3cc6a8ca	0.024250407
184	0xbda5f33e	-0.081030354
185	0xbea96eb3	-0.3309227
186	0xbed1bab5	-0.4096276
187	0xbdba09f1	-0.090839274
188	0x3f4543cb	0.7705657
189	0x3e8578a2	0.26068598
190	0xbe488ca3	-0.19584899
191	0xbe912f7e	-0.28356546
192	0x3c936532	0.01799259
193	0x3dded79e	0.108809695
194	0xbeb41831	-0.35174707
195	0x3e950790	0.29107332
196	0x3ed26fff	0.4110107
197	0x3e05d4d7	0.13069473
198	0x3cb92f71	0.02260563
199	0xbcd4bc28	-0.025968626
200	0x3ee5f5c0	0.44914055
201	0x3e25ac88	0.16179097
202	0xbd95df18	-0.073179424
203	0xbec2a44a	-0.38015968
204	0xbe0195fb	-0.1265487
205	0x3e228b7a	0.15873519
206	0x3f337435	0.7009919
207	0xbe7c98ce	-0.24667665
208	0xbe7feb1f	-0.24992035
209	0x3e72aee9	0.23699535
210	0xbd49b60c	-0.04924588
211	0xbd3f1521	-0.04665101
212	0x3e4aa693	0.19790106
213	0x3f1357a6	0.57555616
214	0xbe0080fe	-0.12549207
215	0x3da37d55	0.079828896
216	0xbe381bcd	-0.17979355
217	0x3df067a1	0.11738516
218	0xbea74f3c	-0.3267764
219	0xbcd19773	-0.025584912
220	0xbd459c59	-0.048244808
221	0xbdfac727	-0.122450165
222	0x3f0a693f	0.5406684
223	0xbefbbec9	-0.49168995
224	0x3e8ea429	0.2785962
225	0x3cb6372b	0.022243103
226	0x3e1a540b	0.15071122
227	0x3f1cb6a5	0.61216193
228	0x3d26425d	0.040590633
229	0xbd9e98de	-0.07744001
230	0x3ebe0236	0.37111062
231	0x3e690aed	0.22758074
232	0xbf3a7261	-0.7283078
233	0xbee7ad84	-0.4524957
234	0x3dd1563d	0.10221527
235	0x3ee2ed0e	0.44321483
236	0x3e107b50	0.1410954
237	0xbcaf213c	-0.021378152
238	0x3b083460	0.002078317
239	0xbd329daa	-0.04360739
240	0xbdd9408c	-0.106080145
241	0x3e921a94	0.28535903
242	0xbf0c99e8	-0.5492234
243	0x3e4ab368	0.19795
244	0x3d2ff9e4	0.042962924
245	0xbf131ab1	-0.574626
246	0x3ca86849	0.02055754
247	0xbc751121	-0.014957697
248	0xbd6cd53d	-0.057820547
249	0x3ea19303	0.31557474
250	0xbe3bf3b7	-0.18354689
251	0x3d768617	0.06018647
252	0x3ddd5125	0.10806493
253	0x3e8b385f	0.27191445
254	0x3e0a921f	0.13532303
255	0x3d8ffc69	0.07030565

decoder.decoder.0.dconv.bias f4 [32]
0	0x3f276bf3	0.6539909
1	0x3c1e7c2e	0.009673161
2	0x3f1e8731	0.61925036
3	0x3eb3da0a	0.35127288
4	0x3e5c9edd	0.21544977
5	0x3f1cb4ea	0.6121355
6	0xbe07f7a5	-0.13278063
7	0x3f5cf7f4	0.86315846
8	0x3d7176e9	0.058951292
9	0x3e639412	0.22224453
10	0xbf0159c8	-0.5052762
11	0xbd867e4a	-0.065670565
12	0x3ec81851	0.39081052
13	0xbe940048	-0.28906465
14	0xbe98c7ac	-0.29839838
15	0xbeb707df	-0.35748193
16	0xbf01972e	-0.50621307
17	0x3eb0705a	0.34460717
18	0xbe62b6e6	-0.22140083
19	0x3d1cc1cc	0.038270757
20	0x3ea6af70	0.32555723
21	0x3d841002	0.06448366
22	0xbf230e9c	-0.6369417
23	0xbe0d9608	-0.13826764
24	0x3d645459	0.055744503
25	0x3f37113f	0.7151069
26	0xbe2d5b76	-0.16929421
27	0xbe13c47c	-0.14430422
28	0xbef6a4f2	-0.48172718
29	0xbf5412c9	-0.82841164
30	0xbecfd096	-0.40588826
31	0xbe09acfb	-0.13444893

decoder.decoder.1.dconv.weight f4 [32, 32, 3, 3]
0	0xbddef74a	-0.108870104
1	0x3e0f1218	0.13971746
2	0xbf06224f	-0.523961
3	0xbea4e0b8	-0.32202697
4	0xbf27d5a7	-0.6556038
5	0xbec30e01	-0.38096622
6	0x3edb53d4	0.42837393
7	0x3ed043bb	0.40676674
8	0x3ed22c8c	0.41049612
9	0xbe85ad0f	-0.26108596
10	0x3e80bb8f	0.25143096
11	0xbe485309	-0.19562925
12	0x3de4e269	0.11175997
13	0xbd2ea779	-0.042640183
14	0xbd998649	-0.07496316
15	0x3f31b1d4	0.6941197
16	0xbe86b930	-0.26313162
17	0x3e09fe86	0.13475999
18	0x3e7b49cd	0.24539872
19	0xbe4305a3	-0.19045119
20	0xbe5561fd	-0.20838161
21	0x3da739d4	0.08165327
22	0x3e45b13a	0.19305888
23	0xbcf1828c	-0.029481195
24	0x3ede3214	0.43397582
25	0xbd22ec11	-0.03977591
26	0x3df239a9	0.11827404
27	0xb9c5d852	-0.0003773594
28	0xb980dbb3	-0.0002457775
29	0x3a0c96d6	0.00053630525
30	0x3dce27f9	0.10066218
31	0x3edab546	0.42716426
32	0x3d98307f	0.07431125
33	0xbc726b1c	-0.014796045
34	0x3d8b0825	0.06788663
35	0xbc1e9b6f	-0.009680613
36	0xbe885aa7	-0.26631662
37	0x3d0f3b5c	0.03496872
38	0xbdef00bf	-0.11670064
39	0xbd2fa165	-0.042878527
40	0xbeb5c2ef	-0.35500285
41	0xbf2c1096	-0.6721281
42	0x3e807e8f	0.25096557
43	0xbe1a3281	-0.15058328
44	0x3de80751	0.113295205
45	0xbe3694e7	-0.17830239
46	0xbedb6b0b	-0.42855105
47	0x3e1d6a68	0.15372622
48	0xbf399b2c	-0.725024
49	0xbf0aa268	-0.5415406
50	0xbeb39aa7	-0.35078928
51	0x3da3755d	0.0798137
52	0xbe9a6def	-0.30161998
53	0xbe989fe9	-0.29809502
54	0x3e0b4566	0.13600692
55	0x3e8bf14f	0.2733254
56	0x3e096575	0.13417609
57	0xbe89f8c6	-0.26947612
58	0x3e586a8f	0.21134399
59	0xbf4907fb	-0.785278
60	0xbec3b046	-0.38220423
61	0x3ee6016a	0.44922954
62	0x3d872095	0.065980114
63	0x3dcb2eb1	0.09921015
64	0x3ed38fcc	0.41320646
65	0x3e017b0a	0.12644592
66	0xbe855fe8	-0.26049733
67	0xbf011c10	-0.50433445
68	0xbe3f4161	-0.18677284
69	0x3cf324de	0.029680666
70	0xbf3ae1d7	-0.73000854
71	0xbce0f2c4	-0.02745951
72	0xbee62f9c	-0.44958198
73	0xbf5de9c4	-0.86684823
74	0xbf76bf23	-0.963854
75	0xbecf9b72	-0.40548283
76	0x3ddeb683	0.10874655
77	0xbeeafb96	-0.4589507
78	0xbefbe3e2	-0.49197298
79	0xbf476d5f	-0.7790126
80	0xbe98857c	-0.2978934
81	0x3f0ae38c	0.5425346
82	0x3e936ba8	0.28793073
83	0x3d879392	0.06619944
84	0x3e9f9483	0.31167993
85	0x3f28c3d8	0.65923834
86	0xbe0ddfc5	-0.13854893
87	0xbf29fe47	-0.6640362
88	0xbed0e837	-0.40802166
89	0xbee369dc	-0.44416702
90	0x3edcb888	0.43109536
91	0x3dc33668	0.095318615
92	0x3dd3d86a	0.10344012
93	0xbe33ae58	-0.17546976
94	0xbeb4c516	-0.35306615
95	0xbebd4f10	-0.36974382
96	0x3f26217e	0.64894855
97	0xbeb3d550	-0.35123682
98	0xbeb6f5ec	-0.35734499
99	0xbe848462	-0.2588225
100	0x3df2837b	0.11841484
101	0x3f08f477	0.53498024
102	0x3d97c2d0	0.074102044
103	0x3e9f2f29	0.31090668
104	0xbe9b6d09	-0.30356625
105	0x3ded4636	0.11585657
106	0x3d1a2328	0.037631184
107	0xbf1f12a9	-0.6213785
108	0x3db99200	0.090610504
109	0xbda79bf1	-0.0818404
110	0x3d43b240	0.047777414
111	0xbe09177e	-0.13387868
112	0x3f3a2ade	0.7272166
113	0xbcab0ebc	-0.02088105
114	0xbe4c0330	-0.19923091
115	0x3edc795b	0.43061337
116	0x3f652fc6	0.8952602
117	0x3e01cf10	0.12676644
118	0x3e8a1743	0.26970872
119	0x3f2abcf9	0.666946
120	0x3f02c2bd	0.510784
121	0xbf1793ac	-0.59209704
122	0xbeb66678	-0.35625052
123	0x3e8deded	0.27720585
124	0xbe298293	-0.16553716
125	0xbf782622	-0.96933186
126	0xbecff9e1	-0.4062033
127	0xbf42ca20	-0.7608967
128	0xbf349bb0	-0.7055006
129	0x3df619f1	0.12016667
130	0xbefa0957	-0.4883525
131	0xbee618d8	-0.4494083
132	0xbd8d86fc	-0.06910512
133	0xbf721818	-0.94568014
134	0xbe62e6cd	-0.22158356
135	0xbda2e3ef	-0.07953631
136	0x3e22082e	0.15823433
137	0xbe444dd0	-0.19170308
138	0x3f08913b	0.53346604
139	0xbeb4b5e0	-0.3529501
140	0xbee7baee	-0.45259804
141	0xbcea7418	-0.028619811
142	0x3e80053b	0.2500399
143	0x3ea5f6e4	0.32414925
144	0xbe3bacae	-0.18327591
145	0x3c9c8e4c	0.019110821
146	0x3dd08e24	0.10183361
147	0xbdecad14	-0.115564495
148	0x3c7307d7	0.014833412
149	0x3f1cc68b	0.6124045
150	0x3bbc8ad6	0.005753855
151	0x3f69abc0	0.91277695
152	0x3e26c50a	0.16286102
153	0x3ed1dc85	0.40988556
154	0x3dbf1865	0.09330825
155	0xbebb5dc3	-0.36594972
156	0x3eca01e7	0.39454576
157	0xbe9e011a	-0.30860215
158	0x3e2715a9	0.16316856
159	0xbec567ba	-0.385557
160	0xbe80fbb1	-0.25192025
161	0xbf050d11	-0.5197306
162	0xbf0c21d9	-0.5473915
163	0xbe4295fe	-0.1900253
164	0x3f33069f	0.6993198
165	0x3e711637	0.2354363
166	0xbf348047	-0.70508236
167	0x3efc9df6	0.49339265
168	0xbddb3a44	-0.10704473
169	0xbea29ad8	-0.3175876
170	0xbe7029ec	-0.23453492
171	0xbdf63426	-0.12021665
172	0xbf857fc2	-1.0429614
173	0xbe0ec33f	-0.13941668
174	0xbf748f08	-0.9553075
175	0xbe758af3	-0.23978786
176	0x3c14d52f	0.00908403
177	0xbce16ae2	-0.027516786
178	0x3d915f78	0.07098287
179	0xbdfb2928	-0.12263709
180	0xbeaad684	-0.33366787
181	0xbfa5c9db	-1.2952226
182	0xbe383082	-0.17987254
183	0x3e74abfd	0.23893733
184	0xbd90f1e0	-0.07077384
185	0x3dbbd10b	0.09170731
186	0x3f193b50	0.5985613
187	0x3e9d1f7c	0.30688083
188	0x3e0b5e6d	0.1361024
189	0x3f6615bf	0.8987693
190	0x3e67c9fa	0.22635642
191	0x3edde704	0.43340313
192	0xbb660e18	-0.0035103615
193	0xbe2a0253	-0.16602449
194	0xbf0fb68c	-0.5613792
195	0x3eb90dc1	0.36143306
196	0xbebca59f	-0.3684511
197	0xbf050245	-0.5195659
198	0xbdd2e139	-0.10296864
199	0xbd6824cd	-0.05667572
200	0xbe982490	-0.29715395
201	0xbf4f8882	-0.8106767
202	0x3dc1a773	0.094557665
203	0xbe819718	-0.25310588
204	0x3ccfd58a	0.025370378
205	0xbf4fc008	-0.8115239
206	0xbf757a9a	-0.958902
207	0x3ddb0540	0.10694361
208	0xbf43e251	-0.76517206
209	0x3f2a26c7	0.6646542
210	0x3e8a2abf	0.26985738
211	0xbdfc19d4	-0.12309614
212	0xbed0bb61	-0.4076796
213	0xbe01f654	-0.12691623
214	0x3ea46542	0.32108504
215	0x3f17cddd	0.592985
216	0xbf2c6b99	-0.6735168
217	0x3e98da57	0.2985408
218	0x3eabe719	0.3357475
219	0x3e3b9e04	0.18321997
220	0x3f085e61	0.5326901
221	0xbe149bce	-0.1451256
222	0xbe08ceef	-0.13360189
223	0xbe795f72	-0.24352816
224	0x3dcdba0c	0.10045251
225	0xbe8f3a78	-0.27974296
226	0xbf275e85	-0.653786
227	0x3d93d294	0.07217899
228	0xbdd2311e	-0.102632746
229	0xbf37d822	-0.7181417
230	0x3e8ec91a	0.27887803
231	0xbd58d4ee	-0.05293744
232	0xbdaa9b35	-0.08330385
233	0x3db46807	0.08808904
234	0x3ea55194	0.32288802
235	0xbe6f4f12	-0.23370007
236	0xbf0dfd2c	-0.55464435
237	0x3deadcce	0.114678964
238	0x3edfdaff	0.43721768
239	0xbe03fa35	-0.12888415
240	0x3ccf73d6	0.02532379
241	0xbed5d883	-0.41766748
242	0xbdb5ede6	-0.08883266
243	0xbf5da924	-0.86586213
244	0x3e0e42b7	0.13892637
245	0xbe07f5ef	-0.1327741
246	0x3de59492	0.11209978
247	0x3d156b9f	0.03647959
248	0xbf5c158d	-0.85970384
249	0x3d6340a8	0.055481583
250	0x3e5e7a62	0.21726373
251	0x3f191408	0.5979619
252	0xbf2e5a4d	-0.6810654
253	0xbd06623e	-0.032808535
254	0x3eb31cc9	0.349829
255	0xbcbffea4	-0.023436852

decoder.decoder.1.dconv.bias f4 [32]
0	0xbd95ab38	-0.07308048
1	0x3e40c1d9	0.18823947
2	0xbe4a116d	-0.1973321
3	0xbea1ead7	-0.3162448
4	0x3e650ef7	0.2236899
5	0x3bceedc6	0.006314966
6	0x3e3fa602	0.1871567
7	0xbdda0f6c	-0.10647473
8	0x3d9e0472	0.077156916
9	0x3e0f83a7	0.14015065
10	0x3e8f41ca	0.2797988
11	0x3d3e7ab0	0.046503723
12	0x3e451d82	0.19249538
13	0x3e6d5e75	0.23180564
14	0x3eb800e8	0.3593819
15	0xb989fa78	-0.0002631729
16	0x3eb2a1e7	0.34889147
17	0x3ed16a35	0.40901342
18	0x3ec998cd	0.3937439
19	0x3ef2fa27	0.47456476
20	0x3e50d31f	0.20393036
21	0x3e576a6f	0.21036695
22	0x3e4b3bcc	0.1984703
23	0xbd727f6b	-0.059203546
24	0xbe36822a	-0.17823091
25	0xbc27db05	-0.010245089
26	0x3eb1cd86	0.34727114
27	0xbd630b48	-0.05543068
28	0x3e2da469	0.16957249
29	0x3e338698	0.17531812
30	0x3e8ce572	0.27518803
31	0x3bd880cd	0.006607151
