notebooks/saved_model/mnist_model/mnist_cae_1/mnist_cae00015.pth (torch, 541279 bytes, 51 tensors)

encoder.encoder.0.conv.weight f4 [32, 1, 3, 3]
00000000: fdd5 56be b712 a2be 882d 2c3e 7e10 febd
00000010: 0ee8 74bd ac3a edbe 195e b83e 0671 923d
00000020: 05b6 9fbe db10 013e e851 223e 8054 b4bc
00000030: 4527 803e 77c4 8b3e 51d1 053e 1dba 1d3d
00000040: be0b 18be f3e9 173e 3568 72bd f2ac b23e
00000050: 0556 403f 1f37 babe 55ae 4cbe 5da7 c23c
00000060: fcab 7dbe b225 a4be d65c 40bd 6529 84be
00000070: 3917 313f 134b af3e e02c 48bf f3ca 8bbf
00000080: 574f 41bf 376f 093f ee9c b93e dffc 703d
00000090: 9861 a1bd 37f3 5abe bfc8 f7bd 0e20 cabd
000000a0: d2fd 66be d5ad 2fbe 9627 dfbd fc20 1cbc
000000b0: cdaa 68be d486 57be 5930 bcbe df6c 853e
000000c0: 05fa 793e dd9d cabe 2415 773e 6aa7 7f3e
000000d0: ab81 f73c fc4a cebe 024f 86be cea5 a2be
000000e0: 08d9 6fbd 50a0 d8bd 7ccf ea3d 9c8e c3bd
000000f0: a00d 1c3c 1b4f 98be 7ce0 89bd 9e81 063e
00000100: 5f25 99bd 8f73 85be 7aa2 44bc 21b0 283e
00000110: bdb7 a9bd d684 b0bc 61cf 0cbe ab1e d13d
00000120: c40c 3cbd ada0 2ebf 6516 0fbf e3b4 8bbe
00000130: 6701 503e d2f2 b43e 4eef d53e b7e8 9a3e
00000140: bee4 a83e 2dab 6a3d b705 aabd 1989 023e
00000150: 6016 10be e7b5 803e 8301 f43d e106 003e
00000160: 4c4e 043e 5d6e 98be 9147 bd3e d734 7abd
00000170: ab29 ab3e e06d 153e 6ad7 ea3e bdbb 013e
00000180: 9adf cc3e f050 a5bd 8c09 fabd 9928 993e
00000190: d118 82bd 000b 673d 81af c23d b0ed ddbe
000001a0: f37a 3f3d 1744 4cbe 508f 7cbd 5be8 a63e
000001b0: ea27 a03d b9e6 df3d 73ad 22be 3728 88be
000001c0: ab1f ff3d 9e13 f1be a3b2 25be 2f29 eebe
000001d0: 1a3e 72be 545e 9f3e 463c 8b3e 3ae0 a5be
000001e0: c903 9a3e bce2 ab3e 5d0b 03bf e2b7 06be
000001f0: 6e30 0ebf e04c 09bf 5e02 b93e cd33 c1bd
00000200: 6bb4 aabe 850b 26be 7932 0f3d 5e75 813d
00000210: eae0 93be f056 d1bd 7a27 8d3e 8c4f 33be
00000220: 4b63 79be a684 8bbe ce2e 733e b28c 253e
00000230: ffd0 913e b786 8abe da3b 77be 66e3 6fbe
00000240: 00ef 223e 4782 193e 2a14 68bd 75b1 83bc
00000250: b6a3 0ebe 495e ddbe 74d8 603e a6ee c93e
00000260: e5c3 81bd 9b77 833d c84d f5bd fa0e adbe
00000270: 7a64 02bd d788 b53d 2c1b babd 5a9c e2bd
00000280: 37f7 493e b53d 16be fd8d e03c d320 893d
00000290: 028d 1c3e cccf c8be 4211 7c3d 9a8b 703c
000002a0: aca9 613e dfac 973d 3e84 283d d6c7 85bd
000002b0: 04f9 923c 4db6 85be d3c8 98be 1c06 2d3d
000002c0: 8527 883d 72d1 253e c7a1 783e b0ad f6bd
000002d0: 4d0e 5cbe 03ca fbbd 7ee7 283e 6100 25bc
000002e0: 8e35 2fbe 5bd7 033e 305e 9bbe 8ad0 92be
000002f0: b705 b13d 75dc 97be 3a46 c6be 3a62 54bd
00000300: 6009 b43e 64f8 8a3e b901 233e 4849 893e
00000310: 696a 04be ac66 803e db19 0d3e 8c18 ba3e
00000320: a5e7 573d c0d7 5a3e a460 653e 8a25 aa3d
00000330: db73 893e ec84 093f 4e70 a43d cf70 babe
00000340: 43e7 213e 7009 f13e 4a29 e0be 1982 e5bc
00000350: b4bf 4a3e 7679 95be 36ee 723d f5cc 1f3f
00000360: 8897 1b3e aabb f53d 49e5 e23e 7286 843e
00000370: cb96 0a3f 0a7d 9c3c bd99 cbbe 5b1e 30bf
00000380: 883d f3be 7a7d 16bd d0c5 0b3e 8205 873e
00000390: fd7c a1be 28c2 703e 7bd9 6cbe 5aac 853e
000003a0: 9dd9 02be 68af 15be d2b4 e3be 579c d2be
000003b0: 039c 2bbd da4e d9be bee1 40be b93a b93e
000003c0: 37d0 4dbe abe7 5dbc b456 fe3e bd78 a9be
000003d0: 9f17 97be 417f 4c3e 020b 22bb 3b0e 54be
000003e0: ac1e 803e 995e 363e 8a81 c8bd 2ab2 ae3e
000003f0: 351f f63d cdcf 83be f9e6 3e3d c921 29be
-0.20980068 -0.31654903 0.16814244 -0.124054894 -0.059791617 -0.46333826 0.3600929 0.07150464
-0.31193557 0.12604086 0.15851557 -0.022012949 0.2502996 0.27298328 0.13068129 0.03850757
-0.1484823 0.14835338 -0.05918141 0.34897572 0.75131255 -0.3637018 -0.19988377 0.023761446
-0.24772638 -0.3206001 -0.046963535 -0.25812832 0.6917606 0.34236965 -0.78193474 -1.092131
-0.7551169 0.53685325 0.3625254 0.058834907 -0.07879943 -0.21381842 -0.12098836 -0.09869395
-0.22557762 -0.17156155 -0.10896222 -0.009529348 -0.22721405 -0.21047527 -0.36755636 0.26059625
0.24411781 -0.39573565 0.24129158 0.24966207 0.030213198 -0.40291584 -0.26232153 -0.31767124
-0.058556587 -0.10577452 0.11465356 -0.09548685 0.009524733 -0.29747853 -0.0673227 0.13135383
-0.07477831 -0.26064727 -0.012001628 0.16473438 -0.082869984 -0.021547716 -0.13750984 0.102109276
-0.04591061 -0.6821392 -0.55893546 -0.27286443 0.20313035 0.35341507 0.41784137 0.30255672
0.32987016 0.057292152 -0.08301871 0.12747611 -0.14071035 0.2513878 0.11914351 0.12502624
0.12920493 -0.297717 0.36968663 -0.06108555 0.33430228 0.14592695 0.45867473 0.12669273
0.40014344 -0.08072078 -0.12208852 0.29913786 -0.063523896 0.056406975 0.09506131 -0.43345404
0.046748113 -0.19947849 -0.06166011 0.32599148 0.07820113 0.10932679 -0.15886478 -0.26593181
0.12457212 -0.4708528 -0.16181426 -0.46515796 -0.23656502 0.31126654 0.27194422 -0.32397634
0.30081013 0.33571422 -0.51189214 -0.13156083 -0.5554265 -0.53632927 0.3613462 -0.09433708
-0.33340773 -0.16215332 0.034960244 0.06321214 -0.28882533 -0.1022166 0.2756918 -0.17510813
-0.24354284 -0.2724964 0.23748323 0.16166952 0.28479764 -0.27055904 -0.24143925 -0.2342659
0.15911484 0.14991103 -0.056659855 -0.016075829 -0.13929638 -0.43235996 0.2195757 0.39439887
-0.06336192 0.06419297 -0.11977726 -0.3380049 -0.031834103 0.08863991 -0.09087214 -0.11064978
0.19723211 -0.14671977 0.027411455 0.06695714 0.15288165 -0.39221036 0.061539896 0.014681721
0.22037381 0.074060194 0.04114174 -0.06532256 0.017941006 -0.26115647 -0.29840717 0.042242154
0.06648163 0.16193178 0.24280463 -0.12044847 -0.2148983 -0.1229439 0.16494557 -0.010070891
-0.17110273 0.1287512 -0.30345297 -0.28674728 0.08643668 -0.29660383 -0.38725454 -0.05185149
0.35163403 0.27142632 0.15918626 0.26813722 -0.12931217 0.25078332 0.13779394 0.36346853
0.052711148 0.21371365 0.22400147 0.08307941 0.26846203 0.5371845 0.08029233 -0.3641419
0.15810876 0.47077513 -0.437815 -0.028016137 0.19799691 -0.2919423 0.059309207 0.62422115
0.15194523 0.11998685 0.44315556 0.25883824 0.5413634 0.019102592 -0.3976573 -0.6879632
-0.47507882 -0.036740758 0.13649678 0.2637139 -0.3154067 0.23511565 -0.23129837 0.26108056
-0.12778325 -0.14617693 -0.44473892 -0.41134903 -0.04189683 -0.4244297 -0.18836114 0.36177614
-0.20098959 -0.0135440035 0.49675524 -0.33099928 -0.2951021 0.19970419 -0.00247258 -0.20708553
0.250234 0.17809524 -0.097903326 0.34120303 0.12017671 -0.25744477 0.04660699 -0.16516794

encoder.encoder.0.conv.bias f4 [32]
00000000: 6ed2 e83d 62e0 603e f9a2 1abb 1163 ed3d
00000010: 62ec 1f3e d16b 673e 1ef1 89be 8c1f 5e3e
00000020: 12be f03b 3e10 d6bd a004 87bb 01e9 bc3b
00000030: 3892 9c3e 1272 a43d 4dae 133e 2734 933e
00000040: edb7 68bd ead4 8b3e 0b84 3b3e ce45 1a3e
00000050: f9d4 883d 85ae bcbd 12a6 923b a19e c1bb
00000060: 897f dfbb 05e1 153e 992a 41bb 6eac a8bd
00000070: 36f4 953e a58b b7bd 4edd 8d3b 23a4 8abe
0.11368261 0.21960595 -0.0023595674 0.11591161 0.15617517 0.22599722 -0.2694177 0.21691722
0.007346877 -0.10452317 -0.0041204244 0.005765081 0.30580306 0.0802957 0.14421959 0.28750727
-0.05681603 0.27310878 0.18312089 0.15065691 0.06681246 -0.092129745 0.0044753635 -0.0059088026
-0.0068206233 0.1463662 -0.0029474853 -0.08236013 0.2928788 -0.08962182 0.00432936 -0.2707835

encoder.encoder.1.conv.weight f4 [32, 32, 3, 3]
00000000: d246 db3d 9ff5 d33d a3b2 a83d 192c dc3c
00000010: 5dc9 613d 58d3 803d f253 7dbd da8f 3cbb
00000020: 5b2b 813d e0b7 2dbd 5299 0ebd 7397 28bd
00000030: 5761 0b3d c286 c83c e4b3 52bd 6e8c 463d
00000040: 31c6 823d 3ad0 6abb 031b 2fbc 93f6 92be
00000050: 233a bcbe 4e4b 92bd e30a b4be 6445 edbe
00000060: 2dd2 75be 7565 b8be 8d08 e0be edcf 09bd
00000070: b508 ea39 b788 83bd f238 59be dd91 b8bd
00000080: 1d1e d4bd 9985 34be 9f66 22be bbc0 83bd
00000090: 772e c03b d886 b13d 7820 683d 35cc e83c
000000a0: 0f87 063d 502e 323d 3fab 34bd 7d87 3e3d
000000b0: 2406 aa3c d9eb 24bd 555d 6d3d 5986 b33d
000000c0: 434c 94bc df86 afbc 83b9 2b3d c801 35bd
000000d0: cd30 543d 40b2 253d 70ea 783b 77d5 013d
000000e0: 593f 443d 0459 4d3c 28a9 63bc bc51 563c
000000f0: fcae 0e3c 24da 0bbc 7a4e b7bc 82bc a5bc
00000100: 1944 81bc 3143 8a3d 67f2 f0bc 2f80 b4bc
00000110: 5822 b43c fd40 e3bc d81c 943d 4037 883c
00000120: 31ca dabd 2bb7 f7bd 50d0 d8be 86f1 7bbe
00000130: 76dd 05bf 4770 08bf 9d28 e6bd e741 9ebe
00000140: d4ad 07bf 80fb 223c 62a7 b5bd 0b35 76bd
00000150: f501 d13c ccb9 533c f1e7 f0bd c766 503b
00000160: 6b1e 4d3d 20ee 6dbd cf39 963d b659 943d
00000170: 9a60 3cbe e928 d43d 816e 8a3d fa77 e1bd
00000180: 6cf1 353e bc4e 893d c129 1dbe a8b4 70bd
00000190: 04e1 92bd 29a3 473c d2a3 403d 9e20 82bd
000001a0: 3b29 253d 1ec4 473d 176e 0bbd 1330 d83c
000001b0: e1bd 203d b125 763d 8645 e73d 7463 b33d
000001c0: 68e6 f63d edfc ee3d 5b93 c73b a469 ee3d
000001d0: 9250 493c 2b99 b4bd f876 14bc 660a fe3c
000001e0: 2a0f 52bd 8dd9 c23d de68 de3d 91ae 973d
000001f0: f998 693e 5626 0a3e 568f e03c 5d51 a1bb
00000200: 6d8c bd3b dee5 713d 263f b8bc ab2c a83c
00000210: c96f 4a3d 732e fb3c b3f2 c43c ce39 ca3c
00000220: 2ac8 913d 8ce7 a63d 4dfb c63d 02af c73c
00000230: fba9 7b3c 97c6 803d 2183 5c3d 038d 083e
00000240: 3c50 b5bc 4ae1 8a3d 7822 e0bc 5a7d ee3c
00000250: 5471 14bd aaef 903d f966 8e3d 7ac2 143d
00000260: 2968 1ebd cb0d 973d 6aa6 b93d 14da bf3c
00000270: eeca 843d 22a3 4b3d 9151 9a3c 9eab 6d3d
00000280: 534c 023d 0b69 213d 7efc 59bd 84b5 ef3c
00000290: cafb 0abd 1a01 943d 6dfa 843d 477b 883c
000002a0: 1868 dd3c 95e0 ea3c 1280 693c 9949 f23b
000002b0: d4a4 17bc c011 9a3c b27e 563c cffd ab3c
000002c0: b3fa c93c 2e6c a2ba 9ff4 223d f8e6 3abc
000002d0: fdc5 3a3c 2e2d 163d 9fd6 cd3d cf27 723d
000002e0: 16c3 b8bb b6a9 0b3d 3dbb 0b3e d2e4 d9bc
000002f0: 81ba af3d de06 a5bc be9e 22be f0d6 efbd
00000300: c04f 39bd 79ff dabd df99 a4be 92bb 7fbd
00000310: 546f 9ebd 7252 19be d488 023e befa 843d
00000320: dc40 66be 1988 083e 6f73 c43d 1f6d 47be
00000330: 8537 b63d ddbc f2bc ffb2 8ebe d7b4 643e
00000340: ae07 7a3e 8011 683e 4160 983e eaee f73e
00000350: 16da 153f 61b9 413d 643f 3e3e cdb5 ca3e
00000360: 9944 8cbe 56ab f3be e9c5 00bf c925 88be
00000370: 5c9a ebbe 706f 1bbf a749 53bd 9f09 17be
00000380: d7bc 11bf b7cf 523d fb31 063d b638 e2bc
00000390: 2252 0eba f44b 5b3d eb95 4b3d b6bd 933d
000003a0: 5bcd a3bc 19af 60bd 1c58 da3d 3784 d43d
000003b0: 5046 263e 4818 163e 6ed6 fd3c 00ca 083e
000003c0: 4784 663e 456e 313d c890 c8bc 9abb a9bb
000003d0: 6e4d 1ebe e186 d73d 6c5c 5d3d 46b9 5dbd
000003e0: e094 d33d 0927 10bc b51e 163d f12b 9f3c
000003f0: 6000 283c 19df 103d d35b db3d 879d ef3d
0.10706867 0.10349583 0.08237197 0.026876496 0.055123676 0.062903106 -0.061847635 -0.0028772266
0.063070975 -0.042411685 -0.034814186 -0.04116006 0.034028377 0.02447832 -0.05144109 0.048473768
0.06385458 -0.003582968 -0.010687592 -0.28703746 -0.36763105 -0.071432695 -0.35164556 -0.46342003
-0.24005957 -0.36014906 -0.43756524 -0.03364556 0.00044638445 -0.06422561 -0.21213129 -0.09012196
-0.10357306 -0.17629088 -0.1585946 -0.06433245 0.005864914 0.086682975 0.05667159 0.028417686
0.032843646 0.0435012 -0.044108626 0.04651593 0.020754881 -0.040263984 0.057950336 0.08765859
-0.01810277 -0.021426616 0.041924965 -0.04419115 0.051804353 0.040453196 0.0037981533 0.031697717
0.047911976 0.01253343 -0.01389531 0.01308101 0.008708712 -0.0085358955 -0.022376288 -0.02023149
-0.015779542 0.06751097 -0.029412461 -0.022033779 0.021989033 -0.02774095 0.07232064 0.016627908
-0.10683096 -0.120954834 -0.4234643 -0.24603853 -0.5229105 -0.5329632 -0.11238215 -0.30909654
-0.52999616 0.009947658 -0.08869816 -0.06010918 0.025513628 0.012922715 -0.11762989 0.0031799541
0.050077837 -0.05808842 0.07335245 0.072436735 -0.18396226 0.103593655 0.06759358 -0.11009212
0.17767876 0.067044705 -0.15347959 -0.058766037 -0.071718246 0.0121848965 0.04703123 -0.063538775
0.040322524 0.048771016 -0.034040537 0.026390111 0.039243583 0.06009454 0.112925574 0.087592036
0.12055665 0.116693355 0.006090564 0.11641243 0.012287276 -0.08818277 -0.0090615675 0.031010818
-0.051283993 0.09514151 0.108598456 0.07406343 0.2281226 0.13491186 0.027412098 -0.0049230293
0.0057845623 0.05905711 -0.022491049 0.020529112 0.049423013 0.030661797 0.02404151 0.024685767
0.071182564 0.08149633 0.097159006 0.024375442 0.015360351 0.06287878 0.05383599 0.13335042
-0.022132985 0.06781252 -0.027360186 0.029112507 -0.03624089 0.07076962 0.06953234 0.03631828
-0.038673554 0.07375678 0.09064944 0.023419417 0.06484018 0.049716122 0.018837722 0.058024995
0.03181107 0.039406817 -0.05321931 0.029261358 -0.03393153 0.072267726 0.064930774 0.016660346
0.027027175 0.028671542 0.014251726 0.0073940274 -0.009255607 0.018807292 0.01309173 0.020995049
0.024655676 -0.0012391859 0.03978407 -0.011407606 0.011399743 0.03666418 0.10050701 0.059119996
-0.0056384904 0.034097396 0.13645644 -0.026598368 0.08580495 -0.020144876 -0.15880868 -0.11710918
-0.04524207 -0.10693259 -0.32148644 -0.06243474 -0.07736078 -0.14972857 0.12747508 0.06493138
-0.2248568 0.13333167 0.0959233 -0.1947522 0.08897308 -0.029631073 -0.27870938 0.2233461
0.24416992 0.22662926 0.29760936 0.48424464 0.585359 0.04729593 0.18578869 0.39591828
-0.27396086 -0.47591656 -0.50301987 -0.26591328 -0.46016204 -0.60716915 -0.051583912 -0.14749764
-0.5692877 0.051467624 0.03276251 -0.027614933 -0.0005429109 0.05353923 0.04970352 0.07213919
-0.019995382 -0.054854486 0.10661337 0.103767805 0.1623776 0.146577 0.030986037 0.13358307
0.22511397 0.04331805 -0.0244831 -0.0051798346 -0.15459225 0.10523773 0.05404322 -0.05413177
0.1033113 -0.008798369 0.03665038 0.019430133 0.010253996 0.035369013 0.107108735 0.11699968

encoder.encoder.1.conv.bias f4 [32]
00000000: 6da3 323c 9bf6 db3c 86fa 10bd 7b72 8d3c
00000010: 2d77 873d 1a61 963d 7486 f7bc 0988 0cbc
00000020: 4e87 313d cf36 403c 22bd e43c 6b1e 6a3c
00000030: b980 323d 19db f63c cf36 cd3c 508f 613b
00000040: 6153 a33c 6a12 6fbc 6d1f d5bc 4f41 81bd
00000050: da1a 3c3d eec7 a03b 04e5 bf3c f2ef 27bd
00000060: 0b94 d73c 6a76 0d3d e7a4 233d 94a3 59bd
00000070: 1b64 4e3b 0573 483d e05f 82bd c742 50bc
0.010903222 0.02685099 -0.035395168 0.017266503 0.06614528 0.073427394 -0.03021548 -0.008577355
0.043341927 0.011731817 0.027922217 0.014289479 0.04357979 0.03013377 0.025050549 0.0034417696
0.01993722 -0.014591793 -0.026015962 -0.06311285 0.045924045 0.004906646 0.023424633 -0.041000314
0.02631571 0.034536757 0.039952185 -0.053134516 0.0031492773 0.048937816 -0.06365943 -0.012711233

encoder.encoder.2.conv.weight f4 [32, 32, 3, 3]
00000000: 9fb4 1a3d 6e1f a13c 25f9 a93d b3c6 0fbd
00000010: 2a8d 2b3d c825 8e3d 3eee a4bd 9064 27bd
00000020: 4493 59bc e746 1c3d dde6 70bd f928 153e
00000030: f093 94bd 9b91 90bd d499 39bd d831 14be
00000040: c0da c0bd 91f5 e8bb 6c77 943d 237a cebc
00000050: b13f 153d 236b 8d3c 6199 603d f86f 8a3d
00000060: c000 d7bc 2706 8a3e 3115 873d 83f4 82bc
00000070: ae24 66bd 5f78 603d 4126 12bc 8ef2 15bd
00000080: 2df9 eabc c380 9e3c aa6e 4dbc ee15 2cbb
00000090: b74f 383c bdda 2d3d aa9c 213e 6900 a3bd
000000a0: 812d bf3a 5ff3 313c c216 89bd bbdf 40bd
000000b0: e2e1 073d 3648 023e c0ba ddbd 224f 5c3d
000000c0: 4dcb 0ebb 2961 62be dd51 f9bc 95bd 9fbd
000000d0: fdce 3cbe 98d5 11be 1c8a ea3c 8a28 a3bc
000000e0: bafb 623d 9626 043c 5735 ac3c d08b 1f3d
000000f0: 43a7 dc3b 2390 9ebd d0a6 883b 4b47 01bd
00000100: 4741 26b9 4d76 93bd 54f1 96bc 520f b5bc
00000110: ae96 c4bc 72ad 68bc 33af f4bb 257f 8cbd
00000120: 9330 19bb 7429 26bd a236 b33c 8f2a 363d
00000130: 2925 0bbd fc3a 283d bcb3 d03c 8805 abbc
00000140: c8a9 46bd 0d73 36bd ecb3 ca3c cc1c 9e3a
00000150: ba54 c5bc 6fe4 dbbc 857a 8abd ad3c 853c
00000160: 3aff 47bc 4aac a5bc 1be3 bbbc e4f1 243d
00000170: d811 873d bbf7 d8bc ad9e 333d 0caf 873c
00000180: 98e4 0ebe c5c9 273c 462a bd3d 04c2 88be
00000190: 7d03 a1be c085 8bbe 5e2f c2bd a8c9 4ebe
000001a0: cc55 22be e6c8 90bd 6a5d e0be 0586 6cbd
000001b0: 109b c63d f3e2 ce3d 8ce1 ff3d a736 89bd
000001c0: a73a 09be f68d 87bd 11a8 f8bd 5ead 04be
000001d0: 890d 013b c701 6b3d 5bff d5bc 70df eb3d
000001e0: 2c5a 853c 145c 32bd f780 2e3c 90b4 b4bd
000001f0: 8c2b a13c b7f9 32bc 394e a6bd e5e7 3bbe
00000200: 38b9 a23b 7099 95bb b4bc 29be 8b73 1e3e
00000210: 0eea f43c 9813 0dbc 8fa0 5e3d 11a4 433d
00000220: c784 223e 2422 9bbd 3e70 7abe df5d 59be
00000230: d945 6e3d 3c2c 7fbb 775c e13c c640 a93b
00000240: 4d3f 44bd 819b 89bd 34d0 84bd 54fa 3b3d
00000250: 4c29 55bd 5bfe 9ebc 1f83 e13c dddf 0e3d
00000260: c2cb 21bd d4ed f2bd 7d98 94bd f351 6cbd
00000270: eb28 95bd ced8 a1bd dabd 68bb 895c eb3c
00000280: 2f9b 2d3c f85d d8bd d0f4 39bc c899 76bd
00000290: c815 ac3d f567 7fbd e8cb cf3d 7e2d 5b3e
000002a0: 7782 80bd 3e95 973d 6062 843e ed74 84bd
000002b0: e2c9 473d 6c16 83bd 816e 7dbc 6e07 4abd
000002c0: ce10 75bd c2bc a9bd 68b0 5bbb 25a3 f63d
000002d0: 1c27 66bd b14a a83d ecf1 29bd 86fd bbbd
000002e0: 825b 5bbd 7c75 fc3d aeeb 12be 2e5f 153e
000002f0: 21b9 c13c 1e3f fbbc 6d35 73bd f9ab 113d
00000300: a450 1c3d e2b3 5abd ad90 e23c 87a6 0abd
00000310: 9532 d83c 1c36 923c 52e0 ab3d d8d5 213e
00000320: 7948 193e 24be 493d 6ae9 06bd f88e 47bd
00000330: 342b f23d 7ad4 d4bd 66fb 043c 5aae d73c
00000340: 8528 003d 3d1c 813c 8375 7bbc 222e c03c
00000350: 342d 8b3b f83a 59bc 9cb4 93bb e378 25bd
00000360: ead6 11bd 174f 82bd b3a0 103d 5b7d e53c
00000370: f262 73bc e2b3 95bc b127 a9bd e7a6 05bc
00000380: 4d70 40bb a3b9 59bb 4cab 053d 3c98 073e
00000390: 8068 c0bc 9be1 303e 4fb1 3d3e 0fbc babc
000003a0: 1b75 683e 5b62 153e 39fa 52bd 3c82 373d
000003b0: 2f62 8b3c 09c8 79bd 47ec 723d a8f9 a83d
000003c0: 4ce6 88b8 141f 903d e649 e53d dbdd e83c
000003d0: a21c d0bb a36e 4dbe 2da8 e0bd c981 ccbe
000003e0: 810b acbd d981 5bbe 0858 8d3d c017 32bd
000003f0: 631a 97bc 1385 88bb 1aff ea3c e16f 8f3d
0.03776991 0.019668307 0.08299474 -0.035101604 0.04188267 0.069408 -0.080532536 -0.04086739
-0.01327974 0.038153555 -0.05881392 0.14566411 -0.07254779 -0.07059022 -0.045312718 -0.14472139
-0.09416723 -0.007109352 0.072493404 -0.025204724 0.036437694 0.017263 0.054833774 0.067596376
-0.026245475 0.2695782 0.06595839 -0.015985733 -0.056187324 0.054802295 -0.008920253 -0.03660827
-0.02868327 0.019348508 -0.012538591 -0.0026258188 0.011249474 0.042444933 0.15782419 -0.079590626
0.0014585705 0.010861247 -0.06693794 -0.047088366 0.033174403 0.12722859 -0.10826635 0.053786404
-0.0021788657 -0.22107376 -0.030434543 -0.07799832 -0.18438335 -0.14241636 0.028630309 -0.019916791
0.055415846 0.00806584 0.021021528 0.038951695 0.0067338063 -0.07742336 0.004170276 -0.03156213
-0.00015855311 -0.072002985 -0.018425621 -0.022102032 -0.02399763 -0.014201509 -0.0074671744 -0.068601884
-0.00233749 -0.040566877 0.021876637 0.04447418 -0.033970986 0.041071877 0.025476329 -0.020876661
-0.04850176 -0.044543315 0.024743997 0.0012063025 -0.024088252 -0.026842324 -0.0676165 0.016264284
-0.012206847 -0.020223755 -0.02293544 0.040269747 0.065952 -0.026485315 0.043852497 0.016562961
-0.13954389 0.010240977 0.09236579 -0.26710522 -0.31447974 -0.2725048 -0.09481691 -0.20194113
-0.15853041 -0.07069568 -0.4382127 -0.057745 0.096975446 0.10101881 0.124941915 -0.06699877
-0.1340128 -0.06618874 -0.12141431 -0.1295676 0.0019691905 0.057374742 -0.02612274 0.11517227
0.016278349 -0.043544844 0.010650865 -0.08823502 0.019674085 -0.0109237945 -0.081203885 -0.1835018
0.0049659275 -0.0045654103 -0.16575891 0.15473764 0.029896762 -0.008610629 0.05435234 0.047763888
0.15870963 -0.07574871 -0.2445688 -0.21227215 0.05817208 -0.0038936278 0.027509911 0.0051651923
-0.04791193 -0.06719113 -0.06485024 0.04589303 -0.052041337 -0.019408396 0.027528344 0.03488146
-0.03950096 -0.11861768 -0.07255647 -0.05769534 -0.07283195 -0.0790268 -0.003551355 0.028730648
0.010596081 -0.10564798 -0.011349872 -0.06020525 0.08402592 -0.062355 0.10146314 0.21404073
-0.06274884 0.074015126 0.25856304 -0.06467614 0.048776515 -0.06400761 -0.015468241 -0.04932349
-0.05983048 -0.08287956 -0.0033521894 0.12042836 -0.05618964 0.08217371 -0.04149048 -0.09179215
-0.053554066 0.12327096 -0.14347717 0.1458709 0.023647847 -0.030669745 -0.059377123 0.035564397
0.038162842 -0.053394206 0.027656877 -0.03385022 0.026391307 0.017848067 0.08392395 0.15804231
0.14969052 0.049253598 -0.032937445 -0.04872033 0.118246466 -0.10392089 0.008116579 0.026328254
0.031288642 0.015760535 -0.015347841 0.023459498 0.004247332 -0.013258688 -0.0045076143 -0.04039849
-0.03560535 -0.063627414 0.035309505 0.028013876 -0.014855133 -0.018274251 -0.08259524 -0.008157468
-0.0029363811 -0.003322222 0.032634065 0.13241667 -0.02348733 0.17273562 0.18524669 -0.022794751
0.22700922 0.14588301 -0.051508162 0.044801936 0.017014591 -0.060981784 0.059307363 0.08250743
-6.5278815e-05 0.07037178 0.11195736 0.028426101 -0.0063510695 -0.20061736 -0.10969577 -0.39942768
-0.08400632 -0.21436252 0.06901556 -0.04347968 -0.0184452 -0.0041662543 0.028686095 0.07003761

encoder.encoder.2.conv.bias f4 [32]
00000000: 7696 92bd 0f80 fb3c fec9 9bbc 00d3 70bd
00000010: 3e6a 30bd 0d5b 5b3d 238b 70bd 6c9a 833c
00000020: 0a7f e4bc 080a fb3d 0320 d43b 0307 49be
00000030: 216e c2bb b1b0 143d 826c 4dbe 41b3 713c
00000040: 04c2 21bc 9399 173d cb53 d5bb 824c cdbd
00000050: db11 0fbe 8588 e2bc d035 05bd d500 953d
00000060: 61d3 a83d f3d1 e3bd f77a 4bbc 3c42 57bd
00000070: fb1c 8c3c f28e 2c3d 36b5 c7bb 4218 953d
-0.071576044 0.030700712 -0.019017216 -0.058794975 -0.04307007 0.05355363 -0.05872644 0.016064845
-0.027892608 0.12257773 0.0064735427 -0.19631581 -0.0059335385 0.03630132 -0.20060924 0.01475221
-0.009872917 0.037011694 -0.006510233 -0.10024358 -0.13971655 -0.027652988 -0.032522023 0.07275549
0.08243442 -0.11124029 -0.012419454 -0.0525534 0.017103663 0.04212851 -0.0060946 0.072800174

encoder.encoder.3.conv.weight f4 [10, 32, 3, 3]
00000000: 046f e0bd 2a25 863d f311 38bd 9821 45bd
00000010: e29a efbd e227 06be 274a 61bd ccdb 89bd
00000020: 5d7c 24bd 3deb 193d 724a a33c ca99 df3c
00000030: 5e1a 873d a8bb 00bd 4bec 863d 9e9c 34bd
00000040: 3d6c aa3c e401 0cbb 4e71 78bd c98a 163d
00000050: 3001 22be c0d0 933d 1970 0abd d2ef 6cbd
00000060: 7ca7 153d df0d 91bd 84fa 463e 2911 fe3c
00000070: c1c5 04bd fc4a 2cbd ec9c 3d3c 5032 a7bd
00000080: dad1 c4bc 355d d4bb 6048 aebc e7c0 60bb
00000090: f8a7 e63b 4385 af3d 8433 923d 7e1e ee3b
000000a0: 44fa 68bd 8c8f a7bc 7d9b d63c ad97 e03b
000000b0: e55f 843d 09fd 643d 2359 7f3d 0619 14bc
000000c0: 7b0e 00bd 65d3 09bd 82af 7b3d 7b82 2cbd
000000d0: 101a 23bd 6cb3 10bc 737f 113d d443 703c
000000e0: 02b6 933c 6ca2 213c db77 643d fd17 6dbc
000000f0: 90d7 38bd df67 523d 80ac e03a e4c6 1e3c
00000100: 8fe7 44be ab67 163e 6eea 1a3c dec7 a5bd
00000110: 30d3 1abd eddc 013d 8065 9b3e b42f 0dbd
00000120: dc9f 3a3d 69cd c8bd bb6f 893d 5651 95bb
00000130: 4517 463c 895c 96bd 5142 973d 1907 063e
00000140: d9fd 503e 755c ab3b b316 013d b529 8f3c
00000150: 1369 07bd de6b cf3d c865 b83d 46b3 b33b
00000160: 79c9 a53c 0a59 81bd ab39 97bc b272 303d
00000170: 314b ca3d 8954 f03d 3ccb d03d ac3b 10bd
00000180: 3e98 063d 3e9c aabb cff5 7ebe 31fd 4fbd
00000190: 6b0f d33d 1fdd 893d a6ef 3cbe 03c9 adbd
000001a0: 8f00 ef3c f77c cf3d 0902 0c3e 0731 bb3d
000001b0: 1e53 253d b58c aa3c dec7 873d ff02 00bd
000001c0: 13b4 e8bc 5e9e 6e3d 72d0 1cbd 83ae 523d
000001d0: 5e43 c83c d86a 473d b0fa 8ebc 3aaf c6bc
000001e0: 2831 0c3d 62f3 523c dd6d 01bc ea62 7f3d
000001f0: 9da8 1d3d 9e3e fd3a aeff 89bd eb5d 57be
00000200: 51fd af3d d821 06be db33 f6bd 9159 e33d
00000210: 82f1 5ebd 93f1 b03e 0983 d8bd 383d 8f3b
00000220: 6170 2dbd 8c19 583d 4c12 f439 4aaa 303d
00000230: 2366 943d c5a8 5bbc 7abe 223c 1e79 663c
00000240: 290c 233d 47f0 3f3d df9c 1e3c ddec 1a3d
00000250: c593 01be eefe 92bd 4a1d 653d 2544 53bd
00000260: 9a23 ed3d 91f3 bfbd 0cbd cb3b 3423 a13d
00000270: 9b55 d4bd 6874 d73d 8c2e 0fbd d170 343e
00000280: 88ee 563c 039d 003e 051b c13c 3d42 703c
00000290: 516a 473b 4890 3bbc 792d 44bd d300 e3bd
000002a0: d7d0 023e 0687 b63d 2696 f1bd 63a4 e43c
000002b0: 079c d0bc c47d 513c 5557 25bd 355b 32bd
000002c0: 32d7 73bc 63a2 a2bd 2c7f 1c3d 353d 6c39
000002d0: 7efd 76be 90ca dfbe 2ebc cd3d 0342 39be
000002e0: d0fc 1c3e 8752 9dbd 6c28 493c fca6 3f3e
000002f0: 570d 76be 91fc 5bbc 209a 82bc b5d2 623a
00000300: 6f5c b13c cc5d 033d 01d0 9d3d 1709 883d
00000310: 09a3 173d 98e2 0f3d 9a97 813c e8a1 1bbc
00000320: 322d 0bbd dc41 443d fcc3 5cbc 70eb 463c
00000330: 6440 cc3b aee8 00bc 1358 9c3c a3a0 66bd
00000340: 49f7 203d b63e 823d 930e ffbd 769a d73b
00000350: d72a 283c 57f9 183d ae98 71bd 9eba 2dbe
00000360: 2e32 48bc ecf9 e0bd 3ad6 a3bd 8988 e3bd
00000370: c07d 443c 7d28 3bbd 5186 443e 6495 4a3d
00000380: f808 973d bbb8 663c 4acb ea3b c0db 64bd
00000390: b681 d7bc d2ab fc3b 1685 343d 3c4f debd
000003a0: 7ae1 003e 5986 5ebc 69ac 853c d2f3 903d
000003b0: edde 803d e84f 933c adc2 b93c 230e c4bc
000003c0: eae8 05bd da07 153d cd3d 6c3d 9fa5 a43d
000003d0: 477a 7e3a ea98 aa3d f777 91bc 0f6c 0dbc
000003e0: 7524 9cbd fd50 c239 f7bd 75bd b475 f93d
000003f0: 5bf0 30bd 7380 8f3d 937c 75bd 9dfd b9bd
-0.109586746 0.06550057 -0.044938993 -0.04812774 -0.116994634 -0.13101152 -0.055002358 -0.06731376
-0.040157665 0.037577856 0.01993296 0.027295012 0.06596826 -0.031428963 0.06588038 -0.044094674
0.020803565 -0.0021363432 -0.06065493 0.03675345 -0.15820765 0.0721755 -0.03379831 -0.057845898
0.03653668 -0.07082724 0.19431502 0.031014042 -0.032415155 -0.0420637 0.011573058 -0.08163893
-0.024025846 -0.0064808377 -0.021274745 -0.0034294666 0.0070390664 0.085703395 0.07138732 0.0072668185
-0.056879297 -0.02045419 0.02619719 0.0068540187 0.06463603 0.055905376 0.062340867 -0.009039169
-0.03126381 -0.033648867 0.061446674 -0.042116623 -0.039819777 -0.00883184 0.035521936 0.014664609
0.018031124 0.009865385 0.055778366 -0.014471051 -0.04512745 0.05136859 0.0017141253 0.009690974
-0.19228958 0.14687984 0.009455306 -0.08094762 -0.03779906 0.031704832 0.30350876 -0.03446932
0.04556261 -0.09804804 0.06710764 -0.004556815 0.012090509 -0.073418684 0.07385696 0.13088645
0.20409335 0.0052295276 0.03151579 0.017475942 -0.03305919 0.10127996 0.09003788 0.0054840175
0.020237671 -0.06315811 -0.018460115 0.043078132 0.09877623 0.11734874 0.10195014 -0.035213158
0.032860033 -0.005206614 -0.24898456 -0.05077857 0.10305675 0.067316286 -0.18450794 -0.084856056
0.029175071 0.10131257 0.13672651 0.091402106 0.04036247 0.020819047 0.066299185 -0.031252857
-0.028406179 0.0582565 -0.038284726 0.05143596 0.024446186 0.04868588 -0.017453521 -0.024253476
0.034226567 0.01287541 -0.007899729 0.06235019 0.03849088 0.001932103 -0.0673822 -0.2103192
0.08593238 -0.13098848 -0.120216094 0.11101068 -0.05442954 0.34559307 -0.10571868 0.0043713115
-0.0423435 0.05275874 0.0004655294 0.04313115 0.072460435 -0.013406937 0.009933108 0.0140669625
0.03980652 0.046860006 0.009680956 0.037823547 -0.12654026 -0.0717753 0.055936135 -0.05157866
0.11579056 -0.093726285 0.0062176045 0.078680426 -0.103678904 0.105202496 -0.0349565 0.17621161
0.013118394 0.12559895 0.023572454 0.01466423 0.003042836 -0.011447974 -0.04789493 -0.110841416
0.12774979 0.089124724 -0.11796217 0.027910417 -0.025465025 0.0127863325 -0.04036649 -0.043544013
-0.0148828495 -0.07941129 0.038207218 0.00022529515 -0.24120137 -0.4370923 0.10045658 -0.18091588
0.15330815 -0.076817565 0.012277704 0.18716043 -0.24028526 -0.013426916 -0.015942633 0.00086526136
0.021650521 0.032071874 0.07705689 0.06642359 0.037020717 0.035128206 0.01581936 -0.009499051
-0.03397865 0.04791437 -0.013474461 0.012141094 0.006233262 -0.007867975 0.019084966 -0.05630554
0.03929833 0.063596174 -0.12453952 0.0065796925 0.01026412 0.037347164 -0.058983497 -0.1696572
-0.012218995 -0.10985169 -0.07999845 -0.111100264 0.011992872 -0.04569291 0.19191863 0.049458876
0.073747575 0.014082129 0.007165347 -0.055873632 -0.026306968 0.0077109123 0.044072233 -0.108549565
0.12586012 -0.013581836 0.016317563 0.07077755 0.0629252 0.017982438 0.022675836 -0.023932522
-0.032692827 0.03638444 0.057676125 0.08039402 0.0009707552 0.08329947 -0.017757399 -0.00863172
-0.07624141 0.00037062904 -0.059995618 0.12180653 -0.04319797 0.070069216 -0.059933256 -0.09081576

encoder.encoder.3.conv.bias f4 [10]
00000000: 0490 b13d 738c 723d 4a90 a13d c74c 913d
00000010: dc70 133d 8bab 523d 52a6 9a3d 2feb 803d
00000020: e098 ac3c 3fa9 2abc
0.08670047 0.059215974 0.07888849 0.07094722 0.035996303 0.051433127 0.07551254 0.06294858
0.02106899 -0.010416328

decoder.decoder.0.dconv.weight f4 [10, 32, 3, 3]
00000000: cc15 1b3e 96aa 40be 36b7 6ebe c91f ad3b
00000010: e0f2 65be f6a0 883e d2a2 e33d c07a 88be
00000020: 6c32 a43e 9995 d03d eb22 87be f21b 5c3e
00000030: 202a 33be aa09 48be 9b11 2ebe 2b4b 71ba
00000040: b7ba af3e a74e 9cbd c9c0 bbbd cb79 7cbd
00000050: 232a db3c 0452 21be 29a7 d7bd 8e28 b33e
00000060: e0d9 fcbc 7a8d 1ebe 30bb 39bd 0250 ee3c
00000070: 772a bcbb 250b 503e a4f7 54be cb98 f23d
00000080: 379d dd3d eeb2 01be 7210 1dbe d35e 15bd
00000090: 5dea 4a3d c5c2 6a3c 9c29 2bbc 1680 1fbe
000000a0: 7d24 0d3d a762 173e 2bef 213e dc4a cbbd
000000b0: 9439 333e da05 a8bd 3423 18be b323 a6be
000000c0: b791 7a3e d71d 143e b5cd 60be 2ac3 94be
000000d0: 54e2 3b3e fac4 7b3e 8916 2c3e 292e ef3d
000000e0: 247b 5c3c 8a24 33be ab9d 56bd 1b71 863e
000000f0: f864 24bd 47a1 1b3e caf3 37bd 83f2 3bbd
00000100: 61d5 5cbc 3f45 063c 2ce9 e73d 2a0f acbd
00000110: 7b59 493d 6174 bcbd 9b0e 9abd 79b7 bebc
00000120: 6c6e 0c3d 9f8d 4d3c 03bd 23bd 2664 703d
00000130: 290a 19bd 81c8 72bd 298f b5bd ff12 92bd
00000140: 9e61 7fbd 20db e03d 013f a53d ee71 24bd
00000150: c19b f4bd e9e4 983d ec78 2d3e c2d9 843e
00000160: e959 29be dc46 7c3e 1d8b cebb 4b72 463d
00000170: 276c d33d 4c76 29be a551 22be 8f38 b13d
00000180: 3eb1 53be 2d65 0c3e 8f83 ec3e 0e33 143e
00000190: a4a8 d63c 110f 493d 9ad2 b03d b0a5 e5bd
000001a0: d548 38be f0c7 dd3d 4c2d bc3d 7a27 433d
000001b0: a303 cf3d 5f66 5ebc 4c57 273d bd0a 54be
000001c0: 2618 aebe e029 c03e e197 2c3e 4cde 0abe
000001d0: 7455 b93e 9d8f 373d 90c0 02bd 8d43 103d
000001e0: f644 bc3e 0899 98bc e1dd 0fbe 1a2e e53c
000001f0: 08f9 42bc e1b9 23bc 62c6 043b f8b2 d73d
00000200: a09f 503d 007d 193c 9ffe e53d 0188 b03d
00000210: f0fa a9bd de80 57be 7b85 debe 7228 eb3c
00000220: 1909 d23d 1520 dc3d 29d5 c53d 38eb 4cbe
00000230: 1e57 0fbe 0276 f3bd 2952 8fbd e99a 93bd
00000240: aca0 6e3b 800c df3a 1517 333b a362 ee3b
00000250: 1ce5 0dbe e4d4 183e d1f7 2a3e ffd6 33bd
00000260: e5da a93d 5675 8e3c fb99 88bd 21ae 8ebb
00000270: 4010 8fbb 27d6 a5bd fadd d13c b5df 0ebc
00000280: 167c 913c 4550 14bd 1dce d03d b91b b63b
00000290: 4e27 223e feda 923d 1eae 94be 9c6d ec3b
000002a0: 7dc3 8ebe 5b4e b63d 9451 313e 9ffd 6c3d
000002b0: f7b3 3abe bbf6 7c3e 29b3 903d d989 1abe
000002c0: 25cf 1d3e a788 fabd af20 b1bd 9bfb a53e
000002d0: 9bb2 573d eaa6 483d 81be 34be 6521 d43d
000002e0: 2123 d5be 7d93 1c3e 64c2 363e 4960 7dbe
000002f0: 08c6 15be d168 d6bd afbd 0bbe 5300 4dbd
00000300: ba7a e4bd feaf 5ebd 43b8 243e 3a99 c23b
00000310: 9e44 9c3d 3d1e 1f3e dbaf b4bc d564 463d
00000320: 3496 c93b 3538 b23d a1f3 a2be 6589 743e
00000330: 3cb5 453e 0372 5bbe 5f1e 2f3e 699f 15bd
00000340: 4a1e fabe ffa3 efba c3c4 74bd 22c0 71bd
00000350: edcf 833e 8459 b8ba a397 573d 074d 3d3e
00000360: 4bfb 8b3e f9fa 993e 55a0 873d 3e02 5c3e
00000370: 9b05 d2bd 953e 843d 9e49 9c3e ac53 653e
00000380: 507a 953e 1215 b1bd 03a9 d03c 3165 bc3e
00000390: df26 7b3e 8f2e 76bd eb06 94be 637e 943e
000003a0: c211 b7bb 6663 943d 7ca9 d23d 89b8 d7bd
000003b0: 6216 b13d 184d edbd 54cc c9be b5a3 403e
000003c0: 3e68 4a3d 5657 de3d 42ba 823e 4ca4 80bd
000003d0: 5bf8 203e c01c 27bc 47e8 543d a824 02bd
000003e0: c86d aa3d 8728 8bbd 5607 5d3d c674 b53d
000003f0: eca8 3bbd 2b56 453e 7a97 ccbc 3edc 9b3c
0.15145034 -0.18815073 -0.23312077 0.00528333 -0.2245593 0.26685303 0.1111504 -0.2665615
0.3206972 0.101847835 -0.26393828 0.21495035 -0.17496538 -0.19534937 -0.16998903 -0.00092046213
0.3432214 -0.07632189 -0.0916763 -0.06163959 0.02675349 -0.15753943 -0.1052993 0.34991878
-0.03086561 -0.15483657 -0.04534453 0.029090885 -0.005742367 0.20316751 -0.20797592 0.11845549
0.10821002 -0.12665913 -0.15338305 -0.036467385 0.049539912 0.014328663 -0.010446932 -0.15576205
0.034458626 0.14783727 0.15813892 -0.09926388 0.17502433 -0.08204241 -0.14857179 -0.3244911
0.24469648 0.14464508 -0.21953471 -0.29055148 0.18348056 0.2458686 0.16805471 0.11678726
0.013457093 -0.17494407 -0.052396458 0.26258168 -0.040135354 0.15198241 -0.04491023 -0.045885574
-0.013478608 0.0081952205 0.11323771 -0.0840133 0.0491576 -0.09201885 -0.07522317 -0.023280846
0.034284994 0.012545972 -0.039975177 0.05868926 -0.037363205 -0.059273247 -0.08865196 -0.071325295
-0.062348954 0.10979295 0.08068658 -0.040147714 -0.1194377 0.07465536 0.1694066 0.25947386
-0.16538204 0.24636406 -0.0063032047 0.048448842 0.10323363 -0.16549033 -0.15851457 0.08653366
-0.20673081 0.1371047 0.4619412 0.14472601 0.026203461 0.049086634 0.08633919 -0.11213243
-0.17996533 0.10829151 0.09188327 0.04764507 0.101081155 -0.013574212 0.040854737 -0.20707221
-0.340028 0.37531948 0.16854812 -0.13561362 0.36198008 0.044814695 -0.031921923 0.03522067
0.36771363 -0.018627658 -0.14049484 0.027976085 -0.011900194 -0.009993047 0.0020259847 0.105321825
0.05093348 0.009368181 0.11230206 0.08619691 -0.08299816 -0.21045253 -0.43461213 0.02870581
0.102556415 0.10748307 0.09659798 -0.20011604 -0.13998076 -0.118877426 -0.06998093 -0.07207281
0.0036411686 0.0017017275 0.002732699 0.007274942 -0.1385693 0.14924961 0.16696097 -0.043906208
0.08293704 0.017389935 -0.066699944 -0.004354254 -0.004365951 -0.08097487 0.025618542 -0.008720328
0.017759364 -0.036209363 0.10195563 0.005557504 0.15835306 0.07170676 -0.2903909 0.007215215
-0.2788352 0.08901664 0.17316276 0.05785906 -0.18232714 0.24703495 0.07065422 -0.15091647
0.1541105 -0.122330956 -0.08648812 0.32418522 0.052660566 0.048987307 -0.17650796 0.10357932
-0.41628364 0.15290637 0.17847592 -0.24743761 -0.14626324 -0.10469211 -0.13646577 -0.050049137
-0.11156221 -0.054367058 0.16085915 0.005938676 0.07630275 0.15538879 -0.02205651 0.048436005
0.006151939 0.08702127 -0.318265 0.23880537 0.19307417 -0.21430211 0.1710143 -0.03652898
-0.48851234 -0.0018283128 -0.05975796 -0.059021123 0.25744572 -0.0014064764 0.052634846 0.18486415
0.2734016 0.3007429 0.06622378 0.2148523 -0.102549754 0.06457249 0.30524915 0.223952
0.2919488 -0.08646597 0.025471216 0.36795953 0.24526547 -0.060102995 -0.28911528 0.29002675
-0.0055868337 0.07245521 0.10286233 -0.10533244 0.08646847 -0.1158697 -0.39413702 0.1881245
0.04941582 0.10856502 0.25532728 -0.06281337 0.1571974 -0.010199726 0.05197933 -0.03177324
0.0832172 -0.06794839 0.053962074 0.088601634 -0.045815393 0.19271152 -0.024974573 0.019025918

decoder.decoder.0.dconv.bias f4 [32]
00000000: 763d ca3d cfc3 763e b813 0c3e 5ad5 8c3d
00000010: 11b9 86bd a232 153e b191 d1bd cfe3 54bd
00000020: 8833 e6bc cbe7 c23d 9dc8 7e3e 59ab 453e
00000030: 490b 8cbd c990 94be 9b63 073d 5f19 153d
00000040: 4081 96bc 0f99 e9be c8e1 9c3e 557f c23d
00000050: e2ec 173e 8047 9cbc 6493 213d cd25 b8bd
00000060: cf16 45be 9c55 ba3d cf68 8ebd da6a d9bd
00000070: 266f 93bd a08c 28bd 0ae2 dbbc 61a4 933e
0.09875004 0.24098133 0.13679397 0.06876631 -0.06578267 0.14570096 -0.102328666 -0.051975068
-0.028100744 0.09516867 0.24881215 0.19303645 -0.0683809 -0.29016712 0.033053976 0.03640115
-0.018372178 -0.45624587 0.30641007 0.09496943 0.14836457 -0.019077063 0.039447203 -0.08991585
-0.19246982 0.0909836 -0.069535844 -0.106160834 -0.07198934 -0.041149735 -0.026841182 0.2883635

decoder.decoder.1.dconv.weight f4 [32, 32, 3, 3]
00000000: bf97 31be e100 ed3d 060c 96bc 4ac1 89bd
00000010: 042f edbc 6cb0 3b3e 3ea5 093e c6e4 c43e
00000020: 42c1 523e b709 ecbd 3842 c5bd 40f1 16be
00000030: 079e 5bbe b058 b2be 9b2c 24be 4b1e 023d
00000040: 2ccf edbe c024 de3e dec9 27be b968 4ebe
00000050: e940 4abc 85fa 093e c3d8 94be f605 c43d
00000060: 1cf6 3e3e e56b dd3d 65d4 093e cf38 163e
00000070: a5f8 bebe 41c5 8cbd a823 7bbe f2fd d4be
00000080: 6afe 7abe dc1b 5e3d ff7c 7ebc b993 1f3e
00000090: dc01 bdbd b317 2fbe b4d4 73bd fdf7 26be
000000a0: 016c cfbe 2026 e1bd db93 30be d82f d93e
000000b0: 11d6 4b3f b384 a83e 79e0 4ebe f506 f2bd
000000c0: ea3c 55bf 5aa0 abbe b2dd 713d 931f 953d
000000d0: ca4a 643e 7070 283b fe05 f1bd f968 ffbe
000000e0: d79f 71bd 6b27 80be f3dd bfbc f53e 6ebd
000000f0: ecd9 b23d 532e 803e ae94 593e fd5f 40be
00000100: 838a 43bd dad0 9f3c 4595 73be f7ee b7be
00000110: 8602 06be 6eac 61bb 6dba fbbc 652a 1d3e
00000120: ee30 1abd 6668 c1be 4c78 9abd ca6d 94bd
00000130: cf30 88be e798 c0bc 8ec6 c2be bb64 473d
00000140: a32a 273e 6de8 1a3e bd4c 213d efa9 e3be
00000150: d3d0 a8be ca0d a9bb 3d70 c03e 3875 29bf
00000160: 4d0d a33d fa81 533e ed08 983c e3ce 0cbd
00000170: 3bd1 0c3a a99a 1bbf e11a a83c 4d11 45be
00000180: 973e 9b3e d826 2dbc e188 5a3c 45b4 213e
00000190: ca70 65bb bbdb 83bd 1e47 c3be ff4e 3dbe
000001a0: bbe4 893e e94f 033f baa8 f5be c666 0d3e
000001b0: 42bb 8fbe 1f33 2ebf 6976 a0be a159 83be
000001c0: 6c14 fdbe 638a 5b3d f78d dfbd b65a 6abe
000001d0: 6ada a1be 6769 303e d4f4 96be dbf8 113e
000001e0: 4eeb 0ebf fcbb 1bbe d28c 5cbe 9a1a 8dbe
000001f0: 278b f33d c178 d8ba 562f 033d 9943 4dbe
00000200: cac2 c6be ca2e d9be f045 53bd 2e86 483e
00000210: 41df 22bd 2171 2a3e 123b 0bbd eff6 4ebe
00000220: 802d 90be f56e 9abc f583 183c 576f 0dbf
00000230: baa2 9e3e 023d 0aba 07b4 9e3e fdac db3a
00000240: 038d 11bf c374 33be c1af 21bf 83e1 80be
00000250: fe19 aa3e 30dd c53d f402 04bf 6055 2b3f
00000260: 2a4f cd3e 2b80 d7bc b890 81be cf9b f6be
00000270: 3d46 28bf f9e4 82bd 410d dfbe 037e 0fbc
00000280: 2204 e73d f413 acbd bde2 2e3e 0f3c 40be
00000290: a327 91be 3b37 e2be 402d 91be 18bd b63e
000002a0: fd1e 6c3a 724d 4f3e 3469 d83d 3581 27be
000002b0: 5768 02be 1009 e3be 89ba 51be a553 8fbd
000002c0: 1587 a0be bc46 4bbd 859e 1d3e 4790 9f3e
000002d0: d4c6 65bc ccc6 44bd bea9 19bd c816 2bbd
000002e0: a24b 4a3c 4462 d13b 6680 513d 929b de3c
000002f0: f0eb 6abc f38e 2bbe fc7c 16be 0954 1ebf
00000300: 782b 21bf b1a9 80be 0b9b 073d 5155 bdbe
00000310: fcee d8be eece 143e 7788 933c 58e0 5d3d
00000320: ac76 a4be 6dac a6bd 0e77 03bf 2f1b f1be
00000330: 1498 b43e adf5 2f3e d9bd 89be 49ed 2abe
00000340: 28dc 1b3e a001 adbe 0633 31be 0c03 a23e
00000350: c385 6f3d 7f42 8fbd f880 fdbe 94d8 d33e
00000360: de55 8cbe b867 29be 4b91 47be 3c30 0f3e
00000370: a771 11be f74e 9bbe d7f4 21bd 7e93 4a3d
00000380: d246 913d 43d8 b6bd db10 88bc 3595 913e
00000390: 9266 19be e842 8fbe fd7f 9d3e 8aaa 533e
000003a0: 3c84 09be 0512 2cbe f005 74bb 8f6d 9b3e
000003b0: 8bee f9bc b475 f0bc f446 75be a933 4ebd
000003c0: c27e 40bd 9031 36bf e625 96bc af16 1abe
000003d0: 7a1e 8fbd 57d3 883d f3d0 21be 5728 c0bd
000003e0: 5a15 fa3e f8ba 8a3e 78e2 723e 1314 773e
000003f0: 2d04 2cbf 7ea4 c43c f570 a13c fcfc f7be
-0.17343043 0.11572433 -0.01831628 -0.0672632 -0.028953083 0.18329018 0.13441941 0.3845579
0.20581535 -0.115252905 -0.09631771 -0.14740467 -0.21447001 -0.34833288 -0.1603264 0.03176717
-0.46447122 0.43387413 -0.163856 -0.20157136 -0.012344577 0.13474472 -0.29071626 0.095714495
0.18648571 0.10811595 0.13459928 0.14670108 -0.37299076 -0.06873561 -0.2452532 -0.41599995
-0.24511114 0.054225788 -0.015532731 0.15583695 -0.0922887 -0.17098884 -0.05952902 -0.16305538
-0.40512088 -0.109936 -0.17243902 0.42419314 0.79623514 0.3291374 -0.20202817 -0.11817733
-0.8329607 -0.33520776 0.059049316 0.07281413 0.22294155 0.0025701784 -0.11768721 -0.49884775
-0.058990326 -0.25030074 -0.023421263 -0.05816551 0.087329715 0.25035343 0.21248123 -0.18786617
-0.047739517 0.019508768 -0.2378741 -0.35924503 -0.130869 -0.0034435051 -0.030728543 0.15348203
-0.03764432 -0.37774962 -0.07542476 -0.07247503 -0.26599738 -0.02351041 -0.3804211 0.04868005
0.16324858 0.15127726 0.039379824 -0.44465587 -0.3297182 -0.0051591145 0.3758563 -0.66194487
0.07961521 0.20655051 0.018558944 -0.03437699 0.0005371754 -0.6078287 0.02052063 -0.19244881
0.3032119 -0.010568343 0.013338299 0.15791424 -0.0035009854 -0.06438395 -0.38140196 -0.18487166
0.2693232 0.5129381 -0.4798029 0.13808736 -0.28072554 -0.68046755 -0.3134034 -0.2565432
-0.49429643 0.053598773 -0.109157495 -0.22886166 -0.3161195 0.17227708 -0.29483664 0.14255087
-0.55827796 -0.15208429 -0.21538094 -0.27559358 0.118917756 -0.001651548 0.032027565 -0.20045318
-0.38820487 -0.4241851 -0.05158037 0.19582435 -0.039763693 0.16644718 -0.03399188 -0.20211385
-0.28159714 -0.018851737 0.009308805 -0.55248016 0.30983526 -0.0005273373 0.30996725 0.0016759929
-0.5685579 -0.1752501 -0.63158804 -0.25172052 0.33222955 0.09661329 -0.51567006 0.66927147
0.4009946 -0.026306232 -0.25305724 -0.48165748 -0.65732175 -0.06391329 -0.435648 -0.008758071
0.11280085 -0.08402243 0.17078681 -0.1877291 -0.28350553 -0.44182763 -0.28354836 0.35691142
0.0009007303 0.20244387 0.10566941 -0.16357882 -0.12735115 -0.44342852 -0.20481314 -0.06998376
-0.3135306 -0.049628004 0.15392502 0.31164762 -0.014024455 -0.04804115 -0.037515394 -0.041769773
0.012347134 0.006389888 0.05114784 0.027173791 -0.014338478 -0.1675375 -0.14696115 -0.6184698
-0.62956953 -0.25129464 0.033106845 -0.36979154 -0.4236983 0.14532062 0.018009407 0.05416903
-0.3212179 -0.08138356 -0.5135354 -0.47091052 0.35272276 0.17183562 -0.26902655 -0.1669208
0.15220702 -0.33790302 -0.1730462 0.3164295 0.058477174 -0.06995105 -0.49512458 0.41376173
-0.2740926 -0.16543472 -0.19489019 0.13983244 -0.14203511 -0.30333683 -0.039540138 0.049457066
0.07093586 -0.089279674 -0.0166096 0.28434148 -0.14980534 -0.27980733 0.3076171 0.20670524
-0.1342935 -0.16803749 -0.0037234984 0.30357024 -0.030509254 -0.029353 -0.23952848 -0.050342236
-0.046995886 -0.71169376 -0.018328618 -0.15047716 -0.06988235 0.06680935 -0.15802364 -0.09382694
0.48844415 0.2709577 0.23719203 0.24128751 -0.6719387 0.024004217 0.019707182 -0.484352

decoder.decoder.1.dconv.bias f4 [32]
00000000: 2711 8f3d 01b7 0a3e 29e1 cf3d 0efd a33d
00000010: 240c 35bd 8f11 6d3e ae23 c73d ca17 783d
00000020: cfa8 193d 9c2b 8a3d d3f8 80bc 86b2 aa3d
00000030: fab1 033e 438f 8b3d ffdc f73d cb25 523d
00000040: 8177 db3a 89d7 043e 2e3a fd3d bba6 973d
00000050: 3abd abbd a27d c13c 8667 84bc e865 863e
00000060: fd27 f43d ea27 1a3e 8df5 d9bd 2ea4 f93d
00000070: 6e00 403d 1758 ebbd 4d26 b53d 94f7 c73d
0.069856934 0.13546373 0.10150368 0.08007251 -0.04420103 0.2315123 0.09723602 0.060569562
0.037514504 0.06746599 -0.015743649 0.08334832 0.12860861 0.068144344 0.121026985 0.051305573
0.0016743989 0.12972845 0.123646125 0.07404848 -0.083857015 0.023619477 -0.016162645 0.26249623
0.1192169 0.15054289 -0.10642538 0.12189518 0.04687541 -0.11491411 0.08845196 0.09764019

decoder.decoder.2.dconv.weight f4 [32, 32, 3, 3]
00000000: 7608 85bd 626e e1be c1f7 50be d8f4 25be
00000010: 8842 0c3e 187f 4abe 7a62 323e f7ca 81be
00000020: a24d 263e 9093 83bb 84b4 493c 9e1d 16bb
00000030: c56b 1cbd 60ef 80bc 01d5 c83c 63ab 24bd
00000040: 8e1f 26bd c607 3abd 726c 043d fa00 59be
00000050: 5a7e 4fbd 42de 23be d53f 2cbe 42dd 42bd
00000060: 303a d93d 5c3a f4bc 69e7 64bd e396 573e
00000070: ba12 913e 11e0 c63b b851 1d3d 690e d03e
00000080: 791b 28bd dcb8 443e 7d12 a83e 9bd2 10be
00000090: 4b76 89be 87e6 1bbe a384 e4bd ec05 23be
000000a0: 9b3c 123c 0da0 253e 7394 acbe a8ca be3e
000000b0: 9ce5 183e af42 543d f871 703e 12c3 873e
000000c0: e417 c33e ead0 f13e b922 ba3d 7f87 7a3e
000000d0: 916b e03e 1de6 7cbc af1f a2be 8263 e9bd
000000e0: b06e b7bd 13e4 31be 652c 3abd 1543 93bd
000000f0: ee13 aabd dca5 963e 8f87 fe3e add2 113d
00000100: e32c fdbd 372d 5fbe c271 36be d849 f53c
00000110: 7938 37be 9186 5abe 507c 82be ffe7 c5bd
00000120: 24a0 ccbd 1d28 83be 71ad 9fbe 8260 46be
00000130: bc45 18be cccd 48be cb2a 813e 477d 033e
00000140: e1d9 a13e ee52 2fbe 419d 023e 9b67 4abe
00000150: e0a5 c53e 0aa7 843e 29b9 b13c 38dc 3a3f
00000160: 081f 1d3e c8e4 27bc 203c 45be dd2d 88be
00000170: 5402 903b 2513 a5be 38ed 87be af72 e1bd
00000180: 77cc 88be 017d c5be 7450 3dbd 088a 2bbe
00000190: 71c8 18be 99d8 60be 655e 35be 9078 15be
000001a0: 3728 b23c 542b 3bbe f481 003e 344f 983d
000001b0: 7e34 173e e625 9b3e ff5f 733e 1634 d7bd
000001c0: d3de 77bd f664 8d3d 6e3b f93e 676e 29be
000001d0: 591a abbe 4f37 63be d1dc 34be 81b0 f6bd
000001e0: 7afc 04bf 560c ddbd 9271 a1be f585 2bbe
000001f0: d121 dc3d 4648 263e 7efc 5bbd 4e58 b8bd
00000200: ef2c 11be 2cdc 4dbe ed54 05be c064 c93d
00000210: a6eb 73be 5441 5e3e e0a9 b73e d62b 28be
00000220: d736 a1be 8f7c 81be 8700 a4bd 0f76 35bc
00000230: d897 653c 6bb1 753e 3ee5 553e cd8f bc3e
00000240: 5007 3dbc 7a01 d93c b0b3 82bd 0dca 4b3d
00000250: 9b30 083f 6dee 0dbd a672 f53c 6d2c c83c
00000260: bfb6 193d 3dba 933e 2bac e6bc 7b3e acbe
00000270: 886d 843e 32af ab3e be15 723e 41d9 b33e
00000280: 8d01 0bbf 9771 023f 511f d33c d568 e0bc
00000290: 4a42 82be 144f 253f bdcf 5b3e 7d9a 963e
000002a0: 7b66 bbbd f7a3 073c f687 95be 7869 f1bc
000002b0: a4bc 14bd 5d81 92bd b3f3 87bd 18a3 193f
000002c0: c6f3 2a3a c5e5 0dbd 6a7f 90bc 7a12 503d
000002d0: 2038 65be 9d33 ea3b 9141 cabd f4ec 85be
000002e0: 37a5 1dbe f0c9 a1bc dc78 b7be 8b68 d1be
000002f0: 199b 6e3d bf5a d3bc 622c f2bd 868d 36be
00000300: f257 16be 1214 bdbd feb0 c8bd 4835 fcbd
00000310: 4cf0 a93c 3d4e 3c3e e36a 81be 5f2f a7be
00000320: e57f 1cbe db3c 32be ff61 f8bd 706f 873e
00000330: 7e89 93be 97f7 0c3e e304 9a3e dd0b 05be
00000340: 2e0d 4abe 2f6b a7be 1164 9cbe ccfa c1be
00000350: 2625 fb3b e58b 063e 8e02 8b3e 5867 423e
00000360: 6a0a c0bc c005 1bbe 5b7e 8e3c c0a0 8c3c
00000370: 43f7 e1be 7736 90bb bd99 5abd 7a83 29bf
00000380: 6581 cb3c 4fe0 5b3d 6c8f 063d 6917 2c3e
00000390: 0911 fc3e c108 703e 5c87 883e cb57 163f
000003a0: 7ae1 5a3e b84f 343d accf 043e 9567 e1bd
000003b0: b2cd d9bd 1c27 a9bd 89d5 85bc 2fee 163e
000003c0: 33a9 563e 1f68 72be 096a 8ebd a36b 24be
000003d0: 09e3 b4be d55c 7abe 4a31 f4bd e0cb 083c
000003e0: 409a 713c 534a b53d 4e42 ba3e 2d90 a53e
000003f0: b1b0 03bd 1242 1ebe f1f9 9dbd e869 87bd
-0.064957544 -0.44029528 -0.2040701 -0.16206682 0.13697255 -0.19775045 0.17420378 -0.25350162
0.16240552 -0.0040153936 0.012311105 -0.0022905837 -0.038188715 -0.015739143 0.02451563 -0.04020251
-0.040557437 -0.04541757 0.032329984 -0.21191779 -0.050657608 -0.16002753 -0.16821225 -0.04757429
0.106068015 -0.029812984 -0.055884752 0.21053652 0.283346 0.0060691913 0.03840801 0.40635994
-0.041041825 0.19211143 0.32826605 -0.1414284 -0.26848063 -0.15224658 -0.11158111 -0.15920228
0.008925582 0.16174336 -0.33707008 0.3726399 0.14931339 0.051821407 0.23480976 0.26516014
0.38104165 0.472297 0.09088654 0.2446575 0.43832067 -0.015435723 -0.31664798 -0.11395933
-0.08956659 -0.1737216 -0.045452494 -0.07190529 -0.083045825 0.29423416 0.49712798 0.035601307
-0.12362077 -0.21794592 -0.17816833 0.029942438 -0.17892636 -0.21340396 -0.25485468 -0.0966339
-0.09991482 -0.25616542 -0.31187013 -0.19372752 -0.14870352 -0.19609755 0.2522796 0.12840758
0.3161154 -0.17121479 0.127553 -0.19766085 0.38603115 0.2590869 0.021694737 0.7299228
0.15343869 -0.010247417 -0.19261217 -0.2659749 0.004394809 -0.3224117 -0.2654817 -0.11008202
-0.26718494 -0.38571933 -0.046219304 -0.16751873 -0.14920212 -0.21957625 -0.1771179 -0.14596772
0.021747692 -0.18278247 0.12549573 0.07436982 0.14766118 0.30302352 0.23767088 -0.105079815
-0.060515236 0.069040224 0.48678154 -0.16546021 -0.3341854 -0.22189067 -0.1766236 -0.12045384
-0.5194775 -0.107933685 -0.3153196 -0.1675032 0.107486375 0.16238508 -0.053707592 -0.09001218
-0.14177297 -0.2010352 -0.13020678 0.0983367 -0.23820361 0.21704608 0.35871792 -0.16422972
-0.31487152 -0.25290343 -0.08007913 -0.011075511 0.014013253 0.23993461 0.2088823 0.3682846
-0.011537388 0.026489962 -0.06381929 0.049753238 0.53199166 -0.03465121 0.029961895 0.024435246
0.037527796 0.28853026 -0.028158268 -0.3364142 0.25864816 0.335321 0.23641106 0.3512669
-0.5429924 0.50954574 0.025771769 -0.027393738 -0.254412 0.6457379 0.21465965 0.2941474
-0.09150406 0.008278838 -0.29205292 -0.029469237 -0.036312714 -0.0715358 -0.06638279 0.60014486
0.00065213104 -0.034642953 -0.01763888 0.05079887 -0.22384691 0.007147266 -0.09875787 -0.26157343
-0.15395056 -0.019749612 -0.35834396 -0.40900072 0.05825338 -0.025800107 -0.118248716 -0.17827424
-0.14681986 -0.09232344 -0.097993836 -0.1231485 0.020744465 0.1838922 -0.2527686 -0.3265333
-0.15283163 -0.17406027 -0.12128066 0.26452208 -0.28815836 0.13766323 0.30081853 -0.12992807
-0.1973159 -0.32698962 -0.30545095 -0.37886655 0.0076643405 0.13139303 0.27150387 0.18984735
-0.023442466 -0.15138912 0.017394235 0.017166495 -0.44133958 -0.004401024 -0.053369273 -0.6621624
0.024841974 0.053680714 0.03285162 0.16805805 0.49231747 0.2344084 0.2666577 0.5872771
0.21375075 0.04402134 0.12969846 -0.11006085 -0.106349364 -0.08259413 -0.016337173 0.14739297
0.20962982 -0.23672532 -0.06953818 -0.16056685 -0.35329464 -0.24449475 -0.11923464 0.008349389
0.014746249 0.08852067 0.3637871 0.3233656 -0.032150928 -0.15454891 -0.07713688 -0.06611997

decoder.decoder.2.dconv.bias f4 [32]
00000000: 0f19 ee3c dc6c b3bd d351 51bc dcbb 38bb
00000010: ed2a 473e 9875 a83c 4523 7a3d b762 803c
00000020: 085e eb3d 0005 743e 0959 9c3d f116 873d
00000030: 6d0a 933c 03b3 af3d 0647 063e 940a 253e
00000040: f58b 9cbe c1ed 5d3d 6557 8fbc f95e 9b3b
00000050: bdc1 223d d1de b33d 1c5c cb3d 94a0 773d
00000060: 4b75 0c3d 2433 083e 2953 e63d 5437 a43c
00000070: ffc8 b1bb 1214 523d df76 133b 6f06 5b3d
0.029064683 -0.08760998 -0.012775856 -0.0028188145 0.19449969 0.020563886 0.061068792 0.01567207
0.114925444 0.23830032 0.076341696 0.065961726 0.017949307 0.08579066 0.13113031 0.16117316
-0.3057553 0.054181818 -0.017497728 0.004741546 0.039735544 0.08782733 0.09929678 0.060455874
0.034291547 0.13300759 0.1124633 0.020045914 -0.005425572 0.05128867 0.0022501273 0.053472932
