notebooks/saved_model/mnist_model/mnist_cae_1/mnist_cae00010.pth (torch, 541279 bytes, 51 tensors)

encoder.encoder.0.conv.weight f4 [32, 1, 3, 3]
0	0xbe18d62c	-0.1492545
1	0xbe91d11d	-0.28479853
2	0x3e2b6292	0.1673682
3	0xbe58b502	-0.21162799
4	0xbd384a0e	-0.0449925
5	0xbed099ff	-0.4074249
6	0x3e978cf8	0.29599738
7	0x3d6418c4	0.05568768
8	0xbe51b5d3	-0.20479517
9	0x3e336309	0.17518248
10	0x3e518a1e	0.20462844
11	0x3d2027fb	0.03910063
12	0x3e9452d1	0.28969434
13	0x3e9e12fb	0.30873856
14	0x3e3b624d	0.18299218
15	0x3dbdf82d	0.092758514
16	0xbdd9b2dc	-0.10629818
17	0x3e4d3e6b	0.20043342
18	0xbc91d388	-0.017801061
19	0x3eb5bc36	0.35495156
20	0x3f40e0c4	0.75342965
21	0xbe9331c1	-0.28748897
22	0xbe3f484a	-0.1867992
23	0x3bbf8571	0.005844765
24	0xbe90d3e6	-0.28286666
25	0xbea0484c	-0.31305158
26	0xbd110870	-0.035408437
27	0xbe871707	-0.26384756
28	0x3f2f8eff	0.6857757
29	0x3eabbeeb	0.33544096
30	0xbf434f23	-0.7629263
31	0xbf7fdb75	-0.9994424
32	0xbf2cf222	-0.67556965
33	0x3efd1ee9	0.49437645
34	0x3ea5c1b4	0.32374346
35	0x3c087b03	0.0083301095
36	0xbcda79f6	-0.026669484
37	0xbe44630e	-0.19178411
38	0xbd987e2e	-0.07445942
39	0xbdcabbbf	-0.09899091
40	0xbe606d7e	-0.21916768
41	0xbe0f979c	-0.14022678
42	0xbd967757	-0.07346981
43	0x3d11f11e	0.035630338
44	0xbe30d0e7	-0.1726719
45	0xbe46cb4d	-0.1941349
46	0xbeaef77e	-0.34173197
47	0x3e83e84e	0.25763172
48	0x3e7b1a18	0.24521673
49	0xbeb9270a	-0.36162597
50	0x3e7fea0c	0.24991626
51	0x3e7bc515	0.245869
52	0x3d5cfb75	0.053950746
53	0xbeba9be6	-0.36447066
54	0xbe864f02	-0.26232153
55	0xbea2a5ce	-0.31767124
56	0xbd6fd908	-0.058556587
57	0xbdd8a050	-0.10577452
58	0x3deacf7c	0.11465356
59	0xbdc38e9c	-0.09548685
60	0x3c1c0da0	0.009524733
61	0xbe984f1b	-0.29747853
62	0xbd89e07c	-0.0673227
63	0x3e1ccde7	0.1531292
64	0xbd68d32c	-0.056842014
65	0xbe731f75	-0.23742469
66	0x3b2982b6	0.0025865263
67	0x3e33a003	0.17541508
68	0xbd9776d8	-0.073957145
69	0x3beb8321	0.0071872626
70	0xbdf04129	-0.11731178
71	0x3df75a0b	0.12077721
72	0xbd9e7c92	-0.07738604
73	0xbf2ca27f	-0.6743545
74	0xbf137ccb	-0.57612294
75	0xbe807b65	-0.25094143
76	0x3e587ed7	0.21142136
77	0x3eb3a647	0.35087797
78	0x3eed25ac	0.46317804
79	0x3e982f39	0.29723528
80	0x3ea674d8	0.3251102
81	0x3ddd09f3	0.10792913
82	0xbda8e268	-0.082463086
83	0x3e260fcc	0.16216964
84	0xbdb8c01c	-0.09021017
85	0x3e7fb4b7	0.24971281
86	0x3e141476	0.1446093
87	0x3e19b143	0.15009026
88	0x3e04a184	0.12952238
89	0xbe8314d3	-0.25601825
90	0x3ed27aac	0.41109216
91	0xbd150e52	-0.03639061
92	0x3ec0b441	0.37637523
93	0x3e2cd5a4	0.16878372
94	0x3ef5350f	0.47892043
95	0x3e2026af	0.15639757
96	0x3eec95c8	0.46208024
97	0xbd4ff014	-0.050766066
98	0xbd2de806	-0.042457603
99	0x3e76ac8e	0.24089262
100	0xbd3da5c4	-0.046300665
101	0x3df0a5dc	0.11750385
102	0x3d827e0a	0.06371696
103	0xbeb62d27	-0.35581324
104	0x3dd87923	0.1056998
105	0xbe70fd1e	-0.23534057
106	0xbd37ea82	-0.04490138
107	0x3e9c1925	0.30487934
108	0x3dcf6db0	0.10128343
109	0x3dfa77ef	0.12229907
110	0xbe01665e	-0.12636706
111	0xbe74e9ed	-0.2391736
112	0x3de64714	0.11244026
113	0xbedb06c2	-0.42778593
114	0xbd5ee811	-0.054420535
115	0xbed74678	-0.4204595
116	0xbe56f69b	-0.2099251
117	0x3e819fd7	0.2531726
118	0x3ddfe974	0.109331995
119	0xbee47bf3	-0.44625816
120	0x3e709546	0.23494443
121	0x3e725cce	0.23668215
122	0xbebbf7fa	-0.3671263
123	0xbdb927b9	-0.090407796
124	0xbec88872	-0.391666
125	0xbedeeb25	-0.43538776
126	0x3e9d0855	0.3067042
127	0xbdf1b32a	-0.11801751
128	0xbea80386	-0.32815188
129	0xbe3d6ef8	-0.18499362
130	0x3d492c9a	0.0491148
131	0x3d8b36a8	0.06797534
132	0xbe9ccbef	-0.3062434
133	0xbde369fd	-0.111042
134	0x3e76a795	0.24087365
135	0xbe098bd0	-0.1343224
136	0xbe651cd1	-0.22374274
137	0xbe977372	-0.29580265
138	0x3e837914	0.25678313
139	0x3e1c4270	0.15259719
140	0x3e7d33ec	0.24726838
141	0xbe894f73	-0.26818427
142	0xbe7c9b3f	-0.24668597
143	0xbe729366	-0.2368904
144	0x3e57025c	0.20996994
145	0x3e39c6a7	0.18142186
146	0xbb080d06	-0.0020759716
147	0xbc4630c2	-0.012096586
148	0xbe34bcf7	-0.1765021
149	0xbecdf03b	-0.40222344
150	0x3e68ec41	0.22746374
151	0x3eb09793	0.34490642
152	0xbd395643	-0.04524828
153	0x3dc56551	0.09638465
154	0xbdbd7dd7	-0.09252518
155	0xbea3f552	-0.32023102
156	0xbc870095	-0.01647977
157	0x3dcddc12	0.10051741
158	0xbda5338a	-0.08066471
159	0xbdbb8417	-0.091560535
160	0x3e52bb1d	0.2057919
161	0xbe11636d	-0.14198084
162	0x3d6fb977	0.058526482
163	0x3ddd4de9	0.10805876
164	0x3e56299a	0.20914307
165	0xbeaef379	-0.3417013
166	0x3df26452	0.11835541
167	0x3da3acdf	0.07991957
168	0x3e8d9b94	0.2765776
169	0x3e018751	0.12649275
170	0x3dcec00b	0.10095223
171	0xbd1a9f0c	-0.037749335
172	0x3cf7d227	0.030251576
173	0xbe795d56	-0.24352011
174	0xbe8f0126	-0.27930564
175	0x3d397b7b	0.045283776
176	0x3db3730b	0.08762177
177	0x3e3ab498	0.18232954
178	0x3e75f011	0.2401736
179	0xbdd13daf	-0.10216843
180	0xbe48a214	-0.19593078
181	0xbd93ffaa	-0.072264984
182	0x3e2b28d7	0.16714798
183	0xbbc1d7ce	-0.0059156185
184	0xbe060c6d	-0.13090678
185	0x3de24a36	0.11049311
186	0xbe94d389	-0.2906764
187	0xbe564c87	-0.2092763
188	0x3dc86b57	0.097860985
189	0xbe99a9b3	-0.30012283
190	0xbebada82	-0.36494833
191	0xbd5a4a7e	-0.053293698
192	0x3ea64813	0.32476863
193	0x3e8e6211	0.27809194
194	0x3e18753b	0.1488847
195	0x3e95988f	0.29217955
196	0xbdd62e92	-0.10458101
197	0x3e857222	0.2606364
198	0x3e2c9a83	0.16855817
199	0x3ec2a07d	0.38013068
200	0x3ddcc545	0.10779814
201	0x3e89a886	0.26886386
202	0x3e7be388	0.24598515
203	0x3e0db045	0.13836773
204	0x3eb61369	0.35561684
205	0x3f10bd07	0.5653843
206	0x3e1c68d7	0.15274368
207	0xbebd06c4	-0.36919224
208	0x3e29886f	0.16555952
209	0x3eff5ac8	0.49873948
210	0xbee3e931	-0.44513848
211	0xbcacd681	-0.021098377
212	0x3e620729	0.22073044
213	0xbe8ff92f	-0.281198
214	0x3d850fdb	0.06497165
215	0x3f243445	0.64142257
216	0x3e41c6ed	0.1892354
217	0x3e172402	0.1475983
218	0x3ef6b18d	0.48182335
219	0x3e5859d7	0.21128021
220	0x3effe7a6	0.4998142
221	0xbc3f5ce2	-0.01167986
222	0xbee1ca59	-0.44099692
223	0xbf255e21	-0.64596754
224	0xbee47a31	-0.44624475
225	0xbc511110	-0.012760416
226	0x3e255d97	0.16148983
227	0x3e978898	0.295964
228	0xbe90ddd1	-0.28294232
229	0x3e825a83	0.2545968
230	0xbe4784ff	-0.19484328
231	0x3e95682e	0.29181045
232	0xbded26c7	-0.11579662
233	0xbde5267b	-0.1118898
234	0xbf012cb2	-0.50458825
235	0xbe86dcff	-0.26340482
236	0xbb9f5610	-0.0048625544
237	0xbeb7d593	-0.35905132
238	0xbe04f22c	-0.12983006
239	0x3eb0510f	0.34436843
240	0xbe57f0a2	-0.21087888
241	0xbd05d482	-0.032673366
242	0x3ee55474	0.44790995
243	0xbea4830b	-0.32131228
244	0xbe702065	-0.23449858
245	0x3e7c0ec5	0.24615009
246	0x3d64123a	0.055681445
247	0xbe5cab4d	-0.21549721
248	0x3e6138cd	0.21994324
249	0x3e2bb2fb	0.16767494
250	0xbe0680fe	-0.13135144
251	0x3e9e32ba	0.30898076
252	0x3e0bd5a0	0.1365571
253	0xbe70e990	-0.23526597
254	0x3d6b9a32	0.0575201
255	0xbe3847ab	-0.17996089

encoder.encoder.0.conv.bias f4 [32]
0	0x3ddde794	0.10835186
1	0x3e87338c	0.26406515
2	0xbb16e04d	-0.0023021877
3	0x3dee1ab2	0.116261855
4	0x3e34f20b	0.17670457
5	0x3e82d5e4	0.2555381
6	0xbe89f11e	-0.2694177
7	0x3e819703	0.25310525
8	0xba770c22	-0.000942411
9	0xbd7a476f	-0.06110328
10	0x3b0bfb6a	0.0021359571
11	0x3d355f92	0.044280596
12	0x3ea883dd	0.32913104
13	0x3da6ead7	0.08150261
14	0x3e309b08	0.1724664
15	0x3e9e715b	0.30945858
16	0xbd7b7079	-0.06138656
17	0x3e9a6a7d	0.3015937
18	0x3e71f4d9	0.23628558
19	0x3e43fc3b	0.19139187
20	0x3db5f61c	0.08884832
21	0xbd98ea9d	-0.07466624
22	0x3b196ebb	0.0023411948
23	0xbd74e53d	-0.05978893
24	0xbb23b6eb	-0.0024980854
25	0x3e3c0581	0.18361475
26	0x3b5c7104	0.0033636698
27	0xbd95adf0	-0.073085666
28	0x3ea00051	0.3125024
29	0xbdaaab7f	-0.083334915
30	0xbb812a5e	-0.003941818
31	0xbe98d8aa	-0.29852802

encoder.encoder.1.conv.weight f4 [32, 32, 3, 3]
0	0x3dcbae38	0.09945339
1	0x3d10e31b	0.035372835
2	0x3d034dec	0.032056734
3	0x3d2f4311	0.04278857
4	0x3d3a295a	0.045449592
5	0x3d5bdc19	0.0536767
6	0xbd137851	-0.036003415
7	0xbbe5c353	-0.00701181
8	0x3ce31bf4	0.02772329
9	0xbd4958f2	-0.04915709
10	0xbceff73c	-0.029292695
11	0xbce0f5dd	-0.027460987
12	0x3cdbd0d6	0.02683298
13	0x3c63f1df	0.013912647
14	0xbd625932	-0.055260845
15	0x3d22431b	0.039614778
16	0x3d684e21	0.056715135
17	0xbc14f742	-0.009092154
18	0x3d1fd773	0.039023828
19	0xbe7020cc	-0.23450011
20	0xbe86a6d5	-0.26299158
21	0xbd664dee	-0.056226663
22	0xbecf49fe	-0.4048614
23	0xbec29698	-0.3800552
24	0xbe3a97b0	-0.18221927
25	0xbe927ea4	-0.28612244
26	0xbed66a93	-0.41878185
27	0x3ce3559d	0.027750785
28	0x3ce9ddfc	0.028548233
29	0xbd8dc747	-0.06922775
30	0xbe2d9ae8	-0.16953623
31	0xbd15ab76	-0.03654047
32	0xbdab5f1b	-0.08367749
33	0xbe04ec5a	-0.12980786
34	0xbe013b8c	-0.12620372
35	0xbd884f96	-0.06655805
36	0x3c672287	0.014107353
37	0x3db26df1	0.08712376
38	0x3d35bdd3	0.044370484
39	0x3cf6916f	0.030098645
40	0x3d152488	0.036411792
41	0x3cf6960f	0.03010085
42	0xbcd86462	-0.026415054
43	0x3d4a2535	0.04935189
44	0x3b45cc71	0.003018167
45	0xbd163829	-0.036674652
46	0x3d128e21	0.035780076
47	0x3d9efaee	0.07762705
48	0xbbdca965	-0.0067340606
49	0xbd0c9560	-0.034322143
50	0x3d15ac5d	0.03654133
51	0xbd110b4f	-0.035411175
52	0x3d33f9d3	0.043939423
53	0x3cf8a4c5	0.030352006
54	0x3b78ea70	0.0037981533
55	0x3d01d577	0.031697717
56	0x3d443f59	0.047911976
57	0x3c4d5904	0.01253343
58	0xbc63a928	-0.01389531
59	0x3c5651bc	0.01308101
60	0x3c0eaefc	0.008708712
61	0xbc0bda24	-0.0085358955
62	0xbcb74e7a	-0.022376288
63	0xbcd9c170	-0.026581496
64	0xbce3d9ad	-0.027813757
65	0x3d891760	0.066939116
66	0xbcf0a246	-0.029374253
67	0xbd034f25	-0.0320579
68	0x3c468a9c	0.012118008
69	0xbceb41ec	-0.028717957
70	0x3d840c59	0.06447668
71	0x3bc9e94b	0.006161844
72	0xbdc3804c	-0.09545955
73	0xbe220497	-0.15822063
74	0xbed50ce1	-0.41611388
75	0xbe4ce0c7	-0.20007621
76	0xbef01a7a	-0.468952
77	0xbed9ea84	-0.42561734
78	0xbe008742	-0.12551597
79	0xbe979198	-0.29603267
80	0xbf05cbf3	-0.52264327
81	0xbac9078c	-0.0015337332
82	0xbd803ce8	-0.06261617
83	0xbd562bab	-0.05228774
84	0x3c74e68b	0.014947544
85	0x3c7597e1	0.014989824
86	0xbdeb35b7	-0.11484855
87	0xbcc81bd1	-0.024427326
88	0x3d2b3220	0.04179585
89	0xbce5c7ad	-0.028049314
90	0x3d86b6d5	0.06577841
91	0x3db71240	0.08939028
92	0xbe19eeee	-0.1503255
93	0x3dcd3c35	0.10021249
94	0x3d6bde57	0.057585087
95	0xbde1a4a8	-0.11017734
96	0x3e2a89bf	0.16654108
97	0x3d72bf13	0.059264254
98	0xbe1b2b9c	-0.15153354
99	0xbd3dc2e2	-0.046328433
100	0xbd19d37d	-0.037555207
101	0x3d38cc7d	0.04511689
102	0x3d6da159	0.0580152
103	0xbd50666d	-0.05087893
104	0x3d72c20f	0.0592671
105	0x3d1db24a	0.038500108
106	0xbd46af40	-0.048506975
107	0x3d2ab7bb	0.041679125
108	0x3d418631	0.047247116
109	0x3d7b8c75	0.061413247
110	0x3dd294c0	0.10282278
111	0x3db49754	0.08817926
112	0x3deceabc	0.115682095
113	0x3dd50a1c	0.10402319
114	0x3cc20089	0.023681896
115	0x3dd05951	0.10173286
116	0xba980af5	-0.0011599945
117	0x3d2c355b	0.04204307
118	0x3d9990f4	0.07498351
119	0x3d9eb39a	0.077491
120	0x3c8c6bfd	0.017141337
121	0x3dacff9b	0.084471904
122	0x3e09b7d6	0.13449034
123	0x3da1c844	0.07899526
124	0x3e302bb3	0.1720417
125	0x3e184484	0.14869887
126	0x3c5d0e5a	0.013492191
127	0x3c8d9a38	0.017285451
128	0x3c8fb55a	0.01754253
129	0x3d8cae86	0.06869225
130	0xbc7c8243	-0.015411916
131	0x3cb6d7bb	0.022319665
132	0x3d5dc4f0	0.054142892
133	0x3d0af4c2	0.033924825
134	0x3d0e5359	0.034747455
135	0x3b17748c	0.0023110239
136	0x3d4c77ce	0.049918942
137	0x3d6c7e55	0.057737667
138	0x3db112f7	0.086461954
139	0x3c1b88f6	0.009493103
140	0xbc1c4af8	-0.009539358
141	0x3d732059	0.05935702
142	0x3d24fd4e	0.040280633
143	0x3dd776e6	0.10520725
144	0xbd20fe4a	-0.03930501
145	0x3d35acf3	0.04435439
146	0xbcb3f5dc	-0.02196782
147	0x3c847dc0	0.016173244
148	0xbcaf23e0	-0.021379411
149	0x3d88ca4d	0.06679211
150	0x3cbc66a3	0.02299816
151	0x3d51d905	0.051232357
152	0xbd4eead0	-0.050516903
153	0x3d6694be	0.056294195
154	0x3d8c611f	0.06854462
155	0x3c8c020c	0.01709082
156	0x3d76831b	0.060183626
157	0x3d297bbc	0.041377768
158	0x3c1c5a7e	0.009543059
159	0x3d66643f	0.056247946
160	0x3cc28551	0.02374521
161	0x3ceabfe1	0.028655948
162	0xbd620307	-0.05517867
163	0x3d1b8525	0.037968773
164	0xbd0c40f4	-0.03424163
165	0x3d84dc41	0.064873226
166	0x3d7bce18	0.061475843
167	0x3c6cb4de	0.014447419
168	0x3c9e1f68	0.019302085
169	0x3cc41a6d	0.023938382
170	0x3c5c8a87	0.013460762
171	0x3bd28626	0.006424683
172	0xbc93c5c4	-0.018038638
173	0x3c0f2b9d	0.008738426
174	0x3c5d3cf7	0.013503305
175	0x3ccb975c	0.024852447
176	0x3cc1d33e	0.023660298
177	0xbafdb591	-0.0019356479
178	0x3d250434	0.04028721
179	0xbc8de62e	-0.017321672
180	0xbc395de3	-0.011313888
181	0x3cce37ba	0.025173057
182	0x3da5dec3	0.08099129
183	0x3c2309fd	0.009951112
184	0xbb2c49c1	-0.0026289078
185	0x3cc47179	0.02397989
186	0x3dbf19f5	0.09331123
187	0xbcab48fd	-0.020908827
188	0x3d6274f4	0.055287316
189	0xbc5fb499	-0.013653898
190	0xbe29dc96	-0.16588053
191	0xbdf79208	-0.120884
192	0xbb642f17	-0.0034818107
193	0xbdf23f94	-0.11828533
194	0xbe8e3e68	-0.27781987
195	0xbd48b6c3	-0.04900242
196	0xbdc85ba0	-0.09783101
197	0xbe1d6181	-0.15369226
198	0x3dec3ebe	0.115354046
199	0x3d98444b	0.07434901
200	0xbe4ae96c	-0.19815606
201	0x3e003424	0.1251989
202	0x3db92be3	0.09041574
203	0xbe414249	-0.18872942
204	0x3d96d728	0.073652565
205	0xbd0d6f08	-0.034529716
206	0xbe8b6642	-0.27226454
207	0x3e814ef3	0.25255546
208	0x3e912fc9	0.2835677
209	0x3e76ec0d	0.24113484
210	0x3e8ead17	0.27866432
211	0x3eddd344	0.43325245
212	0x3f249fce	0.6430634
213	0x3d0f7e5a	0.035032608
214	0x3e4b8902	0.19876483
215	0x3ee9d10a	0.45667297
216	0xbe57143f	-0.21003817
217	0xbec42297	-0.3830764
218	0xbed11e63	-0.40843496
219	0xbe5b7d35	-0.21434481
220	0xbee547c3	-0.44781312
221	0xbf0aabd3	-0.5416843
222	0xbd046db0	-0.03233117
223	0xbdf2968f	-0.11845123
224	0xbefe0a95	-0.49617448
225	0x3d76512a	0.060135998
226	0x3d545ab3	0.05184431
227	0xbce235c0	-0.02761352
228	0xbbb6a9ee	-0.0055744564
229	0x3d4707bc	0.04859136
230	0x3d32bea4	0.04363884
231	0x3d85e036	0.065369055
232	0xbcb4ed34	-0.022085764
233	0xbd619692	-0.055075236
234	0x3de4e937	0.11177295
235	0x3d872fbb	0.06600901
236	0x3dfc96c1	0.123334415
237	0x3d68c296	0.056826197
238	0xbcf6ccd4	-0.030126967
239	0x3e40544f	0.18782161
240	0x3ddc73f3	0.10764303
241	0x3d39cd0d	0.045361567
242	0x3cf44b97	0.0298212
243	0x3d8ab3e5	0.067725934
244	0xbde3a4d2	-0.11115421
245	0x3dd78d21	0.10524965
246	0x3d329336	0.043597423
247	0xbcd25c4b	-0.025678774
248	0x3e275ef8	0.16344821
249	0xbd1a8f96	-0.03773459
250	0x3d06c184	0.032899395
251	0x3d6ee3b1	0.058322612
252	0xbb56841e	-0.0032732557
253	0x3d10d9b4	0.035363868
254	0x3dc9dfff	0.09857177
255	0x3dbec555	0.09314982

encoder.encoder.1.conv.bias f4 [32]
0	0x392aa962	0.00016275563
1	0x3cf59f91	0.029983314
2	0xbd10ba40	-0.03533387
3	0x3c8d727b	0.017266503
4	0x3d8dbd2a	0.06920846
5	0x3d804e73	0.06264963
6	0xbcf78674	-0.03021548
7	0xbc0c8809	-0.008577355
8	0x3d31874e	0.043341927
9	0x3c4036cf	0.011731817
10	0x3d0988a1	0.033577565
11	0x3cb42980	0.021992445
12	0x3d0a70a7	0.03379884
13	0x3d123371	0.03569359
14	0x3ca1bdf1	0.019743891
15	0xbac112b8	-0.001473031
16	0x3ca5f75a	0.020259548
17	0xbc6f126a	-0.014591793
18	0xbcaf10d1	-0.021370323
19	0xbd5c57c2	-0.05379463
20	0x3d24897e	0.040170185
21	0x3ba0c7ee	0.004906646
22	0x3c748ff2	0.014926897
23	0xbd27eff2	-0.041000314
24	0x3cdf2dda	0.027243543
25	0x3d1adde8	0.037809283
26	0x3d0c4230	0.03424281
27	0xbd545b7d	-0.051845063
28	0xbc3a6916	-0.0113775935
29	0x3d1f7a2a	0.038934864
30	0xbd825f6f	-0.06365859
31	0xbc5042c7	-0.012711233

encoder.encoder.2.conv.weight f4 [32, 32, 3, 3]
0	0x3b4e033a	0.0031435029
1	0x3da5e448	0.08100182
2	0x3dab62ba	0.0836844
3	0xbd4ad44a	-0.04951886
4	0x3da7814e	0.0817896
5	0x3db5bf61	0.08874393
6	0xbd6f64c8	-0.058445722
7	0xbd14ac90	-0.03629738
8	0x3d0b2001	0.03396607
9	0x3d850de0	0.06496787
10	0xbd6b8bc1	-0.057506327
11	0x3dfe7186	0.124239966
12	0xbd7e6b05	-0.06211378
13	0xbd12270f	-0.03568178
14	0xbd3cf31c	-0.046130285
15	0xbe3e5f81	-0.1859112
16	0xbe00a003	-0.1256104
17	0xbd3f96cc	-0.04677467
18	0x3d903a27	0.07042342
19	0x3bf94d67	0.007608104
20	0x3d122d65	0.035687823
21	0x3cc450ce	0.023964312
22	0x3c93fbca	0.018064398
23	0x3d64ca61	0.055857066
24	0xbcadd02c	-0.021217428
25	0x3e71ddb3	0.23619728
26	0x3d889233	0.0666851
27	0xbc82f483	-0.015985733
28	0xbd6624ae	-0.056187324
29	0x3d60785f	0.054802295
30	0xbc122641	-0.008920253
31	0xbd15f28e	-0.03660827
32	0xbceaf92d	-0.02868327
33	0x3c9e80c3	0.019348508
34	0xbc4d6eaa	-0.012538591
35	0xbb2c15ee	-0.0026258188
36	0x3cfc675e	0.030811008
37	0x3cc7c698	0.024386689
38	0x3df98935	0.12184373
39	0xbda57b9b	-0.080802165
40	0x3b4845b5	0.0030559127
41	0x3c82402d	0.015899742
42	0xbdb5df14	-0.088804394
43	0xbd82587a	-0.06364532
44	0x3d5c6688	0.05380872
45	0x3dbcf86b	0.092270695
46	0xbda5024c	-0.08057079
47	0x3c66b09b	0.014080192
48	0xbcf8d4fc	-0.030374996
49	0xbe33246a	-0.1749436
50	0x3a2b8ee8	0.0006544427
51	0xbd51461f	-0.051092263
52	0xbe2d3a95	-0.16916879
53	0xbdc9fb03	-0.0986233
54	0x3cea8a1c	0.028630309
55	0xbca3288a	-0.019916791
56	0x3d62fbba	0.055415846
57	0x3c042696	0.00806584
58	0x3cac3557	0.021021528
59	0x3d1f8bd0	0.038951695
60	0x3bdca743	0.0067338063
61	0xbd9e9023	-0.07742336
62	0x3b88a6d0	0.004170276
63	0xbd01474b	-0.03156213
64	0xb9264147	-0.00015855311
65	0xbd93764d	-0.072002985
66	0xbc96f154	-0.018425621
67	0xbcb50f52	-0.022102032
68	0xbcc496ae	-0.02399763
69	0xbc68ad72	-0.014201509
70	0xbbf4af33	-0.0074671744
71	0xbd8c7f25	-0.068601884
72	0xbb193093	-0.00233749
73	0xbd262974	-0.040566877
74	0x3cb336a2	0.021876637
75	0x3d362a8f	0.04447418
76	0xbd0b2529	-0.033970986
77	0x3d283afc	0.041071877
78	0x3cd0b3bc	0.025476329
79	0xbcab0588	-0.020876661
80	0xbd46a9c8	-0.04850176
81	0xbd36730d	-0.044543315
82	0x3ccab3ec	0.024743997
83	0x3a9e1ccc	0.0012063025
84	0xbcc554ba	-0.024088252
85	0xbcdbe46f	-0.026842324
86	0xbd8a7a85	-0.0676165
87	0x3c853cad	0.016264284
88	0xbc47ff3a	-0.012206847
89	0xbca5ac4a	-0.020223755
90	0xba5264db	-0.0008025893
91	0x3c930f0e	0.017951515
92	0x3d72b351	0.05925304
93	0xbc845859	-0.016155409
94	0x3d857662	0.0651672
95	0x3ced45ea	0.028964002
96	0xbe2a5e84	-0.16637617
97	0xbd012246	-0.031526826
98	0x3da767b1	0.081740744
99	0xbdd9acd8	-0.106286705
100	0xbe5f77c9	-0.21823038
101	0xbe68f21b	-0.22748606
102	0xbdf323f1	-0.1187209
103	0xbe1e3869	-0.15451206
104	0xbd903fa5	-0.07043389
105	0xbd74e35e	-0.059787147
106	0xbe9ba8e8	-0.30402303
107	0xbd70ca49	-0.058786664
108	0x3d84ca72	0.06483926
109	0x3da80e86	0.08205895
110	0x3d9b6d6f	0.07589232
111	0xbd4559b2	-0.048181243
112	0xbdb39c18	-0.08770007
113	0xbdddc4ac	-0.10828528
114	0xbdeefbc0	-0.11669111
115	0xbe19be93	-0.15014105
116	0xbcf14c6d	-0.029455388
117	0x3d96057b	0.07325264
118	0xbd11ffd0	-0.035644352
119	0x3dfdb9c7	0.1238895
120	0x3b9fee5e	0.0048807105
121	0xbbd13a6b	-0.006385138
122	0x3d1b8119	0.037964914
123	0xbdaa4ef2	-0.08315839
124	0xbb631448	-0.003464954
125	0x3cb01fc3	0.02149952
126	0xbd6dc643	-0.058050405
127	0xbe308b55	-0.17240651
128	0xbce64b46	-0.028112065
129	0xbc0e9d03	-0.008704427
130	0xbe214347	-0.1574832
131	0x3e253c5f	0.16136311
132	0xbb5bb42c	-0.003352414
133	0x3cafd0b8	0.02146183
134	0x3becffba	0.0072326334
135	0x3d25aba0	0.040446877
136	0x3e095d0b	0.134144
137	0xbd8e1049	-0.069367
138	0xbe1b94ce	-0.15193483
139	0xbe1652a8	-0.14679968
140	0x3daa737f	0.083228104
141	0xbcac0a24	-0.02100093
142	0x3d264851	0.04059631
143	0x3d6db1b6	0.058030806
144	0xbd443f4d	-0.04791193
145	0xbd897fe0	-0.06713843
146	0xbd84d034	-0.06485024
147	0x3d3bfa54	0.04589303
148	0xbd55294c	-0.052041337
149	0xbc9efe5b	-0.019408396
150	0x3ce1831f	0.027528344
151	0x3d0edfdd	0.03488146
152	0xbd21cbc2	-0.03950096
153	0xbdf2edd4	-0.11861768
154	0xbd94987d	-0.07255647
155	0xbd6c51f3	-0.05769534
156	0xbd9528eb	-0.07283195
157	0xbda1d8ce	-0.0790268
158	0xbb68bdda	-0.003551355
159	0x3ceb5c89	0.028730648
160	0x3c2d9b2f	0.010596081
161	0xbdd85df8	-0.10564798
162	0xbcb733f7	-0.022363646
163	0xbd02da6f	-0.031946596
164	0x3df04d44	0.11733487
165	0xbd9059cc	-0.070483774
166	0x3d1999be	0.037500136
167	0x3e3e4353	0.1858037
168	0x3b9f4023	0.0048599406
169	0x3d98cf10	0.07461369
170	0x3e84cccc	0.25937498
171	0x3cb4e646	0.02208246
172	0xbcf4201e	-0.02980047
173	0x3c9336e1	0.017970504
174	0xbbcb0fe1	-0.0061969613
175	0x3d135bb7	0.035976138
176	0xbc832ba5	-0.016012022
177	0xbd91b97a	-0.07115455
178	0xbd40c21f	-0.04706013
179	0x3d16cf90	0.03681904
180	0xbd40f4de	-0.047108524
181	0x3d793e9a	0.060850717
182	0xbdd8b674	-0.10581675
183	0xbd55c4e2	-0.052189715
184	0xbda27c4a	-0.079338625
185	0x3db5a7df	0.088699095
186	0xbe12e49b	-0.14345019
187	0x3e35b37c	0.17744249
188	0x3d203b09	0.0391188
189	0xbcfb3f1e	-0.030669745
190	0xbd73356d	-0.059377123
191	0x3d11abf9	0.035564397
192	0x3d1c50a4	0.038162842
193	0xbd5ab3e2	-0.053394206
194	0x3ce290ad	0.027656877
195	0xbd0aa687	-0.03385022
196	0x3cd83295	0.026391307
197	0x3c92361c	0.017848067
198	0x3d3467c7	0.044044282
199	0x3e0ce5b4	0.137595
200	0x3e16d0bd	0.14728065
201	0x3d6ca6d1	0.057776276
202	0x3bebcc48	0.007195983
203	0xbd31934d	-0.043353368
204	0x3d9ff652	0.07810654
205	0xbda5847f	-0.08081912
206	0x3d694469	0.056950007
207	0x3cd7ae5a	0.026328254
208	0x3d002885	0.031288642
209	0x3c811c3d	0.015760535
210	0xbc7b7583	-0.015347841
211	0x3cc02e22	0.023459498
212	0x3b8b2d34	0.004247332
213	0xbc593af8	-0.013258688
214	0xbb93b49c	-0.0045076143
215	0xbd2578e3	-0.04039849
216	0xbd0b561d	-0.03401767
217	0xbd79c1de	-0.0609759
218	0x3d1791c3	0.037004244
219	0x3c9df44e	0.019281533
220	0xbc817ce0	-0.015806615
221	0xbcae4b3d	-0.02127611
222	0xbdaa1283	-0.08304312
223	0xbb39a965	-0.0028329727
224	0xba17d7a0	-0.00057923235
225	0xbcc85e68	-0.024459079
226	0x3d337534	0.043812945
227	0x3e19050d	0.14943333
228	0xbc78a2bc	-0.015175518
229	0x3df54ef0	0.11977947
230	0x3e3c4d52	0.1838887
231	0x3ce9db90	0.028547078
232	0x3e4dc0a1	0.20093013
233	0x3e34b028	0.17645323
234	0xbd8f3187	-0.069918685
235	0x3cfdca81	0.03098035
236	0xbbd3bb3b	-0.0064615286
237	0xbd75dd9e	-0.060025804
238	0x3b88b3a6	0.0041718064
239	0x3d7455fe	0.05965232
240	0x3a10353f	0.00055010983
241	0x3d6252e1	0.05525482
242	0x3d900c13	0.07033553
243	0x3d2f150f	0.042744692
244	0x3b033685	0.002002151
245	0xbe346157	-0.17615257
246	0xbe5c7113	-0.2152751
247	0xbebf0463	-0.37308034
248	0xbe274b4b	-0.16337316
249	0xbe03b5d4	-0.1286233
250	0x3d033461	0.032032374
251	0xbdbcb3d7	-0.09213989
252	0xbda53665	-0.080670156
253	0xbd444a59	-0.047922466
254	0xbc3f6bbb	-0.0116834
255	0x3caf6eed	0.021415198

encoder.encoder.2.conv.bias f4 [32]
0	0xbd38173c	-0.044944033
1	0x3cfb800f	0.030700712
2	0xbc71e107	-0.014763123
3	0xbd6c5c8e	-0.057705455
4	0xbd306a3e	-0.04307007
5	0x3d4069bb	0.046975832
6	0xbd708b23	-0.05872644
7	0xbc1b4699	-0.009477281
8	0xbbc396fb	-0.005968926
9	0x3dbb825b	0.09155723
10	0x3b0ec588	0.0021785218
11	0xbe0e1353	-0.13874559
12	0xbc5ed29f	-0.013600021
13	0x3d14ca2f	0.03632563
14	0xbe2ea416	-0.17054781
15	0x3c817f42	0.015807752
16	0xbca3a92d	-0.01997813
17	0x3d3d2b0b	0.046183627
18	0xbc1c3a57	-0.009535394
19	0xbdcd4c82	-0.10024358
20	0xbde61ea1	-0.11236311
21	0xbd0b6295	-0.034029562
22	0xbcc265d6	-0.0237302
23	0x3d86863b	0.06568571
24	0x3d9b73ba	0.075904325
25	0xbdcb62a7	-0.09930926
26	0xbc4b7af7	-0.012419454
27	0xbced7e08	-0.02899076
28	0x3b922e1c	0.004461063
29	0x3d5c1171	0.05372757
30	0xbcc11bf0	-0.023572892
31	0x3d85a305	0.06525234

encoder.encoder.3.conv.weight f4 [10, 32, 3, 3]
0	0xbdbaee1f	-0.09127449
1	0x3d83bd82	0.0643263
2	0xbc401e25	-0.011725937
3	0xbdd9e292	-0.10638918
4	0xbdc09768	-0.094038785
5	0xbe029062	-0.1275039
6	0xbd9c78a3	-0.07640197
7	0xbd7b3b13	-0.061335634
8	0xbc026b47	-0.007960147
9	0x3d19eb3d	0.037577856
10	0x3ca34a72	0.01993296
11	0x3cdf99ca	0.027295012
12	0x3d871a5e	0.06596826
13	0xbd00bba8	-0.031428963
14	0x3d86ec4b	0.06588038
15	0xbd349c9e	-0.044094674
16	0x3caa6c3d	0.020803565
17	0xbb0c01e4	-0.0021363432
18	0xbced8955	-0.02899615
19	0x3d2a677b	0.041602593
20	0xbd5ba2ab	-0.05362193
21	0x3d4eb616	0.05046662
22	0x3cd6991a	0.026196051
23	0xbd535228	-0.051592022
24	0xbcd5c69a	-0.026095677
25	0xbcc34990	-0.023838788
26	0x3dbaad16	0.09115045
27	0x3cc9e0e5	0.02464337
28	0xbcef36d3	-0.029200947
29	0xbd2adbcc	-0.04171352
30	0x3bd916f1	0.0066250493
31	0xbd970315	-0.07373635
32	0xbcac783f	-0.021053432
33	0xbbeaa12d	-0.007160327
34	0xbca663d7	-0.02031128
35	0xbb31ed26	-0.0027149408
36	0x3be6a7f8	0.0070390664
37	0x3daf8543	0.085703395
38	0x3d923384	0.07138732
39	0x3bee1e7e	0.0072668185
40	0xbd68fa44	-0.056879297
41	0xbca78f8c	-0.02045419
42	0x3cd69b7d	0.02619719
43	0x3be097ad	0.0068540187
44	0x3d845fe5	0.06463603
45	0x3d7897fa	0.06069181
46	0x3ca13a2d	0.01968106
47	0xbcb70247	-0.022339953
48	0xbcfcd51e	-0.030863341
49	0xbd513243	-0.051073324
50	0x3d0a860e	0.03381925
51	0xbd7efc15	-0.062252123
52	0xbce5dde3	-0.028059905
53	0x3969f081	0.00022310206
54	0x3d117f73	0.035521936
55	0x3c7043d4	0.014664609
56	0x3c93b602	0.018031124
57	0x3c21a26c	0.009865385
58	0x3d6477db	0.055778366
59	0xbc6d17fd	-0.014471051
60	0xbd38d790	-0.04512745
61	0x3d5267df	0.05136859
62	0x3ae0ac80	0.0017141253
63	0x3d04d84a	0.03243283
64	0xbe1c0b93	-0.1523879
65	0x3e1566ed	0.14590044
66	0x3c8cecc2	0.017202739
67	0xbd41d7be	-0.04732489
68	0xbcb48863	-0.02203769
69	0x3d3d64e2	0.046238787
70	0x3e921b68	0.28536534
71	0xbd1e2f1e	-0.038619153
72	0x3c9d353f	0.019190429
73	0xbe00eb1f	-0.12589692
74	0x3d8204b1	0.06348551
75	0xbc772896	-0.01508536
76	0x3d52ee76	0.051496945
77	0xbdd4bcb3	-0.10387554
78	0x3e05abd0	0.13053823
79	0x3e10b450	0.14131284
80	0x3e561c5d	0.20909257
81	0x3ca6fc38	0.02038394
82	0x3cd907cd	0.026492978
83	0xbc7fed2e	-0.015620513
84	0xbd495687	-0.049154785
85	0x3dbc152e	0.09183727
86	0x3da57784	0.080794364
87	0xbb072554	-0.0020621615
88	0x3cd68fdd	0.026191646
89	0xbd3a67c7	-0.045509126
90	0xbc24c530	-0.010056779
91	0x3cb4e9f8	0.022084221
92	0x3d563d95	0.052304823
93	0x3dcd73d1	0.10031856
94	0x3dbed7d1	0.093185075
95	0xbd20b7da	-0.039237835
96	0x3c0620a6	0.008186495
97	0x3c52df6f	0.0128706535
98	0xbe4f63de	-0.2025294
99	0xbd81e5c2	-0.06342651
100	0x3dcb6ca7	0.09932833
101	0x3dcc8313	0.09985938
102	0xbe686d57	-0.2269796
103	0xbd8e85cf	-0.06959116
104	0x3d133d9b	0.035947423
105	0x3dd7abcb	0.10530814
106	0x3e0996c5	0.1343642
107	0x3d5c0ca0	0.053722978
108	0x3d305582	0.043050297
109	0xbc142164	-0.009041164
110	0x3d49ce3b	0.049268942
111	0xbd01e773	-0.031714868
112	0xbd0b10c9	-0.033951554
113	0x3d5d099c	0.053964242
114	0xbca78058	-0.020446941
115	0x3d6e71b3	0.0582139
116	0x3cc310b1	0.02381167
117	0x3d476ad8	0.04868588
118	0xbc8efab0	-0.017453521
119	0xbcc6af3a	-0.024253476
120	0x3d0c3128	0.034226567
121	0x3c527112	0.012844341
122	0xbc016ddd	-0.007899729
123	0x3d7f62ea	0.06235019
124	0x3d1da9a8	0.038491875
125	0x3afd3e9e	0.001932103
126	0xbd0f5478	-0.034992665
127	0xbe1c0fd8	-0.15240419
128	0x3cdb71bd	0.026787633
129	0xbde3bc5f	-0.11119913
130	0xbe03de70	-0.12877822
131	0x3d635f4f	0.055510815
132	0xbd6f6dbb	-0.058454257
133	0x3e8e429f	0.27785203
134	0xbdb4a01d	-0.08819602
135	0x3b8f3d38	0.0043713115
136	0xbd2d7061	-0.0423435
137	0x3d58198c	0.05275874
138	0x39f4124c	0.0004655294
139	0x3d30aa4a	0.04313115
140	0x3d9468a2	0.072465196
141	0xbc5ba8c5	-0.013406937
142	0x3c22be7a	0.009933108
143	0x3c66791e	0.0140669625
144	0x3d2db0f1	0.042405073
145	0x3d49a7f3	0.049232434
146	0xbbe0e49c	-0.00686319
147	0x3d448bd0	0.047984898
148	0xbdc8b509	-0.09800155
149	0xbdbbe2ce	-0.09174119
150	0x3da38ccc	0.07985839
151	0xbd0d6177	-0.034516778
152	0x3dd4460a	0.103649214
153	0xbdcc3efd	-0.099729516
154	0xbc734a32	-0.0148492325
155	0x3ddf0e86	0.10891442
156	0xbd9d38d0	-0.07676852
157	0x3dc1973e	0.09452675
158	0xbc787307	-0.015164143
159	0x3e1b3139	0.15155496
160	0xbca71d7e	-0.020399805
161	0x3d64f619	0.05589876
162	0x3cddafe1	0.027061405
163	0xbc16e9c8	-0.009211011
164	0x3d151794	0.03639944
165	0xbd0e7152	-0.03477604
166	0xbd285e59	-0.041105602
167	0xbdc409f6	-0.095722124
168	0x3db5d54b	0.08878573
169	0x3d7595d9	0.05995736
170	0xbdc0bb3a	-0.09410711
171	0x3ce4a463	0.027910417
172	0xbcd09c07	-0.025465025
173	0x3c517dc4	0.0127863325
174	0xbd255755	-0.04036649
175	0xbd325b35	-0.043544013
176	0xbc73d732	-0.0148828495
177	0xbda2a263	-0.07941129
178	0x3d1c7f2c	0.038207218
179	0x396c3d35	0.00022529515
180	0xbe61d7aa	-0.22054926
181	0xbec6a6f4	-0.3879925
182	0x3d909131	0.07058943
183	0xbe24e4c4	-0.16102892
184	0x3e4bf05c	0.19915909
185	0xbd96545f	-0.07340311
186	0x3ca67c99	0.020323085
187	0x3dfe3379	0.124121614
188	0xbe1f4a96	-0.15555796
189	0xbcbceccb	-0.02306213
190	0xbc9dd645	-0.01926721
191	0xba9db9e0	-0.0012033544
192	0x3cf2094f	0.029545454
193	0x3cbd8f98	0.02313976
194	0x3d8f6167	0.07001
195	0x3d2a08e5	0.04151239
196	0x3d263900	0.040581703
197	0x3d05c583	0.032659065
198	0x3ca36b43	0.019948607
199	0xba88d7ae	-0.0010440254
200	0xbc0b98d7	-0.008520327
201	0x3d51dffe	0.051239006
202	0x3ae52ec1	0.0017485247
203	0x3c3add83	0.011405352
204	0x3b9b52e8	0.004740108
205	0xbc0ec95b	-0.008714999
206	0xbcb89e24	-0.022536345
207	0xbd5be84f	-0.053688344
208	0x3d360526	0.044438504
209	0x3d9a9572	0.07548036
210	0xbdc5b7f7	-0.09654229
211	0xbad1e402	-0.0016013386
212	0xbbe01897	-0.006838869
213	0x3d66ebb3	0.056377124
214	0xbd789989	-0.060693298
215	0xbe0b0ec9	-0.13579859
216	0xbda65762	-0.08122136
217	0xbd93b347	-0.07211929
218	0xbda180a9	-0.07885868
219	0xbdeb2132	-0.11480941
220	0x3c3cc453	0.011521417
221	0x3ba4f86f	0.0050344984
222	0x3e611a3c	0.21982664
223	0x3d050a14	0.032480314
224	0x3d273149	0.040818486
225	0x3c68cc10	0.014208809
226	0x3c65fce8	0.014037348
227	0xbd0658d2	-0.03279955
228	0xbccfa5b8	-0.025347576
229	0x3b89626e	0.004192642
230	0x3cbc20ab	0.022964796
231	0xbdadbab7	-0.08482879
232	0x3dfbb344	0.122900516
233	0xbc905a34	-0.017621137
234	0x3c85ac69	0.016317563
235	0x3d90f3d2	0.07077755
236	0x3d80deed	0.0629252
237	0x3c934fe8	0.017982438
238	0x3cb9c2ad	0.022675836
239	0xbcc40e23	-0.023932522
240	0xbd05e8ea	-0.032692827
241	0x3d1507da	0.03638444
242	0x3d6c3dcd	0.057676125
243	0x3db8309b	0.08993646
244	0xbbc2fc34	-0.005950475
245	0x3d809c3a	0.06279798
246	0xbba7667a	-0.0051086517
247	0xbc20c945	-0.009813611
248	0xbd94887d	-0.072525956
249	0x3bb1b40f	0.005423076
250	0xbd419bba	-0.047267653
251	0x3d8c7d47	0.06859832
252	0xbd0ef78a	-0.03490404
253	0x3d86bf83	0.06579497
254	0xbd311e91	-0.04324204
255	0xbd94c557	-0.07264202

encoder.encoder.3.conv.bias f4 [10]
0	0x3d8da837	0.0691685
1	0x3d337b41	0.043818716
2	0x3d6ad587	0.05733254
3	0x3d802095	0.062562145
4	0x3c920119	0.017822789
5	0x3d13346c	0.035938665
6	0x3d8fd3e3	0.07022836
7	0x3d16049d	0.036625493
8	0xbb1fbb50	-0.0024373122
9	0xbce4b096	-0.027916234

decoder.decoder.0.dconv.weight f4 [10, 32, 3, 3]
0	0x3e2ad4b3	0.16682701
1	0xbe400b87	-0.18754397
2	0xbe647121	-0.2230878
3	0x3d615db7	0.055021014
4	0xbe552295	-0.20813973
5	0x3e5fbb43	0.21848778
6	0x3da685d3	0.08130994
7	0xbe5b7660	-0.21431875
8	0x3e8274ce	0.2547974
9	0x3d345a30	0.044031322
10	0xbea2a971	-0.317699
11	0x3e45b55b	0.19307463
12	0xbe453e9b	-0.19262163
13	0xbe67cb5f	-0.22636174
14	0xbded2af9	-0.11580462
15	0xbd6c5aa0	-0.057703614
16	0x3e965f51	0.29369596
17	0xbc4292a0	-0.011875778
18	0xbbd53081	-0.0065060263
19	0xbd7c79cb	-0.06163959
20	0x3da3af59	0.07992429
21	0xbd90cfe3	-0.07070901
22	0xbe62ebc0	-0.22160244
23	0x3e9b4fbd	0.30334273
24	0xbd02a0db	-0.031891685
25	0xbe1e8d7a	-0.15483657
26	0xbbfdcc41	-0.007745296
27	0x3d61a20d	0.055086184
28	0x3cc8e2ae	0.024522152
29	0x3e4b9b23	0.19883399
30	0xbe50988a	-0.20370689
31	0x3e1a6505	0.15077598
32	0x3e24ccd4	0.1609376
33	0xbddbcecb	-0.10732802
34	0xbe3c0df5	-0.18364699
35	0x3cc7dbce	0.024396803
36	0x3d9a69a8	0.075396836
37	0x3c6ac2c5	0.014328663
38	0x3d68a7c4	0.05680062
39	0xbe397502	-0.18111041
40	0xbcea7083	-0.028618103
41	0x3e325c1a	0.17417946
42	0x3dc09eed	0.09405313
43	0xbdcb4adc	-0.09926388
44	0x3e0b1011	0.13580348
45	0xbda805da	-0.08204241
46	0xbe112020	-0.14172411
47	0xbea623b3	-0.3244911
48	0x3e47106f	0.19439863
49	0x3e0f53d3	0.1399682
50	0xbdf00537	-0.11719745
51	0xbe96d4b4	-0.29459155
52	0x3e5c2617	0.21498905
53	0x3e3a2472	0.18177965
54	0x3d7fff08	0.062499076
55	0x3d6e6d95	0.058209974
56	0x3d9d15c3	0.07670166
57	0xbe2270dd	-0.15863366
58	0xbd569dab	-0.052396458
59	0x3e631d43	0.22179131
60	0xbcf768dd	-0.03020137
61	0x3e046737	0.12929998
62	0x3c20f707	0.009824521
63	0x3c9a25a3	0.018816775
64	0x3dbccd28	0.09218818
65	0x3d3a8d05	0.045544643
66	0x3e3f1387	0.18659793
67	0xbdac0f2a	-0.0840133
68	0xbccca4dd	-0.024980957
69	0xbdc054ea	-0.09391196
70	0xbdc72b4f	-0.09725057
71	0xbcab57c0	-0.020915866
72	0x3db7608a	0.0895396
73	0x3c4d8d9f	0.012545972
74	0xbd9f2a23	-0.07771709
75	0x3d950f72	0.072783366
76	0xbd190a29	-0.037363205
77	0xbc51e2f0	-0.012810454
78	0xbbb69adf	-0.0055726613
79	0xbd9212ff	-0.071325295
80	0xbdb31e64	-0.08746031
81	0x3e05fd37	0.13084875
82	0x3e2bd627	0.16780911
83	0xbd3cafc8	-0.046066076
84	0xbdce950d	-0.10087023
85	0x3ddabdc2	0.10680725
86	0x3e012511	0.12611796
87	0x3ea2cdde	0.3179769
88	0xbdfb18cb	-0.12260588
89	0x3e7089ef	0.23490117
90	0xbcbbd10f	-0.022926835
91	0x3d8b9b13	0.068166874
92	0x3dfe65cc	0.1242176
93	0xbe2a77c3	-0.16647248
94	0xbe180d97	-0.14848934
95	0x3e0209f7	0.12699114
96	0xbe414d07	-0.1887704
97	0x3df2b4f7	0.118509226
98	0x3edd1430	0.43179464
99	0x3e0fb8fc	0.1403541
100	0x3d014de8	0.031568438
101	0x3c49ad35	0.012309362
102	0x3de209de	0.11037038
103	0xbde6370e	-0.112409696
104	0xbdb3b198	-0.08774108
105	0x3d9d14c5	0.07669977
106	0x3d075d26	0.033047818
107	0x3cf8722e	0.030327883
108	0x3dc35dea	0.09539397
109	0xbbd2e5b7	-0.0064360755
110	0x3d742092	0.059601374
111	0xbe540abd	-0.20707221
112	0xbe583c64	-0.21116787
113	0x3e924940	0.2857151
114	0x3dfa754c	0.12229404
115	0xbd0fb4ea	-0.035084642
116	0x3eaf9b7e	0.3429832
117	0x3d378f9d	0.044814695
118	0xbd02c090	-0.031921923
119	0x3d10438d	0.03522067
120	0x3ea89db1	0.3293281
121	0xbc989908	-0.018627658
122	0xbd23d340	-0.039996386
123	0x3ce52e1a	0.027976085
124	0xbc42f908	-0.011900194
125	0xbc23b9e1	-0.009993047
126	0x3c96ae45	0.018393645
127	0x3db5c8ff	0.088762276
128	0x3d9e066a	0.07716067
129	0x3ccdcd0c	0.025122188
130	0x3d786309	0.060641322
131	0x3d1510df	0.036393043
132	0xbdc6b36a	-0.09702189
133	0xbe20e664	-0.15712887
134	0xbe82920a	-0.25502044
135	0x3d8e8792	0.06959452
136	0x3db5cada	0.088765815
137	0x3d8582a2	0.06519057
138	0x3dccbb09	0.099966116
139	0xbe1166a8	-0.14199317
140	0xbe0ae4a1	-0.13563778
141	0xbd987624	-0.074444085
142	0xbd57f392	-0.05272252
143	0xbd35ae94	-0.044355944
144	0x3d80e259	0.062931724
145	0xbc92826b	-0.017884454
146	0x3d314693	0.043280195
147	0x3d00fc08	0.031490356
148	0xbe0de51c	-0.1385693
149	0x3e46af9c	0.19402927
150	0x3e09c2af	0.13453172
151	0xbd994dd2	-0.07485546
152	0x3e06dafd	0.13169475
153	0x3d006451	0.03134567
154	0xbd8899fb	-0.066699944
155	0xbced1c67	-0.028944207
156	0xbb8f1040	-0.004365951
157	0xbda5d627	-0.08097487
158	0x3cd1ddfa	0.025618542
159	0x3c44c6cc	0.0120102875
160	0x3c917c16	0.017759364
161	0xbd04b440	-0.032398462
162	0x3dd0ce1d	0.10195563
163	0x3cecaeb5	0.0288919
164	0x3dcaa27d	0.098942734
165	0x3db74a36	0.089497015
166	0xbea3e9cc	-0.3201431
167	0x3cdb240c	0.026750587
168	0xbe8ee5c4	-0.27909672
169	0x3de1ea89	0.11031062
170	0x3e74eb41	0.23917867
171	0x3d32ab35	0.043620307
172	0xbe3ab3f7	-0.18232714
173	0x3df32cca	0.11873777
174	0x3e0a2735	0.13491519
175	0xbe198816	-0.14993319
176	0x3e3999c7	0.18125068
177	0xbe23b1ff	-0.15985869
178	0xbd8c2c7f	-0.068444245
179	0x3e91dc5a	0.28488427
180	0x3dc46d10	0.095911145
181	0x3cc74e2e	0.024329271
182	0xbddf0124	-0.108888894
183	0x3e003a58	0.12522256
184	0xbeb39dc0	-0.3508129
185	0x3d9968f0	0.07490718
186	0x3e7a00f0	0.2441442
187	0xbe85f1ab	-0.2616094
188	0xbe17d8e7	-0.14828835
189	0xbccf0b64	-0.025273986
190	0xbd7fed6a	-0.062482275
191	0x3c39e696	0.01134648
192	0xbd67c39b	-0.05658303
193	0xbd5eaffe	-0.054367058
194	0x3e23c169	0.15991749
195	0x3c4a261d	0.0123381885
196	0x3a86b125	0.0010276182
197	0x3dfab166	0.12240867
198	0x3c53998a	0.0129150245
199	0x3d8e2809	0.0694123
200	0x3ca66c70	0.020315379
201	0x3e3be52f	0.18349145
202	0xbe9b101b	-0.30285725
203	0x3e75a50d	0.23988743
204	0x3e03e032	0.12878492
205	0xbe0f4786	-0.13992128
206	0x3e18bfaa	0.14916864
207	0xbaf2835a	-0.001850228
208	0xbe9cfcd1	-0.30661634
209	0xbd4b81a0	-0.049684167
210	0x3cd0161d	0.02540117
211	0xbd71c022	-0.059021123
212	0x3e41488d	0.18875332
213	0x3d1ec834	0.038765147
214	0x3d6309aa	0.05542914
215	0x3e138a02	0.14408115
216	0x3e6d07a4	0.23147446
217	0x3e80db7f	0.25167462
218	0x3d48c1ca	0.049012937
219	0x3e646eb1	0.2230785
220	0xbdaf9d53	-0.08574929
221	0x3dd92a2a	0.10603745
222	0x3ea6ed39	0.32602862
223	0x3e200942	0.15628532
224	0x3e7077e0	0.23483229
225	0xbd0240d7	-0.031800117
226	0x3cd0a903	0.025471216
227	0x3e96d859	0.29461935
228	0x3e819ee1	0.25316527
229	0xbcdbbfc3	-0.026824838
230	0xbe201fe2	-0.15637162
231	0x3e888b1d	0.26668635
232	0xbbc8aa0f	-0.006123788
233	0x3d85a779	0.065260835
234	0x3db21187	0.08694749
235	0xbde491e3	-0.11160638
236	0x3e247869	0.16061558
237	0xbded4d18	-0.1158697
238	0xbea21e87	-0.31663916
239	0x3e335aae	0.1751506
240	0x3d57a6f0	0.05264944
241	0x3df59447	0.11991172
242	0x3e6e45a0	0.23268747
243	0x3ce8d0f4	0.02841995
244	0x3d8a170d	0.06742678
245	0x3d42524a	0.04744176
246	0x3e11e5fa	0.14247885
247	0xbd0224a8	-0.03177324
248	0x3d8e0c98	0.06935996
249	0xbdd0bf81	-0.101927765
250	0x3c7d5efb	0.01546454
251	0x3d95f65b	0.07322379
252	0xbd3ba8ec	-0.045815393
253	0x3e35df7e	0.17761037
254	0xbccc977a	-0.024974573
255	0x3d578080	0.05261278

decoder.decoder.0.dconv.bias f4 [32]
0	0x3e06c2d6	0.13160262
1	0x3e7cb2a3	0.2467752
2	0x3e153ffb	0.14575188
3	0x3dbfe866	0.09370498
4	0x3b963448	0.004583869
5	0x3e11a0e0	0.14221525
6	0xbdcdd608	-0.10050589
7	0xbc879bf3	-0.016553855
8	0xbd0d396f	-0.0344786
9	0x3da74509	0.08167464
10	0x3e755f23	0.23962073
11	0x3e2aa854	0.16665775
12	0xbc254dd8	-0.01008936
13	0xbe8925ba	-0.26786596
14	0x3c904ae1	0.01761383
15	0x3cf28191	0.029602798
16	0xbb901b5a	-0.004397792
17	0xbee0e643	-0.43925676
18	0x3e957d04	0.29196942
19	0x3dd58ece	0.104276285
20	0x3e105b87	0.14097415
21	0x3bc8dbf4	0.006129736
22	0x3d768bc1	0.060191873
23	0xbde20bcb	-0.110374056
24	0xbe2c8d89	-0.16850866
25	0x3d923b95	0.071402706
26	0xbd80e4bc	-0.062936276
27	0xbd879078	-0.06619352
28	0xbe00514e	-0.12531015
29	0xbd8e5ddd	-0.06951497
30	0x3cd5541a	0.02604108
31	0x3e9cc75b	0.30620846

decoder.decoder.1.dconv.weight f4 [32, 32, 3, 3]
0	0xbd962ec1	-0.07333136
1	0x3e17a993	0.14810781
2	0x3b0a58a1	0.0021109956
3	0x3d29396a	0.04131452
4	0x3ded043b	0.115730725
5	0x3e307cda	0.17235127
6	0x3e10ed37	0.1415299
7	0x3ea9288f	0.33038756
8	0x3e09a932	0.13443449
9	0xbe05ebe2	-0.13078263
10	0xbdb7235d	-0.08942292
11	0xbdef07d3	-0.11671414
12	0xbe7e6eb6	-0.2484692
13	0xbec05c00	-0.3757019
14	0xbde52221	-0.1118815
15	0xbca6072d	-0.020267094
16	0xbe2117f6	-0.15731797
17	0x3ec74c5d	0.38925448
18	0xbe460a15	-0.19339783
19	0xbdcf76cd	-0.10130081
20	0xbd8fd354	-0.070227295
21	0x3db9fe18	0.09081668
22	0xbed10c6f	-0.408298
23	0x3e1870a5	0.1488672
24	0x3e4be7bc	0.19912618
25	0x3e287132	0.1644943
26	0x3e2569e2	0.16153672
27	0xbcc29e07	-0.023756994
28	0xbec4dadd	-0.3844823
29	0xbd16da68	-0.036829382
30	0xbe759c37	-0.23985372
31	0xbedb4e47	-0.42833158
32	0xbe8d3269	-0.27577522
33	0x3dc5fb6b	0.09667095
34	0xbd5ed83e	-0.054405443
35	0x3dbfe6aa	0.093701676
36	0xbde640d9	-0.112428375
37	0xbe58c99d	-0.2117066
38	0xbe059c74	-0.13047963
39	0xbdcdc275	-0.10046855
40	0xbea00225	-0.31251636
41	0xbe370bda	-0.17875615
42	0xbe64b11d	-0.22333188
43	0x3ec1d3eb	0.37856993
44	0x3f40ee8c	0.75363994
45	0x3e918a8d	0.28426018
46	0xbe458c50	-0.19291806
47	0xbe29fa15	-0.16599305
48	0xbf5a5c80	-0.85297394
49	0xbeb4f436	-0.35342568
50	0x3db79ee6	0.08965854
51	0x3dd4119e	0.10354923
52	0x3e538688	0.20656788
53	0x3e0f0f8b	0.13970773
54	0xbdea02d8	-0.11426324
55	0xbeee39e4	-0.46528542
56	0xbd1435ef	-0.036184248
57	0xbebc1404	-0.3673402
58	0xbdee13a5	-0.11624841
59	0x38b9afcd	8.854233e-05
60	0x3d9f06e0	0.07764983
61	0x3e9e3141	0.30896953
62	0x3e913743	0.28362474
63	0xbe3d3043	-0.18475442
64	0xbdaa438a	-0.08313663
65	0xbc95313c	-0.018211953
66	0xbe84bad6	-0.25923795
67	0xbeb9a2d0	-0.3625703
68	0xbd92c109	-0.07165725
69	0xbc599443	-0.013279977
70	0x3da6f8ad	0.081529
71	0xbe1c5362	-0.15266183
72	0xbdc9ff9e	-0.09863208
73	0xbeb98e9f	-0.36241624
74	0xbd2b8443	-0.04187418
75	0xbe66580b	-0.22494523
76	0xbe9360b2	-0.2878471
77	0xbd968944	-0.073504
78	0xbe597eea	-0.2123982
79	0xbd555637	-0.052084174
80	0x3dd29d58	0.10283917
81	0x3aa94438	0.0012914008
82	0x3d54ee3e	0.051985018
83	0xbefa7e9f	-0.4892473
84	0xbe8c1fb9	-0.27367952
85	0xbcc42855	-0.023945013
86	0x3ea0a2b3	0.3137413
87	0xbf251627	-0.64486927
88	0x3e477109	0.19476713
89	0x3e3fa5a8	0.18715537
90	0x3d41b57f	0.04729223
91	0xbd0ccee3	-0.03437699
92	0x3c7afd63	0.015319201
93	0xbeab6223	-0.3347331
94	0x3ca81ae1	0.02052063
95	0xbe1e17cf	-0.1543877
96	0x3e8754bc	0.26431835
97	0xbc2d26d8	-0.010568343
98	0xbda692fa	-0.08133502
99	0x3ddb354b	0.10703524
100	0xbdd8b98b	-0.105822645
101	0xbdcc52f5	-0.0997676
102	0xbecbe653	-0.3982416
103	0xbeb0245b	-0.34402737
104	0x3e6c7d52	0.23094681
105	0x3f030a38	0.5118747
106	0xbe93b5a1	-0.2884951
107	0xbd5e7880	-0.054314137
108	0xbe4ff15d	-0.20306917
109	0xbf05cacf	-0.52262586
110	0xbe9ac62d	-0.3022932
111	0xbe92dbce	-0.28683323
112	0xbef15f6b	-0.4714311
113	0xbce11c4c	-0.027479313
114	0xbdc9e460	-0.09858012
115	0xbe80d77f	-0.2516441
116	0xbe2dd821	-0.16976978
117	0x3e07405c	0.13208145
118	0xbe605fb0	-0.21911502
119	0x3daf10ad	0.085481025
120	0xbf11e889	-0.56995445
121	0xbe038a3d	-0.12845702
122	0xbcb12ec5	-0.021628747
123	0xbe3ba720	-0.18325472
124	0x3bb4ffea	0.0055236714
125	0x3c89d326	0.016824316
126	0xbd4ca304	-0.04996015
127	0xbe363830	-0.17794871
128	0xbe8f2f82	-0.27965933
129	0xbecc532b	-0.39907202
130	0xbdb5c298	-0.088750064
131	0xbc1571a8	-0.009121336
132	0xbc450960	-0.012026161
133	0x3e4fdf64	0.2030006
134	0x3db1dccc	0.08684692
135	0xbe090100	-0.13379288
136	0xbe2934a4	-0.16523987
137	0x3c1bbb1b	0.009505059
138	0xbda86eba	-0.082242444
139	0xbeee730c	-0.4657215
140	0x3edf9e08	0.43675256
141	0x3a92a062	0.0011186714
142	0x3e92c33b	0.28664574
143	0x3e0b395b	0.13596098
144	0xbebd4e2a	-0.36973697
145	0xbdcbe71a	-0.099561885
146	0xbf1e0ac0	-0.61735153
147	0xbe12b91b	-0.14328425
148	0x3e9b6d10	0.30356646
149	0x3df614e4	0.12015703
150	0xbef1b53b	-0.4720858
151	0x3f08a300	0.5337372
152	0x3edfadb2	0.43687207
153	0xbe0efdbd	-0.13963981
154	0xbea2a435	-0.31765905
155	0xbefd7e71	-0.4951053
156	0xbf082e4f	-0.5319566
157	0xbd9a0f66	-0.07522468
158	0xbea55c36	-0.32296914
159	0xbbfec77e	-0.007775246
160	0x3e1b22a3	0.15149932
161	0x3d2f67d4	0.042823628
162	0xbc47014d	-0.012146306
163	0xbde121a3	-0.10992744
164	0xbe679edc	-0.22619194
165	0xbefe3061	-0.49646285
166	0xbe9407cb	-0.28912196
167	0x3e1157b8	0.14193618
168	0x3dcf4923	0.101213716
169	0x3e14a85c	0.14517349
170	0x3e164cce	0.14677736
171	0xbe3dd817	-0.18539463
172	0xbdac5e88	-0.08416468
173	0xbed65041	-0.41858104
174	0xbe8ac567	-0.2710373
175	0xbdf2d0b3	-0.118562125
176	0xbe81ca23	-0.2534953
177	0xbd7eaf0c	-0.062178656
178	0x3e532668	0.2062012
179	0x3ea4640e	0.32107586
180	0xbc65c6d4	-0.014024455
181	0xbd44c6cc	-0.04804115
182	0xbd19a9be	-0.037515394
183	0xbd2b16c8	-0.041769773
184	0x3c4a4ba2	0.012347134
185	0x3bf9987c	0.0076170545
186	0x3d6b86c4	0.05750157
187	0x3cde9b92	0.027173791
188	0xbc6aebf0	-0.014338478
189	0xbe4a1757	-0.19735466
190	0xbdf8fd57	-0.12157696
191	0xbea38496	-0.31937093
192	0xbf1074ee	-0.5642842
193	0xbe847c61	-0.25876144
194	0x3d460505	0.04834463
195	0xbe86d588	-0.26334786
196	0xbe2bd10b	-0.16778962
197	0x3e9da043	0.30786332
198	0xbe85253c	-0.2600497
199	0xbd063ff7	-0.032775845
200	0xbed63021	-0.41833594
201	0xbd08d671	-0.033407632
202	0xbf17e6d7	-0.5933661
203	0xbebf9b6e	-0.3742327
204	0x3ead274a	0.33819038
205	0x3e39622a	0.18103853
206	0xbe46435c	-0.19361633
207	0xbd1c01ee	-0.038087778
208	0x3e1224ef	0.14271902
209	0xbddc1fdb	-0.107482634
210	0xbe41709b	-0.18890612
211	0x3eaceee4	0.3377601
212	0x3bd35249	0.006449018
213	0xbd157dce	-0.03649693
214	0xbecb7573	-0.39738044
215	0x3dc43968	0.09581262
216	0xbe57b83f	-0.21066378
217	0xbe36d229	-0.17853607
218	0xbe36f920	-0.17868471
219	0x3b3b0964	0.0028539533
220	0xbcdd00e7	-0.02697797
221	0xbe0cd577	-0.13753305
222	0xbdf8694b	-0.12129458
223	0x3c3766cf	0.011193945
224	0x3c986339	0.018602
225	0xbd6f4446	-0.05841472
226	0x3ba0434b	0.0048908344
227	0x3e7cd130	0.24689174
228	0xbda23a8c	-0.07921323
229	0xbe3b7f47	-0.18310271
230	0x3e8d75f3	0.2762905
231	0x3e684261	0.22681572
232	0xbe06ba07	-0.13156901
233	0xbe4338a0	-0.1906457
234	0xbb7405f0	-0.0037234984
235	0x3eac9eaa	0.337148
236	0xbcf9ee8b	-0.030509254
237	0xbcf075b4	-0.029353
238	0xbe45d471	-0.19319321
239	0xbd4e33a9	-0.050342236
240	0xbd407ec2	-0.046995886
241	0xbf112485	-0.5669635
242	0xbc9625e6	-0.018328618
243	0xbe370fb9	-0.17877091
244	0x3d2c4894	0.042061403
245	0x3dc3673e	0.09541176
246	0xbe212cbf	-0.15739726
247	0xbe582e32	-0.21111372
248	0x3e9dc495	0.30814043
249	0x3e86a3e2	0.26296908
250	0x3e88080b	0.26568636
251	0x3d71a568	0.058995634
252	0xbef93929	-0.48676422
253	0xbc29d6e7	-0.010366178
254	0x3d73926b	0.059465807
255	0xbedc08c3	-0.42975435

decoder.decoder.1.dconv.bias f4 [32]
0	0x3d9e7955	0.07737986
1	0x3dfc4c6b	0.12319263
2	0x3dae5c9d	0.08513758
3	0x3d86f12d	0.065889694
4	0xbd34b36b	-0.04411642
5	0x3e688cf8	0.22710025
6	0x3dba10de	0.090852484
7	0x3d2d1f6a	0.042266287
8	0x3c9838fb	0.018581858
9	0x3d975dee	0.073909625
10	0xbc829a4b	-0.015942713
11	0x3d839dd7	0.0642659
12	0x3e001f0e	0.12511846
13	0x3d5ca84e	0.053871445
14	0x3dd5dcde	0.10442518
15	0x3d63ad0b	0.05558495
16	0x3cef0571	0.0291774
17	0x3df5d54f	0.12003576
18	0x3dec1cca	0.115289286
19	0x3d9a98a7	0.075486474
20	0xbda124ca	-0.07868345
21	0x3d2beae1	0.041972045
22	0xbc73778a	-0.014860043
23	0x3e8ab369	0.27090004
24	0x3dd5584a	0.104172304
25	0x3e1ee0b4	0.15515405
26	0xbde0cd0a	-0.10976608
27	0x3e0402e6	0.1289173
28	0x3d536c65	0.051617045
29	0xbdc34947	-0.09535461
30	0x3d951645	0.07279638
31	0x3daa7ce0	0.08324599
