notebooks/saved_model/mnist_model/mnist_cae_1/mnist_cae00008.pth (torch, 541279 bytes, 51 tensors)

encoder.encoder.0.conv.weight f4 [32, 1, 3, 3]
00000000: af8a ae3c 9812 c7bc c297 993e 61bf bdbd
00000010: c8a7 6f3b 482f b83d 2f26 9fbd b1dc c03e
00000020: 5385 8d3e 8d1b 703e 9f09 92be 176e e9be
00000030: e40e 2cbe 3a1b c7bd b308 b9bb 06da a13c
00000040: a358 7f3e 7df3 fd3e 39ed 053e 1071 223e
00000050: b56c 83be e094 c43e 4590 83bd cb43 853e
00000060: 6f80 093e de9a 09bd ebf2 923e 209a 0cbe
00000070: aa8b 5c3d 2b5f a6be 3cf0 8e3e b494 61bd
00000080: 78ba 64be 4aa9 863e fe0a a6bc de3e d4be
00000090: c4cb 2ebd fad7 113e 946d 9fbe 492d 28bd
000000a0: 4082 bfbd 5c1b 8dbe 074e fd3d 6aa2 f83d
000000b0: 606b 59be 02d7 72be f4f2 e8be 03ae 89bd
000000c0: 82ff 203e 3f35 aebd 4135 dabe 4fbc 0d3e
000000d0: a856 0cbe 50e4 52be a0f4 cb3e 0bf5 85bd
000000e0: 7ee7 33bf 1e86 6d3c d928 3d3d aa1f 3cbf
000000f0: ce7a 09bf d0a9 babe 8929 02bf 5453 8e3d
00000100: d05d 8c3e 525b 273d e66a ae3e 89d0 0d3e
00000110: 6f16 9c3d 3de3 b0bd 3626 ba3d ac92 cbbe
00000120: 8fcb 0cbe 616e a53e 3be4 8d3e 8606 5cbe
00000130: 650f 7e3e cf59 cd3e e790 dfbd 2f11 f8be
00000140: 3974 3dbe 3ad4 6d3e 4785 93bd d971 98bc
00000150: 8f1e a93c 75eb 183e 2b34 033f 59a1 dbbd
00000160: 6c7d be3e 68b0 9d3e 67c4 35be 6518 923e
00000170: 5ea8 6d3e a418 10be a2e4 e13d 89a1 303e
00000180: 71c4 fcbd debc c0be a40d 4a3e ebd7 853e
00000190: 04a6 bdbe 97fd c4be 1b41 8a3d 32eb bdbe
000001a0: b349 893e 3af1 3fbe e153 a8be eb6e 803c
000001b0: 3b35 a4bd f61c acbd da07 583e 599f 5d3e
000001c0: e5e4 4bbc 1c4e acbd 1772 06be 23e9 9b3e
000001d0: 91f1 b1be 3867 f23d c8c9 94be 89a5 943d
000001e0: 1b03 cebe a66d 4b3b bc93 823d 270a e8be
000001f0: 10cb fd3d c9ec e13e 121a ca3e 13d7 bebe
00000200: 050b d1be b782 f73e e0ed a3bc 1e34 553e
00000210: 2b9e b9be b13b 413e 2ba7 493e 3c26 5b3e
00000220: 58c5 583e 2596 26bd 495c 953e 5fcb 14be
00000230: 5b29 803e 0679 95be 4cd5 b7be 94de 24be
00000240: 36ab e3be d859 d33c a54c 943e 29d7 663d
00000250: 943a b13e 9a01 ddbd 17bf 943e 0712 6cbe
00000260: 6771 94be 0e36 b9be 4981 babd 96b0 d43e
00000270: fe48 8f3e 7132 81be 122a 5ebc b221 a03e
00000280: ba4f 79bb b25d cfbe b1e0 0c3e a130 633d
00000290: 66f4 f63d 8e33 ba3d 6cc6 e7bd a8b1 3a3e
000002a0: 1ab1 a8bd 8318 143e fed4 2a3e 89c1 26be
000002b0: eea3 353e 6a55 05be f0b6 6a3e 23dd 193e
000002c0: 266d 7dbc 2ff8 70be bc88 3dbe b027 673e
000002d0: 80e1 bfbe d599 bdbe 391e 003d c302 453e
000002e0: 5073 113e 9be0 4a3e e87b efbd 8b67 853e
000002f0: 6f05 07bc dbc1 153f c11a 75bd c52d b3be
00000300: 62ec ae3d c3cb 7f3e acb5 b9be ad3e 213f
00000310: 347b 75be 5c9d b5be 099b 9dbe 27b2 bb3c
00000320: b7eb b7be cf63 e0bd e48a fc3e b485 3cbe
00000330: 099a 643e 483f f83e 1a00 de3e 2a74 febc
00000340: 2503 0d3e 4be1 d33d 4399 793d 5a1b 91be
00000350: 99ac c23c d0bf c53d 6449 583e 2543 ba3c
00000360: 2dba 70be 8605 1a3c 548e 6dbe 8d2a 7dbe
00000370: 6abf 37be 0383 3abe 62ed ae3d 2997 903c
00000380: 0216 8f3b 243b 873e 1011 163f 1617 0cbd
00000390: a07b 34be 7eab 0d3e 1954 aebe 4f76 3abf
000003a0: 8ccd c4be 943f 06bf 74c1 233e 02d2 7bbd
000003b0: 23dc d8be 11c7 aa3e b8c2 afbe 4aa6 e6bd
000003c0: b086 00bd 2c08 b33c 555c cebe f96b bfbe
000003d0: 444f 12be afde 99be 8026 063e eff2 3fbe
000003e0: 711d 88be 840a c1bd 7908 553e ef1f aa3d
000003f0: 7053 a03e 888b 8c3d f7a0 ddbe b1c7 36bd
0.021306364 -0.024300858 0.29998595 -0.09265018 0.0036568511 0.08993393 -0.07770955 0.37668374
0.2764078 0.2344801 -0.28522965 -0.45591804 -0.16802555 -0.0972199 -0.005646789 0.019757282
0.24936156 0.4959983 0.13078775 0.15863442 -0.25668874 0.38394833 -0.064240016 0.26028284
0.134279 -0.03359496 0.28700957 -0.13730669 0.05384413 -0.32494482 0.2791766 -0.055073455
-0.22336757 0.26301032 -0.020268913 -0.41454214 -0.042674795 0.14242545 -0.3113829 -0.041058812
-0.09351015 -0.27559936 0.12368398 0.12140353 -0.21232367 -0.23714831 -0.4549786 -0.06722643
0.15722468 -0.0850625 -0.42618755 0.13841365 -0.13704932 -0.20594907 0.39835072 -0.06540879
-0.70275104 0.014497308 0.046181533 -0.73485816 -0.5370301 -0.36457682 -0.5084463 0.06949487
0.27415323 0.040858574 0.34065932 0.13849081 0.07621466 -0.08637092 0.090893194 -0.3976034
-0.13749526 0.32310775 0.2771319 -0.21486863 0.2481056 0.4010758 -0.1091631 -0.4845061
-0.18501367 0.2322549 -0.07203155 -0.018608974 0.020644454 0.1493357 0.51251477 -0.10724134
0.37205064 0.3079865 -0.17750703 0.28534237 0.23208758 -0.140719 0.110299364 0.17249121
-0.12342156 -0.37644094 0.19731766 0.26141295 -0.37040722 -0.38474724 0.06750699 -0.37093502
0.2681404 -0.18744364 -0.32876495 0.01567789 -0.080179654 -0.08403961 0.21096745 0.21642818
-0.012444709 -0.08413336 -0.1312946 0.30451307 -0.34754613 0.11836094 -0.29060197 0.07258136
-0.40236744 0.0031040697 0.06375834 -0.45320246 0.12392247 0.44125965 0.39473015 -0.37273464
-0.4082872 0.48341915 -0.020010889 0.20820662 -0.36253485 0.18870427 0.19692676 0.21401304
0.2116903 -0.040670533 0.2917197 -0.14530705 0.25031552 -0.29193896 -0.3590492 -0.16100532
-0.4446656 0.025799677 0.28964725 0.056357536 0.34615004 -0.10791321 0.2905204 -0.23053752
-0.2899277 -0.36174053 -0.091066904 0.41540974 0.27985376 -0.25233796 -0.013559835 0.31275707
-0.0038041905 -0.4050117 0.13757588 0.055466298 0.12058334 0.090918645 -0.11317143 0.18231833
-0.082369044 0.14462475 0.16682813 -0.16284765 0.17738315 -0.13020864 0.22921348 0.15025763
-0.015467918 -0.23532175 -0.18509191 0.22573733 -0.3747673 -0.37031427 0.031278823 0.19239335
0.14204144 0.19812243 -0.11693555 0.2605556 -0.008241042 0.58498925 -0.059839968 -0.34995857
0.0854118 0.24980073 -0.36271417 0.6298626 -0.2397278 -0.35471618 -0.30782345 0.022912098
-0.35922024 -0.10956537 0.49324715 -0.18410379 0.22324385 0.4848578 0.43359452 -0.03106125
0.13770731 0.103457056 0.060937177 -0.2834118 0.023763942 0.09655726 0.21121746 0.022737095
-0.2350852 0.009400731 -0.23198825 -0.24723263 -0.17944112 -0.1821404 0.08541371 0.017650204
0.004366637 0.26412308 0.58619785 -0.034201704 -0.17625284 0.1383495 -0.34048536 -0.72836775
-0.3843807 -0.5244076 0.15991765 -0.061479576 -0.4235545 0.33355 -0.34328246 -0.11262186
-0.031378448 0.021854483 -0.4030482 -0.37387064 -0.1428805 -0.30052707 0.13100624 -0.18745016
-0.26584962 -0.09425834 0.20804013 0.08306872 0.31313658 0.06862551 -0.4328687 -0.044624034

encoder.encoder.0.conv.bias f4 [32]
00000000: 0f8b adbe 3cc0 77ba 6619 a9be 1a12 063e
00000010: ed82 7ebe 2656 903e 24a2 7c3e 9b2e 35be
00000020: f63b 5f3b b65a df3b 3a05 943e 9409 873e
00000030: f4ce f83d c22a 273b e719 a7be 183b 8f3e
00000040: e043 81ba 94c6 fb3c e90c 32bb 1ceb 2a3e
00000050: 88d3 203e ff64 f4bd a0aa 1b3d 25a5 c6bb
00000060: 7496 8e3e 1363 c53d 6384 013e 98a0 4b3e
00000070: 1b56 fdbd de35 a4bd 5a96 b1be 8394 433d
-0.33895156 -0.00094509474 -0.3302719 0.13092843 -0.24854632 0.28190726 0.24671227 -0.1769356
0.003406284 0.0068162335 0.28910238 0.26374495 0.12148848 0.0025507663 -0.3263695 0.27974772
-0.0009862147 0.030734338 -0.002716834 0.1669125 0.15705693 -0.11933326 0.038004518 -0.006062167
0.27849162 0.096380375 0.12648158 0.1988548 -0.12369939 -0.08018087 -0.34685022 0.047749054

encoder.encoder.1.conv.weight f4 [32, 32, 3, 3]
00000000: f71d 9bbb 721f 45bb 94dd d8bc 908f 3dbb
00000010: c6c0 613c 3e23 adbc e41b 693c 0a57 013d
00000020: d82e 3d3a 0b82 cabc 0a7d b73b 5fab febb
00000030: 8314 b4bc 65fb debc 5d41 35bc 8606 03bd
00000040: 4482 89bd 9eb2 5abd 8a74 03bd d2eb 84bc
00000050: f66f 80bd 1004 283d c75a 34bd 4cb7 50ba
00000060: 9c35 a93b 2126 2c3d f81c bdbb 0a34 51bd
00000070: e913 83bd 70c0 b6bc 1c66 183c 963a 39bb
00000080: 0983 11bd df22 97bd 5c6e 60bd 6d1d 5fbd
00000090: 6ca8 a5bc 9079 473d 412b 71bd 7c60 783c
000000a0: 225e 8dbd db63 043d d8ea d2bb 81cc f7bc
000000b0: 9fb1 64bd 53dc 1c3d 93e3 eebc 3561 27bd
000000c0: 9a9d a6bc 01e2 eebc b105 23bb 6dfd 78bd
000000d0: d094 23bc d25d b73c 9b71 13bd bc58 b1bc
000000e0: cc9f 95bc 7c6f 9ebc 100b 7ebd 9f4b 61bd
000000f0: 636b aa3c dd7d 2bbc 5cda ed3a ff01 043d
00000100: e835 49bd bc4c ddbc 4192 0cbd 6eba a9bb
00000110: 818a 5abc dc22 ebbb 303e 7abd d898 063d
00000120: 09a9 03bd 15e4 1ebd 4c12 14bd 7263 bd3c
00000130: 0263 a9bc 182d 2ebd b727 91bd 9991 72bc
00000140: 3094 86bd 6316 1c3d 14c1 cabb 1bc9 54bd
00000150: 9d2d f0bc 5199 3bbd ddf6 83bd 9d04 8bbd
00000160: 3d4b 373c 32f3 e73c 604d 8f3c 3190 87bd
00000170: 379e 87bc fc38 5ebd 4340 60bd 05e6 f43a
00000180: ea7b ac3c e941 d2bc 7ece d5bc ee7c 8abd
00000190: 633f 583c c61d 923c 4e8e 2e3c 9c53 f2ba
000001a0: c7fe 89bd 3737 43bd b828 e83c a588 043c
000001b0: bcfa d93b e945 273d 27ac 3fbd 53c5 17bd
000001c0: ef08 213d d308 91bd 017e 183d 8a9f 9dbc
000001d0: fc10 06bd 956a 363d 3b58 49bd 1552 5abd
000001e0: 483e 84bd 2bed 2abd d51a 77bd 536e b4bb
000001f0: 7963 063d 79a8 cf3b b3f2 32bd 823e 3cbd
00000200: 0333 3cbb 96da bd3b 0921 ed3c 0625 79bd
00000210: a20b 313d dca2 75bc 70f3 a13b 6fad 64bc
00000220: f164 9abd 4e4d 263d 35b9 353c 450b 63bd
00000230: a681 8fbd 680b 183d b131 81bd 7c91 993c
00000240: 6f0b 113c 3d94 82bc 5153 12bd 7fcb babb
00000250: 138f 37bd 6956 10bc c268 e33a e0fb 2b3d
00000260: 6aae 07bd cdd2 e5bc ee36 c43b 1fa8 f43c
00000270: 783c ff3c 6dc8 20bb cebc 6ebd 934a efbc
00000280: ba77 30bd 7183 293d 19f2 f53c 98eb f23c
00000290: 78ff 1e3d 6f62 8fbb b79c 083d faae 98bd
000002a0: f3e9 e83c 8060 e33c 359d 9dbc 7cff 22bd
000002b0: efc2 6b3c 16e4 b0bb d645 1fbd 3eee 85bd
000002c0: 6165 04bd 68f2 18bc 2c81 0ebc 7f46 6dbd
000002d0: d802 f83c 9f47 b13c b17d 5bbd 3ec5 c73c
000002e0: 91bc c0ba 3c3f 373c 4bd4 f8bb 7e9e 64bd
000002f0: c4d3 ab3c 007b 5d39 e322 bd3c b817 34bd
00000300: bcac 343d dce3 18bd 4795 8e3d d5be 063b
00000310: d195 2fbd 77da 51bb 8ef9 c63b 2677 91bc
00000320: 4ddf 903c 930a 303d 33de b43c 58b1 9b3c
00000330: 0331 da3c 0e51 b33c 08c0 983c 9f38 e3bc
00000340: 68f1 fd3c 249c e2bc ac32 ecbc 2b2e e6bc
00000350: 3149 89bd 75ef 19bd 970d 8abd 5f8c be3b
00000360: d75f 023d bbda 873c bc78 df3c a149 693b
00000370: 20d5 6c3c 8f94 09bc 09da 1ebd 3c96 3abd
00000380: 3018 4b3c 6fb3 073d 18d5 f03b 7447 4cbd
00000390: 4502 24bd a0d9 5bbd 7b47 dcbc c38f 163c
000003a0: a31b 2ebd b634 39bd 4de2 3e3c d7a1 98bb
000003b0: 3a69 69bd 890c e7bc a0da f73c dafa 6cba
000003c0: fba8 56bd 813a efbc e5ea 8ebd e7fc 2c3d
000003d0: 65ab 463d 2ec7 1ebc e3d1 23bd fe6d e3bc
000003e0: 397c 89bd f980 62bd fe0a 39bd 52db 55bc
000003f0: 04bf 76bd b5e2 35bd ad16 94bc 01a3 6fbc
-0.0047337967 -0.0030078557 -0.026472844 -0.0028924681 0.013778871 -0.021134969 0.014227841 0.031577148
0.0007216758 -0.024720212 0.0055996226 -0.007771894 -0.021982437 -0.027219484 -0.011062947 -0.031988643
-0.06714299 -0.053393 -0.032093562 -0.01622573 -0.06271355 0.0410195 -0.044031885 -0.00079618837
0.0051638614 0.04202855 -0.0057712756 -0.05107502 -0.06400282 -0.022308558 0.0093016885 -0.002826368
-0.035525355 -0.07379698 -0.054792747 -0.054471422 -0.020221911 0.048699915 -0.05887914 0.015159722
-0.0690272 0.032321792 -0.006436687 -0.030248882 -0.055833455 0.038296055 -0.02916125 -0.04086419
-0.020338822 -0.029160501 -0.0024875219 -0.06078856 -0.00998421 0.022383604 -0.035997014 -0.021648757
-0.018264674 -0.01934027 -0.06202227 -0.05500376 0.02080316 -0.01046702 0.0018146741 0.032228466
-0.049123675 -0.027014129 -0.034319166 -0.005179695 -0.013338686 -0.0071757864 -0.061094463 0.032860607
-0.032143626 -0.038791735 -0.03615026 0.023118708 -0.020677093 -0.042523474 -0.07087653 -0.014805221
-0.06571233 0.038107287 -0.0061875675 -0.0519496 -0.029318625 -0.04580051 -0.0644357 -0.06787989
0.011187372 0.028314207 0.01749295 -0.06619299 -0.016554935 -0.054253563 -0.054748785 0.0018684274
0.02105518 -0.025666194 -0.02609944 -0.0676211 0.013198706 0.017836463 0.010654045 -0.0018488052
-0.06738048 -0.04766008 0.028339729 0.008089219 0.0066522043 0.040838156 -0.046795037 -0.037053417
0.03931516 -0.07081761 0.03722954 -0.019241113 -0.03273104 0.04453524 -0.04915641 -0.053300936
-0.06457192 -0.041730087 -0.060328323 -0.0055063157 0.03280971 0.006337222 -0.043688487 -0.04595805
-0.0028716929 0.0057938797 0.028946416 -0.060826324 0.043223985 -0.014992442 0.00494235 -0.013957365
-0.07538784 0.040601067 0.01109152 -0.05543067 -0.0700715 0.037120253 -0.06308306 0.01874613
0.008852824 -0.015939826 -0.035723988 -0.005700528 -0.04481418 -0.008809664 0.0017349946 0.041988254
-0.03312532 -0.02805462 0.0059879934 0.029865323 0.031156763 -0.0024533526 -0.058285527 -0.029210364
-0.04308293 0.041385118 0.030022668 0.029653355 0.038817853 -0.004375748 0.03335258 -0.07455249
0.028431868 0.027755976 -0.019240001 -0.03979443 0.0143897375 -0.0053982837 -0.03888496 -0.06539582
-0.032323245 -0.009335138 -0.008697789 -0.05792856 0.030274794 0.021640597 -0.053586666 0.024386045
-0.0014704635 0.01118451 -0.0075936667 -0.055815212 0.020975001 0.00021122023 0.023087924 -0.043967932
0.044110045 -0.03732668 0.06962066 0.0020560522 -0.042867485 -0.0032021084 0.0060722297 -0.01775701
0.017684603 0.042978834 0.02207861 0.019005463 0.026634699 0.021889236 0.018646255 -0.02773696
0.0309989 -0.027662344 -0.028832756 -0.028098186 -0.06703413 -0.03758188 -0.06740873 0.0058150734
0.03182968 0.016583791 0.02727925 0.0035596865 0.01445511 -0.008397236 -0.038782153 -0.04555343
0.0123959035 0.033130106 0.0073496215 -0.04987283 -0.040041227 -0.05367434 -0.026889553 0.009189549
-0.042506825 -0.045216285 0.011650634 -0.0046579647 -0.056985117 -0.02820422 0.030255616 -0.00090400653
-0.052407246 -0.029202702 -0.06978396 0.042233374 0.0485033 -0.009691043 -0.039995085 -0.02776241
-0.06713147 -0.05529878 -0.0451765 -0.013052778 -0.06024076 -0.044405658 -0.018077219 -0.0146262655

encoder.encoder.1.conv.bias f4 [32]
00000000: 8f7c 02ba 9385 1c3d de9b 27bc 9a91 5ebc
00000010: 26ed 21bd 87ed 3bbb f160 673d 5141 2a3c
00000020: 2b4d 433b 3c17 6c3d 1579 82bc da32 52bc
00000030: f8a0 a4bb 88d5 5cbd 8841 5abd e97c a73d
00000040: 21dc 6b3d 67a1 773b f50d a13d d720 ef3b
00000050: 0009 dfbc 9414 cebc 98d2 8abd e8b0 55bd
00000060: 13e4 45bd 3303 893d 025f 9f3c fb39 3bbd
00000070: bae1 9dbc 189b 1dbd fa3c 1f3d 397c 613b
-0.0004977667 0.038213324 -0.010230033 -0.013584519 -0.039532803 -0.0028675513 0.056488935 0.010391549
0.0029800634 0.057639346 -0.015926877 -0.012829507 -0.005024072 -0.053914577 -0.05328515 0.081781216
0.05758298 0.0037785412 0.0786399 0.007297616 -0.027225971 -0.025156297 -0.06778449 -0.052170664
-0.04831321 0.06690063 0.019454483 -0.04570959 -0.019272674 -0.038477987 0.03887651 0.0034406318

encoder.encoder.2.conv.weight f4 [32, 32, 3, 3]
00000000: 7caa c4bc 4e48 f7bc 8f01 423d 0a39 bcbb
00000010: 2521 bcbb 9415 57bc 276d 54bd e83a 4abd
00000020: 16d3 843d 2577 ffbc 712e 49bc d25a 58bd
00000030: 23b8 8abc 1386 083d b89f 30bd 6938 66bd
00000040: 9f79 1abc 1368 39bd e890 883b c445 5ebd
00000050: 5f34 0e3d 0a7f 9d3c 8017 73ba a153 5e3d
00000060: ea5b 42bc a70d 4bbd 96aa ad3c 431f 10bd
00000070: 1bc3 82bd 9299 60bd debe 73bc 6d1d 98bd
00000080: 7113 263d f48b 93bc ca2e 8ebd 067a 643d
00000090: 9ee0 55bd ca1c 91bc 3aef ab3c ec66 52bc
000000a0: a8cb ec3c af0d 1e3d 68b9 27bc d29e 233c
000000b0: 0469 9bbc 84e3 3abd dadd 93bd 7e58 1fbd
000000c0: 8920 5c3c c42e 63bd 1098 443b afc5 943c
000000d0: 314b 0ebd 6869 d23c 8e73 743c 8a1c 56bd
000000e0: 6554 1a3d b914 b13c 3b4c 0e3d 0e04 f2bc
000000f0: 1778 393c fe96 34bd 5e13 893d 4809 123d
00000100: 6e3e e93b e474 a7bc a2b2 5a3c 00a9 23bd
00000110: 323b 693c 91d1 fcbb cb13 1a3d dbcf fabc
00000120: ecd1 2dbd 3cd7 2bbd 9338 e8bc 45d9 86bc
00000130: cd9c 9abd 94bf bdbb d4aa a9bc 93b4 07bd
00000140: faf3 84bd b802 8abd 5d6e 85bd e0c6 afbc
00000150: 947d febc d21c 4ebd 7c56 89ba 135d 123c
00000160: af8f cbbc 544c 4fbd 2854 bbbc f382 89bd
00000170: 08b3 823b 6b28 85bd 6bec fe3b 05ae 92bd
00000180: 64b0 9cbc f44e 4f3d 5336 aa3c db6e 5bbd
00000190: 30ea fdbc 0e09 32bd 861c 4dbc f521 0fbd
000001a0: 9185 54bd a7ae 553c 0de4 853c 0742 8ebd
000001b0: 3dab 06bc 0204 0ebd f2ad 6cba 7936 80bc
000001c0: 040f babd 9c6a d33a a6d0 343d 49b0 9b3a
000001d0: eb61 2cbd 8d50 0d3d a743 cd3c a640 dc3c
000001e0: ed34 debc 9ec3 1e3c 0d9e 57bc b8a3 00bc
000001f0: 8668 bd3b 051a 50bc bd71 563d 0e3e e63c
00000200: 9f0f 023d bdf0 623d 5c4d 11bd e02a b8bc
00000210: 32e6 f13c 1204 fb3c 6a40 63bd 11c6 c53c
00000220: 91f4 00bd e45c 513c 10d4 c53c de3c 66bd
00000230: 987d 42bd a879 c8bc 263f 62bd 8acf 56bd
00000240: e0ae 74bd 7bb9 3ebd 8272 9fbc 64ca e53c
00000250: c879 8bbd fb2d 96bd 1413 6dbd 2c24 a03b
00000260: e56a 57bd bd0b 57bd 65a2 36bd 3f95 393d
00000270: db22 7dbd 2d0b 293d 6098 19bd a6c0 56bd
00000280: 5982 22bd e9aa 14bd 3663 2d3c 5f33 81bd
00000290: f6b5 6cbd dffe e63c 1dd3 69bc 2a40 17bd
000002a0: 9fb4 b53c 871a 88bc 5584 35bc ebd7 36bd
000002b0: 38ce 14bd 7d6c 093d cb40 71bc faff 5cbd
000002c0: c092 773b bef8 ddbb 1058 043c b6b6 4c3c
000002d0: 8068 b73c 4dfc 943c 40f4 c0bb fd4b 7cbd
000002e0: ff43 0d39 e60b d83c fa3e 983b 6690 fbbc
000002f0: 9238 87bd 1bfb cd3a 8b46 8bbd 9ae4 45bd
00000300: 03e7 63bd a026 a4bb 8e36 033d de60 98bc
00000310: 4aa1 41bd f166 f13c aca1 04bc 7440 f0bc
00000320: 1eb7 d4bc 52b5 63bc babd 0fbd 06ac 8c3c
00000330: e0d5 083d bf35 79bd 3b84 dfbc 3d32 473c
00000340: 3c0b 80bc 69ad 2d3d e93a 19bd 5f22 84bd
00000350: bbe2 3e3d bf59 8e3d c7ee 6cbd eafa c6bc
00000360: deb1 85bd ab47 283d f82e b2bc 3ba6 e9bb
00000370: 0528 8bbd 0345 0f3d 10d7 d23c c0a5 b53a
00000380: 9cb1 6e3d 7ad1 b3bb 9cde debb 1eb4 8e3c
00000390: a9b6 50bd c944 f53c ee86 b33c b23e 72bd
000003a0: c095 26bc b863 6e3d 6acd 6dbd 7086 4b3c
000003b0: 5ed6 8e3c 34c4 863c 1b01 80bc 3bc1 a3bc
000003c0: ac7b c5bc 0374 82bd d867 473d 3a0e 90bb
000003d0: b6c1 1d3d 6af6 12bd 47bc 76bd 7645 e73c
000003e0: 2087 3c3d 1cd9 35bc bed9 3bbc d533 3bbd
000003f0: 4ee0 18bd c065 95ba 807e 4bbd 08e1 25bd
-0.024007075 -0.030185845 0.047364768 -0.0057441043 -0.005741256 -0.013127703 -0.05186191 -0.049372584
0.06485574 -0.031184742 -0.012279139 -0.052820988 -0.016933506 0.03333099 -0.04312107 -0.05620614
-0.009428411 -0.04526527 0.004167665 -0.054265752 0.034717914 0.019225616 -0.0009273216 0.054278973
-0.011862734 -0.049573567 0.021199506 -0.035186063 -0.0638487 -0.054833956 -0.014877049 -0.074274875
0.040545885 -0.01801107 -0.06942518 0.055780433 -0.052216165 -0.017713923 0.020988096 -0.012841921
0.028905705 0.03858727 -0.010237075 0.009986596 -0.018970974 -0.045627132 -0.07220049 -0.038902752
0.013435491 -0.05546452 0.0029997863 0.01816067 -0.034739677 0.025685027 0.0149201285 -0.05227331
0.03767814 0.021616327 0.034740668 -0.029542949 0.011320136 -0.04408931 0.06693147 0.035653383
0.007118038 -0.02044148 0.013348253 -0.039956093 0.014235305 -0.007715412 0.037616532 -0.030616691
-0.042436525 -0.04195331 -0.02834729 -0.016461024 -0.075494386 -0.00579066 -0.02071134 -0.033131193
-0.06491847 -0.067388 -0.06515191 -0.021457136 -0.03106574 -0.050320454 -0.0010478045 0.008933323
-0.024848787 -0.0506099 -0.022867277 -0.0671443 0.0039886273 -0.0650185 0.007779648 -0.07162098
-0.019127078 0.050612405 0.020777857 -0.053572517 -0.030995458 -0.043465666 -0.012519008 -0.034944493
-0.05188519 0.013042129 0.016344095 -0.069461875 -0.008219537 -0.03467179 -0.00090286054 -0.015650975
-0.09084895 0.0016129795 0.044144295 0.0011878099 -0.04208557 0.034500647 0.025056673 0.026886296
-0.027124846 0.009690193 -0.013160241 -0.007851534 0.0057802824 -0.012701516 0.052354563 0.028105762
0.03175318 0.055405367 -0.035474166 -0.022481382 0.029528711 0.03064159 -0.055481352 0.024142297
-0.031483237 0.0127784945 0.02414897 -0.05621039 -0.047483057 -0.024472073 -0.055236004 -0.05244402
-0.059737086 -0.046563607 -0.019463781 0.028050609 -0.06810337 -0.07332989 -0.057879522 0.0048871245
-0.052592177 -0.05250143 -0.044588465 0.045308348 -0.06180082 0.041270424 -0.03749883 -0.052429818
-0.03967509 -0.036295805 0.010582736 -0.063086264 -0.05779072 0.028197704 -0.014271525 -0.036926426
0.022180853 -0.016614212 -0.011078914 -0.04463951 -0.036329478 0.033550728 -0.0147249205 -0.053955056
0.0037776679 -0.006774037 0.008077636 0.012494734 0.022388697 0.018186713 -0.005888492 -0.061595906
0.00013472138 0.026372861 0.0046461793 -0.030708503 -0.06602587 0.0015715094 -0.068005644 -0.048313715
-0.05564023 -0.0050094873 0.03203445 -0.018600877 -0.047272958 0.029468032 -0.008095186 -0.029327609
-0.025966223 -0.013898211 -0.035093047 0.01717187 0.033407092 -0.060842272 -0.027284732 0.012157974
-0.015630357 0.042401705 -0.037409697 -0.06451868 0.046602946 0.069507115 -0.057844903 -0.024289567
-0.06528066 0.041083973 -0.021750912 -0.007130412 -0.067947425 0.034977924 0.025737315 0.0013858601
0.05827485 -0.005487618 -0.0068014394 0.017419871 -0.05095545 0.029940026 0.021914925 -0.059141822
-0.010167539 0.058200568 -0.058057226 0.012422189 0.017436203 0.016450979 -0.015625527 -0.0199896
-0.024106823 -0.06369784 0.048683017 -0.004396227 0.038514815 -0.03587953 -0.06023815 0.028231364
0.046027303 -0.011099126 -0.011465488 -0.045703728 -0.03732329 -0.0011398122 -0.049681187 -0.04049781

encoder.encoder.2.conv.bias f4 [32]
00000000: 5348 27bc aab7 aebd bd62 df3c 2a2d 053d
00000010: 753a fb3b a923 1abd fa42 733d c552 cd3c
00000020: 56ab 563b b778 ce3d 3ecf 82bd 8df6 3dbc
00000030: a322 18bb e9a0 96bc 26c5 863c e0af 00bc
00000040: 40ca ab3d e2f0 8abd 19a8 763d 4f34 64bd
00000050: ec32 06bd dea3 64bd e0af 0ebd 8fe2 b6bc
00000060: 94fd 83bd d403 6e3d 78e0 a03d 6609 bfbc
00000070: dd9e 2a3d b7da 81bd 6f97 ad3c 6866 a33d
-0.0102101145 -0.08531125 0.027268762 0.032513775 0.0076668807 -0.037631664 0.059390046 0.025063882
0.0032755933 0.10081618 -0.063871846 -0.011594427 -0.0023214004 -0.018387275 0.01645143 -0.007854432
0.083881855 -0.06784226 0.060218904 -0.055713948 -0.032763407 -0.05582034 -0.034835696 -0.022324828
-0.064448506 0.05810912 0.07855314 -0.023319911 0.04165541 -0.06340545 0.021190373 0.07978517

encoder.encoder.3.conv.weight f4 [10, 32, 3, 3]
00000000: 8401 5a3c 2c16 9fbc c8cb 883b 4812 d43b
00000010: 7645 25bd 6225 413c fe18 51bd 7e9b 51bd
00000020: a85f 683c 76c3 08be 936b f13d b97d cabb
00000030: 095b 793c 6d96 9bbc 11ad dc3c dcda 353c
00000040: 4736 283d 1f0d 103e 0fd5 d33b da38 173d
00000050: 1b71 1fbc 5b50 91bc 5656 d23c 6e22 8abc
00000060: 2f94 9ebb e9da 283d dd07 083e 7c4e ab3c
00000070: 1062 37bb 2c36 80bc 3379 8a3c 0ded bebb
00000080: 4d49 833c ccca 41bd 4d14 7e3d ddbb 953d
00000090: 6310 943d eb4d 973d ff32 f53c 2656 933d
000000a0: 025f d7bc 39ab f8bb 9584 99bc 6008 953d
000000b0: 8dd0 7fbc 81c1 6c3c 1f5d a0bb 9d7e 91ba
000000c0: 0ea2 37bd 7b7a 10bd 138b c8bd 7b73 0dbe
000000d0: be56 d53b 0a1d a5bd 959b 5cbd b3bb c2bc
000000e0: 89c9 143c 8487 d8b9 2c87 0a3d 08cd a5bc
000000f0: 6e2d f73c 2c52 35be 4c98 b33c 9262 e23c
00000100: 90ea 453b 20b3 c7bb a514 e8bc 9330 1d3d
00000110: 06a7 4e3d 8e58 27bd fe05 c83c f6df aa3c
00000120: a664 cb34 d9a5 63bd 7717 83bc b690 eebc
00000130: 456e b63d 191b 95bd acef 0abd fe89 4ebc
00000140: 4eec 133e 7bfb 21bd 2040 70bd 63d7 5f3d
00000150: 8623 11bc ef1a 4d3c e666 ce3b 8bbd b138
00000160: 6fcd 3fbb ff91 6a3c 245a bebb c8c5 f9bc
00000170: 73dd df3c d339 623d 5dcd 613c 1a4b e0bd
00000180: 14c3 ca3d c66d d73d abdc 14be c618 163a
00000190: 9000 d63c 151b 13bb 731f 6fbd 2b4b e3bb
000001a0: e743 5d3d b92f 813d ca15 ef3d 310f 04bc
000001b0: 21ff 513c c268 733d 32bf 683d 492e 193b
000001c0: e574 c33d 959c dcbc d725 c9bd b91f 003a
000001d0: 4aa0 73bd 27f5 2fbd 84ef 6e3d 8d16 9f3c
000001e0: 8c04 c23c 0663 6c3d e7ef f13c ad45 21bd
000001f0: 0c61 a23b 615f 683d c7d7 3f3c 8102 e33b
00000200: 954f e8bc 1e33 c63a dc22 823d 5301 b4bc
00000210: 919e 13bd 6d3e 18bd 06f9 ef3c fe3a 23bc
00000220: 460b 043d 7a4e 1abd a86f 1a3d 708e 8a3d
00000230: 0d0d b73b dfe3 153d c2d0 2abd dd91 65bd
00000240: ba8f 703d 629a c83c acfc 8e3c d819 0b3d
00000250: 5fb1 c73c d2fa 753d 93a4 5dbd 03a5 6c3d
00000260: 221e e5bc c65e 1bbc 37c5 e03b 6d39 1fbe
00000270: ea88 1bbc 0c50 083e 060d 4bbe 935a e5bd
00000280: efe5 e2bc 1798 ca3d f44d 073d 47c5 72bc
00000290: 402c c2bd 668a 88bd 6f9a f73c 2a87 813d
000002a0: 328b 42bd 13b0 93bd b856 cebd 7c79 f83b
000002b0: 1d7b 83bd 65c4 fbbc d9f6 93bd 2270 003e
000002c0: c8e4 d8bd ed3e 2f3d 1fd6 7e3e 130c 093e
000002d0: e559 1e3c 3cb7 233d a7c0 1fbd e67c 013d
000002e0: f4bc edbc ae87 f23c 9225 e0bc 12ae ccbc
000002f0: c0e3 2ebd 6f18 05bd 7311 6a3d c3c5 533d
00000300: 34be 65bd 9d0a 28bd eaaf c43c 736f 3f3d
00000310: bc27 783c e57b 613d f62e a73c c4b3 323d
00000320: 7fca 063d 97be 55bd b1d8 4d3c 20a8 c03c
00000330: 7d3d 353d 985e 2e3c dbb0 dbbc 2358 88bd
00000340: 1471 0fbc e24d a0bd 0ff5 92bb 4dbe 2cbd
00000350: 18f7 8a3e e566 d23d 0a05 293e 084f 123d
00000360: c1d1 4cbb 56d4 b63d 7303 0b3e 220c e0bc
00000370: 4338 683d 2be7 b13d 415f ce3c 1118 c4bd
00000380: 5741 a2bd e3c7 59bd 7f29 4d3b 865b c13d
00000390: b90b 1c3d c2af 743c fd52 46bd 4a98 00bb
000003a0: f1f4 d839 aee6 d43d 574d 553d 864b ef3c
000003b0: 9a2e 3d3d 613e e6bb 8faa 363d 956d 813d
000003c0: 5471 1fbd 8aaa aabc bfd6 a2bc c886 c4ba
000003d0: d57e 23bd 784b 0b3d 7b56 28bc 0348 32bd
000003e0: f583 e73c 6a82 95bd 3c0b a5bc bb88 d43d
000003f0: f822 cbbb 763f 6a3c f240 783d deba 16ba
0.013306025 -0.019419752 0.0041746832 0.006471906 -0.040349446 0.011788698 -0.051049225 -0.05117368
0.0141829625 -0.13355812 0.11788096 -0.006179538 0.015219458 -0.018992627 0.026937993 0.011099543
0.041067388 0.14067505 0.0064646075 0.036919452 -0.009731556 -0.017738512 0.025675934 -0.01686212
-0.004839442 0.041224394 0.1328425 0.020911448 -0.0027982034 -0.015650831 0.016903495 -0.0058265985
0.016026163 -0.047312543 0.06203108 0.07311223 0.07229688 0.073879085 0.029931543 0.07194166
-0.02629042 -0.0075887707 -0.018739978 0.07276988 -0.015613687 0.014450432 -0.0048939134 -0.0011100356
-0.04483228 -0.035273056 -0.09792151 -0.13813584 0.0065105846 -0.080621794 -0.053859312 -0.023771143
0.009081253 -0.00041299697 0.033820316 -0.020239368 0.03017303 -0.17707127 0.021923207 0.027634893
0.0030199625 -0.0060943514 -0.028330157 0.038376402 0.050452255 -0.040855937 0.02441692 0.020858746
3.7884928e-07 -0.055578087 -0.0160024 -0.029121738 0.08907751 -0.07280559 -0.033919975 -0.012606142
0.14445612 -0.03954647 -0.058654904 0.05464877 -0.008858567 0.0125186285 0.0062988875 8.475323e-05
-0.0029266735 0.014317035 -0.0058090854 -0.030489817 0.027327275 0.055230927 0.013781873 -0.109518245
0.099004894 0.105189845 -0.14537303 0.00057257374 0.026123315 -0.0022446562 -0.0583796 -0.006936451
0.054019835 0.063079305 0.11674078 -0.008060263 0.012817175 0.059426077 0.056822963 0.0023373535
0.0954378 -0.026930133 -0.098216705 0.00048875395 -0.059479035 -0.042958405 0.05833389 0.019419933
0.023683809 0.057711624 0.02953334 -0.03937309 0.0049554165 0.056731585 0.01170916 0.0069277887
-0.02835826 0.0015121435 0.06354305 -0.021973288 -0.036039893 -0.03716891 0.029293548 -0.009962795
0.032237314 -0.037672497 0.03770414 0.06765449 0.0055862726 0.036594268 -0.041702993 -0.05604731
0.05873082 0.024487678 0.017454468 0.033960193 0.02437657 0.060053654 -0.05411203 0.057774555
-0.02796847 -0.009483045 0.0068594473 -0.1554925 -0.009493092 0.13311785 -0.19829187 -0.11198916
-0.027697532 0.0989229 0.033033326 -0.014817542 -0.09481096 -0.066670224 0.030225007 0.063246086
-0.04749603 -0.07211318 -0.10075134 0.0075828414 -0.06419966 -0.030733297 -0.07224817 0.12542775
-0.105905116 0.04278462 0.24886368 0.13383512 0.009664987 0.039969668 -0.039002087 0.031613253
-0.029020764 0.029605713 -0.027361665 -0.024985347 -0.042697668 -0.032494005 0.057145547 0.051702272
-0.056089595 -0.041025747 0.024009664 0.046737146 0.015146192 0.055049796 0.020408135 0.04362847
0.03290796 -0.052183714 0.01256387 0.023517668 0.044248093 0.01064267 -0.02681773 -0.06657436
-0.008754987 -0.07827355 -0.0044847797 -0.042173672 0.27141643 0.10273532 0.16505828 0.0357199
-0.0031252953 0.089272186 0.13575535 -0.027349535 0.05669428 0.0868667 0.025191905 -0.09574903
-0.07922619 -0.053169142 0.0031305251 0.09441285 0.038097117 0.014934482 -0.048418988 -0.0019622021
0.00041381226 0.10395561 0.05207571 0.029210817 0.04618702 -0.007026479 0.04459625 0.06319729
-0.038926437 -0.020833272 -0.01987779 -0.0014993781 -0.03991588 0.03400752 -0.010274525 -0.043525707
0.028261164 -0.07300265 -0.020146959 0.10377642 -0.006199237 0.014297357 0.06060881 -0.0005749891

encoder.encoder.3.conv.bias f4 [10]
00000000: 2abc 9d3c 1ab4 eb3c c779 563c c8a1 8a3d
00000010: 13b9 0b3b 7c65 433d 911b 683d 5181 1a3d
00000020: d696 b13d c83c d03c
0.019254763 0.028772403 0.013090557 0.067691386 0.002132003 0.047704205 0.056666914 0.037720982
0.08671348 0.025419608

decoder.decoder.0.dconv.weight f4 [10, 32, 3, 3]
00000000: 5d6d 6ebb 0006 98be fa54 efbc 4495 7a3e
00000010: cfd6 53be 4bc5 41be 0d17 1fbe 6ebf 80bc
00000020: b731 5dbe 6d95 a53c 1e55 833d 3684 a9be
00000030: 4fe9 f03d 3df9 a0bd 7559 693d 69ce 3d3c
00000040: 8a66 373d 0627 43be 3705 2dbd c4ad 803d
00000050: d45d 073d 7d7c c0bd daca 45bd 9039 07be
00000060: f0c8 0d3d a8e8 46bd f115 a8bd 7004 f03d
00000070: 0bb9 15be af61 983b c8d7 a9bc 02ca 98bd
00000080: 8b0b a03e e5e3 213b cd7f 7c3d 51bd dabc
00000090: ffbf e93d 7c5c 653d 8451 1b3d ed43 07be
000000a0: e3e8 7a3d 0f1c 3c3e 32c1 9fbd 33ea 0ebe
000000b0: d0bc 513e 4603 c33d cfb3 e8bc e0a4 133c
000000c0: 142e 4dbe 76fc a93c b8b4 a23d 341e 243d
000000d0: 3b83 1d3e 3907 f13d 1e0d 0abd ad6e f9bc
000000e0: e144 5d3d bb35 e53d 032f c23e 2427 c23d
000000f0: d307 02be b6cf 09be 7892 533e 0406 06bd
00000100: a9c0 833e 44b1 a93e 3b85 353e 5c3c b9bc
00000110: 5a2e fb3d 83c2 3e3e c324 9bbd 708d a33e
00000120: 19ff bd3d d9ff 81bc 19b0 1c3d 1395 3f3e
00000130: 45f6 85bc 3f8d a43e f1fc d13b 160c 9dbd
00000140: 77fb cf3c 34cb 64bd 6bfe 823e 22ec ad3d
00000150: 62c5 6cbe 25fe 94bd 16b8 89be 7514 60be
00000160: d730 443e 9177 ca3d 07aa 053e 9a65 023e
00000170: e611 293e 7b91 2cbd a2c9 2bbe 9955 2ebd
00000180: 8830 8f3d 4ba0 11bc 30b3 3d3e f8f4 0f3d
00000190: b72e 6f3e a884 2d3e 09f7 243e 8a50 80bd
000001a0: 1a6c 583d 2407 083e 5057 e93e 85bc 823e
000001b0: 6548 c53d 4a9d 213e c24c e13c d034 673e
000001c0: 7808 463c e20d 34be c161 ad3d 1b51 e93d
000001d0: adc1 013e 51a0 793d 3487 ad3e c2b2 0a3e
000001e0: ff04 063d 7458 e3bd bdf4 853e 7b92 6f3d
000001f0: 3f06 173d 1b53 84bd 57f6 083e 707e f5bc
00000200: d643 4fbb 700d c5bc 49e7 adbd 5157 ed3c
00000210: 959a a9bd 71a4 2b3e 128b 6d3e de61 193e
00000220: c0ae 24bd 139f 703d 2dd7 043d 1909 b1bd
00000230: fbe2 02bd b835 35bd 78d7 87bd fb8c 30be
00000240: c743 ed3d ea3a 48be 1da0 1f3c 2db1 1c3c
00000250: d621 0fbd 5d22 c5bc ace7 63bd 0a3f 4e3d
00000260: 54bf 033e 0f03 ff3d 8afe 7cbd 9f92 d03d
00000270: f03c e63c 607c 0a3d 317c 793e 21da 153d
00000280: ede1 93bd 7849 1d3d 71a5 933d 17c5 4c3d
00000290: 264c 66bd 42ae b5bd 8c7b 6dbd e273 983e
000002a0: 6b2a 26be b683 8e3c 97be a9be 2051 273d
000002b0: 94f5 b8bd d4d2 5cbd 88dd 0e3c 8576 3b3b
000002c0: 4261 233e aeb5 fc3d ffc0 96bd 25bd 8f3e
000002d0: 7842 a03d e183 863d a31f 903e e4df ecbc
000002e0: 0f78 11be ce8c ba3e 4b1a 513c fb20 fcbb
000002f0: 112c 963e 5371 3cbd e7fa 763e 2ea0 76be
00000300: 6e77 053e 7e90 68bc 0ad2 543e a231 323e
00000310: 000a 743e d7bb 0cbe b1d9 693b dde8 31bc
00000320: aff3 043e 2877 4f3d 5782 abbd b06e 7e3d
00000330: 7ad2 e2b8 f35c 883d d430 373e 6e4c debd
00000340: 9a77 ad3d 7bc9 773d f9e2 bb3a 2699 15be
00000350: b7dd 98bd 603b 973d 8157 b73c b211 dcbe
00000360: 1cdb 89bd abbb 883d 7192 a63b 2324 223d
00000370: c4c5 c6bd 8539 c83c 16b2 7dbb 3af8 943e
00000380: 02fd aa3e b5fa 51bd 04ab 9abc 5503 37bd
00000390: 6a5c 283e 0bec 6b3d 9456 863e dc57 28bd
000003a0: 7545 9abd 9836 55bd 31f8 ea3b 4025 cc3d
000003b0: fe6b 3bbe 9c16 313e 3115 33bd b45d 933b
000003c0: 53cc 123e 374a bf3c 59f8 f7bc b025 61bd
000003d0: e2d5 20be f108 37be 1763 b6bc 1970 343d
000003e0: 0a7f a7be a629 373e 343f 95be d299 b4bb
000003f0: 7231 523d cab7 cfbd dc48 443e 9006 0c3c
-0.0036381104 -0.29692078 -0.029215325 0.24471003 -0.20687412 -0.18922918 -0.15536137 -0.01571628
-0.21600996 0.020212853 0.06412719 -0.3310868 0.1176325 -0.078600384 0.05697008 0.011584857
0.044775523 -0.19057855 -0.0422413 0.06283143 0.033048466 -0.09398744 -0.048289157 -0.13205552
0.034615457 -0.048561722 -0.0820731 0.117195964 -0.1462137 0.0046503167 -0.020732775 -0.07460405
0.31258807 0.0024702486 0.061645318 -0.026701601 0.114135735 0.055996403 0.037919536 -0.13209505
0.061257254 0.18370079 -0.07800521 -0.13956527 0.20482183 0.09522109 -0.028406052 0.009011477
-0.20037109 0.020750266 0.079446256 0.040067866 0.15382092 0.11768956 -0.033703916 -0.030448282
0.054020766 0.11191889 0.37926492 0.09480122 -0.12698297 -0.13458142 0.20661342 -0.03272058
0.25732926 0.33143055 0.17726605 -0.02261179 0.122647 0.18628888 -0.07575371 0.31943846
0.09277172 -0.015869068 0.038253877 0.18709211 -0.016352782 0.32139012 0.006408327 -0.07668321
0.025388462 -0.055857852 0.2558473 0.084923044 -0.2312217 -0.07275037 -0.2689826 -0.21882804
0.19159256 0.09886087 0.13053142 0.1273407 0.16510734 -0.04213093 -0.16776136 -0.0425621
0.069916785 -0.0088883145 0.18525386 0.03514573 0.23357664 0.16945136 0.16109861 -0.062653616
0.05283747 0.13283974 0.45574427 0.25534454 0.09632949 0.15782657 0.027502421 0.2257874
0.01208698 -0.17583421 0.08465911 0.11392423 0.12671538 0.060943905 0.33892214 0.13544753
0.03271961 -0.111008555 0.26163283 0.058489304 0.03687119 -0.064611636 0.13375221 -0.029967517
-0.0031626127 -0.024054259 -0.0849138 0.0289723 -0.08281437 0.16761948 0.23197582 0.1497874
-0.040205717 0.058745455 0.03243177 -0.08644313 -0.031954747 -0.044240683 -0.06632894 -0.1724128
0.11585193 -0.19553724 0.009742764 0.009563726 -0.034944378 -0.024064237 -0.05564086 0.050353087
0.12865955 0.12451755 -0.061766185 0.10184216 0.02810523 0.03381002 0.24363782 0.036584977
-0.07220826 0.038400143 0.0720929 0.049992647 -0.056224965 -0.08871128 -0.05797915 0.29775912
-0.16227119 0.017396789 -0.3315322 0.04084885 -0.09031215 -0.053912 0.008719809 0.0028604579
0.1595507 0.1233934 -0.0736103 0.28073993 0.07825178 0.06568123 0.28149137 -0.028915353
-0.14205955 0.3643555 0.012762616 -0.0076943613 0.29330495 -0.046006512 0.24119149 -0.24084541
0.1303384 -0.014194606 0.20783249 0.17401746 0.2383194 -0.1374353 0.0035682733 -0.010858742
0.12983583 0.050650746 -0.0837447 0.06211728 -0.00010815724 0.06658354 0.1788972 -0.108544216
0.08470078 0.06049488 0.0014334611 -0.14609203 -0.07464164 0.07384372 0.022380592 -0.4298225
-0.06731245 0.0667642 0.005083375 0.039585244 -0.097056895 0.02444149 -0.0038710884 0.29095632
0.33396155 -0.051264483 -0.018880375 -0.044680912 0.16441503 0.057598155 0.2623793 -0.041099414
-0.07532779 -0.052054018 0.0071707 0.099680424 -0.18302915 0.17293781 -0.04372138 0.0044972543
0.14335756 0.023350818 -0.030269789 -0.054967582 -0.1570659 -0.17874505 -0.022264047 0.044052217
-0.3271411 0.17886981 -0.29149783 -0.005511501 0.051316686 -0.10142477 0.19168419 0.0085464865

decoder.decoder.0.dconv.bias f4 [32]
00000000: 6cfd fb3d 05b9 373d 0218 9bbc a437 5f3d
00000010: 1976 1f3c 11dc 89bd b911 613d 5e7f fa3c
00000020: 1a92 d83d 320d 943d 0b8b 57bd 2d5d c63d
00000030: 12c0 4e3c aa6d 083e d605 3dbd 6684 dd3b
00000040: fcab dabc 8136 3b3d 9982 733b cd7f f83c
00000050: b85d 103e ae7b 703d 779d e43d 86d6 4f3e
00000060: c143 92bd e2f6 ae3c 00d6 323d ffa6 793d
00000070: 1b55 173e a3fe af3d 6ecd 963d 7df1 2abd
0.12304196 0.044854183 -0.018932346 0.054496422 0.0097327465 -0.067314275 0.054948542 0.030578312
0.10574742 0.07229079 -0.052622836 0.096857406 0.012619035 0.13323084 -0.046148144 0.006760168
-0.026693337 0.045706276 0.00371567 0.030334378 0.14098251 0.0587117 0.111628465 0.20296678
-0.07141829 0.021357957 0.043661118 0.060950276 0.14778559 0.0859349 0.07363401 -0.041734207

decoder.decoder.1.dconv.weight f4 [32, 32, 3, 3]
00000000: 50e9 b4bd e822 983e f0a3 8cbe 708f adbe
00000010: d9d5 a9bd 4f73 6abe 5231 88bd 21ee 1c3e
00000020: 2b2c 4dbe d6be 15be 1eab 2a3d 6b70 733e
00000030: 7940 a3be 8a52 90be 464e c2be a156 e4bd
00000040: 6424 593c 955f e5be 839d 1ebf a638 d9bd
00000050: 9769 7ebd 3916 33bf a54a 14bd e4a0 023f
00000060: c59e d93e 3249 813e e8b5 c1bd 3e12 203e
00000070: 2c76 04be 000a b1be 719a c2bc 7703 4bbe
00000080: 1531 58be 9c36 64be 6d76 e33d 56e6 32be
00000090: 5016 053e 26d1 ba3d ef28 293d 6762 86bc
000000a0: b4ef 8dbe ed25 2ebf d8a7 70be 0de2 8b3d
000000b0: 8389 273d 0e73 e23d cee8 b1be e959 4abe
000000c0: f52e a2bd fc8c 59be 03b4 b5be d287 9dbe
000000d0: a010 51ba bbd4 f7be 1b54 74bd 04ae 823e
000000e0: 4f35 7abe 3909 6cbd 2ee5 69be e3a5 9ebe
000000f0: f614 cbbc e66f cfbd 15b9 88be 3129 143e
00000100: 1522 dbbd 5ef6 193e cf72 18be fa57 45bc
00000110: 01be 00bd 1bf6 69be 201a d93c d7cd c83d
00000120: 2e16 603d bf81 5ebe dc3f 003e f0dd a0bd
00000130: 229b 90be 8ec7 013d 97ed 8dbe daf2 f13d
00000140: cd8d 77be 55dd 84be 183d b4bd b836 e9bd
00000150: 4e4f e1bd 9107 bfbe 55e6 abbe e80a 67be
00000160: 18a9 f73d 419c 37bd 710e 753d aa4d 06bf
00000170: e9f6 94be 9de3 403e e5ec b3bd e1d4 adbe
00000180: 47d7 e33c 2348 963e 4ebf c43d b6a4 d2be
00000190: e320 4dbe 320a d7be a37a 2d3d f87a 7abe
000001a0: 9ea9 f8be 8e91 b7bd 707a 62bb cf71 ef3d
000001b0: 8b40 f5bc c9b6 69bd a4d3 303c 7460 633e
000001c0: 1aea d23d 019a 7fbd 0757 9a3d dbb4 20bd
000001d0: a7cf adbd 6491 d23d aa13 473d 6190 fbbc
000001e0: 86e5 ba3d 3e66 71be d5a6 debd 1311 f13c
000001f0: 2b66 553e 6cbd 693e ce31 89bc 04fb fe3d
00000200: 24e8 883e 4d51 a9bd 939c 283e 54d6 6c3a
00000210: ecc7 dfbc a99b 083e a1a3 933e 1203 ad3e
00000220: 0430 e0bd e568 5cbe 0db3 94be 757f 87be
00000230: 68b4 6e3b ab4f ecbe 186f f0bd eaad 56bc
00000240: 36ec 31be bfc4 3e3d ab1e 893c fc69 60ba
00000250: 9211 59bd 453e e23e 3b6e 25bd ea02 c9be
00000260: 508f 7b3e 0aae 2d3e 60f7 9d3c 16ea 7dbe
00000270: 7307 023e 06ab cfbd 0de0 b4be 717d dabd
00000280: 0bf9 c0bc 53dc be3e f2d3 d73d cf0a 033d
00000290: cef6 37be ccba 1b3e 3626 80be e05d aabe
000002a0: 93e0 9ebc ce19 43be 6ef3 11be daf2 4abe
000002b0: 0821 973a 7792 623e d4c8 a6be 0944 df3d
000002c0: 304e 49be db55 2e3e 099b dabd 6fac 993d
000002d0: a04f bebd 579a 8f3d 3ca1 653e 0b67 95be
000002e0: 23ee 91be 29c4 d5bd f53e 61be 6324 afbd
000002f0: 0a9f 413e 3b66 593e 92c5 40bd 6bf0 abbe
00000300: 28b4 ad3e 8899 d6bc 832d dbbd 4771 1a3f
00000310: a7ed 0c3c a633 723d 8f02 543d b94e e03c
00000320: fb8a d7be a161 92be 9df9 7cbe 4647 11be
00000330: 89bd 2dbe b345 82bc 3462 ffbc 9829 a8be
00000340: 48a4 58bd 3a3b aabe 3c20 8bbe 605f 3bbe
00000350: ca8a cebd e1fb 4fbe 063c 89bd d1ff fabd
00000360: 8f6f f43c 4dff 04bd c10b 2c3e 6539 d23b
00000370: c2a0 003e 1d3c b83e ffb5 143e 7b8f b93d
00000380: a177 bc3e 5b07 063e 4387 f4bc 75df 733e
00000390: dc59 0cbd 5eef 51be 369f 9dbd 9119 6fbe
000003a0: 7521 aebd 48ae 8d3e b8f9 83be 9507 5abd
000003b0: c5fb a4be 06ab 883a 81a5 87be 3095 0abf
000003c0: 3524 2dbd fc8e f7bd 484f cdbd 632d 21be
000003d0: fbb6 55be def9 73be 0c27 a1bd d8e6 2bbe
000003e0: f3b5 37be f0cc 71be af6b 8c3e f175 983c
000003f0: af5d e1bc 7de3 8cbe 753c 8d3d c4ca 62be
-0.08833563 0.2971413 -0.27468824 -0.33898497 -0.08292741 -0.22895549 -0.06650032 0.15325214
-0.2003638 -0.1462358 0.041667096 0.23773353 -0.31885126 -0.28187972 -0.37950343 -0.11149336
0.013253305 -0.44799486 -0.61959094 -0.10606508 -0.062112417 -0.69955784 -0.036204 0.5102675
0.42503944 0.25251156 -0.09458524 0.15631959 -0.12935704 -0.34577942 -0.023755284 -0.1982554
-0.21112473 -0.22286457 0.11106572 -0.17470679 0.12996793 0.09121923 0.041298803 -0.016404344
-0.2772194 -0.6802662 -0.23501527 0.06830225 0.040902626 0.11057101 -0.34747928 -0.1976086
-0.079191126 -0.21245188 -0.354889 -0.30767685 -0.00079751946 -0.48404488 -0.05965052 0.25523388
-0.24434398 -0.057625983 -0.22841331 -0.30985937 -0.024790268 -0.10128765 -0.26703706 0.14468838
-0.1069986 0.15035388 -0.14887546 -0.012044901 -0.0314312 -0.22847788 0.026501715 0.09804886
0.054708652 -0.21729182 0.1252436 -0.07854831 -0.28243357 0.03168445 -0.2772033 0.118138984
-0.24175186 -0.25950113 -0.08800715 -0.1138739 -0.11001454 -0.3731046 -0.33574167 -0.22562754
0.12092799 -0.04482675 0.059828226 -0.52462256 -0.29094627 0.18836828 -0.087854184 -0.33951476
0.027812613 0.2935191 0.09606801 -0.4114129 -0.20032077 -0.41999966 0.042353284 -0.24460971
-0.48566908 -0.08963309 -0.0034557842 0.11691629 -0.029938003 -0.057059083 0.010792647 0.22204763
0.102985576 -0.06240273 0.075361304 -0.039234977 -0.08486872 0.10281637 0.048602737 -0.030708494
0.09125809 -0.23574159 -0.108716644 0.029427087 0.20839755 0.22826165 -0.016747382 0.12450221
0.2673961 -0.0826746 0.16465978 0.0009034623 -0.02731701 0.1334063 0.28835776 0.33791405
-0.10946658 -0.21524389 -0.29042855 -0.2646443 0.0036423448 -0.46154532 -0.117399395 -0.013102988
-0.17375264 0.04657435 0.016738256 -0.0008560715 -0.052995272 0.44188133 -0.040388327 -0.39260036
0.24566388 0.16960922 0.019282997 -0.24796328 0.12698154 -0.10140042 -0.35327187 -0.10668457
-0.023556253 0.3727747 0.10538472 0.03199273 -0.17965242 0.15207976 -0.25029153 -0.33274746
-0.019394195 -0.19052812 -0.14253017 -0.19819203 0.001153023 0.22126184 -0.32575095 0.109016486
-0.19658732 0.17024939 -0.10674102 0.07503592 -0.09292531 0.0701186 0.22424787 -0.29180178
-0.28501996 -0.10437805 -0.21996672 -0.08551862 0.18908325 0.21230404 -0.047063418 -0.33581862
0.3392651 -0.026196256 -0.1070204 0.603291 0.008601583 0.059131287 0.051760253 0.027381288
-0.4209822 -0.2859011 -0.24704595 -0.14187345 -0.16966833 -0.015902376 -0.031174757 -0.32844234
-0.052891046 -0.3324831 -0.2717303 -0.18298101 -0.10085066 -0.20310928 -0.06700902 -0.12255824
0.029838352 -0.032470036 0.16801359 0.0064155334 0.12561324 0.35983363 0.14522551 0.0906057
0.3681002 0.13088743 -0.029849654 0.23815711 -0.034265384 -0.20501468 -0.07696383 -0.23349597
-0.08502475 0.2767203 -0.25776458 -0.053229887 -0.32223335 0.0010426946 -0.26493457 -0.5413389
-0.042270858 -0.12087819 -0.10024887 -0.1573997 -0.20870583 -0.23825786 -0.07868776 -0.16787279
-0.17940502 -0.23613334 0.27425906 0.018610926 -0.027510492 -0.2751731 0.06896297 -0.22147661

decoder.decoder.1.dconv.bias f4 [32]
00000000: ce50 143d 6c99 8d3d d9f9 463e ad15 0a3e
00000010: 1004 e33d 2cdf 483d d70b 843d 3652 9e3d
00000020: 2094 8d3d 1bc4 573d 9e2d 833e eaa4 a13c
00000030: 0461 43bc 9058 943d b23d 5c3e 9fae c73d
00000040: 3ded 963d dc66 a53d 0511 a43d 8b7a 9a3c
00000050: 116d e23d 7a75 d83d 7904 e43d e771 143c
00000060: e7fc 5e3d 9c9c d33d cddb 713d dfc6 993d
00000070: 6a52 bc3d bd37 5e3d a24e e53d 90d9 7bbd
0.036209874 0.069140285 0.19431247 0.13484831 0.11084759 0.04904096 0.06447571 0.07730524
0.06913018 0.052677255 0.2562074 0.019731957 -0.011924986 0.072434545 0.2150791 0.09750103
0.07369468 0.080762595 0.08011059 0.018857261 0.11055959 0.10569282 0.111336656 0.00906036
0.054440405 0.10332605 0.05904751 0.07508635 0.09195407 0.054252375 0.11196639 -0.06148678

decoder.decoder.2.dconv.weight f4 [32, 32, 3, 3]
00000000: feee 5bbe fb75 423e b024 bebe 3743 0b3c
00000010: 7c58 413e 78e5 2e3e 71bd cd3c 1f0c 483e
00000020: 8f50 fb3d acf9 c6bc d722 05bd db46 d0bd
00000030: 475b 92be 8f9f e23d 2a3c 943e bc94 ad3c
00000040: 5abb 73bc da94 8ebd 64d6 9fbd cdef 883d
00000050: 1e95 573e 860d 00be b478 903d 176a 203e
00000060: 8429 ddbd 76a7 243e 9d0e cd3d 67cd cdbd
00000070: a564 c33d 4e49 a43e da4f 99bd f992 24be
00000080: 759e 9f3c be32 3f3d e4ab 0abf 6361 b8be
00000090: 9e16 993e 23bd a3bd dbe3 98be 270b b23e
000000a0: 4999 95bc d73b 1cbe 28f9 043f 3427 c3be
000000b0: a7bf 723d c3ce 40be 135c a13d 06c9 513e
000000c0: f78d 6fbe 231f 653e b1c4 6c3e 5248 45be
000000d0: e670 873e 9565 10be 7f50 d1bd ceed cbbc
000000e0: 18dd e73d 076c fbbd 0dc4 1d3e 2f30 7a3d
000000f0: d8b0 f5bc ec79 ac3d 03d6 1e3e 0832 ef3b
00000100: d1c3 a63b 4d17 aabc c9fa acbe 8e86 2abf
00000110: f650 c6bd 81bf 323c 0fba e0be 382b 393d
00000120: 586c 69bd 094c b6bd 3208 ffbd dc51 34be
00000130: f5d8 a4bb 0f5f 173d e014 2cbd 7d0f 04be
00000140: 9abb bb3c cf97 f13b 982c c0bd 8fab 46be
00000150: e6b0 35be 7c17 813e 02e5 0f3e 6002 2ebe
00000160: 60ea c5bd f1e8 7bbe 44f0 2bbe 3aa2 e3bc
00000170: d2e7 0c3e 423e b7be 9696 fd3d 020a c33e
00000180: e679 55be fbc5 a13d 6038 473d 7cfc 08bd
00000190: bb80 f7bc d6fe b43c 2103 343e ba16 07be
000001a0: d8fe 18be 4381 df3c 76e2 05bf 6ddf 00bc
000001b0: 4cdc ae3d 8809 10bc 139f 83be 60da 9d3e
000001c0: 76a7 6cbd 6af5 cfbd e6c3 773e 92a4 88be
000001d0: 1c60 aebd 2423 47be 9b5d a5bd 7934 e0bd
000001e0: a4b5 de3d 99bf 79be 3640 68be fd33 02be
000001f0: 49c3 89be 0309 c0be 2db5 53bd d388 9dbb
00000200: 2d13 9dbd 382a 1fbe 5f47 6e3e f600 d23d
00000210: 0191 2bbd ea0d 943d 951a 17bd d268 14be
00000220: bcb4 1cbe 609d 81bc f2e3 c2bd 7c13 7bbd
00000230: f2ed fb3d 18a7 b3bd c52c 94ba f4e6 f33d
00000240: b9f0 5cbc 6668 853b 8bd6 623e 4b7b f7bd
00000250: 0363 c53d 2cd1 e03d a196 9dbd 77f6 f13d
00000260: 55c6 113e 1137 563e df47 653d c1e3 89be
00000270: 32fc 673e f6f6 1bbd 71ba fcbe 89f4 873d
00000280: ec9a 63be 15f2 0ebd d1eb 2fbd de12 393d
00000290: 197c 3abd 0caf 173e ba21 12be 527f 95be
000002a0: 9140 44bd a5cd 0abe 2c35 c6bb b9a1 923d
000002b0: 4d2f 5f3d 335b 69be 7a4e d33d 6582 1e3e
000002c0: e16e cabc 1233 223d dce4 ffbd 764d dd3d
000002d0: bcfb 12be f6bb a13d 2fcc b53d 2cb8 1abd
000002e0: 0522 ab3d 4fa0 033e 3308 393d 01eb 783d
000002f0: dc30 9c3d 0f19 3abb c019 bebd 3880 e7bd
00000300: 9375 65bd a506 203e 90d8 9c3d 6ad5 d4be
00000310: 2d25 18bd 55d1 a23d 0f4a 023d 9f87 b93b
00000320: 884e 30bc a588 3a3e ffc3 023e 7425 483e
00000330: 8bd7 6b3c 77c3 d0bc f548 003d 3935 f2bc
00000340: 5cb4 5c3d 238d 843e 456b b5be 0423 943c
00000350: 0694 7f3e c8dc 7cbd 18e5 323e fdc1 b53d
00000360: c944 f63d 596f 723c d423 c73d 9c6d 42be
00000370: e21c cebd b8a5 b2be 2986 c33d 8c66 7dbd
00000380: 8268 983d d41a c13c c8e3 a23c f413 c53e
00000390: 2df9 98bc 0d00 febc c95c d73b c276 ea3d
000003a0: 6515 22bd 6311 be3e 468e f1bd f3f2 e0bd
000003b0: 26a7 9d3d 98cb e7bd fa53 683e d8c0 d13e
000003c0: 52c5 49be 32b7 92bd e2b0 583e 0f07 b83d
000003d0: 15aa 29be f2b2 59be 009e 7e3e b93e 94be
000003e0: b683 40be 25b6 993d c106 b7be 0b39 69bd
000003f0: 61a5 a8bd b11b e9bc 52c0 e63d f529 d2bd
-0.21477887 0.18990318 -0.37137365 0.008499912 0.1888141 0.17079723 0.025114747 0.19535874
0.12271225 -0.024288975 -0.03250393 -0.101697646 -0.28585264 0.1106559 0.28952152 0.021189086
-0.014876211 -0.06961985 -0.07804564 0.06686363 0.21052977 -0.12505159 0.07054272 0.1566547
-0.10798934 0.16079506 0.10012553 -0.10048943 0.09540681 0.32087177 -0.074859336 -0.1607169
0.019484738 0.04667925 -0.54168534 -0.360118 0.29900068 -0.07995059 -0.2986134 0.34774134
-0.018261569 -0.15257202 0.5194268 -0.38115847 0.059264805 -0.18828873 0.0787889 0.2048684
-0.23393999 0.22375159 0.23121907 -0.1926587 0.26453322 -0.1410125 -0.102204315 -0.024893668
0.11321467 -0.12276464 0.15406819 0.061081108 -0.029991552 0.08421692 0.15511326 0.0072996654
0.005089261 -0.020763064 -0.33785084 -0.66611564 -0.09683411 0.010909916 -0.4389195 0.045207232
-0.05698809 -0.08901221 -0.12452735 -0.17609352 -0.005030746 0.03695589 -0.042012095 -0.12896533
0.022916604 0.0073728333 -0.093835056 -0.19401382 -0.17743263 0.2521323 0.14052203 -0.16993093
-0.09663844 -0.24600579 -0.16790873 -0.027787317 0.13760307 -0.35789686 0.123822376 0.38093573
-0.20847282 0.0789909 0.048637748 -0.033443913 -0.03021275 0.022094171 0.17579319 -0.13192263
-0.14940965 0.027283316 -0.52298677 -0.007865769 0.08538112 -0.008791335 -0.25707301 0.3083067
-0.05777689 -0.10154231 0.24195823 -0.26688057 -0.08514425 -0.19446999 -0.080744945 -0.10947508
0.10874489 -0.24389495 -0.22680745 -0.12715144 -0.26906803 -0.37506875 -0.051686455 -0.0048075705
-0.07669673 -0.15543449 0.23269413 0.102540895 -0.041886333 0.072292164 -0.036890585 -0.14493111
-0.1530332 -0.015822113 -0.09516133 -0.06129788 0.12301244 -0.08772105 -0.0011304846 0.11909285
-0.013485127 0.004071283 0.22152154 -0.12084063 0.096380256 0.10977396 -0.07694746 0.118145876
0.14235814 0.20919444 0.055976745 -0.26931575 0.22654799 -0.038077317 -0.49360994 0.06638438
-0.22227067 -0.034898836 -0.0429495 0.04518401 -0.045528505 0.14812869 -0.14270678 -0.291987
-0.047913138 -0.1355501 -0.006048819 0.071597524 0.05448847 -0.22788696 0.103177026 0.15479429
-0.024711074 0.039599486 -0.12494823 0.1080579 -0.14353842 0.07897179 0.088768356 -0.037773296
0.08356098 0.12854122 0.045173835 0.060770992 0.07626507 -0.0028396284 -0.09282255 -0.11303753
-0.05602033 0.15627535 0.076584935 -0.41569072 -0.03714483 0.07950083 0.03180891 0.0056619192
-0.010760911 0.18216188 0.12770079 0.19545537 0.014394651 -0.02548383 0.031319577 -0.029566394
0.05388294 0.2588893 -0.35433403 0.018083103 0.2495881 -0.06173399 0.17470205 0.08874891
0.120248385 0.014797055 0.097236305 -0.18987125 -0.10064103 -0.34892058 0.095470734 -0.061865374
0.07441808 0.023572363 0.019884005 0.38491786 -0.018673504 -0.031005884 0.00657234 0.114484325
-0.039571185 0.3712264 -0.11794715 -0.10983839 0.07697897 -0.11318129 0.22688285 0.4096744
-0.19704178 -0.07163848 0.21161225 0.08985721 -0.16568787 -0.21259668 0.2486496 -0.28954104
-0.18800244 0.075054444 -0.3574734 -0.056939166 -0.082346685 -0.028455587 0.11267151 -0.10261909

decoder.decoder.2.dconv.bias f4 [32]
00000000: 0276 063e ccfc a13d 9b9c 9f3d 3b7b f7bc
00000010: 0c57 cf3c a0c5 333d a1b6 743d c7b2 da3c
00000020: c785 073d 68fb be3d 9422 c33c cc98 cf3c
00000030: d660 c63c 8668 543e bcfe 583d fbc6 923d
00000040: 7841 963d b1ba b13c f74d 303d ed53 d53d
00000050: 9928 c33d 4bfd b43d 2c0a cdbc 6580 a03d
00000060: 19cc 8e3c ab1f 5bbd 35e4 1a3e 932e 6a3d
00000070: 88a0 473d d5de 773d 7773 0a3e 6b52 cb3d
0.13130954 0.07909545 0.07793542 -0.030210128 0.025310062 0.04388964 0.05974448 0.026696576
0.033086564 0.09325296 0.0238202 0.025341414 0.024216097 0.20742998 0.05297731 0.07166859
0.07336706 0.021695467 0.043043103 0.10416398 0.09529228 0.08837374 -0.025029264 0.07836989
0.017431306 -0.053496998 0.15126117 0.057173323 0.04873708 0.060515244 0.13520609 0.09927829
