notebooks/saved_model/mnist_model/mnist_cae_1/mnist_cae00002.pth (torch, 541279 bytes, 51 tensors)

encoder.encoder.0.conv.weight f4 [32, 1, 3, 3]
000000 90 1f ba 3d e1 e9 a3 bc bf 89 98 3e bf 6e 97 bd
       0.09088051 -0.020008983 0.29792592 -0.0739417
000010 3b 30 65 bc 80 d8 8d 3d eb d0 98 bd 78 c7 bb 3e
       -0.01398855 0.0692606 -0.07461723 0.3667562
000020 14 00 8e 3e 6b 13 83 3e ab 5d 99 be 1d 54 01 bf
       0.27734435 0.25600752 -0.29954275 -0.5051897
000030 61 f6 87 bd 17 f2 4a bd 87 3a a6 bc 70 e8 12 3d
       -0.0663879 -0.04954728 -0.02029158 0.0358662
000040 b9 44 63 3e 8f 25 de 3e a1 45 2d 3e d8 37 44 3e
       0.22194184 0.4338803 0.16921093 0.19161928
000050 1b 2a 7e be 4d ca b6 3e af 77 cb bd ce 3e 6f 3e
       -0.2482075 0.35701218 -0.09934937 0.23363802
000060 29 86 03 3e 91 b8 00 bd d6 bc 91 3e b8 19 1c be
       0.12844147 -0.031426016 0.28464383 -0.15244186
000070 ba 5a c0 3d 1b c9 87 be 8e 8f 7d 3e c6 2f 8c bc
       0.09392305 -0.2652062 0.24761793 -0.017112624
000080 1b d0 20 be 49 5c 85 3e 69 11 45 3c f4 c3 b5 be
       -0.15704386 0.2604697 0.012028077 -0.35501063
000090 0b 19 2e bd 02 0e 12 3e 94 6d 9f be f9 1b 28 bd
       -0.04250435 0.14263156 -0.3113829 -0.0410423
0000a0 e4 17 bf bd 5c 1b 8d be 2e a1 fd 3d 54 1a f9 3d
       -0.09330729 -0.27559936 0.12384258 0.12163225
0000b0 60 6b 59 be 0c 78 30 be 77 f3 bf be 9a fa 36 bd
       -0.21232367 -0.17233294 -0.37490436 -0.044672586
0000c0 a9 45 18 3e 5f e1 20 bd 80 cb 9a be c5 c3 8c 3d
       0.14870323 -0.03927743 -0.30233383 0.068732776
0000d0 8a a2 3f be c3 b8 a7 bd 5d 0d a5 3e 28 9b 79 bd
       -0.18714347 -0.081895374 0.32236758 -0.060938984
0000e0 b6 12 d3 be d2 8c 20 be fa 62 35 3c 4b 6e 0a bf
       -0.41225213 -0.15678719 0.011070961 -0.54074544
0000f0 22 cc df be a2 db ca bc 4c af c9 be 63 a1 d6 3d
       -0.43710428 -0.024762932 -0.39391553 0.10480001
000100 77 57 a3 3e 65 dc 9e 3d ce 9c 9b 3e 26 09 e2 3d
       0.31902668 0.07756881 0.3039307 0.11036901
000110 0a b5 8f 3d f3 4c a1 bd 55 e1 17 3e 21 bc 8e be
       0.07016952 -0.07876005 0.14832051 -0.27877906
000120 bb 69 15 be fb ff b8 3e f8 a4 9b 3e 72 a3 3a be
       -0.14591114 0.36132798 0.303993 -0.18226412
000130 38 c7 6b 3e 56 65 b7 3e 1d eb c5 3a df fa c7 be
       0.23025215 0.358195 0.0015099976 -0.39058587
000140 ce 83 26 be 1f c9 6f 3e 34 99 1e bd be 9e 98 3d
       -0.16261217 0.23416565 -0.038720325 0.07452153
000150 6a d3 d6 bc 45 73 ff 3d 11 57 00 3f cd dc cc bd
       -0.026223857 0.12473158 0.5013285 -0.10003052
000160 26 60 f2 3e 20 8c cd 3e 6b 69 16 be 53 6e a5 3e
       0.4733898 0.4014597 -0.14688651 0.32310733
000170 dd 43 8e 3e 00 7d c0 bd 83 97 21 3e 45 1e 66 3e
       0.2778615 -0.09398842 0.15780453 0.22472484
000180 3c 1c ad bd 21 f3 aa be dd 6c 7f 3e 40 28 59 3e
       -0.08452651 -0.33388618 0.24943872 0.2120676
000190 74 4a 97 be f4 5c c1 be 25 a2 89 bc 4b f6 5a be
       -0.2954899 -0.3776623 -0.01680095 -0.21383016
0001a0 ed 7d 30 3e df c3 19 be 08 11 8e be f1 94 7c bd
       0.17235537 -0.15016125 -0.2774737 -0.06166548
0001b0 18 cf 84 bd b6 67 59 bd 59 4e 7a 3e 92 41 80 3e
       -0.064848125 -0.053077422 0.2444395 0.25050026
0001c0 24 db 49 3c ec 8d 70 bd ca 4a b6 bd 0c e5 a2 3e
       0.012320314 -0.058729097 -0.08900984 0.31815374
0001d0 52 f6 a3 be 72 24 0c 3e 49 6f 7b be 95 91 a6 3d
       -0.32023865 0.13685778 -0.2455417 0.08133236
0001e0 e4 12 86 be a4 f9 a1 3d 6a 4d 86 3c 54 22 b4 be
       -0.26186287 0.07908943 0.016394336 -0.3518244
0001f0 37 8a d1 3d 2f 05 b5 3e b9 6e c6 3e 5e 69 b0 be
       0.102314405 0.35355517 0.3875635 -0.3445539
000200 c0 7e ac be 5e 7f d3 3e 31 8c 04 be 04 79 4a 3e
       -0.33690453 0.4130811 -0.12944104 0.19772726
000210 99 23 96 be 3f ab 3e 3e 09 e1 3a 3e 32 46 6e 3e
       -0.29324034 0.18620013 0.18249907 0.23268965
000220 4b 24 7c 3e 20 79 ab bb 6e e2 9e 3e 38 c4 0d be
       0.2462322 -0.005232945 0.31032127 -0.13844383
000230 9c 17 94 3e 34 17 7c be a9 2a a8 be 1c e9 06 be
       0.28924263 -0.24618226 -0.32845047 -0.13174862
000240 d7 5b d2 be 00 70 13 3d 45 c1 93 3e c9 ef 70 3c
       -0.41085693 0.035995483 0.2885839 0.014705607
000250 d5 f2 93 3e 50 c6 f0 bd 6a b2 89 3e a9 c5 76 be
       0.28896204 -0.11756575 0.26893932 -0.24098839
000260 77 16 65 be ff 3f ae be 43 f1 59 bd f7 fd c1 3e
       -0.22371851 -0.340332 -0.0532086 0.37889072
000270 d0 a2 97 3e d0 4f 54 be c7 ab a3 bc 7e 6e 90 3e
       0.29616404 -0.20733571 -0.01997937 0.282093
000280 06 83 cb bc 51 87 cb be 80 05 36 3e be 4d e2 3d
       -0.02484275 -0.39751676 0.17775536 0.110499844
000290 50 5d 59 3e db fe 04 3e 8e 6f 90 bd bf 01 80 3e
       0.21227002 0.12987845 -0.07052527 0.25001332
0002a0 48 bf 44 bd eb e5 64 3e 7a 6e 80 3e 0e 79 07 be
       -0.048033983 0.22353332 0.25084287 -0.13229772
0002b0 16 6d 58 3e 3c 08 b6 bd 95 ff 85 3e 77 a6 38 3e
       0.21135363 -0.08888289 0.26171556 0.18032251
0002c0 7d 4f 9f 3c 63 4c 4e be 45 63 15 be 1d a2 8d 3e
       0.019447083 -0.20146327 -0.1458865 0.27662745
0002d0 f8 4c ae be d2 95 ad be a4 86 bf 3d 1c 76 56 3e
       -0.34043097 -0.33903366 0.093518525 0.20943493
0002e0 d1 df 03 3e 46 98 52 3e 31 80 86 bd 44 41 9a 3e
       0.12878348 0.205659 -0.06567419 0.3012792
0002f0 d5 29 06 3d 13 43 16 3f 42 fd 2b bd f8 ba a3 be
       0.032754738 0.586961 -0.041989572 -0.31978583
000300 1d 8c 31 3d 5f a7 8c 3e 28 38 a1 be 97 97 21 3f
       0.043346513 0.27471444 -0.31488156 0.6312193
000310 43 86 42 be 22 f3 9c be 74 45 1f be 19 92 c9 3d
       -0.1899653 -0.30654246 -0.15553838 0.09842319
000320 82 46 a8 be 79 3f a4 bc e1 c6 fa 3e 59 7d 2b be
       -0.32866293 -0.020049797 0.48979858 -0.16747035
000330 fb 46 ac 3e 1f 95 04 3f e5 69 0d 3f a4 27 a0 3c
       0.33647904 0.5179004 0.5523971 0.019550152
000340 03 0f 82 3e 28 f6 60 3e ef 68 0d 3e 8d e3 34 be
       0.25402078 0.21968901 0.1380956 -0.17664929
000350 08 06 0c 3e f5 e3 53 3e 97 08 ba 3e 5b d1 26 3e
       0.13674176 0.20692427 0.3633468 0.162908
000360 52 fc 70 be f9 01 90 39 3a a7 67 be cf cf 41 be
       -0.23533753 0.0002746729 -0.22622386 -0.18926929
000370 cc 36 f4 bd 35 d0 d1 bd ee 00 ec 3d d6 83 33 3d
       -0.11924514 -0.102447905 0.11523615 0.0438269
000380 05 e4 4d 3d be ef 1d 3e e2 b1 e1 3e f2 14 26 be
       0.050266284 0.15423486 0.44081026 -0.16218928
000390 70 e5 58 be 64 01 7d 3c 08 c9 39 be db d4 09 bf
       -0.21181273 0.015442226 -0.18143094 -0.53840417
0003a0 4a 8e 82 be 3c c6 d7 be d9 bc 05 3e d3 bd 8a 3b
       -0.25499183 -0.42143428 0.13060321 0.0042340546
0003b0 64 0f 98 be 12 97 66 3e 47 31 ae be 63 ce d7 bd
       -0.29699242 0.22518566 -0.3402197 -0.10537412
0003c0 b0 ee 83 bd 65 7f 0d 3e c9 94 9a be 74 c0 a6 be
       -0.064420104 0.13818128 -0.3019164 -0.32568705
0003d0 d7 77 19 be 83 3a 88 be 90 c5 28 3e 6e e1 23 be
       -0.14987122 -0.2660714 0.16481614 -0.16003963
0003e0 de 9d 32 be 88 3c 9b bd 78 2b 4e 3e bc 03 d5 3d
       -0.17443034 -0.07579905 0.2013377 0.10401103
0003f0 db 84 c2 3e d2 ed 96 3c b7 8b ae be 69 44 e0 39
       0.37991986 0.018423948 -0.3409097 0.0004277558

encoder.encoder.0.conv.bias f4 [32]
000000 e3 70 98 be c3 cf 43 bb d0 6e 87 be e1 1e 29 3e
       -0.29773626 -0.0029878474 -0.2645173 0.16515686
000010 28 52 7e be 73 a5 a2 3e 33 c6 87 3e 0b a8 0c be
       -0.24836028 0.31766853 0.26518402 -0.13735978
000020 b5 41 56 3b 68 cf e3 b8 ea d4 a3 3e 8f 06 8e 3e
       0.0032692973 -0.00010862836 0.31998378 0.2773938
000030 32 5b 18 3e 39 ec 2c 3d bd 08 90 be 0c 2e a7 3e
       0.14878538 0.042217467 -0.28131667 0.32652318
000040 d6 f3 7e 3c cf 71 06 3d 86 30 a6 b9 c5 83 48 3e
       0.015561065 0.03282338 -0.0003169814 0.19581516
000050 72 55 54 3e 54 05 11 be 9c 48 27 3d c7 c2 17 bb
       0.2073572 -0.14162189 0.04084073 -0.0023156868
000060 c5 10 9f 3e cd 72 a5 3d 93 98 1d 3e 89 ad 5c 3e
       0.31067482 0.08078537 0.15390234 0.21550573
000070 e7 79 20 be c8 5c 2e bd 15 9e 83 be 8e 08 1d 3d
       -0.15671502 -0.04256895 -0.25706545 0.038338237

encoder.encoder.1.conv.weight f4 [32, 32, 3, 3]
000000 f7 1d 9b bb 72 1f 45 bb 94 dd d8 bc 90 8f 3d bb
       -0.0047337967 -0.0030078557 -0.026472844 -0.0028924681
000010 c6 c0 61 3c 3e 23 ad bc e4 1b 69 3c 0a 57 01 3d
       0.013778871 -0.021134969 0.014227841 0.031577148
000020 d8 2e 3d 3a 0b 82 ca bc 0a 7d b7 3b 5f ab fe bb
       0.0007216758 -0.024720212 0.0055996226 -0.007771894
000030 83 14 b4 bc 65 fb de bc 5d 41 35 bc 86 06 03 bd
       -0.021982437 -0.027219484 -0.011062947 -0.031988643
000040 44 82 89 bd 9e b2 5a bd 8a 74 03 bd d2 eb 84 bc
       -0.06714299 -0.053393 -0.032093562 -0.01622573
000050 f6 6f 80 bd 10 04 28 3d c7 5a 34 bd 4c b7 50 ba
       -0.06271355 0.0410195 -0.044031885 -0.00079618837
000060 9c 35 a9 3b 21 26 2c 3d f8 1c bd bb 0a 34 51 bd
       0.0051638614 0.04202855 -0.0057712756 -0.05107502
000070 e9 13 83 bd 70 c0 b6 bc 1c 66 18 3c 96 3a 39 bb
       -0.06400282 -0.022308558 0.0093016885 -0.002826368
000080 09 83 11 bd df 22 97 bd 5c 6e 60 bd 6d 1d 5f bd
       -0.035525355 -0.07379698 -0.054792747 -0.054471422
000090 6c a8 a5 bc 90 79 47 3d 41 2b 71 bd 7c 60 78 3c
       -0.020221911 0.048699915 -0.05887914 0.015159722
0000a0 22 5e 8d bd db 63 04 3d d8 ea d2 bb 81 cc f7 bc
       -0.0690272 0.032321792 -0.006436687 -0.030248882
0000b0 9f b1 64 bd 53 dc 1c 3d 93 e3 ee bc 35 61 27 bd
       -0.055833455 0.038296055 -0.02916125 -0.04086419
0000c0 9a 9d a6 bc 01 e2 ee bc b1 05 23 bb 6d fd 78 bd
       -0.020338822 -0.029160501 -0.0024875219 -0.06078856
0000d0 d0 94 23 bc d2 5d b7 3c 9b 71 13 bd bc 58 b1 bc
       -0.00998421 0.022383604 -0.035997014 -0.021648757
0000e0 cc 9f 95 bc 7c 6f 9e bc 10 0b 7e bd 9f 4b 61 bd
       -0.018264674 -0.01934027 -0.06202227 -0.05500376
0000f0 63 6b aa 3c dd 7d 2b bc 5c da ed 3a ff 01 04 3d
       0.02080316 -0.01046702 0.0018146741 0.032228466
000100 e8 35 49 bd bc 4c dd bc 41 92 0c bd 6e ba a9 bb
       -0.049123675 -0.027014129 -0.034319166 -0.005179695
000110 81 8a 5a bc dc 22 eb bb 30 3e 7a bd d8 98 06 3d
       -0.013338686 -0.0071757864 -0.061094463 0.032860607
000120 09 a9 03 bd 15 e4 1e bd 4c 12 14 bd 72 63 bd 3c
       -0.032143626 -0.038791735 -0.03615026 0.023118708
000130 02 63 a9 bc 18 2d 2e bd b7 27 91 bd 99 91 72 bc
       -0.020677093 -0.042523474 -0.07087653 -0.014805221
000140 30 94 86 bd 63 16 1c 3d 14 c1 ca bb 1b c9 54 bd
       -0.06571233 0.038107287 -0.0061875675 -0.0519496
000150 9d 2d f0 bc 51 99 3b bd dd f6 83 bd 9d 04 8b bd
       -0.029318625 -0.04580051 -0.0644357 -0.06787989
000160 3d 4b 37 3c 32 f3 e7 3c 60 4d 8f 3c 31 90 87 bd
       0.011187372 0.028314207 0.01749295 -0.06619299
000170 37 9e 87 bc fc 38 5e bd 43 40 60 bd 05 e6 f4 3a
       -0.016554935 -0.054253563 -0.054748785 0.0018684274
000180 ea 7b ac 3c e9 41 d2 bc 7e ce d5 bc ee 7c 8a bd
       0.02105518 -0.025666194 -0.02609944 -0.0676211
000190 63 3f 58 3c c6 1d 92 3c 4e 8e 2e 3c 9c 53 f2 ba
       0.013198706 0.017836463 0.010654045 -0.0018488052
0001a0 c7 fe 89 bd 37 37 43 bd b8 28 e8 3c a5 88 04 3c
       -0.06738048 -0.04766008 0.028339729 0.008089219
0001b0 bc fa d9 3b e9 45 27 3d 27 ac 3f bd 53 c5 17 bd
       0.0066522043 0.040838156 -0.046795037 -0.037053417
0001c0 ef 08 21 3d d3 08 91 bd 01 7e 18 3d 8a 9f 9d bc
       0.03931516 -0.07081761 0.03722954 -0.019241113
0001d0 fc 10 06 bd 95 6a 36 3d 3b 58 49 bd 15 52 5a bd
       -0.03273104 0.04453524 -0.04915641 -0.053300936
0001e0 48 3e 84 bd 2b ed 2a bd d5 1a 77 bd 53 6e b4 bb
       -0.06457192 -0.041730087 -0.060328323 -0.0055063157
0001f0 79 63 06 3d 79 a8 cf 3b b3 f2 32 bd 82 3e 3c bd
       0.03280971 0.006337222 -0.043688487 -0.04595805
000200 03 33 3c bb 96 da bd 3b 09 21 ed 3c 06 25 79 bd
       -0.0028716929 0.0057938797 0.028946416 -0.060826324
000210 a2 0b 31 3d dc a2 75 bc 70 f3 a1 3b 6f ad 64 bc
       0.043223985 -0.014992442 0.00494235 -0.013957365
000220 f1 64 9a bd 4e 4d 26 3d 35 b9 35 3c 45 0b 63 bd
       -0.07538784 0.040601067 0.01109152 -0.05543067
000230 a6 81 8f bd 68 0b 18 3d b1 31 81 bd 7c 91 99 3c
       -0.0700715 0.037120253 -0.06308306 0.01874613
000240 6f 0b 11 3c 3d 94 82 bc 51 53 12 bd 7f cb ba bb
       0.008852824 -0.015939826 -0.035723988 -0.005700528
000250 13 8f 37 bd 69 56 10 bc c2 68 e3 3a e0 fb 2b 3d
       -0.04481418 -0.008809664 0.0017349946 0.041988254
000260 6a ae 07 bd cd d2 e5 bc ee 36 c4 3b 1f a8 f4 3c
       -0.03312532 -0.02805462 0.0059879934 0.029865323
000270 78 3c ff 3c 6d c8 20 bb ce bc 6e bd 93 4a ef bc
       0.031156763 -0.0024533526 -0.058285527 -0.029210364
000280 ba 77 30 bd 71 83 29 3d 19 f2 f5 3c 98 eb f2 3c
       -0.04308293 0.041385118 0.030022668 0.029653355
000290 78 ff 1e 3d 6f 62 8f bb b7 9c 08 3d fa ae 98 bd
       0.038817853 -0.004375748 0.03335258 -0.07455249
0002a0 f3 e9 e8 3c 80 60 e3 3c 35 9d 9d bc 7c ff 22 bd
       0.028431868 0.027755976 -0.019240001 -0.03979443
0002b0 ef c2 6b 3c 16 e4 b0 bb d6 45 1f bd 3e ee 85 bd
       0.0143897375 -0.0053982837 -0.03888496 -0.06539582
0002c0 61 65 04 bd 68 f2 18 bc 2c 81 0e bc 7f 46 6d bd
       -0.032323245 -0.009335138 -0.008697789 -0.05792856
0002d0 d8 02 f8 3c 9f 47 b1 3c b1 7d 5b bd 3e c5 c7 3c
       0.030274794 0.021640597 -0.053586666 0.024386045
0002e0 91 bc c0 ba 3c 3f 37 3c 4b d4 f8 bb 7e 9e 64 bd
       -0.0014704635 0.01118451 -0.0075936667 -0.055815212
0002f0 c4 d3 ab 3c 00 7b 5d 39 e3 22 bd 3c b8 17 34 bd
       0.020975001 0.00021122023 0.023087924 -0.043967932
000300 bc ac 34 3d dc e3 18 bd 47 95 8e 3d d5 be 06 3b
       0.044110045 -0.03732668 0.06962066 0.0020560522
000310 d1 95 2f bd 77 da 51 bb 8e f9 c6 3b 26 77 91 bc
       -0.042867485 -0.0032021084 0.0060722297 -0.01775701
000320 4d df 90 3c 93 0a 30 3d 33 de b4 3c 58 b1 9b 3c
       0.017684603 0.042978834 0.02207861 0.019005463
000330 03 31 da 3c 0e 51 b3 3c 08 c0 98 3c 9f 38 e3 bc
       0.026634699 0.021889236 0.018646255 -0.02773696
000340 68 f1 fd 3c 24 9c e2 bc ac 32 ec bc 2b 2e e6 bc
       0.0309989 -0.027662344 -0.028832756 -0.028098186
000350 31 49 89 bd 75 ef 19 bd 97 0d 8a bd 5f 8c be 3b
       -0.06703413 -0.03758188 -0.06740873 0.0058150734
000360 d7 5f 02 3d bb da 87 3c bc 78 df 3c a1 49 69 3b
       0.03182968 0.016583791 0.02727925 0.0035596865
000370 20 d5 6c 3c 8f 94 09 bc 09 da 1e bd 3c 96 3a bd
       0.01445511 -0.008397236 -0.038782153 -0.04555343
000380 30 18 4b 3c 6f b3 07 3d 18 d5 f0 3b 74 47 4c bd
       0.0123959035 0.033130106 0.0073496215 -0.04987283
000390 45 02 24 bd a0 d9 5b bd 7b 47 dc bc c3 8f 16 3c
       -0.040041227 -0.05367434 -0.026889553 0.009189549
0003a0 a3 1b 2e bd b6 34 39 bd 4d e2 3e 3c d7 a1 98 bb
       -0.042506825 -0.045216285 0.011650634 -0.0046579647
0003b0 3a 69 69 bd 89 0c e7 bc a0 da f7 3c da fa 6c ba
       -0.056985117 -0.02820422 0.030255616 -0.00090400653
0003c0 fb a8 56 bd 81 3a ef bc e5 ea 8e bd e7 fc 2c 3d
       -0.052407246 -0.029202702 -0.06978396 0.042233374
0003d0 65 ab 46 3d 2e c7 1e bc e3 d1 23 bd fe 6d e3 bc
       0.0485033 -0.009691043 -0.039995085 -0.02776241
0003e0 39 7c 89 bd f9 80 62 bd fe 0a 39 bd 52 db 55 bc
       -0.06713147 -0.05529878 -0.0451765 -0.013052778
0003f0 04 bf 76 bd b5 e2 35 bd ad 16 94 bc 01 a3 6f bc
       -0.06024076 -0.044405658 -0.018077219 -0.0146262655

encoder.encoder.1.conv.bias f4 [32]
000000 8f 7c 02 ba 29 13 74 3c 91 8c 28 bc 55 10 09 bd
       -0.0004977667 0.014897146 -0.01028742 -0.03346284
000010 26 ed 21 bd 67 3c 73 3b 28 65 5f 3d ba 15 f4 3c
       -0.039532803 0.003711486 0.05453983 0.029795516
000020 a6 96 a0 ba fe a2 82 3d 6b ef 1e bc 1f a2 7c bc
       -0.0012251928 0.063787445 -0.009700636 -0.015419512
000030 06 9f b1 3b cc 09 5a bd 88 41 5a bd 1c 82 ae 3d
       0.0054205684 -0.053232 -0.05328515 0.0852091
000040 06 a7 61 3d 67 a1 77 3b df a2 8c 3d 94 cb bf 3b
       0.055090927 0.0037785412 0.06867003 0.005853126
000050 b1 b2 c9 bc 6c 5f b5 bc b0 c1 8a bd e8 b0 55 bd
       -0.02462134 -0.022140227 -0.06775224 -0.052170664
000060 13 e4 45 bd 28 33 6a 3d 40 cf b2 3c fb 39 3b bd
       -0.04831321 0.057177693 0.02182734 -0.04570959
000070 9a c6 9d bc 18 9b 1d bd ba e9 b5 3c 6f 9f f2 3b
       -0.01925974 -0.038477987 0.022206176 0.00740426

encoder.encoder.2.conv.weight f4 [32, 32, 3, 3]
000000 7c aa c4 bc 4e 48 f7 bc 8f 01 42 3d 0a 39 bc bb
       -0.024007075 -0.030185845 0.047364768 -0.0057441043
000010 25 21 bc bb 94 15 57 bc 27 6d 54 bd e8 3a 4a bd
       -0.005741256 -0.013127703 -0.05186191 -0.049372584
000020 16 d3 84 3d 25 77 ff bc 71 2e 49 bc d2 5a 58 bd
       0.06485574 -0.031184742 -0.012279139 -0.052820988
000030 23 b8 8a bc 13 86 08 3d b8 9f 30 bd 69 38 66 bd
       -0.016933506 0.03333099 -0.04312107 -0.05620614
000040 9f 79 1a bc 13 68 39 bd e8 90 88 3b c4 45 5e bd
       -0.009428411 -0.04526527 0.004167665 -0.054265752
000050 5f 34 0e 3d 0a 7f 9d 3c 80 17 73 ba a1 53 5e 3d
       0.034717914 0.019225616 -0.0009273216 0.054278973
000060 ea 5b 42 bc a7 0d 4b bd 96 aa ad 3c 43 1f 10 bd
       -0.011862734 -0.049573567 0.021199506 -0.035186063
000070 1b c3 82 bd 92 99 60 bd de be 73 bc 6d 1d 98 bd
       -0.0638487 -0.054833956 -0.014877049 -0.074274875
000080 71 13 26 3d f4 8b 93 bc ca 2e 8e bd 06 7a 64 3d
       0.040545885 -0.01801107 -0.06942518 0.055780433
000090 9e e0 55 bd ca 1c 91 bc 3a ef ab 3c ec 66 52 bc
       -0.052216165 -0.017713923 0.020988096 -0.012841921
0000a0 a8 cb ec 3c af 0d 1e 3d 68 b9 27 bc d2 9e 23 3c
       0.028905705 0.03858727 -0.010237075 0.009986596
0000b0 04 69 9b bc 84 e3 3a bd da dd 93 bd 7e 58 1f bd
       -0.018970974 -0.045627132 -0.07220049 -0.038902752
0000c0 89 20 5c 3c c4 2e 63 bd 10 98 44 3b af c5 94 3c
       0.013435491 -0.05546452 0.0029997863 0.01816067
0000d0 31 4b 0e bd 68 69 d2 3c 8e 73 74 3c 8a 1c 56 bd
       -0.034739677 0.025685027 0.0149201285 -0.05227331
0000e0 65 54 1a 3d b9 14 b1 3c 3b 4c 0e 3d 0e 04 f2 bc
       0.03767814 0.021616327 0.034740668 -0.029542949
0000f0 17 78 39 3c fe 96 34 bd 5e 13 89 3d 48 09 12 3d
       0.011320136 -0.04408931 0.06693147 0.035653383
000100 6e 3e e9 3b e4 74 a7 bc a2 b2 5a 3c 00 a9 23 bd
       0.007118038 -0.02044148 0.013348253 -0.039956093
000110 32 3b 69 3c 91 d1 fc bb cb 13 1a 3d db cf fa bc
       0.014235305 -0.007715412 0.037616532 -0.030616691
000120 ec d1 2d bd 3c d7 2b bd 93 38 e8 bc 45 d9 86 bc
       -0.042436525 -0.04195331 -0.02834729 -0.016461024
000130 cd 9c 9a bd 94 bf bd bb d4 aa a9 bc 93 b4 07 bd
       -0.075494386 -0.00579066 -0.02071134 -0.033131193
000140 fa f3 84 bd b8 02 8a bd 5d 6e 85 bd e0 c6 af bc
       -0.06491847 -0.067388 -0.06515191 -0.021457136
000150 94 7d fe bc d2 1c 4e bd 7c 56 89 ba 13 5d 12 3c
       -0.03106574 -0.050320454 -0.0010478045 0.008933323
000160 af 8f cb bc 54 4c 4f bd 28 54 bb bc f3 82 89 bd
       -0.024848787 -0.0506099 -0.022867277 -0.0671443
000170 08 b3 82 3b 6b 28 85 bd 6b ec fe 3b 05 ae 92 bd
       0.0039886273 -0.0650185 0.007779648 -0.07162098
000180 64 b0 9c bc f4 4e 4f 3d 53 36 aa 3c db 6e 5b bd
       -0.019127078 0.050612405 0.020777857 -0.053572517
000190 30 ea fd bc 0e 09 32 bd 86 1c 4d bc f5 21 0f bd
       -0.030995458 -0.043465666 -0.012519008 -0.034944493
0001a0 91 85 54 bd a7 ae 55 3c 0d e4 85 3c 07 42 8e bd
       -0.05188519 0.013042129 0.016344095 -0.069461875
0001b0 3d ab 06 bc 02 04 0e bd f2 ad 6c ba 79 36 80 bc
       -0.008219537 -0.03467179 -0.00090286054 -0.015650975
0001c0 04 0f ba bd 9c 6a d3 3a a6 d0 34 3d 49 b0 9b 3a
       -0.09084895 0.0016129795 0.044144295 0.0011878099
0001d0 eb 61 2c bd 8d 50 0d 3d a7 43 cd 3c a6 40 dc 3c
       -0.04208557 0.034500647 0.025056673 0.026886296
0001e0 ed 34 de bc 9e c3 1e 3c 0d 9e 57 bc b8 a3 00 bc
       -0.027124846 0.009690193 -0.013160241 -0.007851534
0001f0 86 68 bd 3b 05 1a 50 bc bd 71 56 3d 0e 3e e6 3c
       0.0057802824 -0.012701516 0.052354563 0.028105762
000200 9f 0f 02 3d bd f0 62 3d 5c 4d 11 bd e0 2a b8 bc
       0.03175318 0.055405367 -0.035474166 -0.022481382
000210 32 e6 f1 3c 12 04 fb 3c 6a 40 63 bd 11 c6 c5 3c
       0.029528711 0.03064159 -0.055481352 0.024142297
000220 91 f4 00 bd e4 5c 51 3c 10 d4 c5 3c de 3c 66 bd
       -0.031483237 0.0127784945 0.02414897 -0.05621039
000230 98 7d 42 bd a8 79 c8 bc 26 3f 62 bd 8a cf 56 bd
       -0.047483057 -0.024472073 -0.055236004 -0.05244402
000240 e0 ae 74 bd 7b b9 3e bd 82 72 9f bc 64 ca e5 3c
       -0.059737086 -0.046563607 -0.019463781 0.028050609
000250 c8 79 8b bd fb 2d 96 bd 14 13 6d bd 2c 24 a0 3b
       -0.06810337 -0.07332989 -0.057879522 0.0048871245
000260 e5 6a 57 bd bd 0b 57 bd 65 a2 36 bd 3f 95 39 3d
       -0.052592177 -0.05250143 -0.044588465 0.045308348
000270 db 22 7d bd 2d 0b 29 3d 60 98 19 bd a6 c0 56 bd
       -0.06180082 0.041270424 -0.03749883 -0.052429818
000280 59 82 22 bd e9 aa 14 bd 36 63 2d 3c 5f 33 81 bd
       -0.03967509 -0.036295805 0.010582736 -0.063086264
000290 f6 b5 6c bd df fe e6 3c 1d d3 69 bc 2a 40 17 bd
       -0.05779072 0.028197704 -0.014271525 -0.036926426
0002a0 9f b4 b5 3c 87 1a 88 bc 55 84 35 bc eb d7 36 bd
       0.022180853 -0.016614212 -0.011078914 -0.04463951
0002b0 38 ce 14 bd 7d 6c 09 3d cb 40 71 bc fa ff 5c bd
       -0.036329478 0.033550728 -0.0147249205 -0.053955056
0002c0 c0 92 77 3b be f8 dd bb 10 58 04 3c b6 b6 4c 3c
       0.0037776679 -0.006774037 0.008077636 0.012494734
0002d0 80 68 b7 3c 4d fc 94 3c 40 f4 c0 bb fd 4b 7c bd
       0.022388697 0.018186713 -0.005888492 -0.061595906
0002e0 ff 43 0d 39 e6 0b d8 3c fa 3e 98 3b 66 90 fb bc
       0.00013472138 0.026372861 0.0046461793 -0.030708503
0002f0 92 38 87 bd 1b fb cd 3a 8b 46 8b bd 9a e4 45 bd
       -0.06602587 0.0015715094 -0.068005644 -0.048313715
000300 03 e7 63 bd a0 26 a4 bb 8e 36 03 3d de 60 98 bc
       -0.05564023 -0.0050094873 0.03203445 -0.018600877
000310 4a a1 41 bd f1 66 f1 3c ac a1 04 bc 74 40 f0 bc
       -0.047272958 0.029468032 -0.008095186 -0.029327609
000320 1e b7 d4 bc 52 b5 63 bc ba bd 0f bd 06 ac 8c 3c
       -0.025966223 -0.013898211 -0.035093047 0.01717187
000330 e0 d5 08 3d bf 35 79 bd 3b 84 df bc 3d 32 47 3c
       0.033407092 -0.060842272 -0.027284732 0.012157974
000340 3c 0b 80 bc 69 ad 2d 3d e9 3a 19 bd 5f 22 84 bd
       -0.015630357 0.042401705 -0.037409697 -0.06451868
000350 bb e2 3e 3d bf 59 8e 3d c7 ee 6c bd ea fa c6 bc
       0.046602946 0.069507115 -0.057844903 -0.024289567
000360 de b1 85 bd ab 47 28 3d f8 2e b2 bc 3b a6 e9 bb
       -0.06528066 0.041083973 -0.021750912 -0.007130412
000370 05 28 8b bd 03 45 0f 3d 10 d7 d2 3c c0 a5 b5 3a
       -0.067947425 0.034977924 0.025737315 0.0013858601
000380 9c b1 6e 3d 7a d1 b3 bb 9c de de bb 1e b4 8e 3c
       0.05827485 -0.005487618 -0.0068014394 0.017419871
000390 a9 b6 50 bd c9 44 f5 3c ee 86 b3 3c b2 3e 72 bd
       -0.05095545 0.029940026 0.021914925 -0.059141822
0003a0 c0 95 26 bc b8 63 6e 3d 6a cd 6d bd 70 86 4b 3c
       -0.010167539 0.058200568 -0.058057226 0.012422189
0003b0 5e d6 8e 3c 34 c4 86 3c 1b 01 80 bc 3b c1 a3 bc
       0.017436203 0.016450979 -0.015625527 -0.0199896
0003c0 ac 7b c5 bc 03 74 82 bd d8 67 47 3d 3a 0e 90 bb
       -0.024106823 -0.06369784 0.048683017 -0.004396227
0003d0 b6 c1 1d 3d 6a f6 12 bd 47 bc 76 bd 76 45 e7 3c
       0.038514815 -0.03587953 -0.06023815 0.028231364
0003e0 20 87 3c 3d 1c d9 35 bc be d9 3b bc d5 33 3b bd
       0.046027303 -0.011099126 -0.011465488 -0.045703728
0003f0 4e e0 18 bd c0 65 95 ba 80 7e 4b bd 08 e1 25 bd
       -0.03732329 -0.0011398122 -0.049681187 -0.04049781

encoder.encoder.2.conv.bias f4 [32]
000000 53 48 27 bc 57 82 26 bd 15 63 1c 3c 21 85 83 3c
       -0.0102101145 -0.040651646 0.009545107 0.016054692
000010 03 f8 04 3c f0 37 fb bc cf 58 7b 3d c5 52 cd 3c
       0.008115771 -0.030666322 0.06136399 0.025063882
000020 07 9c 18 bd 25 8f a2 3d e4 7c 19 bd 0c cd c0 ba
       -0.037258174 0.07937459 -0.03747262 -0.0014709546
000030 55 66 5a 3b 95 be a8 bc 26 c5 86 3c d0 ce fc bb
       0.0033325155 -0.02059869 0.01645143 -0.0077150837
000040 64 2a 93 3d f2 46 67 bd 3d 2e 1a 3d 12 fe 1a bd
       0.0718582 -0.056464143 0.037641753 -0.037839957
000050 e0 09 05 bd de a3 64 bd e0 af 0e bd 94 b4 24 3c
       -0.03248012 -0.05582034 -0.034835696 0.010052819
000060 34 5c 7e bd 06 77 63 3d f1 c2 6f 3d 06 ca d4 3a
       -0.06209965 0.05553343 0.05853552 0.0016234524
000070 65 0e c1 3c 20 11 54 bc 45 c3 12 3d 88 e9 8c 3d
       0.023566434 -0.012943536 0.035830755 0.0688048

encoder.encoder.3.conv.weight f4 [10, 32, 3, 3]
000000 84 01 5a 3c 2c 16 9f bc c8 cb 88 3b 48 12 d4 3b
       0.013306025 -0.019419752 0.0041746832 0.006471906
000010 76 45 25 bd 62 25 41 3c fe 18 51 bd 7e 9b 51 bd
       -0.040349446 0.011788698 -0.051049225 -0.05117368
000020 a8 5f 68 3c 43 f8 9d bd 55 89 b8 3d 7e 5f 05 3d
       0.0141829625 -0.07713368 0.09010569 0.03256177
000030 db 34 fc bc 28 f8 bd 3c fe 5e c0 3c 09 6a b3 bd
       -0.030786922 0.02318962 0.023482796 -0.08760459
000040 21 00 bf 3d 9d f7 5c 3d a4 d2 09 3c 91 eb fa bc
       0.093261965 0.05394708 0.008412037 -0.030629905
000050 da 14 91 3c 24 75 96 bc 91 c8 27 3d 1f b1 6d 3c
       0.017710138 -0.018366404 0.04096276 0.014507561
000060 21 4a f5 bc 00 b9 2d 3d bf 88 ce 3d 87 bd c7 3c
       -0.029942574 0.042412758 0.10084676 0.024382366
000070 e1 33 5c 3c cb ba dd 3c 19 ef 37 3c 10 f9 0a 3c
       0.013440103 0.027066609 0.011226439 0.008482233
000080 ec 89 cd 3c 95 4a 2d bd 31 fb ae 3d b2 6b 91 bb
       0.02509018 -0.042307455 0.08544005 -0.004437887
000090 bf 7d 8f 3d f0 de 96 3d ce 97 03 3d 54 f6 91 3d
       0.07006406 0.07366741 0.032127194 0.071270615
0000a0 b9 2f a3 bc 69 9a 6e b7 e0 83 91 bc c7 ec 9d 3d
       -0.019920217 -1.4221857e-05 -0.017763078 0.07711177
0000b0 64 0d 48 bc c8 9a d6 bb 23 5a b4 bc f9 3b 9c ba
       -0.012210224 -0.006549213 -0.022015637 -0.0011919729
0000c0 bb cb e3 bc 69 70 9b bc cb 5e ca bc 5f 7a a9 bd
       -0.027807107 -0.0189745 -0.024703404 -0.082752936
0000d0 15 40 fc 3c d1 fa 8a bd c8 d8 20 bd b1 91 38 bd
       0.030792275 -0.06786121 -0.03926924 -0.045060817
0000e0 6b 31 1a 3d 96 db 7d 3c f3 4d 59 3d 60 c9 d2 bc
       0.037644785 0.015494248 0.053052854 -0.025730789
0000f0 db 08 c6 3d 96 d2 5d be 72 c0 d8 3d 92 62 e2 3c
       0.09669658 -0.21662363 0.10583581 0.027634893
000100 90 ea 45 3b 20 b3 c7 bb a5 14 e8 bc 93 30 1d 3d
       0.0030199625 -0.0060943514 -0.028330157 0.038376402
000110 06 a7 4e 3d 8e 58 27 bd fe 05 c8 3c f6 df aa 3c
       0.050452255 -0.040855937 0.02441692 0.020858746
000120 29 1f 2f bd 23 b6 5b bd 7d c7 3c bc 84 21 3c bd
       -0.042754326 -0.053640496 -0.011522171 -0.0459304
000130 c1 0b 75 3d f5 e5 56 bd 73 8f 2d bd b0 ee 83 3c
       0.059825663 -0.052465398 -0.042373132 0.016105026
000140 59 cf e1 3d f7 23 21 bd b0 fb e0 bc d8 79 16 3d
       0.110258766 -0.03934094 -0.027463764 0.036737293
000150 0d 36 0c bc 57 fd 19 3d 68 b9 81 bc 50 0c 59 3d
       -0.008557809 0.03759512 -0.015835479 0.052990258
000160 62 42 4a 3c 81 1d c0 3c 6b 69 1e ba fb 50 65 bd
       0.012344928 0.023451569 -0.000604293 -0.055985432
000170 4b 0d e6 3b 09 71 64 3d 27 4b 73 bc b8 4e 04 be
       0.0070206276 0.05577186 -0.014849461 -0.12920654
000180 3a 78 a3 3d ca 8d 10 3e 9f 6a 0a be 35 f0 8e bd
       0.07981916 0.14116588 -0.13517235 -0.069794096
000190 b0 3c aa 3c ee 22 40 3b 4e 8b 0a 3c a5 78 22 bd
       0.020780891 0.0029317695 0.008456064 -0.039665837
0001a0 4c 9c 55 3c d5 5d a8 3b dd 16 ce 3d 4c da 88 3c
       0.013037752 0.005138139 0.100629546 0.016705655
0001b0 e5 4a 29 3d a7 2a b2 3c 06 5f 29 3d 29 6b 3a 3d
       0.04133119 0.021748854 0.041350387 0.045512352
0001c0 b1 03 5a 3d 7f 74 90 bc e6 26 97 bc 97 d2 ca 3c
       0.053226177 -0.017633675 -0.018451165 0.02475862
0001d0 4e cb 03 3d 7d 6e 2e bd ee 6d 55 3d 95 1d 9f 3c
       0.03217631 -0.04258584 0.05210679 0.019423285
0001e0 5e b3 ca 3c 0f 1a 88 3d 3f c4 09 3d 0f c8 1f bd
       0.024743732 0.06645595 0.03363442 -0.03900915
0001f0 8b 88 fa b9 0d 69 68 3d c7 d7 3f 3c 81 02 e3 3b
       -0.00047785448 0.05674081 0.01170916 0.0069277887
000200 95 4f e8 bc 1e 33 c6 3a dc 22 82 3d 53 01 b4 bc
       -0.02835826 0.0015121435 0.06354305 -0.021973288
000210 91 9e 13 bd 6d 3e 18 bd 06 f9 ef 3c fe 3a 23 bc
       -0.036039893 -0.03716891 0.029293548 -0.009962795
000220 01 f6 04 3d 7a 4e 1a bd a8 6f 1a 3d 17 81 8b 3d
       0.03246117 -0.037672497 0.03770414 0.06811731
000230 78 fc bc 3b df e3 15 3d 82 1d 2a bd dd 91 65 bd
       0.0057674013 0.036594268 -0.041532047 -0.05604731
000240 bb 0b 1c 3d 30 c2 70 3c 1c 11 a9 3d 1a 89 6c 3d
       0.038097125 0.014694735 0.082552165 0.057747938
000250 c2 12 41 3c f3 a5 59 3c c7 15 02 3d 30 e8 80 3d
       0.011784257 0.013284194 0.03175905 0.06294286
000260 47 c4 2b bd e8 8e 27 3b cc f6 03 3d c5 cf 09 be
       -0.04193523 0.0025567356 0.032217786 -0.13458164
000270 ba 47 82 bb 59 8f 17 3e ae 33 38 be 36 99 c9 bd
       -0.0039758356 0.14800777 -0.17988464 -0.09843676
000280 0c 71 65 bd f6 c1 c9 3d b0 c1 07 3d 5c 28 d5 bc
       -0.056016013 0.09851448 0.0331437 -0.026020221
000290 a6 e3 9b bd eb 0f 52 bd ae ea c5 3b 3f f1 5b 3d
       -0.0761178 -0.05128471 0.006039939 0.053696867
0002a0 a3 a7 9c bd 59 1a d6 bc c9 a6 b7 bd 87 43 79 3b
       -0.07649162 -0.02613561 -0.089673586 0.0038034634
0002b0 33 6e 9f bc 5e 2b bb bc bc 11 66 bd f2 3f cf 3c
       -0.019461727 -0.022847828 -0.056169257 0.025299046
0002c0 1b f6 be bd e9 aa a5 bc d5 fe 67 3e 17 c8 cf 3d
       -0.09324285 -0.020223098 0.22655804 0.10145586
0002d0 e5 59 1e 3c b6 b8 23 3d a7 c0 1f bd e6 7c 01 3d
       0.009664987 0.039971076 -0.039002087 0.031613253
0002e0 99 63 e9 bc 43 49 f4 3c 92 25 e0 bc f0 b8 cc bc
       -0.028489875 0.02982009 -0.027361665 -0.024990529
0002f0 c0 e3 2e bd 6f 18 05 bd 73 11 6a 3d c3 c5 53 3d
       -0.042697668 -0.032494005 0.057145547 0.051702272
000300 34 be 65 bd 9d 0a 28 bd ea af c4 3c 73 6f 3f 3d
       -0.056089595 -0.041025747 0.024009664 0.046737146
000310 bc 27 78 3c e5 7b 61 3d f6 2e a7 3c c4 b3 32 3d
       0.015146192 0.055049796 0.020408135 0.04362847
000320 7f ca 06 3d 97 be 55 bd b1 d8 4d 3c 20 a8 c0 3c
       0.03290796 -0.052183714 0.01256387 0.023517668
000330 7d 3d 35 3d 98 5e 2e 3c db b0 db bc 76 cf 4f bd
       0.044248093 0.01064267 -0.02681773 -0.05073496
000340 66 d4 47 bc 89 0f 97 bd 9a 38 3d bc b4 58 42 3d
       -0.012196636 -0.0737601 -0.011549139 0.047447875
000350 27 ff 20 3e c3 57 61 3d 5a 7e 02 3e b1 12 80 3c
       0.15722333 0.055015337 0.12743512 0.015633913
000360 59 70 09 3d 9b 39 b9 3d 57 8f a0 3d 4d de 83 bc
       0.03355441 0.090441905 0.0783984 -0.016097212
000370 79 58 8f 3d f7 fa a0 3d a5 cd a3 bc 2d 4e 0a be
       0.06999297 0.07860368 -0.01999552 -0.13506384
000380 50 61 a8 bd 6b 64 03 bc 0c b7 cc 3c b1 75 bf 3d
       -0.08221686 -0.008019547 0.024989627 0.0934862
000390 e1 f3 8d 3c 0f a5 92 3c 05 16 66 bc 47 d5 f5 3c
       0.017328205 0.017900972 -0.014043336 0.030008925
0003a0 1e 0d a4 ba c7 a1 e5 3d 6a dc cd 3b 2c ff d0 ba
       -0.0012516116 0.11212497 0.006282379 -0.0015945188
0003b0 23 8f 7d 3c 4e 01 c9 bc 8a a6 ac 3c 08 8a 93 3d
       0.015476021 -0.024536755 0.021075506 0.07204062
0003c0 2b 9a 98 3c da 38 e6 bb ef 7e 25 3c 43 1e f7 3c
       0.0186282 -0.00702582 0.010101064 0.030165797
0003d0 80 07 34 3c b2 48 cf 3d 61 d2 d5 3b 6c b1 f8 bc
       0.010988116 0.101212874 0.0065253233 -0.030358039
0003e0 4a 8a 61 3c ef e1 38 bc da 87 15 bd 2d 77 86 3d
       0.013765881 -0.0112843355 -0.03650651 0.065657
0003f0 a2 ac 29 bc 68 80 27 3d 5a 62 18 3d 82 b8 0f 3d
       -0.0103561 0.040893942 0.03720317 0.03508807

encoder.encoder.3.conv.bias f4 [10]
000000 7a 5e c9 3b 51 13 81 ba 66 a4 a1 bc 31 87 79 3c
       0.0061452957 -0.0009847676 -0.019731712 0.015229986
000010 5e 9a a3 bc a6 1c c9 3c 21 55 19 3d c0 bd aa 3c
       -0.019971069 0.024549793 0.0374347 0.020842433
000020 e3 c6 95 3d d0 2c 6d 3b
       0.07313325 0.003619004

decoder.decoder.0.dconv.weight f4 [10, 32, 3, 3]
000000 33 e5 cf bc 09 24 85 be b2 2f 71 bd 65 5d 3a 3e
       -0.025377845 -0.26004055 -0.058883376 0.1819969
000010 85 f2 5b be d3 15 0c be 05 19 f7 bd 44 a8 8e 3c
       -0.21479233 -0.136802 -0.12065319 0.01741422
000020 12 38 79 be 6d 95 a5 3c 4c fd 0a 3d 0a 84 87 be
       -0.24337795 0.020212853 0.03393297 -0.26467925
000030 15 59 05 3e 3d f9 a0 bd d6 0c 79 3d 29 e9 10 bb
       0.13022263 -0.078600384 0.060803257 -0.002211163
000040 b4 b1 26 3d c3 f4 09 be 37 05 2d bd a3 38 90 3d
       0.040696815 -0.13472275 -0.0422413 0.070420526
000050 d4 5d 07 3d 25 01 00 be da ca 45 bd c1 6a 1f be
       0.033048466 -0.12500437 -0.048289157 -0.15568067
000060 f0 c8 0d 3d 52 b8 ce bc f1 15 a8 bd dc 37 0d 3e
       0.034615457 -0.025234375 -0.0820731 0.1379084
000070 cf 9d ef bd 0e 6b d9 3c fc 03 3c 3d 07 83 ab bc
       -0.117000215 0.026540305 0.045902237 -0.020936502
000080 5d af 46 3e bf 33 86 bc 2d 92 25 3c 52 b8 56 3c
       0.19402833 -0.016382096 0.010105652 0.013105469
000090 06 60 08 3e 09 06 27 bd 6f e6 5c bb 54 fd a2 bc
       0.1331788 -0.04077724 -0.0033706685 -0.019896187
0000a0 e2 de 57 3d 0d bf 12 3e d4 06 4a bd 48 21 0f be
       0.052702792 0.14330693 -0.049322918 -0.1397754
0000b0 58 4a 17 3e c6 e1 ba 3d 29 69 31 bd fd 93 0e 3d
       0.14774454 0.09125094 -0.04331318 0.0348091
0000c0 1e 22 56 be 45 f9 ac 3c 5c 41 aa 3c e2 19 96 3d
       -0.20911452 0.021114955 0.020783119 0.073291555
0000d0 28 e6 6d 3e 8a af 3d 3c 76 07 56 3d 13 64 10 bc
       0.23232329 0.011577496 0.05225321 -0.008812922
0000e0 26 59 84 3d 78 76 47 3e 45 1f da 3e f5 70 df 3d
       0.06462316 0.19478786 0.42601982 0.10910217
0000f0 5b 7b ab bd dc b8 d2 bd be 4f 26 3e 86 ca 7d 3d
       -0.083731376 -0.102891654 0.16241357 0.06196072
000100 1f 21 4a 3e b5 ee 82 3e 28 2e 21 3e a5 b7 b8 bc
       0.19739197 0.25572744 0.15740263 -0.022548506
000110 38 5c cb 3d 60 09 36 3e 94 5e bf ba 95 94 04 3e
       0.09929699 0.17777014 -0.001460033 0.12947305
000120 82 32 10 3e 7b 4a 29 b8 ea 7d b2 3d 3b 3e c2 3d
       0.14081767 -4.0362105e-05 0.087154225 0.09484526
000130 f7 ba 60 3d ce c4 56 3e 17 2a 66 bb b0 ea 81 bd
       0.054865804 0.20973513 -0.0035120302 -0.06343591
000140 f0 f4 97 3d 34 cb 64 bd 9c 0b 73 3e 21 ce 4d 3c
       0.07419765 -0.055857852 0.23734897 0.012561352
000150 70 dd 6c be 16 93 a9 bc 17 ca 15 be 8b 8f 60 be
       -0.23131347 -0.020700019 -0.14627872 -0.21929757
000160 be 5b 81 3e 8b 8d 8c 3d 8d 21 43 3e 97 9d 0e 3e
       0.25265306 0.06862935 0.19055767 0.13927303
000170 69 03 00 3e 7b 91 2c bd 0c 9f 2c bd 99 55 2e bd
       0.12501301 -0.04213093 -0.042143866 -0.0425621
000180 63 9a 0d 3d 4f 12 dd 3c ac b3 4c 3e 4a 30 e2 3c
       0.034571063 0.02698627 0.19990414 0.027610917
000190 3c 0f 50 3e 70 18 9e 3d a7 45 cc 3d 53 66 78 bd
       0.20318311 0.07719505 0.09974223 -0.06064446
0001a0 5a 12 cc bc a6 0a 87 3d e4 0b b2 3e f4 7b e4 3d
       -0.024911094 0.06593828 0.34774697 0.11156455
0001b0 a8 cb b1 3d 4c f8 26 3e 31 06 b6 3d 5f cd 6e 3e
       0.086814225 0.16305655 0.088879 0.2332053
0001c0 e2 0b 13 3c 02 1b 35 bd b2 36 66 3d 7b ad a8 3d
       0.008975001 -0.04421521 0.056204505 0.08236214
0001d0 a6 54 f2 3d 7b 51 93 3d 2b d8 84 3e 3b ae e9 3d
       0.11832552 0.071932755 0.25946173 0.11410185
0001e0 73 19 3e 3d 1c b5 1a bc 16 1b 22 3e 40 76 ec 3b
       0.04641099 -0.009442594 0.15830645 0.007216245
0001f0 c9 14 14 3e 95 c9 6b 3d bb bd 14 3e 9d 64 6e 3c
       0.14461054 0.05756529 0.14525501 0.014550355
000200 1c 50 08 3d 01 42 8c bd 12 72 73 3c 69 f3 93 3d
       0.033279523 -0.06848527 0.014858739 0.07224161
000210 e2 c0 1b bd 85 69 d7 3d 26 ba 56 3e f3 42 1f 3e
       -0.038025744 0.10518173 0.20969447 0.15552883
000220 e6 68 24 bd 3d 67 04 3e 2d d7 04 3d 96 e9 88 bd
       -0.0401391 0.12930007 0.03243177 -0.06685178
000230 3c 27 e1 bc 87 5a 38 bd e0 bc 87 bd 92 1a 7d 3d
       -0.027484529 -0.04500821 -0.06627822 0.061792918
000240 1c 48 02 3e 14 26 cd bc a3 65 03 3d 2d b1 1c 3c
       0.1272282 -0.025042571 0.03207935 0.009563726
000250 c9 21 0f bd 5d 22 c5 bc 74 6c 19 bd 7b 88 f9 3c
       -0.03494433 -0.024064237 -0.037456945 0.030460587
000260 b6 06 b3 3d fc b8 21 3e 4a c7 3c bd 14 61 db 3d
       0.087415144 0.15793222 -0.046088494 0.107118756
000270 e6 e3 a0 3d a8 bc 81 3d 60 cf 35 3e 75 49 0c 3d
       0.07855968 0.063348114 0.17754889 0.03424974
000280 35 e3 71 bc 92 5a fe 3d 7d e6 bf 3d a3 1e 78 3d
       -0.014763643 0.12419619 0.09370134 0.060576092
000290 c7 10 d7 3a b2 93 6d bd 8c 7b 6d bd e3 7d a9 3d
       0.0016408198 -0.05800218 -0.05797915 0.08275964
0002a0 09 87 71 bd 74 c5 9f 3d be fe 0d be 3a 59 29 3d
       -0.05896667 0.07801333 -0.13866708 0.04134486
0002b0 3e 86 c0 bc f6 cb b7 bc 84 19 3e 3d 85 76 3b 3b
       -0.023501512 -0.022436123 0.046411052 0.0028604579
0002c0 27 6d 90 3d 9a 04 27 3e ad 07 bf bd 0e b0 10 3e
       0.07052069 0.16310349 -0.09327636 0.1412966
0002d0 df 55 32 3e 12 60 25 bc 60 a0 16 3e 09 41 32 3e
       0.1741557 -0.010093706 0.14709616 0.17407621
0002e0 9c 0b 1e be f7 8e 6d 3e b4 e8 34 bc 6a 7f 3a 3d
       -0.15434116 0.23199068 -0.011041809 0.045531668
0002f0 82 54 56 3e 56 d3 f9 bb aa d6 24 3e e3 79 7d be
       0.20930675 -0.00762407 0.16097513 -0.24753527
000300 9b 3b 28 3e 22 7d 52 3a c7 6a 29 3e 57 ba 0a 3e
       0.16428988 0.00080295105 0.16544639 0.13547646
000310 56 5e 35 3e 02 21 e2 bd 40 0f 38 3d e6 57 37 bc
       0.17711768 -0.11041452 0.04493642 -0.01119039
000320 3e 07 fd 3d f2 a8 bd 3d b1 45 1a bd 0c fa f0 3c
       0.12354897 0.092607394 -0.03766412 0.029416107
000330 8c d2 24 bd bc 79 ee 3c 80 30 02 3e e3 fe 10 be
       -0.040239856 0.029110782 0.12713814 -0.14159732
000340 31 4e 0c 3e 93 90 00 bd 15 22 0b bd df 8c ee bd
       0.13701703 -0.031387877 -0.03396805 -0.11647963
000350 8b 71 e5 bc 06 df 74 bc 19 f2 c9 bc 6c a1 b1 be
       -0.028008243 -0.014945751 -0.024651574 -0.34693468
000360 62 34 27 bd b8 c4 76 3c 61 36 7a bc 52 ce 8c 3d
       -0.04082144 0.01506155 -0.015271754 0.0687529
000370 c4 c5 c6 bd 52 8b 09 bd b7 1b bd bb 3b 9a 4c 3e
       -0.097056895 -0.03358013 -0.005771126 0.19980709
000380 e3 cc 8b 3e b5 fa 51 bd d6 5a 96 bc 55 03 37 bd
       0.27304754 -0.051264483 -0.01835386 -0.044680912
000390 a9 ec 42 3e 82 88 87 3c 99 f4 64 3e dc 57 28 bd
       0.19035591 0.016544584 0.22358932 -0.041099414
0003a0 30 1c 9a bd 98 36 55 bd ef bb 57 3d 76 07 13 3e
       -0.075249076 -0.052054018 0.05266946 0.14358315
0003b0 bb f1 35 be 30 dd 05 3e 31 15 33 bd c3 09 a3 3c
       -0.17767994 0.13072658 -0.04372138 0.019902116
0003c0 e7 4b b7 3d 6e 20 31 3c 7d 85 3f bc c6 68 06 bd
       0.08950024 0.0108109545 -0.011689541 -0.032814763
0003d0 a8 50 fa 3b f6 01 21 be 2f f2 82 bd 74 40 81 3c
       0.0076390095 -0.15723404 -0.06393849 0.015777804
0003e0 7e e0 9b be 1e 62 1c 3e 59 06 11 be ba 9f 8d 3c
       -0.3044471 0.15271804 -0.14162578 0.017288078
0003f0 f0 81 50 3d a6 5e 49 bd b4 1b f0 3d 9c 06 0c 3c
       0.050905168 -0.04916253 0.11724034 0.008546498

decoder.decoder.0.dconv.bias f4 [32]
000000 a4 1a c8 3d de 97 95 3d f1 7a e8 bd 0e 2b cf 3d
       0.09770706 0.07304357 -0.11351574 0.10115634
000010 05 4f c1 3c 1c 2c bf ba 3c e5 2e 3d be e1 67 3d
       0.02359725 -0.0014585289 0.042699084 0.05661177
000020 b2 60 8c 3d 5b 9f b2 3d 4c 69 44 bc 8a 47 73 3d
       0.06854381 0.08721801 -0.011987995 0.059394397
000030 81 dc 7f 3d 01 c1 96 3d 17 f9 01 bc b5 37 1b bd
       0.06246615 0.07361031 -0.007932923 -0.037894923
000040 18 e4 75 3c f5 fb be 3d 47 1f 21 3c be 40 66 3d
       0.015007995 0.09325401 0.009834117 0.056214087
000050 ef 7a ce 3d fc 99 16 3e 4c 04 ce 3d fe 53 08 3e
       0.100820415 0.14707178 0.10059413 0.1331329
000060 77 fd 90 3c 5b 96 23 3d ad d3 01 3d dc 4e c8 3d
       0.017698986 0.039938312 0.03169601 0.09780666
000070 f2 60 c7 3d 9e 50 aa 3d e5 79 42 3d 0a 29 ab 3c
       0.09735288 0.08316158 0.04747953 0.020893592

decoder.decoder.1.dconv.weight f4 [32, 32, 3, 3]
000000 58 2c b0 bd 3b bb 0c 3e 1e 30 6f be 04 72 a3 be
       -0.08602208 0.13743298 -0.23358199 -0.31922925
000010 a8 bb 4c be 00 df b0 be e6 98 13 be fa 64 25 3e
       -0.1999346 -0.34545135 -0.14413795 0.16151801
000020 99 dc 0c 3e 84 72 4b be 7e 14 79 3c b2 49 50 3e
       0.13756026 -0.19867903 0.01520264 0.20340613
000030 0f 06 19 be a1 bc 8c be e2 86 86 be 3e b5 10 be
       -0.14943717 -0.27487662 -0.26274782 -0.14131638
000040 79 2c 36 bd a5 c7 a6 be c6 72 12 bf 4a 00 14 be
       -0.044476006 -0.32574192 -0.5720638 -0.14453235
000050 af d0 04 bd 48 e0 d0 be 69 22 83 3c 4d 55 e1 3e
       -0.03242558 -0.40796113 0.016007619 0.44010392
000060 80 fa bd 3e 69 33 68 3e c3 82 85 3d 65 a9 a9 3d
       0.3710518 0.22675861 0.065190814 0.082842626
000070 c5 8d 73 bd f7 ee 2f be 5a 23 6e bd de cd 87 be
       -0.059461374 -0.17181002 -0.058139183 -0.26524252
000080 e7 fe 58 be 97 a0 21 be ae 07 54 3d 54 e0 cd bd
       -0.21190988 -0.15783916 0.051765136 -0.10052553
000090 b1 c5 f8 3d ea da 14 bc 79 e9 ae 3c 85 af 21 bd
       0.12147082 -0.009085396 0.021351563 -0.03947403
0000a0 0b f6 40 be b7 61 84 be c4 9b 8d bd b0 e6 ed 3d
       -0.18843858 -0.258558 -0.069144756 0.11616266
0000b0 c8 94 58 3e e7 5c a7 3d 37 ca 25 be 9c a2 d2 bd
       0.21150506 0.081720166 -0.1619042 -0.102849215
0000c0 37 17 da bd 5f 11 58 be af 2c a4 be d8 c9 8d be
       -0.10648959 -0.21100377 -0.3206534 -0.27693057
0000d0 1b 14 19 bc 5f 76 dc be c5 b2 a6 bd 7c b8 ca 3d
       -0.009343172 -0.4305906 -0.08139566 0.09898469
0000e0 7c 65 b5 bd 34 28 0c be 69 2e 4f be b7 3f 90 be
       -0.08857247 -0.13687211 -0.20232548 -0.2817361
0000f0 01 f8 15 be 28 c1 09 be b2 d9 8a bc ac e1 08 3e
       -0.14645387 -0.1345259 -0.016949508 0.13367337
000100 bc c6 28 bc 30 42 d0 3d 73 ac 66 bd c8 ad 52 be
       -0.010301288 0.10168874 -0.056316804 -0.20574105
000110 ff 9e 4d be 12 db 54 be 81 71 80 3d 3f a4 2c 3e
       -0.20080183 -0.20786694 0.06271649 0.1685953
000120 71 5c c6 3c 85 8b 24 be f7 c3 82 3d 30 65 5f bd
       0.024214001 -0.16068847 0.063850336 -0.05453986
000130 7e bb 5d be bc 35 d2 bd 1f 63 06 be d6 07 6b 3c
       -0.21653554 -0.10264155 -0.13123749 0.01434513
000140 84 78 8b be a7 09 35 bc 32 8b 94 bd 18 cb 93 bd
       -0.27240384 -0.011049665 -0.07253112 -0.072164714
000150 59 2e 01 bd b4 4b 97 be fb 26 09 bf be da db bd
       -0.03153834 -0.29549944 -0.53575104 -0.10735081
000160 eb c2 c4 bb 2a bc fc 3c a2 22 8c 3e 04 27 cb be
       -0.0060046813 0.030851442 0.27370173 -0.39678204
000170 79 49 49 be 9c 25 f1 3d 4e 67 19 be d2 a0 aa be
       -0.19656934 0.117747515 -0.14980814 -0.3332582
000180 2b d1 78 3c d1 1c ae 3e db 28 45 3e 5c 22 da be
       0.015186588 0.3400636 0.19253866 -0.4260434
000190 a8 64 62 be 51 5d 03 be 4d 92 98 bc 2b f0 7d be
       -0.2210871 -0.12828566 -0.01862445 -0.24798648
0001a0 f3 a6 c0 be 60 ea 3f be bd b3 da 3d b8 69 29 bd
       -0.37627372 -0.1874175 0.106788136 -0.041360587
0001b0 1d 8c 94 bd c9 b6 69 bd c2 96 c6 3d 18 7e 09 bc
       -0.07253287 -0.057059083 0.096967235 -0.0083918795
0001c0 53 ec 69 3e 22 32 17 bd d4 2f 2d 3e 0f d6 9b bb
       0.22844057 -0.036913045 0.16912776 -0.0047557424
0001d0 69 f4 43 be 82 f7 e4 3d 5b eb 16 3a 32 20 92 bd
       -0.19136204 0.11180021 0.00057571166 -0.07135047
0001e0 45 4a 16 3e 59 0b 82 be d8 51 23 be 6c 39 a5 bc
       0.14676769 -0.25399283 -0.1594919 -0.020168982
0001f0 9f 41 d9 3d e4 9e a1 3e 6c 85 97 3a 57 8b 1a 3e
       0.10608219 0.31566536 0.0011560149 0.15092216
000200 0f 2e a1 3e 93 1d 85 bd bf 51 80 3e 20 d2 de 3d
       0.31480452 -0.064997815 0.25062367 0.10879922
000210 46 9e ab 3d c5 02 57 3e d3 11 87 3e 9a 29 c6 3e
       0.08379798 0.2099715 0.26380786 0.38703614
000220 06 20 31 bd c7 11 48 be 0d df 93 be 3b cb 5f be
       -0.04324343 -0.19538032 -0.28881112 -0.2185487
000230 77 35 ce bd b9 72 50 be 5d 86 f9 3c e2 7b 68 3b
       -0.10068791 -0.20356263 0.030459577 0.003547423
000240 45 82 39 be a7 78 b1 bd dd 64 16 3d 10 a3 43 3d
       -0.181161 -0.08665591 0.036717284 0.04776293
000250 61 5f 06 be f1 3e e2 3e ed bb 93 bd 26 64 63 be
       -0.13122322 0.44188645 -0.072135784 -0.22206172
000260 52 c4 a2 3e dc 94 7b bd 84 23 87 bd b2 b1 c8 bd
       0.31790406 -0.06142126 -0.06598571 -0.09799518
000270 7d 6a ee bc 49 48 59 be bd 7b 79 be 73 97 8f bd
       -0.029103512 -0.21218981 -0.24363609 -0.070113085
000280 5f a1 a5 3d 10 64 17 3e 2a 7f 0a 3e eb a9 81 3d
       0.0808742 0.14784265 0.13525072 0.063312374
000290 43 fe 6b be fe 87 16 3c e5 70 62 be a7 d2 92 be
       -0.23046212 0.0091876965 -0.22113378 -0.2867634
0002a0 4e f5 1c bd 37 a3 4d be ee ab 73 be 98 d6 09 be
       -0.03831988 -0.20081793 -0.23796055 -0.13460767
0002b0 62 7f eb bd 61 ea 79 3e e4 15 5c be a2 45 63 3d
       -0.11498906 0.24405815 -0.21492726 0.05548633
0002c0 1b 71 09 be 32 f0 a1 3d 43 a1 42 ba 43 d3 41 3e
       -0.13422053 0.07907142 -0.00074245426 0.18928246
0002d0 3a b6 ad bd 7f 4d 9a bb 2e a9 aa 3d 7f f9 8b be
       -0.084820226 -0.0047089453 0.0833305 -0.27338788
0002e0 bd 08 83 be 7f af 0e be 44 c5 0e be 72 60 a6 bd
       -0.25592604 -0.13934134 -0.13942438 -0.08123864
0002f0 ee cb ac 3e af f0 1d 3e 5d 61 e5 bd 8f 52 4d be
       0.33749336 0.15423845 -0.11200211 -0.20051025
000300 76 d1 4e 3e 84 e2 b7 bd fa 51 b7 bd 4b 02 9a 3e
       0.2019709 -0.08978751 -0.08951183 0.30079874
000310 10 c5 ce 3d bd 3d 08 3e 96 65 7a bd 35 05 0d be
       0.100961804 0.13304801 -0.061132036 -0.13771518
000320 40 6a ae be f1 d7 92 be 6a 3e 85 be bc 0a 65 be
       -0.34065437 -0.28680375 -0.2602418 -0.22367376
000330 54 8f 15 be a7 a6 c3 bc e6 7b 21 3e 17 05 88 be
       -0.14605457 -0.023883177 0.1576992 -0.26566383
000340 f9 61 9f bc a3 8d ca bd 6f 38 30 be fd 3d 43 be
       -0.019455897 -0.09890296 -0.17209028 -0.19066615
000350 c9 6c 17 be 66 bd ef bd 74 eb d5 bc d4 87 33 be
       -0.14787592 -0.11706047 -0.02611325 -0.17532283
000360 89 37 07 bd 00 20 89 bd 1e fc 25 3e ef cb 4d 3d
       -0.033011947 -0.06695557 0.16209456 0.050243314
000370 d1 6f 0b 3e 6a 00 f6 3e dc b8 41 3e e1 d7 26 3e
       0.13616873 0.4804719 0.18918175 0.16293289
000380 ce b5 90 3e c7 65 7f 3e e5 6a 1e be f2 46 79 3e
       0.28263706 0.24941169 -0.15470465 0.2434347
000390 93 68 c5 bd b8 7e 71 be 50 39 17 be d7 9a 11 be
       -0.096390866 -0.23583496 -0.14767957 -0.14219223
0003a0 c1 15 ef bd 54 b6 8b 3e d2 12 7d be 35 e5 29 bd
       -0.11674071 0.27287543 -0.2471421 -0.041478354
0003b0 15 e5 c3 be 9c 85 b6 3d ae 33 8e be 94 f9 f4 be
       -0.38260713 0.08912203 -0.27773803 -0.47846663
0003c0 e8 3a 8d 3c d6 4f 61 bd f0 fd 19 be f3 6c 06 be
       0.017240003 -0.055007778 -0.15038276 -0.13127498
0003d0 9a 43 2b be 89 c5 69 be 83 aa 3e bc 26 ec 56 be
       -0.16725007 -0.2282926 -0.011637333 -0.20988521
0003e0 85 ea a1 be 90 59 55 be 9d ac 0c 3e a3 a7 24 3e
       -0.31624237 -0.20834947 0.13737722 0.16079573
0003f0 d6 84 d5 3d 88 6f b8 bd a3 59 2d bd 49 ff a6 bd
       0.10425727 -0.09005648 -0.042321812 -0.081541605

decoder.decoder.1.dconv.bias f4 [32]
000000 27 b0 92 3d 3d a8 8a 3d 76 b8 59 3e ac 3d eb 3d
       0.07162505 0.0677037 0.21261773 0.11486372
000010 65 6c db 3d ee 1d 96 3d 96 d3 65 3d f0 01 ba 3d
       0.10714034 0.073299274 0.056109987 0.09082401
000020 fd 16 95 3d 74 28 80 3d 96 81 73 3e d4 ae bb 3d
       0.07279775 0.06257716 0.23779902 0.09164205
000030 16 1c e6 bc 2a 7c a8 3d 41 17 65 3e 49 27 c9 3d
       -0.028089564 0.082268074 0.22372152 0.09821946
000040 57 81 9f 3d be 80 b7 3d 4b b7 bb 3d e2 65 42 3d
       0.077883415 0.089601025 0.0916582 0.047460444
000050 7f e8 d3 3d e1 97 98 3d 87 cb b4 3d f4 63 5b 3d
       0.103470795 0.074508436 0.08827882 0.05356212
000060 6c 73 6f 3d c8 81 d3 3d 35 91 98 3d 08 e3 ca 3d
       0.058459684 0.10327488 0.07449571 0.09906584
000070 cf 5a bc 3d c7 c7 96 3d b7 c7 ab 3d 65 3d 3f bd
       0.09197008 0.07362323 0.08387702 -0.04668941
