notebooks/saved_model/mnist_model/mnist_cae_1/mnist_cae00005.pth (torch, 541279 bytes, 51 tensors)

encoder.encoder.0.conv.weight f4 [32, 1, 3, 3]
000000 6b ad a7 bd 52 67 8d be c3 de 3f 3e d1 c9 68 be
       -0.08187374 -0.2761789 0.1873732 -0.22733237
000010 5f 67 d3 bc a8 3e b1 be 82 ba 8b 3e 9e 1e 3f 3d
       -0.025806127 -0.34618115 0.27290732 0.04666006
000020 45 71 0b be d6 8b 4f 3e c0 7b 6b 3e 67 40 93 3d
       -0.13617428 0.20268187 0.22996426 0.07190018
000030 1c 81 9f 3e 7d 73 a9 3e cd 68 53 3e 9d d6 f9 3d
       0.3115319 0.33095923 0.20645447 0.12199137
000040 ee 83 b1 bd 3d 55 58 3e b0 40 89 3d 5d 72 ac 3e
       -0.08667742 0.21126266 0.06701791 0.33681002
000050 8e 4c 3b 3f 40 e2 45 be 1f ff 54 be 56 6b 3c bd
       0.7316369 -0.19324589 -0.20800446 -0.0460008
000060 44 ab 8f be b9 16 b2 be 9b 2b 5e bd 69 c1 86 be
       -0.28060353 -0.3478296 -0.054240804 -0.26319435
000070 32 64 09 3f bb 1c 38 3e 86 d8 0c bf b2 92 31 bf
       0.5366851 0.1797971 -0.5501789 -0.69364464
000080 5e c8 f5 be 5d 08 c9 3e 07 a9 55 3e 48 29 5e bd
       -0.4800443 0.39264193 0.2086526 -0.054238588
000090 6f 41 68 3d d9 e4 3e be 1f 02 bf bd 72 1d 57 bd
       0.056703027 -0.18641986 -0.093265764 -0.052518316
0000a0 9b fc 69 be 9a 07 12 be 84 49 f2 bb 1b 40 93 3d
       -0.22850268 -0.14260712 -0.0073940177 0.071899615
0000b0 f9 6c 0f be 32 aa 32 be 70 71 9e be b8 32 91 3e
       -0.14006414 -0.17447737 -0.3094592 0.28359008
0000c0 06 84 83 3e ac ce ac be da de 8b 3e 31 70 83 3e
       0.25686663 -0.33751428 0.2731846 0.25671533
0000d0 94 45 ab 3d e0 f1 a3 be 02 4f 86 be ce a5 a2 be
       0.0836288 -0.32020473 -0.26232153 -0.31767124
0000e0 08 d9 6f bd 50 a0 d8 bd 7c cf ea 3d 9c 8e c3 bd
       -0.058556587 -0.10577452 0.11465356 -0.09548685
0000f0 a0 0d 1c 3c 1b 4f 98 be 7c e0 89 bd 3b c5 29 3e
       0.009524733 -0.29747853 -0.0673227 0.16579144
000100 15 b2 49 bd bc e5 65 be 74 c7 81 3c ad e1 3f 3e
       -0.049242098 -0.22450918 0.015842177 0.18738432
000110 6b 75 81 bd 5a 82 d7 3c 4c 5f cb bd e7 22 13 3e
       -0.06321224 0.026307274 -0.09930286 0.14368783
000120 02 2a 77 bd 4e 5b 1b bf c6 fa 11 bf 93 f7 52 be
       -0.060342796 -0.60686195 -0.57023275 -0.20602255
000130 79 1e 7d 3e 26 36 b7 3e 32 08 fb 3e 6c 20 90 3e
       0.24718656 0.357835 0.4902969 0.28149736
000140 95 46 99 3e 1b 59 09 3e 78 29 85 bd 24 65 4f 3e
       0.29936662 0.13412897 -0.0650205 0.20253426
000150 1e 59 27 bd b7 39 8e 3e e4 bd 3d 3e f4 73 3b 3e
       -0.040856473 0.27778408 0.18529469 0.18305951
000160 7b da 1d 3e 06 cf 46 be 42 c6 fe 3e 0a 5f 0d 3d
       0.15415375 -0.1941491 0.49760634 0.034514464
000170 3d 1b ee 3e 58 6e 6d 3e 7c 3a 02 3f 30 91 40 3e
       0.46505156 0.23186624 0.5087049 0.18805385
000180 62 0f 13 3f 4e d3 e4 ba 0a 4a 00 3d 2d 1f 63 3e
       0.5744535 -0.0017457993 0.03132061 0.22179861
000190 7e 63 bd bc 25 df 1e 3e 06 63 8b 3d aa 68 99 be
       -0.02311873 0.1551481 0.068059966 -0.29962665
0001a0 64 b9 11 3e 90 d1 76 be 9e df 2c bc c1 7e 9b 3e
       0.14230877 -0.24103379 -0.010551361 0.30370143
0001b0 e4 e0 cf 3d 7b d1 ba 3d 63 0b 09 be 7a 58 6c be
       0.10150316 0.091219865 -0.1338325 -0.23080626
0001c0 65 ed a8 3d 53 eb ce be f2 f4 9f 3b 1d 84 c9 be
       0.082484044 -0.40413913 0.0048814947 -0.39358607
0001d0 e3 85 3f be cc 71 3d 3e 6f fc 90 3a c2 27 cd be
       -0.18703417 0.18500441 0.0011061559 -0.40069395
0001e0 9e b8 f1 3d 5c f6 1f 3d f0 38 44 be fd f7 d2 bd
       0.11802791 0.039053306 -0.19162345 -0.10301206
0001f0 2c 30 84 be 0f de 72 be b8 b7 93 3e eb 3c e0 bd
       -0.25818002 -0.23717521 0.28851104 -0.10949119
000200 92 c8 a2 be 54 f2 47 be 5e 58 8f 3d d1 16 a3 3d
       -0.31793648 -0.19526035 0.069992766 0.07963336
000210 99 b5 a5 be 70 7f d7 bd b2 59 6b 3e 71 c5 cf bd
       -0.3236511 -0.10522354 0.22983435 -0.10145081
000220 e1 5d 55 be 5c 37 98 be 1b a6 8c 3e d6 98 22 3e
       -0.20836593 -0.29729736 0.27470478 0.15878615
000230 1f 45 80 3e 15 f5 83 be 06 15 71 be 8d 6d 60 be
       0.25052735 -0.2577292 -0.23543176 -0.2191679
000240 be c6 6e 3e fd 73 35 3e f4 bf ee 3c a8 83 a9 bb
       0.23318002 0.17720027 0.029144265 -0.0051731654
000250 4d 74 59 be 4c dc bd be a7 69 64 3e 95 c0 98 3e
       -0.21235771 -0.37082136 0.22305928 0.29834428
000260 4e c6 ad bc 97 0d ea 3d 66 bd a1 bd 0b 43 9d be
       -0.021212723 0.11428373 -0.07897453 -0.30715212
000270 b0 ec 5d bb 51 1d ea 3d db 81 88 bd be ab 9d bd
       -0.0033863 0.11431373 -0.06665393 -0.07698773
000280 27 ff 5f 3e 4b d0 07 be d5 2f b3 3d 20 22 0c 3e
       0.21874677 -0.13263051 0.087493576 0.13684893
000290 4a 49 75 3e 1f ad 9e be de 41 1b 3e 98 aa e2 3d
       0.23953739 -0.30991456 0.15161845 0.110676944
0002a0 1a 92 9c 3e 29 a0 19 3e 38 f1 02 3e a7 d7 c3 bc
       0.30580217 0.15002503 0.1278733 -0.023906542
0002b0 1f a4 30 3d 15 f8 63 be 6a 76 81 be 91 ed 87 3d
       0.043125268 -0.22262605 -0.25285655 0.06637109
0002c0 8c 65 e8 3d bc 23 54 3e 95 ce 7f 3e 4f ca bd bd
       0.113474935 0.20716757 0.24981149 -0.09267103
0002d0 53 a9 22 be 7c 2f bb bc 72 04 46 3e cc 62 be 3c
       -0.15884905 -0.02284979 0.19337633 0.02324047
0002e0 72 ee b6 bd f7 f5 fd 3d fa a1 85 be ab 9e 15 be
       -0.089321986 0.1240043 -0.2610014 -0.14611308
0002f0 55 13 f1 3d 39 51 9d be 2e 3c a5 be 38 0d 86 bd
       0.117712654 -0.3072603 -0.32272476 -0.0654549
000300 e8 4e 87 3e 43 5c 8e 3e f8 87 f0 3d 71 d3 98 3e
       0.26427388 0.27804765 0.11744684 0.29848817
000310 f4 a9 a0 bd 12 a3 8b 3e 14 a2 83 3e 17 74 e3 3e
       -0.07844916 0.2727285 0.25709593 0.44424507
000320 0c b8 4e 3e 8d da c4 3e 60 63 95 3e 3f 69 57 3e
       0.20187396 0.3844799 0.2917738 0.21036242
000330 7f d8 f1 3e 92 d9 15 3f ab 91 62 3e 9f f2 b0 be
       0.47235486 0.5853511 0.2212588 -0.34560105
000340 f4 66 5f 3e 2f f4 04 3f 4d 3f d7 be 13 03 07 3c
       0.21816617 0.51935095 -0.42040482 0.008240479
000350 12 7f 63 3e cd 26 85 be d4 56 a0 3d 2f ee 21 3f
       0.22216442 -0.26006165 0.07829061 0.63254064
000360 24 6e 5e 3e 43 dc 26 3e 84 06 09 3f b9 9a e0 3d
       0.21721703 0.1629496 0.5352557 0.10967011
000370 1d 27 d5 3e 16 37 7b bd 5f c5 f0 be 57 8d 0c bf
       0.41631404 -0.06133183 -0.47025582 -0.5490317
000380 c2 3d bc be 38 60 42 3c 30 4f 3b 3e 21 f2 a1 3e
       -0.36765867 0.011863761 0.18291926 0.31630042
000390 66 57 82 be 64 89 8c 3e aa 05 2b be 42 20 a3 3e
       -0.25457305 0.2744857 -0.1670138 0.31860548
0003a0 ee 9c c8 bd 79 ac a9 bd c1 f4 f4 be 75 e1 cd bd
       -0.09795557 -0.0828485 -0.47842982 -0.10052768
0003b0 98 07 53 3c f1 e7 88 be 70 79 cf bc 2f 29 9e 3e
       0.012880228 -0.26739457 -0.02532646 0.30890796
0003c0 eb 60 48 be 90 a1 7e bc 47 fd bc 3e 53 b7 8f be
       -0.19568221 -0.015541449 0.36911985 -0.28069553
0003d0 e5 c6 37 be 93 81 85 3e 1f ed fc 3d 8b c2 51 be
       -0.17946966 0.2607542 0.12349915 -0.20484369
0003e0 2b af 37 3e 77 96 2b 3e c7 ab 17 be 8b 1c 84 3e
       0.17937915 0.16756617 -0.14811622 0.25803027
0003f0 f9 69 2a 3e fd 50 56 be 3a 57 b0 3d e9 97 2e be
       0.16641988 -0.20929332 0.08610387 -0.17050137

encoder.encoder.0.conv.bias f4 [32]
000000 02 3a e4 3d 3f c9 91 3e 08 f3 77 bb 2e 12 d6 3d
       0.111438766 0.2847385 -0.0037834067 0.10452686
000010 02 8f 4c 3e 88 7f 90 3e 1e f1 89 be e3 02 8e 3e
       0.19976428 0.282223 -0.2694177 0.27736577
000020 c8 de c5 3b 18 72 74 bd d8 b5 d6 3c 03 5c 95 3d
       0.0060385205 -0.05967912 0.026209757 0.072929405
000030 81 d3 b2 3e 92 c1 cc 3d cc 5b 41 3e 3d 3e a7 3e
       0.3492699 0.09997858 0.18882674 0.32664672
000040 8e 77 8e bd 5a 33 a5 3e 1b 95 87 3e 84 88 5e 3e
       -0.06956397 0.3226574 0.26480946 0.21731764
000050 fc c1 f6 3d b5 ea 59 bd 4a 7b 0a 3b e8 78 ec bd
       0.12048718 -0.05320235 0.0021130615 -0.115464985
000060 0b af 9e bb 71 45 52 3e ae a6 91 bb 7f ac d7 bd
       -0.004842644 0.20534302 -0.0044449186 -0.10530948
000070 87 5d ab 3e eb a5 8f bd ff 1f 58 3c ab 06 a4 be
       0.33469793 -0.07014068 0.013191222 -0.32036337

encoder.encoder.1.conv.weight f4 [32, 32, 3, 3]
000000 19 ef ac 3d 50 77 2d 3c 36 b2 0c 3d 01 e2 4a 3d
       0.08444042 0.010587528 0.034349643 0.04953194
000010 00 d7 1a 3d 1d d9 5c 3d f3 a7 10 bd 6d d0 d4 ba
       0.037802696 0.053917993 -0.03531642 -0.0016236432
000020 4e 50 2e 3c 8f 36 fa bc b5 7d ef bc cd 5d ea bc
       0.010639263 -0.030543594 -0.029234746 -0.02860918
000030 97 ea 11 3d 8d 04 57 3c f5 db 49 bd ab fe 16 3d
       0.035624113 0.013123644 -0.049282033 0.036863964
000040 ae fc 2c 3d 98 06 fa bb 08 16 61 3d 36 66 8c be
       0.04223316 -0.0076301806 0.05495265 -0.2742173
000050 e7 d1 96 be d8 b9 d2 ba eb e4 90 be 77 e0 a9 be
       -0.29457018 -0.0016077114 -0.2829965 -0.33179066
000060 de c1 a4 bd a7 ac 32 be 16 5a 97 be 3e 2e 61 3d
       -0.0804479 -0.17448674 -0.29560918 0.05497574
000070 97 b9 37 3d b8 f6 0e 3d 86 90 19 bd 0c 64 0b 3d
       0.044854727 0.034903258 -0.037491344 0.03403096
000080 63 00 bc bb e3 18 33 bb b5 77 21 bd bd 8f ca 3c
       -0.005737351 -0.0027328066 -0.039420802 0.024726743
000090 08 d0 7e bb 2c c2 97 3d 8e 7f 11 3d b7 73 bf 3c
       -0.003888132 0.07410082 0.035522036 0.023370607
0000a0 54 40 8a 3c 0f 7d bc 3c 06 be b6 bc a6 9e 5e 3d
       0.016876377 0.023008851 -0.022307407 0.054350518
0000b0 06 e2 10 bc 2d 1a 1c bd f5 d8 3c 3d 99 49 9d 3d
       -0.008842951 -0.0381109 0.046105344 0.07680053
0000c0 29 6e 09 bc 9c 3d e8 bc 59 96 a7 3c 6e 82 01 bd
       -0.008388081 -0.02834969 0.020457434 -0.031618528
0000d0 8e 6b 42 3d af 99 3f 3c 70 ea 78 3b 77 d5 01 3d
       0.047465853 0.011694356 0.0037981533 0.031697717
0000e0 59 3f 44 3d 04 59 4d 3c 28 a9 63 bc bc 51 56 3c
       0.047911976 0.01253343 -0.01389531 0.01308101
0000f0 fc ae 0e 3c 24 da 0b bc 7a 4e b7 bc 79 4a 9e bc
       0.008708712 -0.0085358955 -0.022376288 -0.01932262
000100 8e c3 ce bc b5 b9 8e 3d a4 a3 ef bc e1 a0 0e bd
       -0.025239732 0.069690146 -0.029252835 -0.034821395
000110 42 83 5b 3c 26 6c 05 bd 42 35 78 3d 4a eb 04 bb
       0.0133979935 -0.03257384 0.060597666 -0.0020281845
000120 d2 d1 91 bc 5f 96 9e bc 19 f1 6f be 0e 75 55 be
       -0.017800245 -0.019358812 -0.23431815 -0.20845434
000130 47 7b 9e be 16 47 84 be f2 a1 d1 bd 4e 83 b0 be
       -0.30953428 -0.25835484 -0.10235967 -0.34475178
000140 d0 d6 ea be 7a 3a a4 3c b7 b6 6d bd f3 d1 7f bd
       -0.45867014 0.020047415 -0.05803558 -0.062456083
000150 dc 5b d9 3c ae be 37 3c 30 67 c7 bd 22 40 84 bc
       0.02653306 0.011214895 -0.09736478 -0.016143862
000160 e7 20 6f 3c 2b 96 14 bc 26 57 da 3d 44 41 cc 3d
       0.014595247 -0.009069006 0.106611535 0.09973386
000170 e3 c9 20 be 86 f9 fb 3d aa d5 8a 3d 1e 44 c7 bd
       -0.15702014 0.12303452 0.067790344 -0.09729789
000180 8b fd 2c 3e 7d 8d c8 3c bb a4 1f be 17 73 33 bd
       0.16893594 0.02448153 -0.15590183 -0.04381093
000190 43 26 b8 bc 7b 9f c7 3c d8 14 96 3d b2 7b 1c bd
       -0.022479182 0.024368038 0.073281944 -0.038203903
0001a0 83 5b 63 3d 1d 1a 8a 3c 34 65 22 bd 12 a0 66 3d
       0.055507194 0.016858155 -0.039647296 0.056305
0001b0 4e ad 36 3d 58 92 4b 3d fb e3 ce 3d a4 98 ae 3d
       0.04459887 0.04970011 0.101020776 0.08525208
0001c0 d5 fe d6 3d 77 cc c4 3d f8 61 2e 3d 7b a6 d0 3d
       0.10497824 0.09609311 0.0425739 0.10188004
0001d0 6b 0f 2e bc 8c 4b 98 3d b9 b2 c9 3d 30 9d eb 3d
       -0.010623793 0.074362844 0.09848542 0.115045905
0001e0 96 01 9c 3c f2 8a 97 3d 77 0e f2 3d a7 a2 70 3d
       0.019043725 0.073995486 0.11819165 0.058748867
0001f0 2c 37 00 3e 07 e9 aa 3d 31 ce 05 3c c6 8f 12 3d
       0.12521046 0.08345228 0.008166836 0.035781644
000200 82 9e 30 3c 80 c8 96 3d 17 0a a8 bc c0 0d 05 3d
       0.010779979 0.07362461 -0.020512624 0.032483816
000210 4e a8 3f 3d 9c ff 3a 3d 90 b5 16 3d bb 39 66 bc
       0.046791367 0.045653924 0.036794245 -0.01405185
000220 4e a9 24 3d e2 b9 52 3d 11 cb 93 3d 4e 0a 20 bb
       0.040200524 0.051446803 0.07216466 -0.0024420205
000230 78 ae 8e bc 4a 5e 55 3d 3d 49 10 3d 99 5d a0 3d
       -0.017417178 0.052091874 0.035226095 0.07830352
000240 92 6b 0b bd 62 e5 1e 3d 1a 3a fb bc 32 ac c9 ba
       -0.034038134 0.038792975 -0.030667353 -0.0015386401
000250 67 5f 7c bc 27 8b 05 3d b6 f9 6b 3b 10 a3 46 3d
       -0.015403605 0.03260341 0.0036006994 0.048495352
000260 ad 92 a6 bd f7 ec 74 3d 85 eb 8f 3d 81 2e d9 3c
       -0.08133445 0.0597963 0.07027344 0.026511433
000270 77 7a 68 3d 06 92 06 3d af d5 4b 3c 80 ce 71 3d
       0.056757417 0.032854103 0.012441083 0.059034824
000280 dc e9 9c 3c f7 95 aa 3c f4 5e 32 bd 6c a5 17 3d
       0.019154482 0.020823462 -0.043547586 0.037022993
000290 6a 69 1e bd e7 e8 93 3d d3 ec 62 3d 23 99 7a 3c
       -0.03867475 0.07222157 0.055401634 0.0152953
0002a0 8f b5 bc 3c a1 49 11 3c 39 6e b8 3c cb 45 3e 3c
       0.023035793 0.008867652 0.022513496 0.01161332
0002b0 2c 45 82 bc e3 28 86 3c d4 ab 54 3c 76 20 76 3c
       -0.015902124 0.016376918 0.01298042 0.015022388
0002c0 88 82 dd 3c 89 43 86 3b f4 4c d3 3c 45 90 87 bc
       0.027039781 0.0040974063 0.02579353 -0.016548285
0002d0 4e 44 52 bd a1 10 a6 3b f1 f5 3d 3d f4 ed 0c bd
       -0.05133467 0.0050679003 0.046377126 -0.034406617
0002e0 b7 42 3e bc 76 8c 94 bb 2e 7c 53 3d 3d 5e a2 bc
       -0.011612586 -0.004533346 0.0516321 -0.019820327
0002f0 a1 fe 39 3d ae 30 5b 3d 76 ee 9c bd 29 b1 fb bc
       0.04540885 0.05351322 -0.0766267 -0.030724125
000300 46 62 11 3c f1 0c 7b bd d4 a0 f0 bd f1 71 e2 3b
       0.008873528 -0.06129164 -0.117494255 0.0069105555
000310 50 cf 26 be f2 37 20 be 8f 61 26 3e 79 a3 9c 3d
       -0.16290021 -0.15646341 0.16248153 0.076483674
000320 81 ef 45 be ec f7 17 3e f2 78 ab 3d 7d a4 1d be
       -0.19329645 0.14840668 0.08372678 -0.15394779
000330 d7 34 9e 3d dc 4f bd bd 54 8d 7a be 6a e7 75 3e
       0.07724922 -0.092437476 -0.24467975 0.24014059
000340 0e 2a 30 3e 26 35 27 3e 6d 1e 86 3e 6a ae 39 3e
       0.17203543 0.16328868 0.26195088 0.1813294
000350 81 e5 1d 3f 0a fe 28 3b 4c 3f f6 3c e1 53 0c 3f
       0.6167832 0.0025786185 0.03005948 0.5481549
000360 d8 fa 84 bd 2b 8f 9f be 0b 80 9f be a8 7a ab bd
       -0.06493157 -0.31163916 -0.31152377 -0.08373004
000370 a6 e9 86 be aa 4d d6 be 94 3f 9e 3c b0 9e e9 bc
       -0.26350135 -0.41856128 0.019317426 -0.02851805
000380 bf 46 c2 be 91 49 94 3d 47 9b 40 3d 46 d2 f7 bc
       -0.379446 0.07240594 0.047023084 -0.030251633
000390 98 20 84 3a 2b 64 34 3d e8 b6 15 3d 23 e0 9b 3d
       0.0010080514 0.04404084 0.036551386 0.0761111
0003a0 39 ee 07 bd 69 40 62 bd 49 0c 3a 3d dc 22 bf 3c
       -0.03318617 -0.055237208 0.045421872 0.023332052
0003b0 ab 63 7c 3d e5 e8 89 bb c5 0d a4 bd ba 7b 0c 3e
       0.06161849 -0.0042086714 -0.08010439 0.13719073
0003c0 3a 63 8e bc 97 15 87 3c f6 aa d8 3d eb 5d 82 3d
       -0.0173813 0.016489787 0.10579483 0.0636557
0003d0 23 6f 95 bd ae 59 a8 3d fe 65 7f ba e2 0b 12 bc
       -0.07296588 0.0822023 -0.0009742676 -0.008913966
0003e0 e4 03 ea 3d 31 ad 45 bd 08 ff d1 3b 93 89 93 3d
       0.11426523 -0.04826087 0.006408576 0.072039746
0003f0 60 9f c1 bc 6c 04 f0 3c 68 1e b6 3d b7 81 9e 3d
       -0.023635566 0.029298984 0.08892518 0.07739585

encoder.encoder.1.conv.bias f4 [32]
000000 ca 1e b1 bb 90 35 26 3d 06 8c e9 bc 7b 72 8d 3c
       -0.0054052817 0.040578425 -0.028509151 0.017266503
000010 f4 8a 95 3d cd 57 85 3d 74 86 f7 bc 09 88 0c bc
       0.07301894 0.06510887 -0.03021548 -0.008577355
000020 4e 87 31 3d cf 36 40 3c d5 d5 20 3d 84 de e2 3c
       0.043341927 0.011731817 0.039266426 0.027693994
000030 27 5d eb 3c 10 17 16 3d ab 96 f7 3c 97 8c 01 bc
       0.028730942 0.036643088 0.030223211 -0.007907054
000040 5a f7 a5 3c af e7 c0 3c c5 23 9e bc 9d f8 59 bd
       0.020259548 0.023547975 -0.019304166 -0.05321561
000050 58 a2 18 3d 09 83 af 3b 4f f1 0a 3c f2 ef 27 bd
       0.037264198 0.005356197 0.008480384 -0.041000314
000060 da 2d df 3c bf 91 43 3d ee f9 fb 3c 4b 9d 3e bd
       0.027243543 0.047746416 0.030758824 -0.046536725
000070 1d 52 6c bc e6 92 0e 3d 6f 5f 82 bd c7 42 50 bc
       -0.014423874 0.034808062 -0.06365859 -0.012711233

encoder.encoder.2.conv.weight f4 [32, 32, 3, 3]
000000 83 94 66 bc b6 c9 e8 3d af 1d ac 3c 67 73 88 bd
       -0.014073494 0.11366598 0.021010248 -0.06662636
000010 10 04 90 3d ba 43 ae 3d 4f e0 95 bd a1 f8 08 bd
       0.07032025 0.085090116 -0.07318174 -0.033440236
000020 e9 6e 8a 3d df e3 83 3d 25 54 6a bc 58 bc d2 3d
       0.06759436 0.06439947 -0.014302288 0.1028983
000030 58 e0 b2 bd ff 2f f3 bc 66 b0 36 bd c5 6e 2d be
       -0.087341964 -0.029685972 -0.04460182 -0.16936786
000040 ed 10 c0 bd 28 1a 99 bd 35 63 2a 3d 85 79 0a bb
       -0.09378228 -0.07475692 0.041598517 -0.002112956
000050 29 2c 1b bb d7 21 97 bc ee f2 06 3c af cb 93 3d
       -0.0023677445 -0.018448753 0.00823663 0.07216584
000060 f6 eb d2 b9 91 de 49 3e 92 87 8e 3c 83 f4 82 bc
       -0.00040230126 0.19713809 0.01739863 -0.015985733
000070 ae 24 66 bd 5f 78 60 3d 41 26 12 bc 8e f2 15 bd
       -0.056187324 0.054802295 -0.008920253 -0.03660827
000080 2d f9 ea bc c3 80 9e 3c aa 6e 4d bc ee 15 2c bb
       -0.02868327 0.019348508 -0.012538591 -0.0026258188
000090 2b 46 e2 3b b0 a1 af bc 94 e7 59 3d ee 26 c2 bd
       0.0069053373 -0.021439403 0.053199366 -0.094800815
0000a0 50 1d 44 3c 0f b4 be bc 57 33 ca bd 7f 4a 18 bd
       0.011969879 -0.023279218 -0.098730735 -0.03718042
0000b0 a3 19 ed 3d 00 59 4a 3c 67 ef d3 bc 29 a2 cd bc
       0.115771554 0.012350321 -0.025870992 -0.025101738
0000c0 b3 ed 08 bd 01 ab e6 bd 7e 4c 30 3d c4 3c 97 bd
       -0.033429813 -0.11263085 0.0430417 -0.07384637
0000d0 c7 af 02 be fd 0e 83 bd 1c 8a ea 3c 8a 28 a3 bc
       -0.12762366 -0.06399343 0.028630309 -0.019916791
0000e0 ba fb 62 3d 96 26 04 3c 57 35 ac 3c d0 8b 1f 3d
       0.055415846 0.00806584 0.021021528 0.038951695
0000f0 43 a7 dc 3b 23 90 9e bd d0 a6 88 3b 4b 47 01 bd
       0.0067338063 -0.07742336 0.004170276 -0.03156213
000100 47 41 26 b9 4d 76 93 bd 54 f1 96 bc 52 0f b5 bc
       -0.00015855311 -0.072002985 -0.018425621 -0.022102032
000110 ae 96 c4 bc 72 ad 68 bc 33 af f4 bb 25 7f 8c bd
       -0.02399763 -0.014201509 -0.0074671744 -0.068601884
000120 93 30 19 bb 74 29 26 bd a2 36 b3 3c 8f 2a 36 3d
       -0.00233749 -0.040566877 0.021876637 0.04447418
000130 29 25 0b bd fc 3a 28 3d bc b3 d0 3c 88 05 ab bc
       -0.033970986 0.041071877 0.025476329 -0.020876661
000140 c8 a9 46 bd 0d 73 36 bd ec b3 ca 3c cc 1c 9e 3a
       -0.04850176 -0.044543315 0.024743997 0.0012063025
000150 ba 54 c5 bc 6f e4 db bc 85 7a 8a bd ad 3c 85 3c
       -0.024088252 -0.026842324 -0.0676165 0.016264284
000160 3a ff 47 bc 4a ac a5 bc 92 aa d1 bc 44 e9 e2 3c
       -0.012206847 -0.020223755 -0.02559403 0.02769912
000170 62 7b ad 3d a6 3f 60 bc 29 31 27 3d 6b d5 d9 3c
       0.08470799 -0.01368705 0.040818367 0.026591023
000180 0f 1b ee bd 12 7f db bc 81 e7 83 3d f4 21 e9 3d
       -0.11626255 -0.02679399 0.0644064 0.11383429
000190 59 13 04 be 22 9f 2a 3d 8a c9 8d bd 6b 4a 43 bd
       -0.12898006 0.041655667 -0.06923206 -0.047678392
0001a0 10 f3 c2 bd f4 b8 2b bd 78 1b f7 bd ff c3 90 be
       -0.09519017 -0.041924432 -0.12065786 -0.28274533
0001b0 08 1b 9d 3c 81 70 84 3d bd 0a 2e 3d 2f a5 72 bd
       0.019177929 0.06466771 0.04249071 -0.059239563
0001c0 0a 0f 4d bd f0 12 1d be ad c1 cc bd 13 dc 33 be
       -0.05006317 -0.15339255 -0.09997878 -0.1756442
0001d0 2e e7 5a bd 38 50 56 3d 7b 7e a9 bc ab 4a 35 3e
       -0.053443126 0.052322596 -0.020690193 0.17704265
0001e0 72 30 a8 3c 32 2b f5 3c 5c be 75 3d e7 14 53 bd
       0.020530913 0.029927824 0.059995994 -0.051533606
0001f0 a0 b8 0d bd ea ec dd 3c 02 3e e5 bc eb 72 f1 bd
       -0.0345999 0.027090508 -0.02798367 -0.11789497
000200 f5 86 ca bc fe b5 8b bb 24 d5 eb bd e8 f6 29 3e
       -0.024722556 -0.0042636385 -0.11515263 0.16598094
000210 da 5d 37 bd d4 d8 19 3d 24 44 41 bc e6 72 8a 3c
       -0.04476724 0.0375603 -0.011796031 0.016900491
000220 87 bb b0 3d f0 47 7a bd f9 cc c8 bc 16 96 c7 bd
       0.08629518 -0.06110376 -0.024511801 -0.097454235
000230 35 75 a7 3d 92 e3 27 be 5e 61 ac 3d 73 42 d1 3d
       0.08176652 -0.16395405 0.08417009 0.10217752
000240 4d 3f 44 bd e0 7f 89 bd 34 d0 84 bd 54 fa 3b 3d
       -0.04791193 -0.06713843 -0.06485024 0.04589303
000250 4c 29 55 bd 5b fe 9e bc 1f 83 e1 3c dd df 0e 3d
       -0.052041337 -0.019408396 0.027528344 0.03488146
000260 c2 cb 21 bd c9 29 82 bd d8 3b a7 bc b4 c9 5e bb
       -0.03950096 -0.06355626 -0.020414278 -0.0033994736
000270 b0 6d f9 bb 91 73 b5 bc f4 b1 85 3d 4e 51 6c 3d
       -0.0076119527 -0.022149833 0.065280825 0.057694726
000280 86 86 5c 3d a6 5c 18 bd 6e 7f 1c 3c d8 2d a1 3c
       0.05383923 -0.03719773 0.009551866 0.01967518
000290 1e d5 10 3e 38 ac 52 bd 7e dc a1 3c 12 6f f3 3d
       0.14143798 -0.05143377 0.01975846 0.11886419
0002a0 97 90 0b 3d 02 f1 a5 3d c6 50 55 3e 20 1a b5 3c
       0.03407344 0.08102609 0.20831594 0.022107184
0002b0 88 b5 09 bd 58 55 89 3c c9 21 17 bb 32 6b 25 3d
       -0.033620387 0.016764328 -0.002306091 0.040385433
0002c0 1d 8a 7c bc b5 aa 90 bd 5b 3d 41 bd 6b 9e 0a 3d
       -0.015413788 -0.0706381 -0.047177654 0.033842485
0002d0 e0 67 c5 bc 0c 0c 03 3d 63 d8 02 be 8c ec 1e bd
       -0.024097383 0.03199391 -0.12777857 -0.038799807
0002e0 15 5e ab bd bf a3 44 3d d9 5c 18 be 8f d0 39 3e
       -0.08367554 0.048007723 -0.14879169 0.18145965
0002f0 dc e4 80 3d 1e 3f fb bc 6d 35 73 bd f9 ab 11 3d
       0.062936515 -0.030669745 -0.059377123 0.035564397
000300 a4 50 1c 3d e2 b3 5a bd ad 90 e2 3c 87 a6 0a bd
       0.038162842 -0.053394206 0.027656877 -0.03385022
000310 95 32 d8 3c 1c 36 92 3c fc be ae 3c 63 97 f8 3d
       0.026391307 0.017848067 0.021331303 0.1213825
000320 ac d7 02 3e 3d 9e 6d 3d 36 81 b6 3c bd 34 87 bd
       0.12777585 0.058012236 0.02227841 -0.06601856
000330 28 ee 13 bb 77 34 30 bd 0e 9a ac 3d 5a ae d7 3c
       -0.0022572372 -0.043018784 0.08427821 0.026328254
000340 85 28 00 3d 3d 1c 81 3c 83 75 7b bc 22 2e c0 3c
       0.031288642 0.015760535 -0.015347841 0.023459498
000350 34 2d 8b 3b f8 3a 59 bc 9c b4 93 bb e3 78 25 bd
       0.004247332 -0.013258688 -0.0045076143 -0.04039849
000360 1d 56 0b bd de c1 79 bd c3 91 17 3d 4e f4 9d 3c
       -0.03401767 -0.0609759 0.037004244 0.019281533
000370 e0 7c 81 bc 3d 4b ae bc 83 12 aa bd 65 a9 39 bb
       -0.015806615 -0.02127611 -0.08304312 -0.0028329727
000380 a0 d7 17 ba fa 67 7c bc b7 5f 30 3d 4f bd f1 3d
       -0.00057923235 -0.015405649 0.04306003 0.11803686
000390 bc 4c 21 bb 51 d6 bc 3c e5 e3 29 3e e4 4b 23 3d
       -0.0024612388 0.023051413 0.16590841 0.039867297
0003a0 59 e0 20 3e 24 29 dd 3d dc b3 43 bd 2a ed 67 3d
       0.15710582 0.107988626 -0.04777895 0.05662266
0003b0 32 54 4c 3c c0 7d 58 bd 44 38 31 bd a1 9f 83 3d
       0.012471246 -0.0528543 -0.04326655 0.06426931
0003c0 b1 82 0f bd ec f8 c0 3c 6d a5 f6 3c 69 5c b9 bc
       -0.035036746 0.023556195 0.030108178 -0.022627072
0003d0 09 b4 65 bc ac 08 32 be 38 7b 2f be ac 3d 40 be
       -0.0140199745 -0.1738612 -0.17136848 -0.18773526
0003e0 7a cb 2c be 05 0c 27 bd ba 3a 21 3d fe 8f 0e be
       -0.16874495 -0.040782947 0.039362647 -0.13922116
0003f0 c2 f7 9b bd 13 6e af bd ed 08 b9 bc eb 43 a7 3c
       -0.076156154 -0.08565917 -0.022587264 0.020418128

encoder.encoder.2.conv.bias f4 [32]
000000 b5 bf b5 bc 0f 80 fb 3c b6 12 97 bc 04 29 52 bd
       -0.02218614 0.030700712 -0.01844154 -0.051308647
000010 ca 33 2f bd da dc 32 3d 23 8b 70 bd 4a ce 67 bd
       -0.042774 0.04366765 -0.05872644 -0.056593217
000020 5f ad 90 3b 1d 62 9e 3d f2 f8 47 bb 7a c9 a9 bd
       0.0044151987 0.077335574 -0.0030513373 -0.08290382
000030 e8 9d 93 bc 58 c5 14 3d 14 ec b5 bd 6c a9 81 3c
       -0.018019632 0.036321014 -0.08882919 0.015827857
000040 ac 91 e5 bc f8 85 66 3d 35 35 37 bc 92 27 c9 bd
       -0.028023563 0.056280106 -0.011182119 -0.098220006
000050 ed 5d a4 bd 0f cb 16 bd 66 5b 88 bc 0a c1 67 3d
       -0.080257274 -0.036814746 -0.016645145 0.05658058
000060 f3 58 60 3d 4b 56 8e bd 02 87 4a bc cb 3f 43 bc
       0.05477233 -0.06950053 -0.01236129 -0.011917065
000070 4d b2 d9 bb 7a b2 57 3d 7e 01 dc bc b0 0d 87 3d
       -0.0066435696 0.052660443 -0.02685618 0.065944076

encoder.encoder.3.conv.weight f4 [10, 32, 3, 3]
000000 cd 12 a6 bd 97 1e c3 3d ab 17 f0 3c c7 2c 06 be
       -0.08109055 0.09527319 0.02930816 -0.13103019
000010 df 56 7d bd 8e 0f de bd 31 60 ef bd bc 2c 6f bd
       -0.061850425 -0.108428106 -0.11688269 -0.05839227
000020 ed 45 37 3c 3d eb 19 3d 72 4a a3 3c ca 99 df 3c
       0.011186105 0.037577856 0.01993296 0.027295012
000030 5e 1a 87 3d a8 bb 00 bd 4b ec 86 3d 9e 9c 34 bd
       0.06596826 -0.031428963 0.06588038 -0.044094674
000040 3d 6c aa 3c e4 01 0c bb 79 32 e0 bc 86 21 27 3d
       0.020803565 -0.0021363432 -0.027367817 0.040803455
000050 26 ad 4d bd 3a d5 43 3d 7f af 1e 3d ac 6b 4f bd
       -0.050213955 0.04781077 0.038741585 -0.050639793
000060 62 e7 d6 bc 02 c1 ab bc b3 df 63 3d ea e4 9e 3c
       -0.026233379 -0.020966057 0.055633258 0.019396264
000070 48 5f ea bb ba 6a 11 bd 82 d7 e1 bc 46 d5 94 3b
       -0.0071524717 -0.035502173 -0.027568582 0.0045420257
000080 b1 f5 eb 3b fd a9 55 bb 58 f8 65 bc e7 7c 92 3b
       0.0072009196 -0.0032602542 -0.014036261 0.004470456
000090 be b5 48 bc 38 73 18 3d 0a d8 91 3d ca f2 dc bb
       -0.012250362 0.037219256 0.07121284 -0.00674281
0000a0 6d 20 db bc 11 53 8e bc 52 05 cb 3c 4e e5 ba 3b
       -0.02674886 -0.017373594 0.02478281 0.005703605
0000b0 a4 a8 89 3d ae 35 8e 3c 52 c6 02 bd c7 c6 79 bc
       0.06721619 0.01735958 -0.031927414 -0.015245146
0000c0 d8 47 66 bd af 42 55 bd e7 90 b9 bc 95 b0 8e bd
       -0.05622086 -0.052065548 -0.022652103 -0.06967274
0000d0 66 a6 24 3b 7f 85 84 bc 73 7f 11 3d d4 43 70 3c
       0.0025123595 -0.016176937 0.035521936 0.014664609
0000e0 02 b6 93 3c 6c a2 21 3c db 77 64 3d fd 17 6d bc
       0.018031124 0.009865385 0.055778366 -0.014471051
0000f0 90 d7 38 bd df 67 52 3d 80 ac e0 3a 46 75 8c bb
       -0.04512745 0.05136859 0.0017141253 -0.004286441
000100 ac 2e 8b bd 08 42 b4 3d 39 58 78 bc 08 4c c5 bc
       -0.06796011 0.08801657 -0.015157753 -0.024084106
000110 e0 22 cb bc 1b 1c 8e 3d 22 02 4d 3e c1 7d 5b bd
       -0.024796903 0.069389544 0.20020345 -0.053586725
000120 04 8c 5b bc f8 bb 75 bd 9d b3 01 3d f7 aa 32 bd
       -0.013400082 -0.059993714 0.031665433 -0.043620076
000130 81 fd 69 3d e2 e5 0f be 50 fd e1 3d d2 27 f6 3d
       0.057126526 -0.14052537 0.11034644 0.12019314
000140 0c 27 41 3e 21 de 53 3d 8a 8f 90 3c dc c8 57 bd
       0.18862551 0.05172551 0.01764657 -0.05268179
000150 f5 5b 75 bd cb ab 89 3d 24 81 a3 3d 8f dc 19 bc
       -0.05990215 0.0672222 0.07983616 -0.009390964
000160 5d b1 0d 3d ed 6b ac bb 5e b3 24 bc 85 4d 57 3d
       0.034592975 -0.005261889 -0.01005253 0.052564163
000170 5a e2 57 3b 55 65 a5 3d fa bc a2 3d 0b 1e 37 bd
       0.0032941313 0.08075968 0.07946201 -0.044706386
000180 bd d9 72 ba 58 06 11 3d 3b 46 e5 bd 40 86 49 be
       -0.0009264013 0.03540644 -0.11195036 -0.19680119
000190 8f 2b 93 3d 1b 0a 37 3e a0 93 ac be 75 dc 5d bd
       0.071860425 0.17874949 -0.3370638 -0.054165322
0001a0 ec a2 8e 3d fe d1 29 3e 59 09 8a 3d 25 2a a8 bd
       0.06964669 0.16584012 0.06740064 -0.082111634
0001b0 9a 8c 26 3d 5c a4 fb bc cf a5 33 3d bf d0 18 bd
       0.04066143 -0.030718021 0.0438593 -0.03730845
0001c0 79 64 09 bd 73 9c 58 3d 6a 78 8c bb f3 e0 58 3d
       -0.033543084 0.052883577 -0.0042868154 0.052948903
0001d0 28 86 c5 3c d8 6a 47 3d b0 fa 8e bc 3a af c6 bc
       0.024111822 0.04868588 -0.017453521 -0.024253476
0001e0 28 31 0c 3d 61 64 52 3c dd 6d 01 bc ea 62 7f 3d
       0.034226567 0.012841315 -0.007899729 0.06235019
0001f0 a8 a9 1d 3d 9e 3e fd 3a 73 25 26 bd 41 dd 2f bd
       0.038491875 0.001932103 -0.040563058 -0.042935614
000200 91 1f 75 bc 91 76 88 bd a5 5c 63 be b2 6a 78 3d
       -0.014961139 -0.0666324 -0.2220331 0.060648628
000210 2c 23 38 bc cb d5 0f 3e 52 f6 55 bd 38 3d 8f 3b
       -0.011238854 0.140464 -0.052236862 0.0043713115
000220 61 70 2d bd 8c 19 58 3d 4c 12 f4 39 4a aa 30 3d
       -0.0423435 0.05275874 0.0004655294 0.04313115
000230 c4 63 94 3d c5 a8 5b bc 7a be 22 3c 1e 79 66 3c
       0.07245591 -0.013406937 0.009933108 0.0140669625
000240 9a 64 41 3c cb 26 71 3d cf 16 d4 bc f7 ad 80 3d
       0.01180377 0.058874886 -0.025889782 0.06283181
000250 f6 16 7d bd 67 9c fc bd 01 7e 8b 3d c6 05 82 bc
       -0.061789475 -0.12334519 0.06811143 -0.015871894
000260 0d bd 89 3d 21 c2 ef bd be c2 ab bc 47 0f bc 3d
       0.06725512 -0.11706949 -0.020966884 0.091826014
000270 01 90 3d bd ea ed ba 3d 5b 1b fc 3b f5 45 ee 3d
       -0.04627991 0.0912741 0.0076936907 0.11634437
000280 25 69 85 bd 0b 38 1a 3d fa bc 52 3d c9 12 bd bc
       -0.06514195 0.037651103 0.051449753 -0.023080247
000290 5d 4a 79 3d ed 3c 36 bd 95 98 f8 bc 6d 07 9d bd
       0.060861934 -0.044491697 -0.030346194 -0.07667432
0002a0 bb 07 81 3d 02 4a e0 3c 72 58 86 bd 63 a4 e4 3c
       0.063003026 0.02737904 -0.06559838 0.027910417
0002b0 07 9c d0 bc c4 7d 51 3c 55 57 25 bd 35 5b 32 bd
       -0.025465025 0.0127863325 -0.04036649 -0.043544013
0002c0 32 d7 73 bc 76 62 52 bd 66 98 22 3d d3 c2 90 39
       -0.0148828495 -0.05136343 0.03969612 0.00027610976
0002d0 35 85 56 be 62 64 a1 be 5f 85 f7 bb 39 dd 32 be
       -0.20949252 -0.31521899 -0.007553741 -0.17467202
0002e0 55 2f 11 3e 5f 37 46 bd 43 93 94 3c d3 cf 9f 3d
       0.14178212 -0.04839265 0.018136626 0.07803311
0002f0 ed 5c 6b bd 7f f0 5d bd 37 2c 1e bd bf fc d5 bb
       -0.057461668 -0.054184433 -0.038616385 -0.006530374
000300 91 77 f5 3c 2a ec 3c 3c 63 d8 4f 3d c5 fc 29 3d
       0.02996424 0.011530915 0.05074347 0.041500825
000310 09 f3 6c 3d f7 71 b9 bb f5 e0 ad 3c 47 ee e0 3c
       0.057848964 -0.0056593376 0.021225432 0.02745737
000320 7f 49 1f 3c 38 68 e1 3b 5d 5b 88 3c 3d ea 87 bb
       0.009722113 0.006878879 0.016645128 -0.0041477964
000330 b0 44 b1 3c 26 c4 10 3c a8 3f e5 bc af fb 2e bd
       0.021639198 0.008835828 -0.027984455 -0.042720493
000340 09 a1 5e 3d 07 b4 8b 3d 75 d9 9c bd 13 9a df 3c
       0.054352794 0.06821447 -0.07658664 0.027295148
000350 9b eb 2e bc 46 3f 8a 3d 90 02 fd bc ea 33 88 bd
       -0.01067629 0.0675035 -0.030885011 -0.06650527
000360 f1 83 8c bb 48 eb 12 bd f6 71 b0 bd 28 0e 60 bc
       -0.0042881896 -0.035868913 -0.08615486 -0.01367525
000370 05 c7 8a bc 60 0b b2 3d df 8f 4f 3e ab a0 4e 3d
       -0.016940603 0.08693576 0.20269726 0.050446194
000380 df f9 14 bb a6 16 60 bb 03 cc 20 3d 11 39 5d bc
       -0.0022731943 -0.0034193187 0.03925706 -0.013502375
000390 f0 12 01 bd bd c5 b9 3b 89 08 8e 3c 1e 1a 33 bd
       -0.0315122 0.005669324 0.017338054 -0.04372608
0003a0 b6 22 b8 3d 83 e6 3f bd 69 ac 85 3c 68 c1 90 3d
       0.089909956 -0.046850692 0.016317563 0.07068139
0003b0 ed de 80 3d e8 4f 93 3c fb c8 b9 3c 23 0e c4 bc
       0.0629252 0.017982438 0.022678843 -0.023932522
0003c0 ea e8 05 bd 25 d8 12 3d cd 3d 6c 3d 33 0a 8b 3d
       -0.032692827 0.035850663 0.057676125 0.06789055
0003d0 35 8e 0c 3b 3d 5f 10 3c f1 b2 65 3d 71 41 87 bc
       0.0021447067 0.008811769 0.056078855 -0.016510697
0003e0 bf ff 87 bd 94 71 6d 3d 60 38 d1 bc 9c 75 50 3d
       -0.066405766 0.057969645 -0.025539577 0.05089341
0003f0 db 43 26 bd 1e 9d 7f 3d ea 7f 0c bd 54 91 20 bd
       -0.040592056 0.062405698 -0.034301676 -0.039201096

encoder.encoder.3.conv.bias f4 [10]
000000 14 df 6f 3d 3f 00 15 3d 43 8a 0d 3d 6d c6 78 3d
       0.058562353 0.036377188 0.034555685 0.06073611
000010 0f 11 09 3c 03 70 f1 3c 0f 87 91 3d 86 77 aa 3c
       0.0083658835 0.029472357 0.071058385 0.020808946
000020 cb 63 83 bc 77 3c 14 bd
       -0.016038796 -0.036190476

decoder.decoder.0.dconv.weight f4 [10, 32, 3, 3]
000000 e0 1c 58 3e 95 77 40 be a6 d3 57 be 0f 54 39 3e
       0.21104765 -0.18795617 -0.21076831 0.18098472
000010 f0 9f d7 bd d4 17 01 3e fd 0e 9b be d3 30 30 be
       -0.105285525 0.12606746 -0.30284873 -0.17206125
000020 ea 71 5b 3e a1 e4 1e bd 74 bf 39 be a5 de ef 3d
       0.21430174 -0.038792256 -0.1813944 0.11712388
000030 2f c2 44 be c7 15 77 be 26 21 d1 bd 77 98 35 bd
       -0.192147 -0.24129401 -0.10211401 -0.044334855
000040 0c 26 85 3e eb 2f f0 3c 88 18 fe 3d cb 79 7c bd
       0.2600559 0.029319724 0.12407023 -0.06163959
000050 19 cd 95 3d 5a ae d8 3d d8 15 ed be b6 58 7c 3e
       0.0731451 0.1058013 -0.46305728 0.24643216
000060 2c cd b8 3c 7a 8d 1e be 10 a0 b6 3c 64 7c 87 3d
       0.022558771 -0.15483657 0.02229312 0.066155225
000070 d9 63 e8 bc e5 dc 58 3e 22 5f 49 be 7c ed 13 3e
       -0.028367924 0.21178015 -0.19665197 0.14446062
000080 1e 92 10 3e 1d dd 78 bd fd a6 04 be b6 9d 06 3e
       0.1411824 -0.060757745 -0.12954326 0.131461
000090 8e 2a ee 3d c5 c2 6a 3c 41 36 8e 3d 9a 03 46 be
       0.116292104 0.014328663 0.06943942 -0.19337311
0000a0 98 21 c8 bc 79 b5 54 3e 25 61 3c 3d dc 4a cb bd
       -0.024430081 0.20772351 0.04599108 -0.09926388
0000b0 ac 36 30 3e da 05 a8 bd 05 78 ff bd b3 23 a6 be
       0.17208356 -0.08204241 -0.12474064 -0.3244911
0000c0 3c 23 c7 3d 00 2f bb 3d 3a e0 2d bc 6c 41 96 be
       0.09723517 0.09139824 -0.010612542 -0.29346788
0000d0 93 4e 57 3e 81 7e 11 3e 02 be 91 b9 c5 87 88 3d
       0.21026067 0.14208414 -0.00027798122 0.06666521
0000e0 7b 7f 02 3e 10 a8 21 be ab 9d 56 bd e4 f1 32 3e
       0.12743942 -0.15786767 -0.052396458 0.17475086
0000f0 48 3d 4b 3b ad aa a9 3d e6 3b ba 3d b1 65 16 3d
       0.0031011868 0.08284507 0.09093456 0.036718074
000100 05 c6 10 3e 7f 93 f1 3d c9 00 90 3e 2a 0f ac bd
       0.14138038 0.11795711 0.281256 -0.0840133
000110 e8 46 ea bc 5f b6 42 bc 16 09 e1 bd 86 a3 41 3c
       -0.028598264 -0.011884301 -0.10988061 0.011818772
000120 83 ea dc 3d 9f 8d 4d 3c 77 9b ca bd 77 18 e8 3d
       0.10786917 0.012545972 -0.09892934 0.11332791
000130 29 0a 19 bd 02 58 58 3c 8e 94 00 3e ff 12 92 bd
       -0.037363205 0.013204576 0.12556669 -0.071325295
000140 5e 68 f2 bc 3c 0b 27 3e 0c 3f 8f 3e 7a b0 f9 3c
       -0.029590782 0.1631288 0.27977788 0.030479658
000150 4e 6c 08 be 30 b3 c0 3d 5f cd be 3d 82 ea 90 3e
       -0.13322565 0.09409177 0.09316515 0.28303915
000160 60 08 85 bd e4 2c 57 3e 4b 41 6a bd 78 3f 0b bd
       -0.06495738 0.21013218 -0.057191174 -0.033996075
000170 d6 39 fe 3d b4 bd 27 be e8 c0 1e bd 64 2c 0e 3e
       0.12413375 -0.1638096 -0.03875819 0.13884121
000180 ab b3 98 bd 8f 8e 2a 3e 5c c3 7f 3e 0d 47 06 3e
       -0.07456144 0.16655944 0.24976867 0.13113041
000190 03 bb 4a 3d 5a 19 d6 bb be 1e 1a 3e be 6b de bd
       0.049494755 -0.006533784 0.1505079 -0.10860394
0001a0 e3 e2 27 3c cd 74 9f 3d c5 3e 0e bd 8b 2f b6 3b
       0.010246965 0.0778595 -0.03472783 0.005559867
0001b0 2d 8b 0c 3d 13 cb 33 3d 2f ed ff 3d fd 0b 54 be
       0.034312416 0.04389484 0.12496411 -0.20707698
0001c0 33 83 53 be d2 d1 34 3e 4f 86 c8 3d 71 e5 a0 3d
       -0.20655517 0.17658165 0.09791242 0.078562625
0001d0 da 43 62 3e 9d 8f 37 3d 90 c0 02 bd 8d 43 10 3d
       0.22096196 0.044814695 -0.031921923 0.03522067
0001e0 f2 62 a8 3e 08 99 98 bc 30 4e a3 3c 1a 2e e5 3c
       0.3288799 -0.018627658 0.019934744 0.027976085
0001f0 08 f9 42 bc e1 b9 23 bc 2d 10 ff bb 4d de 08 3e
       -0.011900194 -0.009993047 -0.0077839107 0.13366051
000200 0b 1e d8 3d 41 87 37 3d 82 98 bb bc a4 6f 8e 3d
       0.10552605 0.044806723 -0.02289987 0.069548875
000210 41 d5 f4 bd 0e 26 cb bd 7c 34 db 3c 58 56 70 3d
       -0.119547375 -0.09919368 0.026758425 0.058676094
000220 c3 6f 91 3d c9 89 f7 3c 87 59 27 3e db 90 8a bd
       0.07101395 0.030217068 0.16342746 -0.0676591
000230 c7 fd 90 bc a3 b2 94 bd ea a0 16 be 28 d7 4e bd
       -0.017699135 -0.07260635 -0.14709821 -0.050498158
000240 45 32 08 3e 89 4b 13 bb 47 2b 87 3d 9b 2d ab 3d
       0.13300426 -0.0022475442 0.066000514 0.08358308
000250 1c e5 0d be 1b df 7d 3e b6 b0 f3 3d 50 70 17 bd
       -0.1385693 0.24792139 0.11898939 -0.036972344
000260 5e de 4e 3e a9 1a 19 3c fb 99 88 bd b7 21 fc 3b
       0.20202014 0.009344735 -0.066699944 0.007694449
000270 40 10 8f bb 27 d6 a5 bd fa dd d1 3c 2a 10 40 3d
       -0.004365951 -0.08097487 0.025618542 0.046890415
000280 16 7c 91 3c 43 46 71 3c 99 0e d2 3d cc d2 94 3d
       0.017759364 0.014726224 0.102566905 0.07266769
000290 21 e4 8d 3c 92 21 73 3d 3c e9 90 be 75 c8 42 3d
       0.017320694 0.059358187 -0.28302944 0.047554452
0002a0 13 7c 8d be 12 ca c6 3d 5e d7 74 3e de eb d8 3c
       -0.27633724 0.097065106 0.23910281 0.026479658
0002b0 f7 b3 3a be 55 cb a1 bd a4 4a 35 3e 46 5c 0d be
       -0.18232714 -0.07900111 0.17704254 -0.13804731
0002c0 88 e0 43 3e 23 69 39 be 10 57 3b be 0d e0 87 3e
       0.1912862 -0.18106513 -0.1829493 0.26538125
0002d0 c1 f8 00 3e 78 4c e5 bb bc 32 f2 bc 03 d1 87 3e
       0.12594892 -0.006997641 -0.029565208 0.2652665
0002e0 94 3e 9c be e8 88 ed 3c 34 72 9d 3e 8b f4 a9 be
       -0.30516493 0.028995946 0.30751193 -0.33194384
0002f0 bd 5b 93 bd 4f fd 90 3d 6e 5f 68 3d 2e f4 b5 3d
       -0.07195232 0.07079565 0.056731634 0.08884464
000300 f0 b4 4c 3c b2 a0 5e bd a2 61 44 3e 4b 8c 46 3d
       0.012494311 -0.05435247 0.19177869 0.048473638
000310 7c 30 68 bc 2d 3b 1d 3e d5 27 06 3e fa f5 0e 3d
       -0.014171716 0.15354605 0.13101132 0.03490255
000320 c9 9a 3c 3d c0 ea 74 3e 5b a7 72 be c4 af 85 3e
       0.046046052 0.23917675 -0.23696654 0.2611066
000330 ed 94 09 3e 06 f5 79 bd 50 92 ec 3d 5b 6c 4f 3d
       0.13435717 -0.06102469 0.115513444 0.050640445
000340 5d c3 95 be cd a9 82 bd 17 a3 29 3e 22 c0 71 bd
       -0.29250613 -0.06380043 0.1656612 -0.059021123
000350 33 24 36 3e b7 c7 db 3d 08 06 5e 3d 39 c8 95 3d
       0.17787246 0.10731452 0.05420497 0.0731358
000360 c0 a4 c9 3d aa 57 2b 3e 70 3e 83 3d 32 e7 8d 3e
       0.09845877 0.1673266 0.064083934 0.2771545
000370 10 01 b1 bd 7e 99 0c 3e 49 53 9b 3e ac ba 25 3d
       -0.08642781 0.13730428 0.3033698 0.040461227
000380 32 e5 30 3e 6a 4b a9 3d 03 a9 d0 3c 0a a5 09 3e
       0.17274931 0.08266337 0.025471216 0.13441864
000390 60 94 38 3e 63 60 ab bc f1 8a 39 bd c0 27 72 3e
       0.1802535 -0.020919984 -0.04529852 0.23647976
0003a0 60 32 ec bb 93 0e b3 3d 53 6a c7 3d b8 52 ca bd
       -0.0072081536 0.08743014 0.097370766 -0.098790586
0003b0 fe a7 74 3e 2e 71 e7 bd c4 bc 80 be 55 6c 13 3e
       0.23892209 -0.11300884 -0.25144017 0.14396794
0003c0 d6 1c 7f 3d 30 37 2c 3e 4a 39 81 3e 83 89 8b 3c
       0.06228336 0.16817927 0.2523902 0.017033344
0003d0 7f 71 36 bc 60 a5 41 3d 83 6b bd 3d a8 24 02 bd
       -0.011135458 0.047276855 0.09249022 -0.03177324
0003e0 ee 3c 08 3e db 14 68 bd 43 1f 0a bd 60 4a a8 3d
       0.13304493 -0.056660514 -0.03372122 0.08217311
0003f0 ec a8 3b bd 86 93 0f 3e 7a 97 cc bc b9 16 e1 3d
       -0.045815393 0.1402112 -0.024974573 0.10990662

decoder.decoder.0.dconv.bias f4 [32]
000000 7d 1c 1e 3e d5 12 61 3e 7e e4 2e 3e 98 e5 0a 3e
       0.15440555 0.2197984 0.1707935 0.13564146
000010 6c 2d 96 3d 4f f1 1e 3e c8 8c f6 bc 23 e6 55 3d
       0.07332882 0.1552174 -0.030096427 0.05222143
000020 9f 32 eb bc e1 5d 9d 3d 64 44 44 3e f8 15 1c 3e
       -0.028710661 0.076839216 0.19166714 0.15242755
000030 9c c6 45 3d ff 73 49 be ca 92 52 3d 12 47 cc 3c
       0.04828511 -0.19673155 0.05140952 0.024936233
000040 b1 90 e9 3c 03 db cf be 85 bc 96 3e a2 07 b4 3d
       0.028511377 -0.4059678 0.29440704 0.08790518
000050 a5 d8 d1 3d ae 8c 7c 3d c6 14 e6 3d 4c 09 ec bd
       0.102464 0.0616576 0.11234431 -0.11525211
000060 ae cf 15 be 8f 06 95 3d 4c fe 84 bc 99 9c 95 bc
       -0.14630005 0.072766416 -0.01623454 -0.018263148
000070 97 c5 13 be 24 68 05 bd 0f 9e 75 3d f7 ba a3 3e
       -0.14430843 -0.03257002 0.05996519 0.3197858

decoder.decoder.1.dconv.weight f4 [32, 32, 3, 3]
000000 d5 d1 9a be 42 26 0a 3e 04 05 e4 bd 76 c3 9d bd
       -0.30238214 0.13491157 -0.11133769 -0.07703297
000010 96 56 68 3e 2d 89 5b 3e 59 60 ec 3d 2c 72 6e 3e
       0.2268928 0.21439047 0.11541814 0.2328574
000020 bc 79 1b 3d d8 55 33 be 5e 53 24 bd 94 60 31 be
       0.03795789 -0.17513216 -0.040118568 -0.17321998
000030 aa 3b 90 be fb e4 c5 be 03 07 9e 3b fc ed da 3a
       -0.2817052 -0.3865126 0.004822613 0.0016703005
000040 9c 3b 32 bb fe 2c 49 3e 80 00 1d be 49 72 79 bd
       -0.0027196174 0.1964607 -0.15332222 -0.060900006
000050 a6 53 2c be 58 9b 97 bd 80 c6 dc be ce b5 08 3e
       -0.16828784 -0.07402676 -0.43120193 0.13350603
000060 af 71 61 3e 04 29 d1 3e 52 fb 3d 3e b5 e4 9a bd
       0.22016023 0.40851605 0.18552902 -0.07563154
000070 ab c1 a3 be 0d 72 7a bd 39 f7 6d be 10 fd b4 be
       -0.31983694 -0.061143924 -0.23238839 -0.3534932
000080 86 7b 05 be ca 8b 16 3e d8 11 3f 3e 4e 89 ff 3d
       -0.13035402 0.14701763 0.1865915 0.12477361
000090 d6 6a 1e be c4 70 5d be 80 13 f4 bd eb 7d 6a bd
       -0.15470442 -0.21625048 -0.11917782 -0.05724899
0000a0 55 7e 49 be d3 6c 1b 3d 26 2f 67 be 1c 50 62 3e
       -0.19677098 0.03794558 -0.2257658 0.22100872
0000b0 ae a3 db 3e 82 33 66 3e 6e e7 43 be bd 0f 9e be
       0.42898315 0.22480586 -0.19131252 -0.30871382
0000c0 d7 39 48 bf b8 e2 98 be 68 ec 06 3e 74 54 0a 3e
       -0.78213257 -0.29860473 0.1317612 0.13508779
0000d0 27 37 8a 3e 5e 80 ac 3e d0 b5 0e be 18 d8 db be
       0.26995203 0.33691686 -0.13936543 -0.42938304
0000e0 68 fb 71 3d 98 66 99 be e9 69 9f be 24 4d df bd
       0.05907765 -0.29961085 -0.3113549 -0.10903385
0000f0 cf 73 01 3e 04 a7 a5 3e 81 1a c1 3e 6b de 93 bd
       0.12641834 0.32353985 0.37715533 -0.07220157
000100 25 a7 15 be fd 53 1a bd 4b 54 85 be 26 53 d0 be
       -0.14614542 -0.037677754 -0.26040873 -0.40688437
000110 dd b7 e3 3c 3d e1 8a bd cd 0a 78 3e 81 e3 a1 3d
       0.027797634 -0.06781242 0.2422287 0.07904721
000120 81 9c ea bd 42 67 96 be 2b 68 99 3c dc ba bb be
       -0.11455632 -0.29375654 0.018726429 -0.36666
000130 33 cd a7 be f4 c9 f1 3d 8f 0a 45 be 2d 38 5a be
       -0.32773742 0.118060976 -0.19242309 -0.21310492
000140 05 28 fb 3d bb a9 f2 bd 90 e7 89 3c 8d 05 a9 be
       0.122634925 -0.1184878 0.01683405 -0.33012047
000150 fe 56 58 be 93 a3 93 bc af 0c 2f 3e 84 1e aa be
       -0.21126935 -0.018022334 0.17094682 -0.33226407
000160 84 3c 72 3e f5 73 7c 3e 91 3d 4e 3d 77 c3 c7 3b
       0.23655897 0.24653609 0.050351683 0.0060962993
000170 68 33 82 3d af 97 60 be c6 c8 06 3d 7b 15 f0 bd
       0.06357461 -0.21932863 0.032906316 -0.11722847
000180 ed 2a 33 3e d8 26 2d bc 21 1e f4 bd 49 d2 04 bd
       0.17496844 -0.010568343 -0.11919809 -0.032427106
000190 ab 5c 45 be 3e ac 28 be 9d 3c 84 be ea 7e c1 be
       -0.19273631 -0.16471955 -0.25827494 -0.3779214
0001a0 6d c3 4b 3e 55 f0 9f 3e f0 47 09 be cf 72 61 3d
       0.19898768 0.31238046 -0.13406348 0.05504113
0001b0 7e 53 7f be 01 8f ae be 0b e4 84 be ad 33 72 be
       -0.24934193 -0.34093478 -0.25955233 -0.23652525
0001c0 8b 63 e9 be 79 e3 b0 bb f0 df 96 bd 5e 78 01 ba
       -0.45583758 -0.0053982106 -0.073669314 -0.00049388956
0001d0 42 ba 40 3e 51 de bf 3d ec 46 a6 be a4 ce f0 3c
       0.18821052 0.09368575 -0.32475984 0.029395409
0001e0 00 b5 fd be bf 80 2f be ea 9a 92 ba 8c e1 80 3d
       -0.49552155 -0.17138956 -0.0011185084 0.0629302
0001f0 7b b2 28 3e 14 67 d4 3d db 4b 13 bd d4 34 e8 bd
       0.16474335 0.10371223 -0.035961013 -0.11338201
000200 6c f5 7a be 36 eb d1 be 17 06 bc bd e6 8c ff 3c
       -0.24507684 -0.40999764 -0.09180849 0.031195115
000210 8f 94 e1 bd 92 f5 86 3e 87 12 92 3d 4c 7f 8c bd
       -0.110146634 0.2635923 0.0713244 -0.068602175
000220 4c 34 19 be 76 c4 02 bd 99 02 40 be f0 90 c8 be
       -0.14961356 -0.03192564 -0.18750991 -0.3917308
000230 fd 7d 86 3e 19 00 2f be 7e 5a 91 3e e6 84 40 3e
       0.26267996 -0.17089881 0.28389353 0.18800697
000240 30 9c 55 be 06 6b e4 bd 37 b1 a0 be 2a af f2 bb
       -0.20860362 -0.111532256 -0.31385204 -0.007406135
000250 bb b0 99 3e 7b e6 2f 3e ca 92 89 be 0a 73 88 3e
       0.30017647 0.17177765 -0.26869804 0.26650268
000260 f0 a2 aa 3e ba de 4f be 68 6d 5a be 1f ba d3 be
       0.33327436 -0.20299807 -0.21330798 -0.41352937
000270 aa 69 eb be fe 10 ee bd f9 0a ec bd de 0d 8b bc
       -0.45979053 -0.11624335 -0.1152553 -0.016974386
000280 ba 8e 56 3e d8 c2 4d 3e 21 7e 47 bd 29 ef b6 bd
       0.20952883 0.20093858 -0.04870427 -0.08932335
000290 3c c0 51 be ff ab 04 bf 10 46 8a be 49 9c 93 3d
       -0.20483488 -0.51824945 -0.27006578 0.072075434
0002a0 36 71 43 3e 04 11 4f 3e 63 f2 5c 3e 78 e8 22 be
       0.19086155 0.20221335 0.21576838 -0.15908992
0002b0 8c 43 90 bd 46 0e ca be 28 b7 9d be df 71 42 be
       -0.070441335 -0.39464015 -0.308038 -0.18988751
0002c0 5b ed 8d be 5a 00 93 bb 3e 02 7d 3e be 1b a4 3e
       -0.2772015 -0.004486126 0.24707887 0.32052416
0002d0 d4 c6 65 bc cc c6 44 bd be a9 19 bd c8 16 2b bd
       -0.014024455 -0.04804115 -0.037515394 -0.041769773
0002e0 a2 4b 4a 3c 7c 98 f9 3b c4 86 6b 3d 92 9b de 3c
       0.012347134 0.0076170545 0.05750157 0.027173791
0002f0 f0 eb 6a bc c6 5f 01 bd 1d 3b e6 bd 07 e9 22 bd
       -0.014338478 -0.031585477 -0.11241744 -0.039773013
000300 43 57 ed be c4 0f 86 be b6 58 77 3d 6f 64 5b bd
       -0.46355638 -0.26183903 0.060387336 -0.053562578
000310 bb 57 9e bd 09 08 2f 3d 25 ef ee bd 77 21 c4 bd
       -0.07731577 0.042732272 -0.11666707 -0.095766954
000320 a2 58 b4 be df 07 52 be 24 cd d8 be 13 c0 90 be
       -0.3522387 -0.20510815 -0.4234401 -0.2827154
000330 0d 2d 93 3e 15 a5 49 3e 5b 98 03 be ee 01 1c bd
       0.2874531 0.1969188 -0.12851088 -0.038087778
000340 b9 a8 ff 3d 3a 3f 8d bd 68 69 33 be e7 16 be 3e
       0.12483353 -0.06896825 -0.17520678 0.37126848
000350 21 f3 ac 3d ca ea 33 bd 50 1f cc be 06 d0 ae 3d
       0.08444811 -0.043925084 -0.3986764 0.08535771
000360 3c 89 44 be 55 87 52 be 7d 8b 29 be 42 2d 2c be
       -0.19192976 -0.20559438 -0.16557117 -0.1681414
000370 24 f4 4e bd b5 52 92 bd 74 8a 91 bd 21 aa 8c bc
       -0.0505258 -0.07144681 -0.07106486 -0.017170968
000380 51 ef f1 3b 65 99 09 bd cd c9 c7 3c 26 36 80 3e
       0.007383265 -0.033593554 0.024388218 0.25041312
000390 e3 e0 13 3d cc bc 5c be ad e2 87 3e bd 5a 67 3e
       0.03610314 -0.21556395 0.26540127 0.22593208
0003a0 a0 ab 35 be 73 14 6d be f0 05 74 bb 4e bb 66 3e
       -0.17741251 -0.23152332 -0.0037234984 0.22532389
0003b0 8b ee f9 bc b4 75 f0 bc ca b7 37 be a9 33 4e bd
       -0.030509254 -0.029353 -0.17941204 -0.050342236
0003c0 c2 7e 40 bd b6 75 f1 bd e6 25 96 bc 79 dd 4b be
       -0.046995886 -0.1179003 -0.018328618 -0.19908704
0003d0 43 b1 7b 3c 2a 32 2d be 56 3c 3f be 25 54 57 be
       0.015362087 -0.16913667 -0.1867536 -0.21028192
0003e0 c9 22 8f 3e 0f 86 90 3e 29 62 a3 3e cd 0d 66 3e
       0.27956226 0.2822728 0.31910828 0.22466202
0003f0 c7 e0 aa be 9c b4 ed 3b d6 7a d2 3d 13 49 c1 be
       -0.33374617 0.0072541963 0.10277335 -0.37751064

decoder.decoder.1.dconv.bias f4 [32]
000000 34 05 d4 3d c1 10 c9 3d 07 28 97 3d d6 68 55 3d
       0.10352555 0.09817649 0.073806815 0.052101932
000010 db 15 35 bc 2f 71 78 3e 7a 9b b8 3d f1 8f 0a 3d
       -0.011052574 0.24261926 0.0901403 0.03382868
000020 98 1f 2c bb 99 bc 6e 3d 42 a0 ff bc 26 e6 04 3d
       -0.0026263949 0.05828533 -0.031204347 0.03244605
000030 a3 f9 cc 3d 25 d9 52 3d 56 2e 9f 3d d3 83 4f 3d
       0.10008552 0.051476616 0.0777251 0.050662827
000040 68 2f fb 3c d5 81 cc 3d a8 ca d2 3d 82 ff 98 3d
       0.030662253 0.09985701 0.1029256 0.07470609
000050 49 65 a1 bd 1d e5 30 3d 49 0b 1f bc 37 d3 8c 3e
       -0.07880647 0.04318725 -0.00970728 0.27504894
000060 ea dc c0 3d 9d bf 2c 3e 81 3b fb bd 34 da e8 3d
       0.09417136 0.1686997 -0.12267209 0.11369744
000070 1d 06 92 3d 7c 70 d2 bd 63 0f 81 3d e6 27 3c 3d
       0.07130072 -0.10275361 0.06301763 0.045936488
