notebooks/saved_model/mnist_model/mnist_cae_1/mnist_cae00030.pth (torch, 541279 bytes, 51 tensors)

encoder.encoder.0.conv.weight f4 [32, 1, 3, 3]
0	0xbe811232	-0.25209194
1	0xbf0bf714	-0.54673886
2	0x3e25abd6	0.16178831
3	0x3c49382b	0.012281458
4	0xbdfd2bba	-0.12361856
5	0xbf0d1ba3	-0.55120295
6	0x3efe81ed	0.497085
7	0x3e28c412	0.16481045
8	0xbed66bc6	-0.418791
9	0xbb1319b8	-0.002244575
10	0x3da7efc3	0.08200028
11	0xbdf650a2	-0.12027098
12	0x3e02bbd7	0.12766968
13	0x3e47f737	0.19527899
14	0x3cab9c85	0.020948658
15	0xbdb7e15d	-0.089785315
16	0xbe6667f9	-0.225006
17	0x3d8152ff	0.063146584
18	0xbce3998a	-0.027783174
19	0x3ea6d560	0.32584667
20	0x3f2c6170	0.6733618
21	0xbecd421c	-0.400895
22	0xbe74ebf2	-0.23918131
23	0x3d1d346a	0.038380064
24	0xbe0e695c	-0.13907379
25	0xbea950f3	-0.33069572
26	0xbd145664	-0.0362152
27	0xbe0505df	-0.12990521
28	0x3f3b7c96	0.7323698
29	0x3eb01758	0.3439281
30	0xbf33a6c5	-0.70176345
31	0xbf8ad9d5	-1.0847727
32	0xbf3cabd4	-0.7369969
33	0x3f016f98	0.50560904
34	0x3ed0e18b	0.40797076
35	0x3e44564e	0.19173548
36	0xbe836050	-0.25659418
37	0xbea5b96f	-0.32368037
38	0xbeac888d	-0.3369793
39	0xbe76f404	-0.24116522
40	0xbe7d0845	-0.24710186
41	0xbed28523	-0.411172
42	0xbed1072a	-0.40825778
43	0xbe4ed5ad	-0.20198698
44	0xbf0f6a6d	-0.5602177
45	0xbe295706	-0.16537103
46	0xbec00703	-0.3750535
47	0x3eb762c8	0.35817552
48	0x3eab4196	0.33448476
49	0xbef2ef02	-0.47447973
50	0x3e893d27	0.26804468
51	0x3eb179d1	0.3466325
52	0x3d29063a	0.041265704
53	0xbedea037	-0.4348161
54	0xbe864f02	-0.26232153
55	0xbea2a5ce	-0.31767124
56	0xbd6fd908	-0.058556587
57	0xbdd8a050	-0.10577452
58	0x3deacf7c	0.11465356
59	0xbdc38e9c	-0.09548685
60	0x3c1c0da0	0.009524733
61	0xbe984f1b	-0.29747853
62	0xbd89e07c	-0.0673227
63	0x3d712195	0.058869917
64	0xbd9a11fa	-0.0752296
65	0xbe8d2202	-0.27565008
66	0xbd69d67e	-0.05708932
67	0x3e2948c4	0.16531664
68	0xbda44b3c	-0.08022162
69	0xbd9d23c6	-0.07672839
70	0xbe25e0e1	-0.16199066
71	0x3e1281fa	0.14307395
72	0x3cd8bc3c	0.026456945
73	0xbf241d95	-0.6410764
74	0xbf06be65	-0.5263427
75	0xbe94791b	-0.28998646
76	0x3e4fd3e0	0.20295668
77	0x3eb2a907	0.34894583
78	0x3ea87a9d	0.32906047
79	0x3e902e51	0.28160337
80	0x3e8b2130	0.27173758
81	0xbe604b7d	-0.21903796
82	0xbe30a930	-0.1725204
83	0x3d7f398d	0.062310744
84	0xbe83df0e	-0.25756115
85	0x3ed1fc01	0.41012576
86	0x3e3dda42	0.1854029
87	0x3de3d4f0	0.11124599
88	0x3e91183d	0.28338805
89	0xbf0292d8	-0.51005316
90	0x3eaa6d97	0.33286735
91	0xbde01433	-0.10941353
92	0x3e4805ac	0.19533414
93	0x3dd008b2	0.101579085
94	0x3ed0d6f4	0.40788996
95	0x3daa5d2f	0.083185546
96	0x3e6f55fa	0.23372641
97	0xbe42aada	-0.19010487
98	0xbe8b343c	-0.2718829
99	0x3eda1c59	0.42599753
100	0xbd2996b8	-0.041403502
101	0xbc1f87f2	-0.009737002
102	0x3dd8c20d	0.10583887
103	0xbf2b60fc	-0.6694486
104	0xbda1ca1e	-0.07899879
105	0xbe19b06f	-0.1500871
106	0xbca838d6	-0.020534914
107	0x3ef8abed	0.4856867
108	0x3d340de9	0.04395858
109	0x3e517b26	0.20457134
110	0xbe4f7306	-0.20258722
111	0xbeab34f6	-0.33438843
112	0x3e57bd63	0.21068339
113	0xbf20ed2c	-0.62861896
114	0xbef053af	-0.46938846
115	0xbf3f9585	-0.74837524
116	0xbf06cac9	-0.52653176
117	0x3eaabe41	0.33348277
118	0x3ee9b023	0.45642194
119	0xbe69ac34	-0.22819597
120	0x3ead3d19	0.33835676
121	0x3eb0ca15	0.34529176
122	0xbf2edd57	-0.6830649
123	0xbe691d49	-0.22765078
124	0xbf228e34	-0.63498235
125	0xbee22ee0	-0.44176388
126	0x3efa36fe	0.4887008
127	0xbcc0d6a5	-0.02353985
128	0xbed1f233	-0.41005096
129	0xbe3d3e7f	-0.18480872
130	0xbd04f4e7	-0.03246012
131	0x3d994143	0.07483151
132	0xbea9af05	-0.33141342
133	0xbcff65cb	-0.031176468
134	0x3ecdfcdb	0.40231976
135	0xbe38a5ef	-0.18032049
136	0xbe39cbaa	-0.18144098
137	0xbe37f2f5	-0.17963775
138	0x3e82a7dc	0.25518692
139	0x3e70adb8	0.23503768
140	0x3ecf2d62	0.40464312
141	0xbe85648a	-0.26053268
142	0xbe9136cd	-0.28362122
143	0xbe8337b5	-0.2562844
144	0x3d0ab6df	0.033865806
145	0x3e4b8983	0.19876675
146	0xbd94a38c	-0.072577566
147	0xbddfec07	-0.109336905
148	0xbbbf101a	-0.005830777
149	0xbeea65e9	-0.45780876
150	0x3df0e07c	0.11761567
151	0x3ef6d22e	0.4820723
152	0xbdcd516d	-0.10025296
153	0x3cedf5e0	0.029047906
154	0xbe390802	-0.18069461
155	0xbea8aaf2	-0.3294292
156	0xbca842e9	-0.020539718
157	0x3d85de2a	0.06536515
158	0xbe124a2a	-0.14286104
159	0xbe15e0df	-0.14636563
160	0x3e4608a3	0.19339232
161	0xbe0d1819	-0.13778724
162	0x3d02dffe	0.031951897
163	0x3c94d2ab	0.01816686
164	0x3d9ef4ec	0.07761559
165	0xbedad287	-0.42738745
166	0xbb9f32fa	-0.004858372
167	0xbd8619c6	-0.06547885
168	0x3e544027	0.20727597
169	0x3d9b8b69	0.0759495
170	0xbc54467b	-0.012956257
171	0xbd990520	-0.07471681
172	0x3dbca5c1	0.092113025
173	0xbe54185f	-0.20712422
174	0xbec68610	-0.38774157
175	0x3de90e88	0.11379725
176	0x3d240c73	0.040050935
177	0x3cdaef7e	0.026725527
178	0x3e85dc75	0.26144758
179	0xbe55f282	-0.2089329
180	0xbe55f019	-0.20892371
181	0xbeb6a069	-0.35669258
182	0x3e555b5a	0.20835629
183	0xb8cd1a4e	-9.7800614e-05
184	0xbe8cf7ad	-0.27532712
185	0x3ea048b7	0.31305477
186	0xbebced65	-0.36899868
187	0xbf075ada	-0.52873003
188	0x3e1eefe1	0.15521194
189	0xbe8ba5d0	-0.27274942
190	0xbecbe55d	-0.39823428
191	0xbda437d1	-0.08018459
192	0x3ecb3837	0.39691326
193	0x3e88de55	0.26732126
194	0x3e18ea05	0.14933021
195	0x3e608e09	0.21929182
196	0xbe1e82e3	-0.15479617
197	0x3e4c8678	0.19973171
198	0x3d118957	0.035531368
199	0x3e822bc2	0.2542401
200	0xbdc2e253	-0.09515824
201	0x3dc91ec4	0.09820321
202	0x3e0676e0	0.13131285
203	0x3d1f6d53	0.03892262
204	0x3e0a6950	0.13516736
205	0x3ee4d470	0.44693327
206	0x3b8cbc24	0.004294889
207	0xbebb98d2	-0.3664003
208	0x3dfe5f50	0.12420523
209	0x3ed7d187	0.42152044
210	0xbecbcbdc	-0.3980397
211	0xbccc7c70	-0.02496168
212	0x3e11e55b	0.14247648
213	0xbe9bea3c	-0.30452144
214	0x3d38577b	0.045005303
215	0x3f12b718	0.5731063
216	0x3d2a5a63	0.041590106
217	0x3cfb85f1	0.030703517
218	0x3eae9f1b	0.34105763
219	0x3e931c92	0.28732735
220	0x3f178add	0.59196264
221	0x3daf7121	0.085664995
222	0xbeb1d416	-0.3473212
223	0xbf2f78d8	-0.6854377
224	0xbed43c1d	-0.41452113
225	0xbdf2746d	-0.11838613
226	0x3df477ac	0.11936888
227	0x3e60ffd6	0.21972594
228	0xbec03a91	-0.37544683
229	0x3e7fbc7b	0.24974243
230	0xbe9f785b	-0.3114651
231	0x3e7bc779	0.24587812
232	0xbd670cfd	-0.05640887
233	0xbe36f382	-0.17866328
234	0x3ba7cec8	0.005121086
235	0xbf020b13	-0.5079815
236	0xbdaaf4ed	-0.08347497
237	0xbedc7537	-0.43058178
238	0xbe6d7636	-0.23189625
239	0x3ea61648	0.32438874
240	0xbe8b8aee	-0.27254432
241	0xbd671f25	-0.056426186
242	0x3f020ae7	0.50797886
243	0xbe8426a4	-0.2581073
244	0xbe9b697a	-0.3035391
245	0x3dc15981	0.094409
246	0xbd975951	-0.07390083
247	0xbe148b4f	-0.14506267
248	0x3e82beea	0.2553628
249	0x3e56946c	0.20955056
250	0xbd911f74	-0.07086077
251	0x3eb72238	0.35768294
252	0x3dd8d19d	0.105868556
253	0xbed6c9c4	-0.4195081
254	0xbb476039	-0.0030422343
255	0x3d239ce1	0.039944533

encoder.encoder.0.conv.bias f4 [32]
0	0x3db56420	0.08856988
1	0x3d2187f9	0.039436314
2	0xbc55187d	-0.013006327
3	0x3d9d1146	0.0766931
4	0x3df30dfa	0.118679
5	0x3daf8c45	0.08571676
6	0xbe89f11e	-0.2694177
7	0x3d2670e5	0.04063501
8	0x3c4a8f1c	0.0123632215
9	0xbd921a31	-0.07133902
10	0x3bce9b26	0.006305116
11	0xbc404351	-0.0117347995
12	0x3e74aaf9	0.23893346
13	0x3d6b94cb	0.057514947
14	0x3b610951	0.0034337828
15	0x3e24940c	0.160721
16	0xbd8c5cd2	-0.068536416
17	0x3e146c95	0.14494546
18	0x3cc8c1b0	0.02450642
19	0x3c5e44dd	0.013566223
20	0x3cf1b36d	0.029504502
21	0xbe1534fa	-0.1457099
22	0xbbe14565	-0.0068747276
23	0xbb4ca636	-0.0031227
24	0xbc5c0ea9	-0.01343123
25	0x3c2b06b5	0.010438611
26	0xbbb79163	-0.0056020482
27	0xbe1a6734	-0.15078431
28	0x3e5222e1	0.20521118
29	0xbe245698	-0.16048658
30	0xbb57e278	-0.0032941382
31	0xbe447105	-0.19183739

encoder.encoder.1.conv.weight f4 [32, 32, 3, 3]
0	0x3e2c00f4	0.16797239
1	0x3e722ab6	0.23649105
2	0x3e3ef0a5	0.18646486
3	0x3c4dbbc0	0.01255697
4	0x3e0ff511	0.14058329
5	0x3d9d86e0	0.07691741
6	0xbde0ce25	-0.10976819
7	0xbd2999b4	-0.04140635
8	0x3e001e07	0.12511455
9	0xbcd498ae	-0.02595171
10	0xbd06a592	-0.032872744
11	0xbd13fcd6	-0.036129795
12	0x3d5cbac0	0.053889036
13	0x3d073e0e	0.033018164
14	0xbcad0a8f	-0.021123199
15	0x3d9d50b6	0.0768141
16	0x3d96479d	0.07337878
17	0x3c3321f9	0.010933393
18	0xbdbf7064	-0.09347609
19	0xbe8772c4	-0.26454747
20	0xbef2d3c5	-0.47427192
21	0xbe0a5cc5	-0.13511951
22	0xbeeb453a	-0.45951253
23	0xbf0cedf6	-0.550506
24	0xbeb631cf	-0.35584876
25	0xbf097031	-0.53686816
26	0xbebffa3d	-0.37495604
27	0xbda079a7	-0.07835703
28	0xbcac700e	-0.021049526
29	0xbe063d68	-0.13109362
30	0xbe7b32c4	-0.24531084
31	0xbde999b8	-0.11406273
32	0xbe203e1a	-0.1564869
33	0xbe45ed36	-0.1932877
34	0xbe29f3f6	-0.1659697
35	0xbd529ec2	-0.051420934
36	0xbde28362	-0.110602155
37	0x3c0625ae	0.0081876945
38	0x3d967b87	0.0734778
39	0xbcb8fe40	-0.022582173
40	0xbc272b4b	-0.010203193
41	0x3d67c189	0.056581054
42	0xbdb9f24d	-0.09079418
43	0x3ccd56e6	0.02506585
44	0x3dae1f64	0.08502081
45	0xbc6da3ed	-0.014504415
46	0x3e00a0df	0.12561367
47	0x3dad91fb	0.08475109
48	0x3b813d45	0.0039440715
49	0x3c80d97b	0.015728703
50	0x3cf079af	0.029354898
51	0xbcff6949	-0.031178134
52	0x3d248636	0.040167056
53	0x3d8a5655	0.06754748
54	0x3b78ea70	0.0037981533
55	0x3d01d577	0.031697717
56	0x3d443f59	0.047911976
57	0x3c4d5904	0.01253343
58	0xbc63a928	-0.01389531
59	0x3c5651bc	0.01308101
60	0x3c0eaefc	0.008708712
61	0xbc0bda24	-0.0085358955
62	0xbcb74e7a	-0.022376288
63	0x3af6d87d	0.0018832829
64	0x3c589e9f	0.013221412
65	0x3d85a4d8	0.06525582
66	0xbcb73f22	-0.022368971
67	0xbb4318aa	-0.002976934
68	0x3cd3b46a	0.025842864
69	0xbc5628b3	-0.013071227
70	0x3d9e2773	0.07722368
71	0x3b8fade9	0.0043847454
72	0xbd269563	-0.04066981
73	0xbd831777	-0.0640096
74	0xbed58c8c	-0.4170879
75	0xbe658163	-0.22412638
76	0xbed15131	-0.40882257
77	0xbf1a7e3c	-0.6034887
78	0xbdee41cd	-0.11633644
79	0xbe93e231	-0.28883508
80	0xbee078b7	-0.43842098
81	0x3dac460a	0.084117964
82	0xbdb703ec	-0.08936295
83	0xbdb3a6a9	-0.08772022
84	0x3d030432	0.031986423
85	0xbce86d08	-0.028372303
86	0xbe80ad28	-0.25132108
87	0x3df94900	0.12172127
88	0x3e233b83	0.1594067
89	0xbe4a927a	-0.19782439
90	0x3dbf4b64	0.093405515
91	0x3d7cb8c3	0.06169964
92	0xbe5c100a	-0.21490493
93	0x3dfc8100	0.12329292
94	0x3d90ad1a	0.070642665
95	0xbdb38f4c	-0.08767566
96	0x3e5959c4	0.21225649
97	0x3dbc3d4a	0.091913775
98	0xbe2bc9ce	-0.16776201
99	0xbd893607	-0.06699758
100	0xbe04530d	-0.12922306
101	0xbd13cb79	-0.03608272
102	0x3cc86b5d	0.024465257
103	0xbd284fab	-0.041091602
104	0xbc8549cd	-0.016270543
105	0x3db2db81	0.08733273
106	0x3cc30c8d	0.023809696
107	0x3c8b922a	0.01703747
108	0xbd795caf	-0.060879406
109	0xbb56b5bf	-0.0032762138
110	0x3db91649	0.09037454
111	0x3d8e0d9e	0.06936191
112	0x3deed39d	0.11661456
113	0x3e05e039	0.13073815
114	0xbc293897	-0.0103284335
115	0x3dd02f19	0.10165233
116	0x3d81f36f	0.063452594
117	0xbdcd87eb	-0.1003569
118	0xbde9b988	-0.114123404
119	0xbd8f4153	-0.069948815
120	0xbdbc562a	-0.09196122
121	0xbbad6878	-0.0052919947
122	0x3d007939	0.031365607
123	0x3df7829b	0.12085458
124	0x3e741ff5	0.23840316
125	0x3e52e475	0.20594962
126	0x3cb71c7b	0.022352448
127	0xbda7bbde	-0.0819013
128	0xbd4d313d	-0.050095785
129	0x3d47b543	0.04875685
130	0x3b5a6428	0.0033323858
131	0xbc5ba7d9	-0.013406717
132	0xbb5033b3	-0.0031769096
133	0x3d09488c	0.03351645
134	0xbccfd2c6	-0.02536906
135	0x3d1c822c	0.03821008
136	0x3df5f5d7	0.12009781
137	0x3de57c71	0.11205376
138	0x3dc29fbb	0.095031224
139	0x3d7d8fa8	0.06190458
140	0x3d804c7e	0.0626459
141	0x3d94af2b	0.07259973
142	0x3da03563	0.07822683
143	0x3e4b07e4	0.19827229
144	0xbcc95b2e	-0.02457961
145	0xbc8484d8	-0.016176626
146	0x3bc13cb0	0.005897127
147	0x3d8635a6	0.065532014
148	0xbd826ded	-0.06368623
149	0x3cb59f53	0.022170698
150	0x3d9b4e38	0.075832784
151	0x3bb2d2e5	0.0054572695
152	0xbb233d5c	-0.00249084
153	0x3dbf95dd	0.09354756
154	0x3ddf0f05	0.108915366
155	0x3d20bc03	0.039241802
156	0x3db9c888	0.090714514
157	0x3d9d066a	0.07667239
158	0x3c8ee862	0.017444793
159	0x3da6943b	0.081337415
160	0x3d236fc5	0.039901514
161	0x3d35e027	0.04440322
162	0xbd72100e	-0.059097342
163	0x3c5d9e80	0.013526559
164	0xbd0990d0	-0.03358537
165	0x3d85d67b	0.065350495
166	0x3d6a24cb	0.057163995
167	0x3c8b6e4f	0.017020373
168	0x3cd10ac0	0.025517821
169	0x3c91f0af	0.017814962
170	0x3c9ce0fd	0.019150252
171	0x3d075eb3	0.033049297
172	0xbc6d9f0e	-0.014503254
173	0x3d7ee001	0.062225346
174	0x3d3c6094	0.04599054
175	0x3ce75edc	0.028243475
176	0x3c37e6a6	0.0112244245
177	0x3d226087	0.039642837
178	0x3d18bb41	0.037287954
179	0x3c2701b5	0.010193278
180	0x3d4fa49f	0.050694104
181	0x3e0e0e93	0.13872747
182	0x3e21fa75	0.15818198
183	0x3def6ccf	0.116906755
184	0x3d927917	0.07152002
185	0x3d39fdd5	0.04540809
186	0x3e6a4261	0.22876884
187	0x3cb33260	0.021874607
188	0x3e1deaf5	0.1542166
189	0xbcc3781e	-0.023860987
190	0xbd8b6480	-0.06806278
191	0xbe47c78b	-0.19509713
192	0xbde599fe	-0.11211012
193	0xbd91bc68	-0.07116014
194	0xbea48d55	-0.32139078
195	0xbe178575	-0.14797004
196	0xbe1ea23f	-0.1549158
197	0xbdc8fee2	-0.0981424
198	0x3e1d97b2	0.15389898
199	0x3d36389c	0.04448758
200	0xbe58e60d	-0.21181507
201	0x3e23fdf7	0.16014849
202	0x3dcc2046	0.09967093
203	0xbe2d602e	-0.16931221
204	0x3df98ab4	0.12184659
205	0x3bd9e84f	0.006650008
206	0xbe93194f	-0.28730246
207	0x3e3bfbfc	0.18357843
208	0x3e71870e	0.23586676
209	0x3e3e748b	0.18599145
210	0x3e973a5b	0.2953671
211	0x3eddbb82	0.4330712
212	0x3f115fd8	0.5678687
213	0x3d364a04	0.04450418
214	0x3e3ce9bd	0.18448539
215	0x3ea9ad5d	0.33140078
216	0xbe8a6326	-0.2702877
217	0xbef5286f	-0.4788241
218	0xbf1017b0	-0.56286144
219	0xbe883a92	-0.26607186
220	0xbee349a3	-0.44392118
221	0xbf236392	-0.6382381
222	0xbda5e919	-0.081011005
223	0xbe433efa	-0.19066992
224	0xbeb94585	-0.36185852
225	0x3c895e3e	0.016768571
226	0xbce76808	-0.028247848
227	0xbd34f7f2	-0.04418177
228	0xbb781ed0	-0.0037860163
229	0x3d17c254	0.03705056
230	0x3d264a63	0.040598284
231	0x3d7578f8	0.059929818
232	0xbd494e19	-0.049146745
233	0xbd7d5a19	-0.061853502
234	0x3dd1a2d2	0.10236134
235	0x3e3b1d68	0.18272936
236	0x3e0c6a0a	0.13712326
237	0x3e80c5ef	0.2515101
238	0x3ebcb43b	0.36856255
239	0x3cfe3365	0.031030366
240	0x3e7d9a81	0.2476597
241	0x3e73c496	0.2380546
242	0xbdd6cbb2	-0.104880705
243	0xbde3e10a	-0.11126907
244	0xbda13aa5	-0.07872514
245	0xbbe3e8ee	-0.0069552576
246	0x3d065c0d	0.03280263
247	0x3da62f61	0.081145056
248	0x3d5e0070	0.054199636
249	0xbd1dcbc2	-0.038524397
250	0x3d9ac835	0.07557718
251	0x3d8d3535	0.06894914
252	0x3b15de85	0.0022868228
253	0x3d4f044c	0.050541207
254	0x3de7579b	0.11296006
255	0x3e29e204	0.16590124

encoder.encoder.1.conv.bias f4 [32]
0	0x3d5981ff	0.05310249
1	0x3d37ad25	0.044842858
2	0xbd281606	-0.04103663
3	0x3c89e4d7	0.016832752
4	0x3da7afd7	0.08187836
5	0x3dfb302d	0.12265048
6	0xbcf78674	-0.03021548
7	0xbc0d40f2	-0.008621441
8	0x3d31737d	0.04332303
9	0x3c4036cf	0.011731817
10	0x3d232e10	0.03983885
11	0x3b3f69c1	0.0029207321
12	0x3dac6e5a	0.084194854
13	0x3c1c6116	0.0095446315
14	0x3d524ae5	0.051340956
15	0x3d3ab486	0.045582317
16	0x39f7820c	0.00047208404
17	0xbc9ac2c9	-0.018891709
18	0xbcf31d93	-0.029677188
19	0xbd6412ec	-0.055682108
20	0x3dd0dfa8	0.10198909
21	0x3b564146	0.0032692715
22	0x3cf99e72	0.03047106
23	0xbdcd4813	-0.10023513
24	0x3cc800bb	0.02441441
25	0x3cb7fc36	0.02245913
26	0x3d9862cf	0.07440721
27	0xbd307974	-0.043084577
28	0x3c191e9d	0.009345678
29	0x3d9c80d0	0.076417565
30	0xbd828b74	-0.06374255
31	0xbc5042c7	-0.012711233

encoder.encoder.2.conv.weight f4 [32, 32, 3, 3]
0	0x3d19c994	0.037545756
1	0xbdfde731	-0.12397612
2	0x3ddf8aa1	0.10915113
3	0xbb3915ae	-0.0028241682
4	0xbd053643	-0.03252245
5	0x3e22ad2d	0.15886374
6	0xbe083495	-0.13301308
7	0xbd54d568	-0.051961333
8	0x3c99fb9c	0.018796735
9	0x3ced2053	0.028946077
10	0xbda1c53c	-0.078989476
11	0x3e43f2af	0.19135545
12	0xbdb15662	-0.08659054
13	0xbe25833c	-0.16163343
14	0xbddbe7a9	-0.10737545
15	0xbe22503c	-0.1585092
16	0xbdb9847a	-0.09058471
17	0x3cbc5283	0.022988563
18	0x3d18c35f	0.037295695
19	0xbd845256	-0.06461017
20	0xbd2674ab	-0.040638607
21	0xb996fa50	-0.00028796727
22	0x3e0be737	0.1366242
23	0x3dc4d454	0.09610811
24	0x3d0459fc	0.03231238
25	0x3e82342c	0.2543043
26	0x3ddfde02	0.109310165
27	0xbc82f483	-0.015985733
28	0xbd6624ae	-0.056187324
29	0x3d60785f	0.054802295
30	0xbc122641	-0.008920253
31	0xbd15f28e	-0.03660827
32	0xbceaf92d	-0.02868327
33	0x3c9e80c3	0.019348508
34	0xbc4d6eaa	-0.012538591
35	0xbb2c15ee	-0.0026258188
36	0x3d7634c7	0.060108926
37	0x3dcfa6e7	0.10139256
38	0x3daa95a3	0.08329322
39	0xbdd5d2b9	-0.10440583
40	0x3ca6d0bc	0.020363204
41	0x3d51dcd8	0.051236004
42	0xbd78ff40	-0.0607903
43	0xbc90b6b4	-0.017665245
44	0x3c8bca46	0.017064225
45	0x3e134424	0.14381462
46	0xbd5bdc5b	-0.053676944
47	0x3da8f55e	0.08249925
48	0x3d5b2d6e	0.053510122
49	0xbe32683e	-0.17422578
50	0xbc322d44	-0.01087505
51	0x3c8e7d22	0.017393652
52	0xbe4335cd	-0.19063492
53	0xbd8e9088	-0.06961161
54	0x3cea8a1c	0.028630309
55	0xbca3288a	-0.019916791
56	0x3d62fbba	0.055415846
57	0x3c042696	0.00806584
58	0x3cac3557	0.021021528
59	0x3d1f8bd0	0.038951695
60	0x3bdca743	0.0067338063
61	0xbd9e9023	-0.07742336
62	0x3b88a6d0	0.004170276
63	0xbd01474b	-0.03156213
64	0xb9264147	-0.00015855311
65	0xbd93764d	-0.072002985
66	0xbc96f154	-0.018425621
67	0xbcb50f52	-0.022102032
68	0xbcc496ae	-0.02399763
69	0xbc68ad72	-0.014201509
70	0xbbf4af33	-0.0074671744
71	0xbd8c7f25	-0.068601884
72	0xbb193093	-0.00233749
73	0xbd262974	-0.040566877
74	0x3cb336a2	0.021876637
75	0x3d361443	0.044452917
76	0xbd0b2529	-0.033970986
77	0x3d283afc	0.041071877
78	0x3cd0b3bc	0.025476329
79	0xbcab0588	-0.020876661
80	0xbd46a9c8	-0.04850176
81	0xbd36730d	-0.044543315
82	0x3ccab3ec	0.024743997
83	0x3a9e1ccc	0.0012063025
84	0xbcc554ba	-0.024088252
85	0xbcdbe46f	-0.026842324
86	0xbd8a7a85	-0.0676165
87	0x3c853cad	0.016264284
88	0xbc47ff3a	-0.012206847
89	0xbca5ac4a	-0.020223755
90	0xbd398920	-0.04529679
91	0x3d9fc01f	0.07800316
92	0x3dae0f09	0.084989615
93	0xbd9dbb57	-0.07701748
94	0x3d4bbe8a	0.04974226
95	0xbd962cdd	-0.07332776
96	0xbd8cf09f	-0.06881832
97	0x3dbf2d41	0.093348034
98	0xbb560168	-0.0032654647
99	0xbe0ea62e	-0.1393058
100	0xbe686755	-0.22695668
101	0xbec3536e	-0.3814959
102	0x3cdef74a	0.027217526
103	0xbe828158	-0.25489306
104	0xbe29d5a0	-0.16585398
105	0xbbf40a91	-0.0074475487
106	0xbee48248	-0.44630647
107	0xbc915ca1	-0.017744364
108	0x3e5d9e1b	0.21642344
109	0x3db3938a	0.08768375
110	0x3e390bb6	0.18070874
111	0xbe276b19	-0.16349448
112	0xbe1ad742	-0.15121177
113	0xbde3fbbc	-0.11131999
114	0xbdd10169	-0.10205347
115	0xbe005f55	-0.12536366
116	0x3d796c0d	0.06089406
117	0x3dc257eb	0.09489425
118	0xbcaebf12	-0.021331344
119	0x3e340b9d	0.17582555
120	0x3cb6dc36	0.022321802
121	0xbd78d54a	-0.060750283
122	0xbc89ec77	-0.016836388
123	0xbd484e61	-0.048902873
124	0x3e0a0073	0.13476734
125	0xbd99b5bc	-0.07505366
126	0xbd456279	-0.048189614
127	0xbe66e27a	-0.22547331
128	0x3d2da870	0.042396963
129	0xbbe1e3d2	-0.0068936134
130	0xbe4fd1c8	-0.20294869
131	0x3e2049bf	0.15653132
132	0xb6fc7956	-7.5243106e-06
133	0xbd74397f	-0.059625145
134	0x3ddf33d5	0.10898558
135	0x3d8384e7	0.064218335
136	0x3e465563	0.1936851
137	0x3da7be9d	0.081906535
138	0xbe80cbdc	-0.25155532
139	0xbe95476f	-0.29156062
140	0x3cdc7930	0.026913255
141	0x3e0232fd	0.12714763
142	0x3c646dc3	0.013942185
143	0x3d7f7baf	0.062373813
144	0xbd443f4d	-0.04791193
145	0xbd899b81	-0.06719113
146	0xbd85724e	-0.065159425
147	0x3d3bc3f2	0.045841165
148	0xbd55294c	-0.052041337
149	0xbc9efe5b	-0.019408396
150	0x3ce1831f	0.027528344
151	0x3d0edfdd	0.03488146
152	0xbd21cbc2	-0.03950096
153	0xbdf220c7	-0.11822658
154	0xbd94987d	-0.07255647
155	0xbd6c51f3	-0.05769534
156	0xbd9528eb	-0.07283195
157	0xbda1d8ce	-0.0790268
158	0xbb68bdda	-0.003551355
159	0x3ceb4ab8	0.028722152
160	0x3c2d9b2f	0.010596081
161	0xbdd85df8	-0.10564798
162	0x3da31513	0.07963004
163	0xbbe03194	-0.0068418477
164	0x3d693a93	0.056940626
165	0x3cf10201	0.0294199
166	0x3e6a5307	0.22883235
167	0x3e50e8b7	0.20401274
168	0xbe283696	-0.16427073
169	0x3e04cd46	0.1296893
170	0x3e8eed28	0.2791531
171	0xbdf4ea38	-0.11958736
172	0x3c3c17da	0.011480296
173	0xbd461abb	-0.048365336
174	0xbdb411f8	-0.0879249
175	0xbde120f4	-0.109926134
176	0xbd40d339	-0.047076438
177	0xbd31aba6	-0.043376587
178	0x3d83514f	0.06411993
179	0x3d1a9950	0.037743866
180	0xba3f485f	-0.0007296856
181	0x3dabc44f	0.08387052
182	0x3dbf4cd3	0.09340825
183	0xbde76527	-0.1129859
184	0xbd3a6c4d	-0.04551344
185	0x3e1ffa0f	0.15622734
186	0xbdb092a9	-0.08621723
187	0x3dfb60cb	0.12274321
188	0x3da06a91	0.07832826
189	0xbcfb3f1e	-0.030669745
190	0xbd73356d	-0.059377123
191	0x3d11abf9	0.035564397
192	0x3d1c023d	0.038088072
193	0xbd5ab3e2	-0.053394206
194	0x3ce290ad	0.027656877
195	0xbd0aa687	-0.03385022
196	0x3cd83295	0.026391307
197	0x3c92361c	0.017848067
198	0x3e2c86bd	0.16848274
199	0x3e6446de	0.22292659
200	0x3e31db2f	0.17368768
201	0x3d7e5d8c	0.062100932
202	0xbd035a3f	-0.032068487
203	0xbd060cb1	-0.032726947
204	0x3e1717e0	0.14755201
205	0xbd8bac9b	-0.06820031
206	0xbd2f8b3a	-0.042857386
207	0xbd54627f	-0.051851746
208	0xbd92b21a	-0.071628764
209	0xbc3cfd0e	-0.011534942
210	0xbd220b10	-0.03956133
211	0xbb895d1d	-0.004192008
212	0xbc2f59d3	-0.010702568
213	0xbd82e629	-0.06391556
214	0xbdf65184	-0.120272666
215	0x3c2eeb9c	0.010676291
216	0xbd11d75f	-0.035605785
217	0xbd826b50	-0.063681245
218	0x3d10a4e6	0.03531351
219	0x3ce57b3c	0.028012864
220	0x3c3c4de9	0.011493185
221	0xbc95bf60	-0.018279731
222	0xbda94dca	-0.0826679
223	0xbc05a6e7	-0.008157468
224	0xbb4099ee	-0.0029388624
225	0x3b670d84	0.0035255859
226	0x3cdce2d6	0.026963633
227	0x3e22c1c3	0.15894227
228	0x3c398bf5	0.011324872
229	0x3e7d6987	0.24747287
230	0x3e4d7790	0.2006514
231	0xbd034c79	-0.032055352
232	0x3e84bdf7	0.25926182
233	0x3d0b387a	0.033989407
234	0xbb6dbe6a	-0.0036276826
235	0x3d95f577	0.07322209
236	0x3d878726	0.066175744
237	0xbdae0287	-0.08496576
238	0x3df19cab	0.1179746
239	0x3da34fca	0.07974203
240	0xbc3086d5	-0.010774334
241	0x3d9d5b2c	0.07683405
242	0x3e22a751	0.15884139
243	0x3cee99f1	0.02912614
244	0xbc5d2a0f	-0.013498797
245	0xbe797ca7	-0.24363957
246	0xbdaa04a6	-0.08301668
247	0xbee51091	-0.44739202
248	0x3b0f3292	0.002185021
249	0xbe672ce5	-0.2257572
250	0x3dad6d3e	0.08468102
251	0xbdbb4b22	-0.0914519
252	0x3d638d16	0.055554472
253	0xbc747fdd	-0.014923063
254	0x3e014167	0.12622605
255	0xbe44163b	-0.19149105

encoder.encoder.2.conv.bias f4 [32]
0	0xbe0ead52	-0.13933304
1	0x3cfb800f	0.030700712
2	0xbe187b60	-0.14890814
3	0xbd70d300	-0.058794975
4	0xbd306a3e	-0.04307007
5	0x3d5dedf6	0.054182015
6	0xbd708b23	-0.05872644
7	0x3d0febb3	0.03513689
8	0xbd9c7bcd	-0.076408006
9	0x3e5e154c	0.21687812
10	0xb9ed98fe	-0.0004531815
11	0xbe92a005	-0.2863771
12	0x3d56ca0c	0.05243878
13	0x3d14b0b1	0.03630132
14	0xbe7fa23d	-0.24964233
15	0x3c71b341	0.01475221
16	0x3c9a5749	0.018840449
17	0x3d3ce5ed	0.04611771
18	0xbb30d396	-0.0026981584
19	0xbdcd4c82	-0.10024358
20	0xbe632e84	-0.22185713
21	0xba9b72c1	-0.0011859761
22	0xbd7fde24	-0.06246771
23	0x3df4d794	0.11955181
24	0x3d314779	0.043281052
25	0xbe1af09b	-0.15130846
26	0xbc4b7af7	-0.012419454
27	0xbded9502	-0.116006866
28	0x3dbe6ccf	0.09298097
29	0x3c2a5d98	0.010398291
30	0x3d4ef643	0.050527822
31	0x3dde29cd	0.108478166

encoder.encoder.3.conv.weight f4 [10, 32, 3, 3]
0	0xbce6745a	-0.028131653
1	0x3e0b252f	0.13588403
2	0xbd911e77	-0.07085889
3	0x3da4b1f1	0.08041752
4	0xbdf9d433	-0.12198677
5	0xbe041a48	-0.1290065
6	0xbdc38263	-0.09546354
7	0xbdb2bc50	-0.08727324
8	0xbd7e9f7a	-0.062163807
9	0x3d19eb3d	0.037577856
10	0x3ca34a72	0.01993296
11	0x3cdf99ca	0.027295012
12	0x3d871a5e	0.06596826
13	0xbd00bba8	-0.031428963
14	0x3d86ec4b	0.06588038
15	0xbd349c9e	-0.044094674
16	0x3caa6c3d	0.020803565
17	0xbb0c01e4	-0.0021363432
18	0xbde75b00	-0.11296654
19	0x3a1091f4	0.0005514913
20	0xbe7d8d07	-0.24760829
21	0xbc52b1ef	-0.0128598055
22	0xbe0fc162	-0.14038613
23	0xbd0b57e5	-0.03401937
24	0x3dee1280	0.11624622
25	0xbcc88ea2	-0.024482075
26	0xbdaad0a0	-0.08340573
27	0x3cfe1129	0.031014042
28	0xbd04c5c1	-0.032415155
29	0xbd2c4afc	-0.0420637
30	0x3c3d9cec	0.011573058
31	0xbda73250	-0.08163893
32	0xbcc4d1da	-0.024025846
33	0xbbd45d35	-0.0064808377
34	0xbcae4860	-0.021274745
35	0xbb60c0e7	-0.0034294666
36	0x3be6a7f8	0.0070390664
37	0x3daf8543	0.085703395
38	0x3d923384	0.07138732
39	0x3bee1e7e	0.0072668185
40	0xbd68fa44	-0.056879297
41	0xbca78f8c	-0.02045419
42	0x3cd69b7d	0.02619719
43	0x3be097ad	0.0068540187
44	0x3d845fe5	0.06463603
45	0x3bc85679	0.006113824
46	0x3d5f3338	0.054492205
47	0x3c3bbd03	0.011458638
48	0xbd906f8b	-0.07052525
49	0xbc333ae9	-0.010939338
50	0xbceedab5	-0.029157022
51	0xbd529928	-0.051415592
52	0x3c81e35b	0.015855482
53	0x3deac95a	0.11464186
54	0x3d117f73	0.035521936
55	0x3c7043d4	0.014664609
56	0x3c93b602	0.018031124
57	0x3c21a26c	0.009865385
58	0x3d6477db	0.055778366
59	0xbc6d17fd	-0.014471051
60	0xbd38d790	-0.04512745
61	0x3d5267df	0.05136859
62	0x3ae0ac80	0.0017141253
63	0xbd8c1436	-0.068397924
64	0xbe85f3e5	-0.2616264
65	0x3e3ddc57	0.18541084
66	0x3d182a71	0.03714985
67	0xbe2d68c9	-0.16934504
68	0xbd8362f5	-0.06415359
69	0xbcbfce0c	-0.02341368
70	0x3e9e3bb8	0.30904937
71	0xbd9a9657	-0.07548206
72	0x3db6056f	0.08887755
73	0xbd3661e5	-0.044526953
74	0x3e0b1034	0.135804
75	0xbc3b10f6	-0.011417618
76	0xbc71c2f2	-0.014755951
77	0xbddbcfd4	-0.107329994
78	0x3c249cd5	0.010047157
79	0x3e30b3d2	0.17256096
80	0x3e4723c4	0.19447237
81	0x3b969b5c	0.004596157
82	0x3ce22c7a	0.027609099
83	0x3c5cbe5a	0.013473118
84	0xbb8c54b4	-0.0042825583
85	0x3dd93b4f	0.10607015
86	0x3e2af88d	0.16696377
87	0x3b9370b8	0.004499521
88	0x3c476a19	0.012171292
89	0xbd2dc5b7	-0.042424884
90	0xbd757acf	-0.059931573
91	0x3d6b3926	0.057427548
92	0x3e450948	0.19241822
93	0x3e451e6f	0.1924989
94	0x3e142e50	0.14470792
95	0xbd306d6d	-0.043073107
96	0x3e3b0539	0.18263711
97	0xbbfa6082	-0.007640899
98	0xbe894f9a	-0.26818544
99	0xbcc12a7f	-0.023579834
100	0x3e138dfd	0.14409633
101	0x3b8780fd	0.0041352496
102	0xbda206e6	-0.07911472
103	0xbdad825b	-0.08472129
104	0x3ba98539	0.005173352
105	0x3dba7e16	0.0910608
106	0x3dfb2521	0.12262941
107	0x3db41584	0.08793166
108	0x3c8eb97b	0.017422428
109	0x3dd3d071	0.103424914
110	0x3e125370	0.14289641
111	0xbd05b2c4	-0.032641187
112	0x3c74de90	0.014945641
113	0x3d79179f	0.060813542
114	0xbd935991	-0.07194818
115	0x3c042fd3	0.008068043
116	0x3ccfc65d	0.025363142
117	0x3d476ad8	0.04868588
118	0xbc8efab0	-0.017453521
119	0xbcc6af3a	-0.024253476
120	0x3d0c3128	0.034226567
121	0x3c52f362	0.01287541
122	0xbc016ddd	-0.007899729
123	0x3d7f62ea	0.06235019
124	0x3d1da89d	0.03849088
125	0x3afd3e9e	0.001932103
126	0xbe13a163	-0.14417033
127	0xbe60b250	-0.21943021
128	0x3dd85bbe	0.105643734
129	0xbdbf4020	-0.09338403
130	0xbdf2cb6b	-0.11855205
131	0x3e4ab511	0.19795634
132	0xbc0a28ab	-0.008432548
133	0x3edb0694	0.42778456
134	0xbdd3e247	-0.10345893
135	0x3b8f3d38	0.0043713115
136	0xbd2d7061	-0.0423435
137	0x3d58198c	0.05275874
138	0x39f4124c	0.0004655294
139	0x3d30aa4a	0.04313115
140	0x3d946623	0.072460435
141	0xbc5ba8c5	-0.013406937
142	0x3c22be7a	0.009933108
143	0x3c66791e	0.0140669625
144	0x3cd64647	0.026156558
145	0xbd9fc302	-0.07800867
146	0x3d322e63	0.04350127
147	0x3db69e61	0.08916927
148	0xbddd583d	-0.10807846
149	0xbc922353	-0.01783911
150	0x3db69c51	0.08916534
151	0xbe345773	-0.17611484
152	0x3db4135e	0.087927565
153	0xbd639227	-0.055559304
154	0x3d3fe9a0	0.04685366
155	0x3cf89bf1	0.030347796
156	0xbdfb89fa	-0.12282176
157	0x3e53273b	0.20620434
158	0xbda4aae2	-0.08040406
159	0x3e56665d	0.20937486
160	0x3c1bc952	0.009508448
161	0x3e7fbc27	0.24974118
162	0x3d2d7d43	0.042355787
163	0x3cb97267	0.02263756
164	0x3db67a8a	0.08910091
165	0x3d4f3ece	0.050597005
166	0xbe0122d6	-0.12610945
167	0xbe0adf95	-0.13561852
168	0x3e399889	0.18124594
169	0x3df5b034	0.11996499
170	0xbe2f72da	-0.17133656
171	0x3ce4a463	0.027910417
172	0xbcd09c07	-0.025465025
173	0x3c517dc4	0.0127863325
174	0xbd255755	-0.04036649
175	0xbd325b35	-0.043544013
176	0xbc73d732	-0.0148828495
177	0xbda2a263	-0.07941129
178	0x3d1c7f2c	0.038207218
179	0x396c3d35	0.00022529515
180	0xbe4d3a68	-0.20041811
181	0xbebf73dd	-0.37393084
182	0x3ea24ea1	0.31700614
183	0xbdd30207	-0.10303121
184	0x3dcd3bfc	0.10021207
185	0xbd8be475	-0.06830684
186	0xbcf47ed7	-0.029845638
187	0x3e6e45b1	0.23268773
188	0xbec62ea4	-0.3870746
189	0x3b80bddd	0.0039288835
190	0x3d3e12c8	0.04640463
191	0x3cb07f02	0.021544937
192	0x3d17ca6d	0.037058283
193	0x3d67d7a8	0.05660215
194	0x3d5776b7	0.05260345
195	0x3da0b4b2	0.07846965
196	0x3d8601ae	0.06543289
197	0xbd342f13	-0.043990206
198	0xbd968c95	-0.07351033
199	0xbcf2bec0	-0.029631972
200	0xbd1d1e6a	-0.038359083
201	0x3c2343c8	0.009964891
202	0xbd03e521	-0.032200936
203	0xbc9bb360	-0.019006431
204	0x3d786637	0.060644355
205	0x3d215e2f	0.03939646
206	0xbcedd778	-0.029033408
207	0xbd303155	-0.043015797
208	0xbd0f5116	-0.03498944
209	0x3d726f0f	0.059187945
210	0xbe1667b0	-0.14687991
211	0x3c5a32f0	0.0133178085
212	0x3cfa18cb	0.0305294
213	0xbc602872	-0.013681518
214	0xbd188baf	-0.037242588
215	0xbe383eb9	-0.17992677
216	0x3db4ac1e	0.08821891
217	0xbdbe0f23	-0.09280231
218	0xbe2fe51a	-0.17177239
219	0xbe4ecac4	-0.20194536
220	0xbd1aac8a	-0.037762202
221	0xbe630a4b	-0.22171895
222	0x3e1df436	0.1542519
223	0x3d24fcd5	0.040280182
224	0x3dc0f074	0.09420863
225	0x3d088ad2	0.033335514
226	0x3c90e9dd	0.01768964
227	0xbda8c42b	-0.08240541
228	0xbd5eb014	-0.05436714
229	0x3cb8f83c	0.022579305
230	0x3d4ab971	0.049493257
231	0xbe0cb4c0	-0.13740826
232	0x3d9812d2	0.07425465
233	0x3d2557f7	0.040367093
234	0x3c85ac69	0.016317563
235	0x3d90f3d2	0.07077755
236	0x3d80deed	0.0629252
237	0x3c934fe8	0.017982438
238	0x3cb9c2ad	0.022675836
239	0xbcc40e23	-0.023932522
240	0xbd05e8ea	-0.032692827
241	0x3d1507da	0.03638444
242	0x3d6c3dcd	0.057676125
243	0x3d7531c7	0.059861924
244	0xbc16b0cb	-0.009197424
245	0x3cdbcd3d	0.026831264
246	0xbc660e14	-0.014041442
247	0x3d6b5563	0.057454478
248	0xbd8a3293	-0.067479275
249	0x3ce8937a	0.028390635
250	0xbccc3a62	-0.024930183
251	0x3e472a00	0.19449615
252	0xbccae818	-0.024768874
253	0x3da84b28	0.0821746
254	0xbdad4b05	-0.084615745
255	0xbdc098bc	-0.09404132

encoder.encoder.3.conv.bias f4 [10]
0	0x3e1b8d54	0.15190631
1	0x3e1c814a	0.15283695
2	0x3e3938c6	0.18088064
3	0x3e2a5f65	0.16637953
4	0x3e0c985a	0.13729993
5	0x3e177ae1	0.14792968
6	0x3e183524	0.14864022
7	0x3e378e83	0.17925458
8	0x3dcb84c7	0.09937435
9	0x3dc36ce2	0.09542252

decoder.decoder.0.dconv.weight f4 [10, 32, 3, 3]
0	0x3e024a53	0.12723665
1	0xbe45089f	-0.1924157
2	0xbe7893df	-0.24275158
3	0xbda41bb4	-0.080130965
4	0xbe42abbb	-0.19010822
5	0x3eafc4aa	0.3432973
6	0x3dd5cbc5	0.104392566
7	0xbedaad6d	-0.42710438
8	0x3eec0939	0.46100786
9	0x3d8de961	0.06929279
10	0xbd30ae2f	-0.043134864
11	0x3e55c214	0.20874816
12	0xbe2dd3d9	-0.16975345
13	0xbe235e39	-0.15953912
14	0xbe959d07	-0.29221365
15	0x3dd768fb	0.1051807
16	0x3ef2fe76	0.47459763
17	0xbe424bcc	-0.18974227
18	0xbe826fb9	-0.25475863
19	0xbd7c79cb	-0.06163959
20	0x3db73538	0.089456975
21	0xbe152d09	-0.14567961
22	0x3dd66603	0.10468676
23	0x3edf8b06	0.43660754
24	0x3c05d5d4	0.008168656
25	0xbe1e8d7a	-0.15483657
26	0xbdcc5a3a	-0.09978147
27	0x3d8ffa56	0.0703017
28	0x3985aa3c	0.0002549457
29	0x3e133f5a	0.14379635
30	0xbe56f026	-0.20990047
31	0x3d9fabb1	0.077964194
32	0x3e33d5bb	0.17562
33	0xbd922d8f	-0.07137596
34	0x3d7a617d	0.06112813
35	0xbdd174d5	-0.10227362
36	0x3c04d439	0.008107238
37	0x3c6ac2c5	0.014328663
38	0xbd70e438	-0.058811396
39	0x3b9e851d	0.0048376457
40	0x3e50a484	0.20375258
41	0x3d93ce9f	0.07217144
42	0x3e9175c4	0.2841016
43	0xbdcb4adc	-0.09926388
44	0x3eb56318	0.35427165
45	0xbda805da	-0.08204241
46	0xbdfbce40	-0.122951984
47	0xbea623b3	-0.3244911
48	0x3e7d5c22	0.24742177
49	0x3db713b8	0.08939308
50	0xbe836bc7	-0.25668165
51	0xbe78bdc6	-0.24291143
52	0x3e2ff80f	0.1718447
53	0x3e83d896	0.2575118
54	0x3e2d9015	0.16949494
55	0x3da037e6	0.07823162
56	0xbd5e2635	-0.054235656
57	0xbe66238f	-0.22474502
58	0xbd569dab	-0.052396458
59	0x3e76b6d8	0.24093187
60	0xbdbe1bac	-0.09282622
61	0x3e55b592	0.20870045
62	0xbdd74b8e	-0.10512458
63	0xbdb04ab7	-0.08608001
64	0xbde28e1b	-0.11062261
65	0x3c010616	0.007874986
66	0x3d33e4d6	0.043919407
67	0xbdac0f2a	-0.0840133
68	0x3dd5171d	0.10404799
69	0xbdc873c7	-0.09787708
70	0xbe7d6490	-0.24745393
71	0x3d29a09a	0.041412927
72	0x3b29a55e	0.002588592
73	0x3c4d8d9f	0.012545972
74	0xbd365337	-0.044512954
75	0x3d741d4a	0.059598245
76	0xbd190a29	-0.037363205
77	0xbde13e08	-0.1099816
78	0xbe7481e1	-0.2387767
79	0xbd9212ff	-0.071325295
80	0xbcb5d234	-0.02219496
81	0x3d2a5084	0.041580692
82	0x3cd81f9e	0.026382264
83	0x3da629f6	0.08113472
84	0xbd9d1b0c	-0.076711744
85	0x3de814d5	0.113320984
86	0x3e911904	0.28339398
87	0x3e0714e6	0.13191566
88	0xbe0e70ae	-0.13910171
89	0x3e924160	0.28565502
90	0x3cd2faab	0.025754293
91	0x3dd074c3	0.101785205
92	0x3d961ecc	0.07330093
93	0xbe29764c	-0.16549033
94	0xbe83bbb1	-0.25729135
95	0xbe2371be	-0.15961358
96	0xbe6b4be7	-0.22978173
97	0x3dee1e6e	0.11626898
98	0x3f055423	0.5208151
99	0x3e567f81	0.20947076
100	0xbde22305	-0.11041836
101	0x3dded168	0.10879785
102	0x3d7ac7d7	0.06122574
103	0xbdc272be	-0.094945416
104	0xbe884856	-0.26617688
105	0x3da3014c	0.07959232
106	0x3e0a1c2e	0.13487312
107	0xbca946ba	-0.020663608
108	0x3d513257	0.0510734
109	0xbd7b8963	-0.06141032
110	0x3d2b858c	0.041875407
111	0xbe540abd	-0.20707221
112	0xbf54006a	-0.8281313
113	0x3eb7190a	0.3576129
114	0x3d2c1af6	0.0420179
115	0xbd2310a0	-0.039810777
116	0x3ee6e38d	0.45095482
117	0x3d378f9d	0.044814695
118	0xbd02c090	-0.031921923
119	0x3d10438d	0.03522067
120	0x3e839f9b	0.25707707
121	0xbc989908	-0.018627658
122	0xbebc1655	-0.36735788
123	0x3ce52e1a	0.027976085
124	0xbc42f908	-0.011900194
125	0xbc23b9e1	-0.009993047
126	0xbaf04ca6	-0.001833339
127	0x3e38573a	0.18002024
128	0xbd41d54f	-0.047322568
129	0x3dc66147	0.09686523
130	0x3dbf041d	0.093269564
131	0x3e087a23	0.13327841
132	0xbe2dd5b8	-0.16976058
133	0xbea6337e	-0.3246116
134	0xbf16e791	-0.5894709
135	0x3da75b41	0.08171702
136	0x3e5b39b1	0.21408726
137	0x3e085272	0.133127
138	0x3e14665c	0.14492172
139	0xbe7b5da9	-0.24547447
140	0xbdab0d1e	-0.08352111
141	0xbe0b7a2d	-0.13620825
142	0xbde9c166	-0.11413841
143	0xbe3a98fc	-0.18222421
144	0xbca04398	-0.019563481
145	0xbd981261	-0.074253805
146	0x3b61d41e	0.0034458707
147	0xbcb5efc0	-0.022209048
148	0xbe0de51c	-0.1385693
149	0x3e0c7611	0.13716914
150	0x3e8abf8f	0.27099273
151	0xbb2658d0	-0.0025382526
152	0x3d144ce7	0.036206152
153	0xbdbd1897	-0.09233206
154	0xbd8899fb	-0.066699944
155	0x3b961591	0.0045802076
156	0xbb8f1040	-0.004365951
157	0xbda5d627	-0.08097487
158	0x3cd1ddfa	0.025618542
159	0x3c9d5f09	0.019210355
160	0x3c917c16	0.017759364
161	0xbd9ad602	-0.0756035
162	0x3dd17f7e	0.10229395
163	0xbc39f783	-0.011350515
164	0x3da5194f	0.08061468
165	0xbd1024e0	-0.035191417
166	0xbeb5d741	-0.35515788
167	0x3c5afbc6	0.0133656915
168	0xbe91159d	-0.28336802
169	0x3e258c97	0.16166912
170	0x3e1f9286	0.15583238
171	0xbd39f5ad	-0.04540031
172	0xbe3ab3f7	-0.18232714
173	0x3ebef26e	0.37294334
174	0xbc3a93c1	-0.011387766
175	0xbe1aab69	-0.1510445
176	0x3e29787a	0.16549864
177	0xbdcd6a0b	-0.10029992
178	0xbdb3fd28	-0.0878852
179	0x3ea8946e	0.32925743
180	0x3d999986	0.074999854
181	0x3d86287c	0.065506905
182	0xbe92c4d9	-0.28665808
183	0x3da2ce5e	0.07949518
184	0xbee3499c	-0.44392097
185	0x3e63fc8e	0.2226431
186	0x3d91e327	0.07123404
187	0xbe2a72ca	-0.16645351
188	0xbe7d7bbf	-0.24754237
189	0xbe23ae27	-0.15984403
190	0xbe0db7bc	-0.1383962
191	0xbe16278a	-0.1466352
192	0xbe0e5647	-0.139001
193	0xbd5eaffe	-0.054367058
194	0x3e122c8b	0.14274804
195	0xbd1fb80c	-0.03899388
196	0x3e40914a	0.18805423
197	0x3e7bbd7c	0.24584001
198	0xbd50a8a3	-0.050942075
199	0x3a4f41a0	0.0007906202
200	0x3d058d83	0.03260566
201	0x3dad8a5f	0.08473658
202	0xbe858f5f	-0.26085946
203	0x3e743bea	0.2385098
204	0x3e781e99	0.24230422
205	0xbe6c4067	-0.23071443
206	0x3e877b73	0.26461372
207	0xbd958fcb	-0.07302817
208	0xbf1749e9	-0.5909715
209	0x3e33a6b1	0.17544056
210	0xbd8484c5	-0.06470636
211	0xbd71c022	-0.059021123
212	0x3eb643a6	0.35598487
213	0xbc790fa3	-0.015201482
214	0xbd2fd863	-0.04293097
215	0x3e73e647	0.23818313
216	0x3e97d8d0	0.29657602
217	0x3e997149	0.29969242
218	0x3d43661d	0.047704805
219	0x3d990622	0.07471873
220	0xbd499800	-0.049217224
221	0x3d9be2dc	0.07611629
222	0x3e41e7dd	0.18936105
223	0x3e857ecc	0.260733
224	0x3ebb52e7	0.36586687
225	0xbd36ec80	-0.044659138
226	0x3cd0a903	0.025471216
227	0x3f008754	0.50206494
228	0x3e792bcd	0.24333115
229	0xbebf30ef	-0.3734202
230	0xbea4e9ae	-0.32209533
231	0x3eaf67b4	0.34258807
232	0xbc8a16fa	-0.01685666
233	0x3dd7657a	0.10517402
234	0x3d52fe6a	0.05151216
235	0xbd00017e	-0.031251423
236	0x3d1227fc	0.035682663
237	0xbd642b09	-0.055705104
238	0xbefd5226	-0.49476737
239	0x3e45fbf2	0.19334391
240	0xbb9b7e7f	-0.004745304
241	0x3dddff7b	0.10839745
242	0x3e9268ef	0.28595683
243	0xbd705943	-0.058678877
244	0x3e00edbb	0.12590687
245	0xbe285ff4	-0.16442853
246	0xbc6f9bf8	-0.014624588
247	0xbd0224a8	-0.03177324
248	0x3dd90c0f	0.10598003
249	0x3bb6294d	0.0055591227
250	0x3d2bbe61	0.041929606
251	0x3d70332d	0.058642555
252	0xbd3ba8ec	-0.045815393
253	0x3e39f472	0.18159655
254	0xbccc977a	-0.024974573
255	0x3cbd7901	0.023128988

decoder.decoder.0.dconv.bias f4 [32]
0	0x3ca2537f	0.019815205
1	0x3eac3c57	0.33639786
2	0x3e3fff7c	0.18749803
3	0x3cd4e791	0.025989326
4	0xbe02129b	-0.1270241
5	0x3e0e4001	0.13891603
6	0xbdbd9ae8	-0.09258062
7	0xbd45d3cb	-0.048297685
8	0xbcd33b54	-0.025785126
9	0x3dbe93d5	0.093055405
10	0x3e990675	0.2988774
11	0x3e6fdf8f	0.23425125
12	0xbe2a1fc0	-0.16613674
13	0xbeadbaf6	-0.33931702
14	0x3dca09d2	0.09865154
15	0x3d8c5ab5	0.068532385
16	0xba90a02c	-0.0011034063
17	0xbf158023	-0.58398646
18	0x3eae5fba	0.3405741
19	0x3de1fbab	0.1103433
20	0x3e260169	0.16211475
21	0xbdec052e	-0.115244254
22	0x3ccea034	0.025222875
23	0xbd187b1c	-0.03722678
24	0xbe06aa9a	-0.13151017
25	0x3dd25f21	0.10272051
26	0xbe1f2a08	-0.15543377
27	0xbe386642	-0.18007758
28	0xbc35f6ec	-0.011106234
29	0x3d01e23a	0.031709887
30	0x3ad768b0	0.0016434398
31	0x3e913c89	0.28366497

decoder.decoder.1.dconv.weight f4 [32, 32, 3, 3]
0	0xbe50971f	-0.20370148
1	0x3e0c6fbf	0.13714503
2	0x3e07e3ed	0.1327054
3	0xbebfa3b4	-0.37429583
4	0xbe8c4f98	-0.27404475
5	0x3e697f0f	0.22802375
6	0x3df5d29b	0.120030604
7	0x3ed8ccfb	0.42343888
8	0x3e8251ff	0.25453183
9	0xbdebbb92	-0.115103856
10	0xbde12633	-0.10993614
11	0xbe01c738	-0.12673652
12	0xbe8b6383	-0.2722436
13	0xbed4c7c0	-0.41558647
14	0xbf05d237	-0.5227389
15	0x3e27127c	0.16315645
16	0xbe3e0459	-0.18556346
17	0x3e9ec01f	0.31005952
18	0xbe6e922c	-0.23297948
19	0xbde609a0	-0.112323046
20	0xbd3c7297	-0.04600772
21	0x3e16bb8a	0.14719978
22	0xbec2e78f	-0.3806729
23	0xbc901a4d	-0.017590666
24	0x3ee475fb	0.44621262
25	0x3e0c883b	0.13723843
26	0xbd6761fa	-0.056489922
27	0x3e57987e	0.21054265
28	0xbeb2cd36	-0.3492219
29	0xbe19666c	-0.14980477
30	0x3ea0c631	0.31401208
31	0xbeda2ce3	-0.4261237
32	0xbe0553c7	-0.1302024
33	0x3b498ec2	0.0030755256
34	0xbe57b1bf	-0.21063899
35	0xbd1682cd	-0.036745835
36	0xbe877c0a	-0.26461822
37	0xbda60f10	-0.08108342
38	0x3d8bfc38	0.06835216
39	0xbe1576d7	-0.14596115
40	0xbeda288d	-0.42609063
41	0xbe5819f5	-0.21103652
42	0xbe9a0795	-0.3008391
43	0x3ebcb172	0.3685413
44	0x3f21f1c4	0.6325953
45	0x3ea0e4b2	0.3142448
46	0xbe462560	-0.19350195
47	0xbdc3762d	-0.095440246
48	0xbee271eb	-0.44227538
49	0xbe874f35	-0.26427618
50	0xbd1d226c	-0.038362905
51	0x3df7e85a	0.121048644
52	0x3e3656eb	0.17806594
53	0xbeb53637	-0.35392925
54	0xbde11cd8	-0.1099183
55	0xbf08f916	-0.53505075
56	0xbdb310da	-0.087434486
57	0xbeb99507	-0.3624651
58	0xbdb91b49	-0.09038407
59	0xbd839ed5	-0.06426779
60	0x3d7ba7f1	0.06143946
61	0x3e81d5cb	0.25358424
62	0x3e5e829e	0.21729514
63	0xbe816b21	-0.25277045
64	0xbe1ca804	-0.15298468
65	0x3dae3f5e	0.0850818
66	0xbe26f239	-0.16303338
67	0xbe6cd3fd	-0.23127742
68	0xbde457ff	-0.111495964
69	0xbe1c722c	-0.15277928
70	0xbe57e58b	-0.21083657
71	0x3b30e378	0.002699105
72	0x3d5db2c5	0.054125566
73	0xbeaec8aa	-0.3413747
74	0xbe8f9ab2	-0.2804771
75	0x3e621530	0.22078395
76	0xbe58d47f	-0.21174811
77	0xbdc5bed9	-0.09655542
78	0xbdfdf08b	-0.123993956
79	0x3dd3b766	0.10337715
80	0x3e3ccc1f	0.18437241
81	0x3e8d22ea	0.275657
82	0x3d86eae3	0.0658777
83	0xbecdf978	-0.40229392
84	0xbec8aede	-0.39195913
85	0x3c17961f	0.0092521
86	0x3f00187f	0.5003738
87	0xbf2af457	-0.66779083
88	0x3db83af3	0.08995619
89	0x3f1c3cfd	0.6103056
90	0xbbe5fd0c	-0.007018691
91	0xbd215047	-0.0393832
92	0xbc872b04	-0.016500004
93	0xbf5ca4a6	-0.86188734
94	0xbcb0bfc9	-0.021575825
95	0xbf4eb51d	-0.80745107
96	0x3ecb6081	0.39722064
97	0xbe1e7b62	-0.15476754
98	0x3dcd0ad3	0.1001183
99	0x3e329103	0.1743813
100	0x3e5fc03e	0.21850678
101	0x3d69a181	0.057038788
102	0xbec24933	-0.37946472
103	0x3c3faae8	0.011698462
104	0x3ec97ed0	0.39354563
105	0x3f076231	0.52884203
106	0xbf4ade2b	-0.7924525
107	0x3ea24034	0.31689608
108	0xbed06f41	-0.4070988
109	0xbf5d8115	-0.8652509
110	0xbe842f5e	-0.25817388
111	0xbe0d62f8	-0.13807285
112	0xbee8972c	-0.45427835
113	0xbda7e820	-0.08198571
114	0xbe54d4b4	-0.20784265
115	0xbeab4939	-0.33454302
116	0xbee64d52	-0.44980866
117	0x3e888675	0.26665083
118	0xbeab704a	-0.33484107
119	0x3e5d458e	0.21608564
120	0xbf0df79b	-0.5545594
121	0xbe9cf557	-0.3065593
122	0xbed69e12	-0.41917473
123	0xbe2be6d1	-0.16787268
124	0x3ec61f21	0.38695624
125	0x3ed07e40	0.4072132
126	0x3bf1b91f	0.0073768045
127	0xbe2e1c42	-0.17002967
128	0xbee1d4c2	-0.44107634
129	0xbf2090af	-0.6272077
130	0xbd8ef499	-0.06980247
131	0x3edb8ab4	0.4287926
132	0xbe1edb38	-0.15513313
133	0x3e30474f	0.17214702
134	0xbe07bea5	-0.13256319
135	0xbe9f72a0	-0.3114214
136	0xbeb0e0d0	-0.34546518
137	0xbc9d542f	-0.01920518
138	0x3d9325de	0.07184957
139	0xbf260054	-0.6484425
140	0x3d81bcb0	0.063348174
141	0xbe0811a7	-0.13287984
142	0x3ed50663	0.41606435
143	0xbe550840	-0.20803928
144	0xbf311391	-0.6917048
145	0xbe842aae	-0.25813812
146	0xbed05092	-0.4068647
147	0xbe7b7dd3	-0.24559717
148	0x3ed0a6c8	0.40752244
149	0xbce276e6	-0.027644586
150	0xbf094780	-0.53624725
151	0x3f413230	0.75467205
152	0x3ea489d0	0.32136393
153	0x3d9b324e	0.07577954
154	0xbe4d9033	-0.20074539
155	0xbeed708a	-0.46374923
156	0xbf6991c9	-0.91238075
157	0xbe26528b	-0.16242425
158	0xbf1077c0	-0.56432724
159	0xbe4b30db	-0.19842856
160	0xbe47ac54	-0.19499332
161	0x3e984819	0.29742506
162	0x3e1426c7	0.14467917
163	0xbe9f3626	-0.31096
164	0xbed04937	-0.40680858
165	0xbf5668ed	-0.83753854
166	0xbeb8dd5f	-0.36106393
167	0x3f1884c2	0.5957757
168	0xbe45dff5	-0.19323714
169	0x3eabc765	0.33550563
170	0xbed17ee6	-0.40917128
171	0xbe38d26e	-0.18049023
172	0xbe168693	-0.14699773
173	0xbefc5c73	-0.49289283
174	0xbe1d3c2d	-0.15354986
175	0x3d487eac	0.04894893
176	0xbe058bc4	-0.13041598
177	0x3c278550	0.010224655
178	0xbe21bec6	-0.1579543
179	0x3eb03a49	0.34419468
180	0xbc65c6d4	-0.014024455
181	0xbd44c6cc	-0.04804115
182	0xbd19a9be	-0.037515394
183	0xbd2b16c8	-0.041769773
184	0x3c4a4ba2	0.012347134
185	0x3bd16244	0.006389888
186	0x3d518009	0.051147494
187	0xbacf8dfd	-0.0015835162
188	0xbc6aebf0	-0.014338478
189	0xbee3165c	-0.44352996
190	0xbe0ef233	-0.13959579
191	0xbea3be0c	-0.31980932
192	0xbf211127	-0.629168
193	0xbe61aaa2	-0.22037748
194	0xbcfd5cb5	-0.030927995
195	0xbe2f1649	-0.17098345
196	0xbf177eec	-0.5917804
197	0x3c9d30e7	0.019188358
198	0x3ea3940f	0.31948897
199	0x3e10eb35	0.14152224
200	0xbe948697	-0.29008934
201	0xbe80ffe1	-0.2519522
202	0xbf04ee93	-0.51926535
203	0xbdb09581	-0.086222656
204	0x3e909edb	0.28246197
205	0x3e41ef97	0.18939053
206	0xbf265b8d	-0.64983445
207	0xbe29fb9b	-0.16599886
208	0x3e3be36b	0.18348472
209	0x3e8ad902	0.2711869
210	0xbe0872fe	-0.13325116
211	0x3e95947c	0.29214847
212	0x3e0a08dd	0.13479944
213	0xbe15bc76	-0.14622673
214	0xbf01c604	-0.5069277
215	0x3e625021	0.22100879
216	0xbe689121	-0.22711612
217	0x3d2d50b4	0.042313293
218	0xbebb5734	-0.36589968
219	0x3e5bfa4a	0.21482196
220	0xbe1201c6	-0.14258489
221	0xbf0dbe2e	-0.55368316
222	0x3e076c0d	0.13224812
223	0xbe2d4f3f	-0.16924761
224	0xbc11465a	-0.008866871
225	0xbd02e3a1	-0.031955365
226	0xbd088d8e	-0.033338122
227	0x3e96c4bb	0.29446968
228	0xbe3adf63	-0.18249278
229	0xbefa07c8	-0.48834062
230	0x3ee1a542	0.44071394
231	0x3e014588	0.1262418
232	0xbe0ea414	-0.13929778
233	0xbe9f6dee	-0.31138557
234	0xbb7405f0	-0.0037234984
235	0x3e1f1f52	0.15539292
236	0xbcf9ee8b	-0.030509254
237	0xbcf075b4	-0.029353
238	0xbe755e87	-0.2396184
239	0xbd4e33a9	-0.050342236
240	0xbd407ec2	-0.046995886
241	0xbf0b85cb	-0.54501027
242	0xbc9625e6	-0.018328618
243	0xbe08cc58	-0.13359201
244	0xbe74b279	-0.23896207
245	0x3ddc781a	0.10765095
246	0xbe6261de	-0.22107646
247	0x3da1429b	0.07874032
248	0x3f4b2991	0.793603
249	0x3eba96d6	0.36443204
250	0x3eae4a1d	0.3404092
251	0x3f27dc60	0.6557064
252	0xbf23df93	-0.6401302
253	0x3d19722e	0.037462406
254	0xbe2b8e81	-0.1675358
255	0xbeca3998	-0.39497066

decoder.decoder.1.dconv.bias f4 [32]
0	0x3d592e04	0.0530224
1	0x3e296907	0.16543971
2	0x3dbc46d4	0.09193197
3	0x3da03efd	0.07824514
4	0xbd7c7ad2	-0.061640568
5	0x3e7c8c17	0.24662815
6	0x3dfb1a42	0.12260868
7	0x3d81a16f	0.06329619
8	0x3d376848	0.044777185
9	0x3dba70fa	0.0910358
10	0x3d75d85f	0.0600208
11	0x3de060f8	0.10955995
12	0x3e1d0e87	0.15337573
13	0x3de5e9c4	0.11226228
14	0x3de58bfc	0.112083405
15	0x3d9b732d	0.075903274
16	0xbd4c75e2	-0.04991711
17	0x3e266c11	0.16252162
18	0x3e11f474	0.14253408
19	0x3dbc810c	0.09204301
20	0xbde00fa0	-0.1094048
21	0xbbeaf671	-0.0071704914
22	0xbd39d6aa	-0.045370735
23	0x3e82a520	0.25516605
24	0x3e29420a	0.16529098
25	0x3e0e3b68	0.13889849
26	0xbdb077c1	-0.08616591
27	0x3df3b5ed	0.11899934
28	0x3dbdc513	0.092661045
29	0xbdf9c3ab	-0.12195524
30	0x3da9508a	0.08267315
31	0x3e00226e	0.12513134
